Data/TNG/Model_snap2.npz (npz, 160290 bytes, 5 tensors)

x f8 [22]
00000000: 0000 0000 0000 2640 3333 3333 3333 2640
00000010: 6666 6666 6666 2640 9999 9999 9999 2640
00000020: cccc cccc cccc 2640 ffff ffff ffff 2640
00000030: 3233 3333 3333 2740 6566 6666 6666 2740
00000040: 9899 9999 9999 2740 cbcc cccc cccc 2740
00000050: feff ffff ffff 2740 3133 3333 3333 2840
00000060: 6466 6666 6666 2840 9799 9999 9999 2840
00000070: cacc cccc cccc 2840 fdff ffff ffff 2840
00000080: 3033 3333 3333 2940 6366 6666 6666 2940
00000090: 9699 9999 9999 2940 c9cc cccc cccc 2940
000000a0: fcff ffff ffff 2940 2f33 3333 3333 2a40
11.0 11.1 11.2 11.299999999999999 11.399999999999999 11.499999999999998 11.599999999999998 11.699999999999998
11.799999999999997 11.899999999999997 11.999999999999996 12.099999999999996 12.199999999999996 12.299999999999995 12.399999999999995 12.499999999999995
12.599999999999994 12.699999999999994 12.799999999999994 12.899999999999993 12.999999999999993 13.099999999999993

intercept f8 [100, 22]
00000000: 390a f44a 5509 e2bf e8f4 0389 a5c4 e6bf
00000010: f4fe 1ac0 9208 eabf 6f4b 2eaf 7f77 ebbf
00000020: 36a6 1d39 b0c7 eabf 277b b584 ec11 e8bf
00000030: ea75 be1a 027b e3bf f07d 245e 4ee7 dabf
00000040: 74f3 39aa 3b72 c9bf d0db eb58 9728 a53f
00000050: b7ea d23f e2f0 d13f c82c 72bc e893 e03f
00000060: 726f 8dca c6c1 e73f cb2d 34a0 5b5c ee3f
00000070: f2df bec7 afce f13f 2a6f da50 944b f43f
00000080: 10cf 15a7 8424 f63f b682 20ac 8dc7 f73f
00000090: 6628 6313 412e f93f 72bc 6322 7e58 fb3f
000000a0: 94b8 03a0 89d8 fc3f 50f4 cc18 ecf0 ff3f
000000b0: 75bc 5af1 4533 e1bf c8e4 f549 1cec e5bf
000000c0: 5c81 086b 294b e9bf e350 2f53 7bf7 eabf
000000d0: fe55 7f6a eb96 eabf fed7 33fb 284f e8bf
000000e0: fa39 89a7 350e e4bf 8c39 6dab fd93 dcbf
000000f0: bcb8 366c 409c cdbf c095 5129 11a3 803f
00000100: f17c ddb4 b638 d03f 0f8e ed22 bb13 e03f
00000110: 57ba 3dcd dc04 e83f 32a4 849b 2405 f03f
00000120: f490 2bec 43f1 f33f 5c38 b1f6 f373 f83f
00000130: 15ac 3648 1ca4 fc3f 998d 48e6 7a9b 0040
00000140: 6afa 4512 6f86 0240 5aff 824a 7118 0440
00000150: deab c61a 8a6c 0440 857a fe35 2ee3 0440
00000160: 4fd3 23ef 84b1 e1bf 0b59 bb75 6685 e6bf
00000170: 3c65 6ff5 5aea e9bf c21b ac56 4273 ebbf
00000180: 49d5 0682 19d5 eabf 1d13 778f 6606 e8bf
00000190: 8115 ca0e 5440 e3bf 9c05 28dc e0d0 d9bf
000001a0: c458 4b99 0553 c5bf 7851 f6aa 77f5 b43f
000001b0: 0d20 27db 175a d43f 2f68 883e d317 e13f
000001c0: 9ec9 0644 b318 e73f 0a2b 12c1 78c9 eb3f
000001d0: e6f8 89c7 53b7 ee3f 9670 ffd7 b98f f03f
000001e0: 6239 5443 b5c8 f13f d16e 8c0c 5bec f23f
000001f0: 7308 d5e4 9d38 f43f 4888 15ac 3af6 f63f
00000200: cc33 1bae e1d5 f83f 404b 46da a84f fc3f
00000210: 87f3 641a 3622 e2bf 5c1f 3ec1 f596 e6bf
00000220: c200 8862 a385 e9bf 518d 9aee fdaf eabf
00000230: 2f86 3f25 30e4 e9bf 8886 c5c0 ef40 e7bf
00000240: 89a6 acb9 73e2 e2bf f681 93b7 1200 dabf
00000250: 88ad d449 0bb1 c7bf 6895 a385 caf1 b03f
00000260: 7c1b 97aa 0ec5 d43f a36f 8b7e 88de e23f
00000270: f613 0b1e b9f9 ea3f b75c 412a c448 f13f
00000280: 7c3c 4a0b ab38 f43f 38c1 ccd7 92ba f63f
00000290: ed51 8049 83dc f73f 3d13 b5e0 a298 f83f
000002a0: 111f a3ea eb3a f83f 302a 313a 3f96 f73f
000002b0: 606c 837f 86b6 f43f fecc 43b5 8dc9 f23f
000002c0: a89a d3ea c2d2 e1bf 6881 9485 77a7 e6bf
000002d0: af31 43b0 d91b eabf 99ec e6b0 46da ebbf
000002e0: d89e eaee 727f ebbf cd6a 7ca9 0b01 e9bf
000002f0: 79bb 3ad0 b26c e4bf 429f ac59 d958 dcbf
00000300: 18f5 d576 b822 cbbf 102a 4539 d551 a33f
00000310: 275b 9268 9ac3 d23f 2174 8487 4fb2 e13f
00000320: a659 9f20 e069 ea3f 98a8 3b20 14a7 f13f
00000330: dce5 747d c682 f53f c8e1 92b2 da64 f93f
00000340: 642d 686f 6a21 fc3f ba93 4fea 2086 fd3f
00000350: 8604 3ed0 036f fd3f d44f 0e14 1192 fa3f
00000360: 0dea a612 80ee f43f 9c13 d99b 0c97 eb3f
00000370: 9668 1ba0 7bac e2bf fbee a6a6 fda4 e7bf
00000380: 5d00 a113 e0ff eabf 9474 e4eb ea6d ecbf
00000390: 9f49 94e8 aea2 ebbf ef37 5500 4dbc e8bf
000003a0: 094d 051e a901 e4bf 347d b3f0 b6cc dbbf
000003b0: 60e7 af86 1576 cbbf 6012 3ed6 58d4 9b3f
000003c0: 0f0a 6cfe 3e33 d23f cfbf 2b36 35fd e13f
000003d0: 36ef 19c4 4e32 eb3f 958f 046e bc45 f23f
000003e0: 0f1d 835a 4b50 f63f 841d 8805 dec7 f93f
000003f0: 08cb fd4a 2dd7 fb3f 1ec0 bc97 68d0 fd3f
00000400: 0cea b9fc 78b4 fe3f 4191 076d e209 0040
00000410: 80e5 3404 a222 0040 5e5b 5840 22a5 ff3f
00000420: a0ac 29a3 a96e e3bf f263 0571 0646 e8bf
00000430: 0d78 0b6c 2078 ebbf 0ebd 7464 e4aa ecbf
00000440: 8f43 1a13 ae8c ebbf cbc9 205d fd30 e8bf
00000450: 9961 ff3a 04de e2bf d8c5 8e96 5417 d8bf
00000460: 3cc5 fa74 1b27 c1bf 88f6 95b4 316d bd3f
00000470: e045 0615 c8b1 d53f d377 8344 8a42 e13f
00000480: 0c2d b088 63da e63f a02f 2b98 e112 ec3f
00000490: c06a 8a7a e1cf ef3f e584 0b6b 7706 f23f
000004a0: ca90 5fef d187 f33f 4ec5 87d3 8df8 f43f
000004b0: 4a89 c10e 58cd f63f 0945 df22 d3d4 f93f
000004c0: d231 7eb8 450e fd3f ec3c 4ef3 cb0c 0240
000004d0: eb4f 7769 6c1e e2bf 37aa 6f3e ffe9 e6bf
000004e0: 5dd7 31ad 6742 eabf 2a8e 5320 97c1 ebbf
000004f0: 1a9f 87d5 cf11 ebbf adfc fd54 c443 e8bf
00000500: bb2a 9060 5965 e3bf f028 9784 5200 dabf
00000510: 1cd1 336f e699 c5bf 1863 f5bb ed03 b63f
00000520: 70ad 889f 80ff d53f a64e 7b3d fc16 e33f
00000530: 0447 7163 0fa1 ea3f 0ad6 abdf d6d3 f03f
00000540: 9e1e 37a4 eacc f33f c649 e269 b9e6 f63f
00000550: 6828 db05 394e f93f aae5 ce63 de98 fb3f
00000560: ead2 3114 aa85 fd3f 4a28 9a37 a45f fe3f
00000570: b375 37d6 19bd fb3f 9c0a f1d8 809a f83f
00000580: a085 710d dfe5 e1bf a5ac eb89 78cc e6bf
00000590: 3915 f57f e841 eabf 8050 0eb9 61e2 ebbf
000005a0: ad6d 0759 c358 ebbf af46 949f 1bb0 e8bf
000005b0: 2545 03ca 3ee3 e3bf 164a f33d be87 dabf
000005c0: ec68 2adb f932 c5bf 60c6 1768 1021 bd3f
000005d0: 55a0 ffaa be65 d93f c2eb ca79 6058 e53f
000005e0: d0a5 45be 4fa1 ec3f f5e0 7059 382a f13f
000005f0: 7e02 53f1 5578 f23f 3aa3 b89f 3b06 f33f
00000600: 94c7 8f9d 339c f23f bb02 5a27 c7dc f23f
00000610: 1298 7174 269b f43f d51a c881 c36c f93f
00000620: e643 8359 cae2 0040 c3ac b943 14b2 0740
00000630: 7a7e 1f38 452d e2bf f788 eaf5 d6d5 e6bf
00000640: c5d4 b2bb 0511 eabf 95fb af22 c48f ebbf
00000650: 0356 795c 8de9 eabf 2d77 44da 3929 e8bf
00000660: b7e8 80e5 f852 e3bf 0e95 a2a0 d793 d9bf
00000670: d091 a8cb ac2d c3bf f019 b158 4076 c03f
00000680: 7ce4 7ca5 6f27 da3f 6cfc 4ca4 8ad5 e53f
00000690: 3672 2ebf 32b5 ed3f d106 9e0c bd08 f23f
000006a0: c519 1a00 1943 f43f 2b10 22aa 3f9a f53f
000006b0: b0f5 1543 f733 f53f c2ee 0fa1 3df3 f33f
000006c0: 7a26 2c56 29dd f13f c7a7 f427 c8c0 ef3f
000006d0: 735b 119f c569 ec3f 1247 faed 88a8 ea3f
000006e0: c0a3 d009 14e3 e1bf 202b 7c6f dede e6bf
000006f0: 98d4 808e 6f77 eabf 9870 dece 0239 ecbf
00000700: 5a47 df73 c4d9 ebbf 577d ee06 884e e9bf
00000710: edf1 16d7 a596 e4bf 6e36 0890 4544 dcbf
00000720: 9cb6 516f 61b1 c9bf 40d5 8f9a 6089 ad3f
00000730: 8c1b dcab 019a d33f f236 786a d42e e13f
00000740: d9da 36f8 88e9 e73f 94c1 2b5d d12d ee3f
00000750: 886c 080e d5bf f13f 4a89 4d4b 19d0 f43f
00000760: c0fc 48f0 2eef f73f f38d d9a5 38a6 fb3f
00000770: 1200 2459 79cd ff3f 0da8 2c18 ec4d 0240
00000780: c29c 188e 42e0 0440 c0c2 d3d3 ecf6 0640
00000790: c59c 78d9 8318 e2bf 701c cab0 e9ff e6bf
000007a0: 097b 8772 1e65 eabf da44 5468 66ee ebbf
000007b0: ea03 dad3 6d3a ebbf b26d d79a fe5c e8bf
000007c0: 5b5e 9802 c468 e3bf f215 56a1 16b1 d9bf
000007d0: 5007 9715 9c0b c5bf 38a6 90d5 8b17 b73f
000007e0: e2fe fced 0758 d53f b273 7009 f6f7 e13f
000007f0: d7b8 949a e7a5 e73f 7c25 2e3b efa0 eb3f
-0.5636393035823125 -0.7115047145922775 -0.8135465385493874 -0.8583372518063309 -0.836876021913844 -0.7521879760714442 -0.6087656519263736 -0.42036780541999885
-0.19879861652216457 0.041325311283734956 0.2803273795395102 0.5180553131662231 0.7424043613532219 0.9487741593342717 1.1129606058657342 1.2684519918756885
1.3839155699506058 1.486219093676636 1.573792529804018 1.7091046660750888 1.8028656244819432 1.9963189095281173 -0.5375089372590894 -0.6850720829526376
-0.7904250231259016 -0.8427101731017753 -0.8309228019740542 -0.7596630960749733 -0.6267345688045787 -0.44653264752278043 -0.23133092197298832 0.00812352568955077
0.25346152937522876 0.5024085695444586 0.7505935677161898 1.0012556147505731 1.2464026666066816 1.5283088337341928 1.790066034397346 2.075918006028314
2.315641539345326 2.511934835551 2.552997788608521 2.610927984074183 -0.5529198332502377 -0.703784208245254 -0.8098578256278084 -0.8578197186296779
-0.8385131396850422 -0.7507813264897752 -0.6016025818686758 -0.40337392329828403 -0.16659612641405463 0.08187053607827532 0.3179988517917998 0.5341583463043714
0.7217651680605746 0.8683437128941887 0.9598788163418959 1.0350893437780875 1.1115009908713422 1.1827040186098439 1.263822454333902 1.4351145479236198
1.5522171784425494 1.7694481397963528 -0.5666761889948341 -0.7059277319212742 -0.7975632595480635 -0.8339833889225848 -0.8091049888136633 -0.7266768231458665
-0.5901430727437439 -0.4062544625030847 -0.1850904570104428 0.06618943941756117 0.3245274225159205 0.5896646949363354 0.8429837786467249 1.0802652025793529
1.2638349953665786 1.4205501966171834 1.491336142648943 1.537264707339275 1.5143851438060134 1.4741813920142128 1.2945618611327276 1.174207408967788
-0.556977709432279 -0.7079427346216507 -0.8158997004152776 -0.8703950362318152 -0.8593077341401694 -0.7813776312135247 -0.638268858621685 -0.4429229140973697
-0.21199708750274548 0.03773371051882546 0.29318866931991966 0.5530164381813202 0.8254242551000075 1.1032906779387641 1.344427576127024 1.5871226287400635
1.7581581451257415 1.8452462342040534 1.8396032461608072 1.6606608184274494 1.3082276085466475 0.8621886295228367 -0.5835550429431062 -0.7388904814647214
-0.8437347777726348 -0.8884176833413613 -0.8636087935031361 -0.7729859358312278 -0.6252027117101601 -0.43436978822679184 -0.21454114033241023 0.027177227093050482
0.2843778118696329 0.5621591623330405 0.8498910741904868 1.1420254037447866 1.39460311275781 1.611295720680432 1.740033429083896 1.863380997394422
1.9190606948965323 2.004826404374541 2.0169105843203283 1.977815867756099 -0.6072586237691162 -0.7585479934160715 -0.8584138975381862 -0.8958608591109696
-0.8609228489968802 -0.7559801882655902 -0.5896016266151946 -0.37642397597218524 -0.13400595867055098 0.11494742068131292 0.33897592595266524 0.5393725717692582
0.7141587896052513 0.8773048374218781 0.9941260712979201 1.1265787297673395 1.2206591940421725 1.3106821310905903 1.4251328064352315 1.6144591676896332
1.8159844595676202 2.256248379540571 -0.566213804233937 -0.7160640925843101 -0.8206060774525487 -0.8673816329359785 -0.845924298334441 -0.7582723293306991
-0.6061217199324668 -0.40626967380798273 -0.16875915937237884 0.08599744643050788 0.3437196309993942 0.5965558243573994 0.8321606580959444 1.0517185914189917
1.2375284590397437 1.4313291679469429 1.581597350001653 1.7248214625127312 1.845132902989628 1.8983499690971422 1.7336672180020798 1.537720534732819
-0.5593104612891473 -0.7124598211061267 -0.8205454348723499 -0.8713844885228497 -0.8545853365753168 -0.7714975468427009 -0.6214899011194218 -0.414535103319538
-0.16561816407631313 0.113785767949389 0.39683500956608003 0.6670381907236946 0.8946913448573302 1.0728076452051571 1.154378836319807 1.1890217055426562
1.1631351618529822 1.178900865285114 1.2878784702857087 1.589053637466056 2.110737513845822 2.9619527140654056 -0.5680261703636937 -0.7136034777688839
-0.8145779291141017 -0.8612995793808859 -0.8410097890979958 -0.7550324690853124 -0.6038784487239103 -0.39964857756633954 -0.14983138984929534 0.12860874491361995
0.4086569896786114 0.6823170861242835 0.9283689245235738 1.1271334164488744 1.2663812641127248 1.3501583715269685 1.3251869793451583 1.2468849460118894
1.1164944997894097 0.9922829418549036 0.8879116160195352 0.8330731056214253 -0.5589695159625236 -0.7147056748811771 -0.8270795615450366 -0.8819593468101798
-0.8703329337242665 -0.7908363471396268 -0.6433896256417576 -0.4416669756472861 -0.20072572646624998 0.05768873106709771 0.30627481253798616 0.5369665221676014
0.7472576950011344 0.9430929965729313 1.1093340442810433 1.300805372382984 1.4958943735253314 1.7280813673504525 1.9876645547919947 2.288047970640952
2.6095019437085236 2.8705689000128984 -0.5654925582392926 -0.7187393620414593 -0.8248436200045443 -0.8728515660933696 -0.8508824479796406 -0.7613518738029852
-0.6065387774169254 -0.4014336181211028 -0.1644168000621513 0.09020303691854614 0.33349798432389666 0.5615186867104198 0.7390020388754931 0.8633953243126338

slopes f8 [100, 22, 7]
00000000: e09a 773f 13ee bc3f 54f1 5064 1bed c93f
00000010: e6d9 aa00 8a23 e53f 78f6 e7f5 435c c2bf
00000020: acb8 36f4 b58b 663f cc53 06d1 fefc 77bf
00000030: 317f 06ac 6c29 813f 258a 2b8b b930 c03f
00000040: bc89 21fa 2e48 c93f 7293 6306 2577 e53f
00000050: 3c48 a8e6 e38d c3bf 6d09 1bd8 4738 693f
00000060: 2067 23b0 de17 90bf 371d 0b27 49c1 813f
00000070: 7e1f bf5b 1561 c13f ccd7 8627 7d07 c93f
00000080: 4af0 42e9 85c7 e53f 3214 6696 11af c4bf
00000090: 804c a969 75c6 6a3f 984d de01 78fc 9ebf
000000a0: 025e 8deb 7163 813f 634b 45e7 a0e7 c13f
000000b0: 34c3 74be 681d c93f 9053 3546 2514 e63f
000000c0: e1fa 47e3 15b4 c5bf e0da 7a5d 8fdf 6a3f
000000d0: 4816 eceb 33a1 a9bf f8c4 bed9 cf1b 7f3f
000000e0: bb83 6887 97ab c13f c0d4 29ee f06d c93f
000000f0: 0114 5ebe e05b e63f 7a23 3301 018a c6bf
00000100: 0034 887c 6e21 693f 2cfa b1cb c029 b3bf
00000110: 36a2 f448 eb1e 783f 0f42 f1e4 78b6 c03f
00000120: 8042 e0a5 83bb c93f 509d 9f06 1c8b e63f
00000130: b3c1 d0ec 5e24 c7bf 8053 ee9f b4a8 653f
00000140: 6a90 004a f89a babf 68b8 f4f7 1ec5 6b3f
00000150: 5aa5 0c84 c32e be3f e421 08f9 22e9 c93f
00000160: 7f9c 6eb7 a592 e63f 22b0 381b 8576 c7bf
00000170: 005e 4692 f17c 603f e3f2 167d 144a c1bf
00000180: c027 b1d4 ccef 333f 3292 6801 a0ef b93f
00000190: 3c97 1824 6ce3 c93f 962e 220e bf5b e63f
000001a0: deed bed8 457f c7bf 00c8 7a67 a85e 513f
000001b0: 1a8a d44a b93f c5bf 0019 1a67 037d 67bf
000001c0: 0c7d c337 22f8 b43f 8cc0 4d2b 37bf c93f
000001d0: b0ef cbca f7cc e53f 23ab e55e 8147 c7bf
000001e0: 00c0 44d8 6cf5 0abf ad3b 7e52 95d6 c8bf
000001f0: 58b0 562a 4b2e 76bf bb3f 8219 1444 af3f
00000200: a01d 1977 edad c93f f782 579b 08f8 e43f
00000210: 74fc 627d c0db c6bf 80b0 4e45 ee50 53bf
00000220: 6810 3ad1 98cf cbbf 6056 cb0b 19c5 7cbf
00000230: 676c 5755 b6bb a43f 4001 6acb 99c6 c93f
00000240: f11f 4fdf dfd1 e33f 54f8 d542 d741 c6bf
00000250: 30ff 2abb d029 60bf a336 12ef fa05 cebf
00000260: c000 3548 deeb 7dbf f6e9 e40b 94c5 943f
00000270: 6a7e 058e 9044 ca3f a3d6 c4d2 5d82 e23f
00000280: 763b 8895 9894 c5bf bc69 9469 f939 61bf
00000290: ac13 d515 8f7c cfbf c0e3 e149 ce40 79bf
000002a0: 0539 8981 0998 573f c805 96cd fe1e cb3f
000002b0: 4c40 9bce 3210 e13f f03f 9fb0 24cf c4bf
000002c0: 6c68 79ab 6202 57bf 172d 9766 0619 d0bf
000002d0: 808c 8b6d 9175 6bbf 9d86 e280 331d 90bf
000002e0: a4fe 1573 4301 cc3f e6f4 10e1 735e df3f
000002f0: 490e f3e3 b9f4 c3bf 009f 6461 a848 223f
00000300: 5968 2a10 3d1c d0bf 00f4 f4d3 3d59 4d3f
00000310: d0b7 ce83 0afd 9dbf 044f 110f 12de cc3f
00000320: 1fea 1fc0 6ebf dc3f 46da c189 e201 c3bf
00000330: e0d4 4609 337d 653f 8ab9 4c6c 019d cfbf
00000340: 5878 8aec 68e4 7f3f 5473 294c ca94 a5bf
00000350: 901e 18c4 a205 cd3f 8624 93d5 98b9 da3f
00000360: 7234 4e61 c605 c2bf 40ee ccfc 272f 773f
00000370: 30b7 c425 1d97 cebf e38c 7bc6 d45c 903f
00000380: e0f8 779c c4a0 aabf d4a9 cc9b afcb cb3f
00000390: 3163 6e73 4a51 d83f 0eb4 a74e 54fc c0bf
000003a0: 40e8 3fd5 bd01 813f a834 b1a8 a111 cdbf
000003b0: d831 5b38 5ecd 973f 5da1 135e 774c afbf
000003c0: 26c7 877f 2adf c83f d17f 631a f709 d63f
000003d0: 9ec3 1fe0 16eb bfbf 90d2 edce c57c 863f
000003e0: 0092 9a15 b214 cbbf e292 6f81 47ed 9d3f
000003f0: b14c 6919 c2cb b1bf 354f f5d6 1bf9 c33f
00000400: 3aaa 1d21 6740 d33f 3a84 db18 31e9 bdbf
00000410: f034 eab7 dbc3 8e3f dc54 b337 bcf0 c8bf
00000420: d6d9 247c b1c0 a33f cc8b adbc 4418 b5bf
00000430: a8c2 e502 6426 b83f b312 3fd0 c40c d03f
00000440: 2ec7 9aa0 7828 bcbf 8434 ea8b 8f48 923f
00000450: 2a93 b3fd c23f c6bf b06b 2989 dfe4 a53f
00000460: 0aab 5712 e4a5 b7bf 6ccf 000f 4388 943f
00000470: 612c cd20 d44d c63f 8dc2 1b68 ba56 babf
00000480: d860 1c95 8a4f 943f b89e 9602 4532 c3bf
00000490: 6614 2a19 e7ac a83f ba7b 756f cd4f bcbf
000004a0: 312f 5e53 3a46 b1bf 27c3 86be 29bd b23f
000004b0: 900b b20b b690 b7bf 9521 17c1 c281 953f
000004c0: f056 0c22 72e3 c0bf 7a80 95f7 d2cc ab3f
000004d0: 795c e52e 625a bc3f 44c5 053e ad7d ca3f
000004e0: 749f 796f dd61 e53f d93e da35 bb35 c2bf
000004f0: 5c51 67a4 f9ac 573f 3881 3bb5 1ff7 7ebf
00000500: 7a93 d3d6 b1c6 783f 0efe f034 9ecc bf3f
00000510: c4db 7384 21dd c93f e1ef b0a3 caba e53f
00000520: 5408 9db5 d663 c3bf 680e 41fb bbc6 593f
00000530: 7452 b53d 8c8e 91bf 124c 7a34 5f26 7a3f
00000540: d54c d71b 5c20 c13f 1052 6aaa e293 c93f
00000550: c6e0 a898 7e0c e63f 49e9 fa79 8c7f c4bf
00000560: 809a d08b 5ca2 5b3f b040 b594 b7e4 9fbf
00000570: 5652 280c d093 793f c8fa 3607 53bc c13f
00000580: f05b 4368 2e96 c93f 1dc1 bc4d 1a52 e63f
00000590: b28d eb7d 6f7f c5bf 40de 72d2 31bb 5b3f
000005a0: d0af 7ce2 30b3 a9bf b67b 4394 71dd 753f
000005b0: b7c2 68c8 d99b c13f a4b5 bf3d e5d3 c93f
000005c0: 62a1 cbf5 508c e63f 85f0 afea 5d51 c6bf
000005d0: 00e9 2030 13f9 573f 2408 998d a4ef b2bf
000005e0: a860 bed9 1426 6d3f 3843 6ad9 12cd c03f
000005f0: e0bd f7f7 891b ca3f 8e54 f8d4 c99d e63f
00000600: 0427 d4b7 5ced c6bf 0087 fef6 fc05 503f
00000610: 44e4 8827 861d babf 60d3 0513 c7f8 4b3f
00000620: 4b26 9f3b c797 be3f f028 80dc 8651 ca3f
00000630: 54e7 7a2f 247e e63f a038 2319 984a c7bf
00000640: 0000 8bd9 8be1 e7be 6377 2bfb e1ea c0bf
00000650: 007a 643d 9a2e 63bf 4f06 a90a ac88 ba3f
00000660: a093 9fb9 1671 ca3f 3d8b accf e718 e63f
00000670: c80b c693 8f65 c7bf 0099 8ac4 b709 5cbf
00000680: cd19 84ea 15d0 c4bf b00c 15cd 9616 77bf
00000690: 8064 0a40 57b8 b53f 4428 1629 dd89 ca3f
000006a0: e049 766b 3063 e53f 9beb 2acd 1f47 c7bf
000006b0: b039 1ccd 7a6f 70bf 0ee6 fef7 ea6a c8bf
000006c0: d8cf d967 72d1 80bf 0251 c314 d56b b03f
000006d0: 340a 65ae a4cb ca3f a8d0 7e4c 5b8c e43f
000006e0: 06e9 4875 23fa c6bf 0931 9759 7443 7cbf
000006f0: ad48 0c0e ec76 cbbf e057 7c48 ef5a 83bf
00000700: efaf 7e5e 2714 a63f 3414 a055 9f23 cb3f
00000710: 495e 7159 d691 e33f e9ac b4b2 4d8b c6bf
00000720: fe63 2c28 9ee1 83bf 5415 2ca4 ead1 cdbf
00000730: 506d a28b 283c 84bf 953b 9801 b695 963f
00000740: 7468 33ef cccf cb3f 6e1d 2774 10a2 e23f
00000750: 5d92 d96a 2603 c6bf 686d f1cd eb06 88bf
00000760: ebf6 a90d 0b85 cfbf 98bf e161 3fb8 82bf
00000770: 2059 1047 9493 543f f487 2d21 30a8 cc3f
00000780: 50b1 7fc4 b4a9 e13f f6b3 da0c 8d62 c5bf
00000790: 5846 eee4 921b 8abf 084d 62bb 234a d0bf
000007a0: deca a73e 7cc3 7fbf 9000 dc30 ae0c 94bf
000007b0: 3a47 0d83 9081 cd3f aab0 b51b 9ace e03f
000007c0: 862b f0b8 9d98 c4bf 3016 944f 6c06 89bf
000007d0: 3ed1 a3c0 2f83 d0bf ff94 cc8b 98ba 7abf
000007e0: d66a 8f9d 5e66 a4bf 02c8 03aa 0247 ce3f
000007f0: 006b b971 22c3 df3f f380 fb8d 6599 c3bf
0.11300773906223638 0.2025484313798055 0.6605882657084379 -0.1434407187188531 0.002752166155651178 -0.005856509568180134 0.008379792213247224 0.12648696227468395
0.19751536572864647 0.6707940220627349 -0.15276764643255258 0.0030785945135402477 -0.015716056347492402 0.008669444564829305 0.13577525119603345 0.19554104261413696
0.6806058460129034 -0.16159267276467087 0.0032684605805939904 -0.030259966959034296 0.00849045753572764 0.13988124172700642 0.19620999621977264 0.6899591799980147
-0.16955827329362363 0.0032804298496914436 -0.050058004902933606 0.00759488288524434 0.13804906951648185 0.1986676371485938 0.6987155645480244 -0.17608654554922137
0.0030676992357769883 -0.07485585186984939 0.005888861734356035 0.13056861094311542 0.2010349807683447 0.7044811372151489 -0.1807974487615077 0.0026439216448558844
-0.10392715269750999 0.0033898930411373936 0.11790105794775255 0.202427264783423 0.705401285424969 -0.18330444173022992 0.0020127027693879196 -0.1350732432164455
0.0003042101931823825 0.10131263765703905 0.20225288164618316 0.6986995006604555 -0.1835715587929902 0.001060165841334726 -0.16600719598598418 -0.0028672281703762126
0.08191121922890349 0.20114793409766596 0.681270500266228 -0.18186967023515263 -5.1419624499948746e-05 -0.1940485623167353 -0.005415242781435202 0.06106627284418616
0.20062034907662696 0.6552775415439943 -0.1785812961806844 -0.0011789633619896656 -0.21727285591271372 -0.0070239046442189534 0.04049463073507625 0.20137331421211435
0.6193694459443561 -0.1738843036982326 -0.0019730641155034853 -0.2345575015391904 -0.0073050196545524915 0.02028495142551808 0.20521742758409128 0.5784138790683823
-0.16859729100584858 -0.002102839597353438 -0.24598873678237732 -0.006165319266181635 0.0014400570709259275 0.21188340223674929 0.5332273516924118 -0.162571512452359
-0.0014043773243402015 -0.2515274049626028 -0.0033519592656020003 -0.01573639368201062 0.21878855819158105 0.49013993243336385 -0.15590594892829504 0.000139494470837713
-0.25172354296376437 0.0008956481832808061 -0.02928558759202088 0.22552705512736548 0.4491841198174899 -0.14849502302577572 0.0026231762696747735 -0.2469789294058951
0.007786187991454772 -0.04215080432616128 0.22673449110901744 0.41757794243728374 -0.14080123664135474 0.005660206032924331 -0.23898662895356315 0.01597912274781955
-0.05200781259553522 0.21715350253482646 0.37996159813478686 -0.13270047989445327 0.008304102964746929 -0.2271005700771742 0.023244354428969632 -0.061130266412706226
0.19431048609799823 0.3443582303716513 -0.12468092891482604 0.010980172517272707 -0.21156908087608883 0.029225461268555082 -0.06951535339730942 0.15603969570167356
0.3008058379552129 -0.11683947426674104 0.015022007513176366 -0.19484665603400841 0.03857950821332039 -0.08240155798334498 0.09433579512347967 0.2507793458610578
-0.10999254151354584 0.01785492221329267 -0.1738208521629983 0.04276178883875248 -0.09237504432500657 0.02005104807922413 0.17425014115937912 -0.1028858665629377
0.01983467612362308 -0.14997160555252775 0.04819414312536523 -0.11059268923916835 -0.06747784171437556 0.0731988992836362 -0.09205186639341734 0.02100281051187521
-0.13194109594831316 0.05429705879464648 0.11075414318962541 0.2069603493542137 0.6681964089629973 -0.14226474885480547 0.0014450490867733068 -0.0075598944274307064
0.006048865017167832 0.1242159728289993 0.2020608803502154 0.6790517041295027 -0.15148433559267238 0.0015732608562907483 -0.017145339266181073 0.006384250540253171
0.13380004271912208 0.19982560463962828 0.6890252095827456 -0.16014247852383282 0.0016866592188848062 -0.03114592404500688 0.006244480786808801 0.13855970241816906
0.19989566889736876 0.6975223081881584 -0.16795152328914537 0.0016925798934560726 -0.05019524349913207 0.00533813826424894 0.1375686863480234 0.20177903666573827
0.704628448552324 -0.1743581195768266 0.001463192690165871 -0.07396915871598303 0.0035581977117083614 0.13125835052462675 0.20396542175102095 0.7067612800189111
-0.17911871887218223 0.0009779901847441486 -0.10201300111010975 0.0008536312143819606 0.11950345235450148 0.20561300055152953 0.7028981139512589 -0.18196393229886088
-1.1387367338300258e-05 -0.13216805233144688 -0.0023415577408194554 0.10364794979343482 0.20657619537010152 0.6905402237065129 -0.1827868911314836 -0.001711301289256506
-0.16260026885011172 -0.005636776987844858 0.08484406770220865 0.20733227258853237 0.6683580492847874 -0.1818580390734866 -0.004012565319284553 -0.1907628737370008
-0.008211988252902744 0.0641453910532768 0.20933969989171575 0.6421333784151289 -0.17950862147137786 -0.00690026711658854 -0.21456671415268627 -0.009450787925327775
0.04312251118184906 0.21202460938380485 0.6115524050646367 -0.17612620569102624 -0.009707675553316971 -0.23296864525051808 -0.009880368005090873 0.022055476996736784
0.21727906875350167 0.5822832363709673 -0.17197113244323506 -0.01173195097196951 -0.24624765555557046 -0.009140486883751284 0.0012558887503977892 0.22388269062054145
0.551966079508512 -0.1670700371518305 -0.012747905360615139 -0.2545251207277066 -0.007754788714452869 -0.01957962201322566 0.2305164947416019 0.5252199689107517
-0.16090747385200305 -0.012219282320539454 -0.25800699055186616 -0.006525607951322287 -0.03984351800291612 0.23654206563475105 0.496285067614437 -0.15311879570709372

scatter f8 [100, 22]
00000000: c894 aff8 1e8a c93f 904b 516c 1b72 c93f
00000010: be49 0519 7c6a c93f 6092 c282 8273 c93f
00000020: 1a4e fec7 658c c93f d673 b6dd b6b0 c93f
00000030: 1be4 15eb f6d9 c93f 4fc4 afc5 5300 ca3f
00000040: 8628 8345 e61f ca3f f1b8 a0c5 a334 ca3f
00000050: 5240 b839 003f ca3f 0e3f 3d36 c743 ca3f
00000060: 1f8e 2801 6944 ca3f c3b7 7ebf 7b45 ca3f
00000070: 2e6c d345 414c ca3f 2ce3 cfdf b355 ca3f
00000080: bd7c 5a60 2360 ca3f 930e 6f4b 7b66 ca3f
00000090: d304 9f4f f060 ca3f fcaf 4399 fc4f ca3f
000000a0: 1d7b f32d 7520 ca3f 18a0 1551 2cbb c93f
000000b0: fc82 ab28 f67c c93f 9f38 5b72 7065 c93f
000000c0: 98c6 9bce cf5e c93f 9079 2d63 1b6a c93f
000000d0: c6a1 ef2c 2587 c93f 5434 4aef d8b1 c93f
000000e0: 5e08 f19e cce3 c93f 192e 6a83 0713 ca3f
000000f0: 9ca0 7e80 2f3a ca3f 525c 2161 ec52 ca3f
00000100: 696c bbb0 995b ca3f 4f7e 1ac1 5958 ca3f
00000110: 5a8f fc18 4049 ca3f b9bd 2ac9 2634 ca3f
00000120: ce68 dce8 c41d ca3f d599 6cda 5d09 ca3f
00000130: 1dc2 1dc6 4ffa c93f 016a 94e7 35e5 c93f
00000140: 8be4 bce5 69ca c93f 848b e80f a299 c93f
00000150: d288 01cd 9b5c c93f 1afe 3e3c 87ce c83f
00000160: bfc1 83f3 a093 c93f 1b3c ebbd bf7c c93f
00000170: 85f6 35bc 7b75 c93f 7654 1d35 fe7d c93f
00000180: b58c 204a 8d96 c93f c6bd 8688 b3bb c93f
00000190: 1be4 dbf7 0ce8 c93f dde8 69f9 b413 ca3f
000001a0: 492f 1fdd d439 ca3f 8322 8351 9b52 ca3f
000001b0: 346a a120 1f5c ca3f 24b2 545c 4058 ca3f
000001c0: 3477 5dd0 fa47 ca3f 8913 0f95 af2f ca3f
000001d0: c168 ceb5 a817 ca3f a1fb a044 c1fd c93f
000001e0: a71c abb5 41df c93f edf0 75cc 51b5 c93f
000001f0: a523 f591 607b c93f 26b6 c365 9230 c93f
00000200: 62e7 ae4d c7c1 c83f 2e29 4875 7d18 c83f
00000210: ba7a be3b 6190 c93f 3cb9 27ad ca76 c93f
00000220: 2cb9 87df 6f6d c93f 6af6 df0b 8074 c93f
00000230: c67f d77e 128b c93f ed21 2a74 62ac c93f
00000240: a2b0 f7d6 40d2 c93f 1d72 4e6d c3f4 c93f
00000250: a590 c257 6510 ca3f 2008 0b65 5122 ca3f
00000260: a933 070c a22b ca3f f893 3686 da33 ca3f
00000270: 81da 2aa8 2b3d ca3f 63bf ed36 3651 ca3f
00000280: 8fc4 74ac 797a ca3f c47d d1fd a9bb ca3f
00000290: df43 e2fa 6915 cb3f 9b66 1f78 0472 cb3f
000002a0: b752 2d63 a4c9 cb3f c391 5481 5efa cb3f
000002b0: aa32 6c75 03e0 cb3f 744e 8348 8e56 cb3f
000002c0: e732 ac4e 908d c93f 1eda 2b55 7776 c93f
000002d0: 64ba 921c 2070 c93f b720 65e3 a37a c93f
000002e0: 43f3 fdaa 2a95 c93f 3158 adc4 0bbb c93f
000002f0: ba02 330d dce4 c93f a0f5 42a9 280b ca3f
00000300: 27aa ef8a 9d29 ca3f 62ef 34f7 263e ca3f
00000310: db21 c658 2149 ca3f 95dc 4f5a c954 ca3f
00000320: 1784 6f50 c15f ca3f 2f8a 88da 9172 ca3f
00000330: 77e8 431c 6893 ca3f 96a1 e00e 99b9 ca3f
00000340: 2b62 f9d8 45e3 ca3f 8a2d 6941 190a cb3f
00000350: 1a3f f442 9d24 cb3f de42 5f12 8f25 cb3f
00000360: 4326 8982 b000 cb3f 9e5a bd83 2fab ca3f
00000370: 9c89 6871 9d89 c93f 1b1b 91a0 6e70 c93f
00000380: 5fac b9b8 5666 c93f 4536 c3f2 8d6a c93f
00000390: 59be 288b 097d c93f 3366 595f 5299 c93f
000003a0: c4fc aa11 34b9 c93f 1187 40a4 37d7 c93f
000003b0: aa14 bcd5 bff0 c93f 2aea 2829 0804 ca3f
000003c0: da7f 495b 2215 ca3f b482 e15c 6e28 ca3f
000003d0: f4b0 b749 2f3f ca3f f50e 21e6 5858 ca3f
000003e0: 5dae ece3 9574 ca3f 34d3 0a48 068f ca3f
000003f0: 117e 9261 979d ca3f ea96 6846 9581 ca3f
00000400: 2035 7063 1143 ca3f 53c9 4f8b 84c9 c93f
00000410: 1ca6 e29a aeef c83f dfb5 2e08 4fc3 c73f
00000420: 635f 7458 a877 c93f c401 d496 505d c93f
00000430: 14e6 82fc 9952 c93f 1995 4602 ae57 c93f
00000440: 0145 bb8d 3b6c c93f 8dc9 0838 a38b c93f
00000450: 1b95 fa49 20b0 c93f ca9c 3536 f1d1 c93f
00000460: d206 2c69 fbee c93f 9da7 0cff 0204 ca3f
00000470: c142 468f 6f12 ca3f 6d53 7969 f21f ca3f
00000480: 8bae 8502 7a2e ca3f 341a 00ea bc44 ca3f
00000490: f924 2b0d 026a ca3f 288a 5eaa 5b96 ca3f
000004a0: d34e a9f8 81c7 ca3f d3d7 d22f 84e6 ca3f
000004b0: 752b b78b 75ef ca3f a321 5f00 1fd0 ca3f
000004c0: 1a44 74b6 5385 ca3f 4a36 923b b4e9 c93f
000004d0: 5f5d a065 6985 c93f a854 fb34 ec6e c93f
000004e0: b5f4 8a9b e969 c93f 27a6 f985 5b75 c93f
000004f0: 1d59 7819 3890 c93f 5f59 26ea 30b5 c93f
00000500: b154 589c a3dc c93f 5b7a fda7 ebfe c93f
00000510: 9617 7353 3218 ca3f f037 8433 3c24 ca3f
00000520: 52e6 bb76 0425 ca3f 4ec6 b675 d61e ca3f
00000530: 08c6 08bf e716 ca3f 6ebc beba 8311 ca3f
00000540: 6004 9a86 0d12 ca3f 93e6 55e9 f417 ca3f
00000550: d825 e828 d523 ca3f 7b53 d775 792b ca3f
00000560: 63f0 37f9 3b23 ca3f 6f21 40d4 a5fc c93f
00000570: 10c1 a0e2 2ea4 c93f 7161 192f e6d5 c83f
00000580: b7d6 cbf0 438c c93f 37be dc3f 0973 c93f
00000590: ea74 23ca 9969 c93f 9fe9 81f8 ff70 c93f
000005a0: 4cdc 5ad5 f288 c93f 5d1c 36a5 adae c93f
000005b0: 76b8 ef7c a8dc c93f d4ea ab24 8f0a ca3f
000005c0: 95ad 9ffb e933 ca3f 7aac 5494 b153 ca3f
000005d0: 23d5 455c a76a ca3f 2758 a808 617d ca3f
000005e0: d324 b5fe f68e ca3f ae41 8a1f 13a6 ca3f
000005f0: ed55 56a8 3ecc ca3f 27eb 4226 81f8 ca3f
00000600: 3883 6029 012a cb3f 1ca2 0ef1 2b56 cb3f
00000610: a4e9 b796 2a76 cb3f 738a fabf 017c cb3f
00000620: 6381 9f2b 9063 cb3f e3a6 edff 74fd ca3f
00000630: 7f18 d5d6 4a8a c93f b9cb 9a54 7a72 c93f
00000640: afe0 88fa 576a c93f bd3a b273 b171 c93f
00000650: 4eac b8fe 7887 c93f ca8a 7fb7 5ba7 c93f
00000660: 435c 2036 1dcc c93f f8b9 1fd8 3af0 c93f
00000670: 6b95 2cdb 0011 ca3f 2e43 4608 d82c ca3f
00000680: 78cc 15b2 2045 ca3f 152b 0636 c75c ca3f
00000690: 3da7 84c3 ba75 ca3f c139 f8a6 1596 ca3f
000006a0: 67c4 b7aa 8eb8 ca3f f946 29b1 edd9 ca3f
000006b0: b2f0 0583 7cf3 ca3f db9d c55e eff3 ca3f
000006c0: d15a acb4 11d5 ca3f 7b47 d876 3395 ca3f
000006d0: 4d99 c9a5 480d ca3f 3cae 59d0 5a4b c93f
000006e0: f1ba c72f be8f c93f 1734 e386 937a c93f
000006f0: 865c a8d2 2675 c93f dbf0 d119 687f c93f
00000700: f3aa 3bb4 0b99 c93f e88d 9451 99be c93f
00000710: be4f 8772 97e9 c93f fe12 28cb 7111 ca3f
00000720: 4ff5 2da7 c031 ca3f 3c98 7084 6945 ca3f
00000730: c95e 7aff 734c ca3f 2575 db99 414d ca3f
00000740: dc3f fbeb ac4b ca3f d5a7 5d7a fa46 ca3f
00000750: c4f5 a3cf 3745 ca3f f2b7 439b 2842 ca3f
00000760: 5cef 9222 fa2f ca3f 4c6e cace d907 ca3f
00000770: 47ba 0939 abba c93f 8c2c c40e 0357 c93f
00000780: 4d38 08e2 cdba c83f 8693 bda6 2804 c83f
00000790: ff24 b909 9285 c93f 1656 7f09 3b6d c93f
000007a0: 733d 6deb aa65 c93f 9458 eb11 4c6f c93f
000007b0: be7d b55b 4689 c93f 3a64 4e9e 77af c93f
000007c0: 2085 1cd8 afda c93f aa86 e8ff 8003 ca3f
000007d0: 0c0a 76b5 e625 ca3f 55bd 8fe4 bf3e ca3f
000007e0: bda5 f47b 014f ca3f c3de 968c 9e5b ca3f
000007f0: 6754 f48a 4c66 ca3f 25d9 ff23 1b72 ca3f
0.19952761786331608 0.19879477299636195 0.1985621568843054 0.19883757958190795 0.19959709420491906 0.20070539308372187 0.20196424940857657 0.20313498642602432
0.20409849542767605 0.20473143720432277 0.20504763429971945 0.2051934256401115 0.20521271282733353 0.205245464805044 0.20545211705652505 0.20574043682406662
0.20605890469321322 0.20625249083797267 0.20608333480598748 0.2055660007821415 0.20411553138452457 0.20102457007601582 0.19912602411115887 0.1984081800823718
0.19820592487626665 0.1985506281152536 0.19943680471557296 0.20073997196269266 0.20226438294236265 0.2037057296441709 0.20490068220283753 0.20565562002841148
0.20592042092798415 0.20582124642258967 0.20536042423293105 0.2047165376911673 0.20403348322071796 0.20341084637875775 0.20295140432018935 0.2023074513206922
0.20148967473668153 0.2000010087659484 0.19813869009073543 0.19380274240209944 0.1998177708660602 0.19911953709967709 0.19889780702571982 0.19915750115856995
0.19990697974671937 0.20104068914723267 0.20239412405479204 0.20372640779880316 0.2048898772903789 0.20564595680322748 0.20593632787024918 0.20581821926443056
0.20532164739682346 0.20458025720850184 0.20384701611766867 0.20305648661630207 0.20212575312163958 0.20084593280251486 0.1990776741679642 0.1967947956940616
0.19341365140081296 0.1882473776498243 0.1997186223715824 0.19893773512689872 0.1986522523361115 0.19886780338122217 0.19955664819189972 0.20057326004122392
0.20172892090284217 0.20278208577373472 0.20362536225468833 0.20417230066056025 0.20445657336531767 0.20470744660738638 0.20499177657412207 0.20560338670793063
0.20686264916142647 0.20885205167267717 0.21159100294292352 0.2144170366798804 0.21709112970952102 0.21857816042860465 0.2177738498070501 0.21357897320432395
0.19963268128812858 0.19892779978518232 0.1987342967526785 0.19905518153450938 0.19986470555513777 0.20102068999648418 0.20229674000258574 0.20346554054951316
0.2043950012587896 0.20502173491137926 0.20535675844827392 0.20571247968448306 0.20604721477050766 0.2066213910157599 0.20762349491252838 0.20878899790228606
0.21006081671181795 0.2112456864727899 0.2120548798488862 0.21208370587421305 0.2109585416204017 0.2083491700420454 0.1995121768714626 0.19874365654160261
0.19843563098706604 0.19856428483619673 0.19912833495026197 0.19999150901530668 0.20096445906344773 0.20188041229362644 0.20265958725227523 0.2032480431533526
0.20376996476534154 0.20435885939789034 0.20505324458589025 0.20582114445470948 0.2066829073822757 0.20748976247491557 0.20793430580396025 0.20707956254880538
0.2051717505968691 0.2014623337013953 0.19481451571236696 0.1856478490785056 0.19896416014739335 0.19816024174362046 0.1978332980122991 0.19798827277296807
0.19861549778446633 0.1995739005665879 0.2006874428963464 0.20171942851013674 0.2026056540999464 0.2032474274977262 0.2036876153547578 0.20409994268507195
0.20454335330156356 0.20522271562386296 0.2063601078319051 0.20771356409848463 0.2092134918371956 0.2101598008645725 0.21043271371885522 0.20947635191101907
0.20719381722349867 0.2024445811152183 0.1993839021895196 0.19869759165763878 0.19854469389784915 0.19889396707303428 0.19971371883065894 0.20084201272102128
0.20204587110553043 0.20309205725330312 0.20386342119871576 0.20423080935910276 0.20425468251760265 0.2040660929465496 0.20382401302190112 0.20365950220500245
0.2036759288057821 0.20385610001885776 0.20421852586177525 0.20445173505745715 0.2042002646338715 0.20302269805712167 0.20032297197168036 0.19402768420946928
0.19959306008938935 0.19882312410617128 0.19853517885250166 0.1987609828391443 0.19949183862419984 0.20064325873338165 0.2020464525261933 0.20344723978617785
0.20470928942027614 0.20567912810051664 0.2063798142004681 0.2069512645982183 0.2074879401864452 0.2081931976322386 0.20935805530159204 0.21070875519020513
0.21221937675820768 0.21356724996918863 0.2145436511926394 0.21472188829382652 0.21397592668564433 0.21085989471912744 0.19953284730781104 0.19880608683669523
0.19855785115374178 0.198782140247621 0.19944679677550642 0.2004198690402375 0.2015415682114697 0.20264373352934206 0.20364390088904413 0.20449352649713987
0.20523461051525138 0.20595636499305017 0.20671782061372737 0.207705217865124 0.20875724159080564 0.20977564955187925 0.21055561444871312 0.2105693066362012
0.20962735483109055 0.2076782541558336 0.2035303887852912 0.1976121442161104 0.19969918568627734 0.19905323110870718 0.1988876846887459 0.19920064221140063
0.19998308468287682 0.20112911685383428 0.2024411496373641 0.20365736407998009 0.20464332736075128 0.20524329153812626 0.2054581639720168 0.2054826737648138
0.20543443224460034 0.20529108977217328 0.2052373660916783 0.20514400082851086 0.20458914459401967 0.20336458775715227 0.20100918088015104 0.19796789380084012
0.1932008126900108 0.18762691632869294 0.1993887469746269 0.1986459537862834 0.19841515059895762 0.19870901942221464 0.19950179555870123 0.20066733579440826
0.20198629429163706 0.20323193069002815 0.20428165302662682 0.20503996525028848 0.20553606560251395 0.20592100014413547 0.20624691758044664 0.20660723932059813

Maxvals f8 [11]
00000000: 9c03 1aaa 053b 2a40 2519 3335 f1ac 2940
00000010: 3d8e d9b4 5f75 2940 38bf 919b d053 2940
00000020: 6b33 7df6 e023 2940 f776 18ef 0418 2940
00000030: ba4c b269 c9fa 2840 c9b6 f182 dbe0 2840
00000040: be15 7252 eebe 2840 d408 cf66 8c8d 2840
00000050: f61b aec0 7c46 2840
13.115277591395902 12.837777769553734 12.729245807225306 12.663700925389648 12.570075705321605 12.546912643181242 12.48981790830145 12.439174739843468
12.372912002970107 12.276461804173245 12.137670537236755
