Data/TNG/Model_snap0.npz (npz, 109834 bytes, 5 tensors)

x f8 [15]
00000000: 0000 0000 0000 2640 3333 3333 3333 2640
00000010: 6666 6666 6666 2640 9999 9999 9999 2640
00000020: cccc cccc cccc 2640 ffff ffff ffff 2640
00000030: 3233 3333 3333 2740 6566 6666 6666 2740
00000040: 9899 9999 9999 2740 cbcc cccc cccc 2740
00000050: feff ffff ffff 2740 3133 3333 3333 2840
00000060: 6466 6666 6666 2840 9799 9999 9999 2840
00000070: cacc cccc cccc 2840
11.0 11.1 11.2 11.299999999999999 11.399999999999999 11.499999999999998 11.599999999999998 11.699999999999998
11.799999999999997 11.899999999999997 11.999999999999996 12.099999999999996 12.199999999999996 12.299999999999995 12.399999999999995

intercept f8 [100, 15]
00000000: d270 5f3c a238 e6bf e75a 7dc7 af0f ebbf
00000010: 3acf c1cd c198 eebf a0a2 2c38 7269 f0bf
00000020: b0c0 3413 b5d9 f0bf c365 577e e695 f0bf
00000030: a37c 39e1 9d33 efbf 3515 5fee 6512 ecbf
00000040: 1d4f c484 ef3a e8bf 2165 9e2f 4ddd e3bf
00000050: 9807 397d 5295 dfbf 285f fcd1 a717 dabf
00000060: 6669 fb76 c6b3 d6bf f4c3 8926 2191 d3bf
00000070: 04cc 0bef 51ef c7bf 4c4e 69cc 2138 e6bf
00000080: 2277 5cf3 d3db eabf 8dee 7017 3b09 eebf
00000090: ed7b b314 02e8 efbf 6271 8ee8 e634 f0bf
000000a0: 5f4e d51b 4ebc efbf b8ad a6b1 4de7 edbf
000000b0: 2547 8e52 0d69 ebbf 4c34 ee39 0695 e8bf
000000c0: 685f 2f4b 95a2 e5bf b092 9f67 dee6 e2bf
000000d0: 4d27 775c 0f97 e1bf 729e aba9 3873 e1bf
000000e0: 2acc 30f2 63c2 e1bf 35f0 eed6 b042 e1bf
000000f0: e262 36dd e0e7 e5bf b246 d91c 9a48 eabf
00000100: 8f7b 91be ea58 edbf 189b 996a 513d efbf
00000110: 6d0d c94c e3f9 efbf 7ca8 ed95 e4a1 efbf
00000120: 8e4b 1ed0 c5fc edbf 1957 fec8 d11e ebbf
00000130: 3fc8 088e 5d66 e7bf 1959 05af c306 e2bf
00000140: 6a57 4617 a085 d6bf 4819 e340 6e35 bfbf
00000150: 94ed 5181 198f be3f 0e83 7269 9f64 dc3f
00000160: bd9b 056d 1389 eb3f f630 2ac6 3ee6 e6bf
00000170: 1ec8 2991 15df ebbf a61d 6ef8 9169 efbf
00000180: 6ea0 eea0 27ab f0bf bc12 8c42 bed1 f0bf
00000190: 00fc 2a80 0649 f0bf efe7 1627 e11a eebf
000001a0: d1a7 e79f c0bd eabf 8f79 bcc8 a2c2 e6bf
000001b0: f419 c8e9 0908 e2bf 8892 48eb ef8f d8bf
000001c0: e415 bba7 7ccc cbbf 00c2 369f 6862 6fbf
000001d0: 4afe 7eff e32c cf3f af78 4865 77e6 e33f
000001e0: f283 6a06 24af e6bf 05d3 6b05 f8b5 ebbf
000001f0: 0833 fd6d 7a7d efbf 65d9 0343 1201 f1bf
00000200: 7e2d f994 208f f1bf f013 d398 8930 f1bf
00000210: fc6a 0df0 f7d7 efbf 539c afa6 1ccf ebbf
00000220: 6e36 42da 149f e6bf 4134 de73 d0c5 e0bf
00000230: ac12 5745 5416 d8bf 1e29 07d4 3092 d4bf
00000240: de64 fc67 ccff d8bf c008 8502 122d e1bf
00000250: 0e67 de03 a5ce e5bf d7eb 9725 2b18 e5bf
00000260: bdd6 a46a 9138 e9bf 185a c679 0b08 ecbf
00000270: 127c 463e 73a3 edbf d5b5 ad89 781d eebf
00000280: b0ad ed70 c191 edbf 9c7f 61ac da48 ecbf
00000290: da98 c5cb 0e97 eabf 70e5 eb97 7040 e9bf
000002a0: e0fe 2d2d 1d0f e8bf 3b04 adc6 5d68 e8bf
000002b0: b60d 822b 2d82 ebbf a87a 96ea 9843 f0bf
000002c0: 68b4 3363 cac5 f2bf c53f 73ef e258 f4bf
000002d0: fcb1 1536 a5a7 e6bf 8bc4 9bcc 819f ebbf
000002e0: 557c f7cf 7b19 efbf a675 a0e4 a28f f0bf
000002f0: 5140 f693 2ad5 f0bf edb5 be7b fd54 f0bf
00000300: 9612 2bb6 dd71 eebf b5ec b697 401f ebbf
00000310: 7dd5 f895 28ce e6bf 3633 1572 6931 e2bf
00000320: a886 2629 dd35 dabf 7cf2 7059 b176 cfbf
00000330: 108d 0844 e6b2 a7bf 6fe5 7b61 4ab8 d33f
00000340: 16cd 52a1 9fb4 ea3f 405e 6b88 f3f2 e7bf
00000350: a65e 1d0d 6c4c ecbf c478 108e 71e7 eebf
00000360: d494 6270 5ade efbf 727c 0708 3931 efbf
00000370: 77da d078 c616 edbf b6f5 d734 337e e9bf
00000380: 2040 2766 31df e4bf 68bc fed4 c61e dfbf
00000390: 806b a5bb aa76 d4bf 180e 7fee b0cc c2bf
000003a0: 8012 16c3 451d 703f 3e74 a211 f1e3 c33f
000003b0: c571 568b 9d3e d73f cc80 1548 c807 e43f
000003c0: cf7a d004 bb19 e6bf 7f80 ad1e 2cee eabf
000003d0: 4d4a f539 3e64 eebf 5746 7ed5 593a f0bf
000003e0: 4289 2aaa 8a96 f0bf 869c 90e6 4c45 f0bf
000003f0: a543 bcea c3d9 eebf 1ed4 fcc6 0467 ecbf
00000400: ae79 a792 4485 eabf 93d5 5516 d19d e8bf
00000410: 5fc1 12de 7e10 e7bf b3ba 2ef9 7b47 e5bf
00000420: 6969 4d72 9fb0 e0bf 8c91 a2f5 1924 ccbf
00000430: 39cd c7e8 f7de d13f bea4 86e1 b035 e6bf
00000440: e906 4cfb d7d9 eabf 7a4d 33f0 9918 eebf
00000450: 759b 6026 560e f0bf 7e1c 6ae6 ab74 f0bf
00000460: a94e 6102 773f f0bf e5ec 8469 5724 efbf
00000470: efb2 23f1 f7d7 ecbf 854c 284c c117 eabf
00000480: bc18 3c8f 4ca0 e6bf f71c a451 85e7 e2bf
00000490: 38c0 aa71 cce0 debf f659 83b3 e342 d5bf
000004a0: 98cd 3d65 d13c c3bf a015 1b1d 5b53 bd3f
000004b0: 7ca8 3dc9 5045 e5bf 2050 4288 241d eabf
000004c0: 3120 dc26 c8b7 edbf 3c52 f53e 4e12 f0bf
000004d0: 5ac2 265f 2c91 f0bf e032 5980 da51 f0bf
000004e0: 4f54 4e33 bd84 eebf d032 c266 6439 ebbf
000004f0: 2012 1840 4f4c e7bf 0886 144c af6a e3bf
00000500: b469 5190 8e47 e0bf cff9 ade1 0907 e0bf
00000510: 6f57 8d81 3f69 e3bf 554c 057e 2caf e9bf
00000520: a219 a0c4 da1a f1bf 6e9d 39e8 00f7 e6bf
00000530: 6009 848e 1312 ecbf 32b2 d8fd ebcf efbf
00000540: 9a42 0dfc e602 f1bf 6697 dd22 113c f1bf
00000550: 5031 be8e 0b81 f0bf 3864 9fbf 4933 edbf
00000560: c427 031b 6c7e e7bf 9717 704e d70d e0bf
00000570: fcd4 1958 e89e cfbf 00b0 939c 3901 71bf
00000580: 628b 97a1 d355 cb3f 7123 a750 13c4 d63f
00000590: b2c2 ee05 0a93 df3f acd9 4d5a 06a5 e13f
000005a0: 3297 7e83 7ef1 e5bf c3a9 0286 7617 ebbf
000005b0: 4556 a02f 5a4c efbf 753d 1452 6f42 f1bf
000005c0: 1d7b 191c 1c51 f2bf 7c10 a02b 75a5 f2bf
000005d0: 2548 7a84 a81a f2bf 7ecf 5df6 e5e3 f0bf
000005e0: 0996 b06e ac34 eebf ed2a 551d f2c9 e9bf
000005f0: 5f6a 4312 2c98 e4bf b8bd 85f8 1ef3 dfbf
00000600: 74cc 28db 8b4b d5bf 6838 1e29 cd4c babf
00000610: 5bff 1181 a30c d63f b40f c237 f102 e6bf
00000620: fc4d 2de3 03b2 eabf 2e5e 6fd7 c800 eebf
00000630: 00e5 3fd1 91da efbf 0331 6fff ad12 f0bf
00000640: ad8f c2f1 fd0a efbf 3766 8672 2260 ecbf
00000650: 65aa f918 dda4 e8bf 918b 646e f521 e4bf
00000660: 16de 610b d40a dfbf 9cd3 5bec a20b d6bf
00000670: a021 d30e 2541 cfbf 448e 035a ec95 c6bf
00000680: 8020 2203 add1 bbbf 80a5 453b 0bf9 72bf
00000690: e645 849c e16e e5bf 520c dfda 2e1a eabf
000006a0: d061 2139 65cb edbf 4575 7aa0 0f32 f0bf
000006b0: 6a33 d42e 44ea f0bf 2cfd 9b29 fe14 f1bf
000006c0: 5aa8 7fd4 8b96 f0bf efe0 e5de a3e9 eebf
000006d0: 1c19 8f8b 8b0a ecbf 3096 95f0 44c4 e8bf
000006e0: 12bc 7275 8932 e5bf fe4f 42d0 1f3c e2bf
000006f0: 588b d335 520e dfbf dc8a e7e1 0a5a d6bf
00000700: 6080 98ed 61f2 98bf 4467 15d0 6c6d e5bf
00000710: 4b99 7930 6c7f eabf 5a07 91be 574e eebf
00000720: 0da4 e1ea b75e f0bf baf1 d1db a9d8 f0bf
00000730: be9d 5c0e a58a f0bf 3609 faba 7986 eebf
00000740: fc75 bd18 c42c eabf 6251 6e1c 3ed2 e4bf
00000750: 5a2b ce87 fc0d ddbf c2f3 2f46 1fe3 d1bf
00000760: d465 9cb5 0a0d c6bf f8cd b76a f2b4 c4bf
00000770: 9c6d a654 22d5 cabf 8cbc 2330 8db7 c8bf
00000780: 16bd a712 4df9 e5bf ca5a a9c3 e273 eabf
00000790: 9df0 06fe 3179 edbf 4219 7426 d131 efbf
000007a0: 2f2f 84e3 f89b efbf aa47 7b35 0bc5 eebf
000007b0: 54c2 76ea 1ce2 ecbf 259a 9c3d 9bda e9bf
000007c0: 4366 1f33 8e22 e6bf 981c 10b5 6a33 e1bf
000007d0: 90aa 006f 95df d6bf 04f0 ad64 b7a5 c5bf
000007e0: 0089 f366 5e59 953f cc04 3fc7 c314 d13f
000007f0: 5cba 95e0 a316 e23f af46 6df1 a464 e7bf
-0.6944132975727604 -0.8456648727686485 -0.9561471003239383 -1.0257436937628555 -1.0531512022244378 -1.0365967688761522 -0.9750508688847684 -0.8772458701793427
-0.7571942895033065 -0.6207643442204792 -0.49348890522753086 -0.40769382006100097 -0.3547226106581064 -0.30573300136080594 -0.18699096843883478 -0.694352053872032
-0.8393344643734262 -0.9386268098673597 -0.997071304733138 -1.0129155239329397 -0.9917364638917653 -0.9344852895496194 -0.8565737354676669 -0.768191445489387
-0.6760965794046401 -0.5906822227376178 -0.5496899419751827 -0.5453151048540816 -0.5549792986188369 -0.5393909643094107 -0.6845554657512276 -0.8213625491573195
-0.9171041223561235 -0.9762351114303298 -0.9992538928712925 -0.9885123184478881 -0.9371060433207832 -0.847512142720663 -0.7312457822902231 -0.5633257311226628
-0.3519058444302262 -0.1219090374389441 0.11937102706172303 0.44364152238453947 0.8604828957876333 -0.7156061048895299 -0.8709819636553708 -0.9816369869376345
-1.0417858396922628 -1.05120683665261 -1.0178284651335616 -0.9407811892954195 -0.8356631396429696 -0.7112592621449937 -0.5634812894866728 -0.3837852285089771
-0.21717794599514584 -0.0038311046025329976 0.2435574529208558 0.6218831041512852 -0.7088794827760678 -0.8659629922754851 -0.9840671680663897 -1.0627615564131585
-1.097443181922102 -1.0743499726970605 -0.9951133430980401 -0.86903221660476 -0.7069191229690668 -0.5241472495123461 -0.3763628651761717 -0.32142277437073286
-0.390612699078316 -0.536751751824589 -0.6814751697122305 -0.6592002615210458 -0.7881552775276855 -0.8759820345320035 -0.9262024132075359 -0.9410975159677785
-0.9240424352296284 -0.8838933340848487 -0.8309396724623881 -0.7891161887375073 -0.7518449671187817 -0.7627400284183133 -0.8596406793371247 -1.016503254278783
-1.1732887148930562 -1.2717007974169843 -0.7079645210592953 -0.8632210727938782 -0.9718607961512001 -1.0350674563154398 -1.05204255864739 -1.0207495530879627
-0.9513996656392745 -0.8475649798559944 -0.7126658372059606 -0.568531725709909 -0.4095375921116138 -0.24580971591230483 -0.04628676968084211 0.3081232025138751
0.8345487738464807 -0.7484071411553899 -0.8843288665911657 -0.9657523894018358 -0.9958927340527688 -0.9747586399861474 -0.9090301856693505 -0.7966552764989305
-0.6522452349836421 -0.48625345993327196 -0.3197428543550629 -0.1468716778309591 0.003934166439084508 0.15539372788490086 0.36319674117273976 0.6259499938860471
-0.6906409353285542 -0.8415737723517082 -0.9497367031093035 -1.0142458285885334 -1.0367533347239974 -1.0169190412941886 -0.9640826782871171 -0.8875755201794424
-0.8287680496539929 -0.7692647396312843 -0.7207636201256199 -0.6649761072966015 -0.521560405012946 -0.21985172742746462 0.27923391087024957 -0.6940540699771629
-0.8390922458786153 -0.9405030909933167 -1.0035001277080629 -1.0284842491689967 -1.01549435548524 -0.9731862126276637 -0.9013633451228013 -0.8153997886132777
-0.7070677564195402 -0.5907618135978784 -0.48247061825077564 -0.33220760851455056 -0.15029351657322532 0.11455316029158391 -0.6647113733754533 -0.8160574590024261
-0.9286843070012819 -1.004469152384572 -1.0354427067615206 -1.0199837697611471 -0.9537034990377239 -0.8507558829311055 -0.7280651332699257 -0.6067730413380454
-0.5087349718772232 -0.5008592040829231 -0.6065976648630861 -0.802633520254299 -1.0690562897376386 -0.7176517997403786 -0.8772065909873099 -0.994131084245572
-1.0632085653088894 -1.0771647798478283 -1.0315051628013698 -0.912510751974998 -0.734182408102463 -0.501689580153413 -0.24703697492410714 -0.004151558919357257
0.21355672254784525 0.355717495691855 0.49334955767975963 0.551394630789948 -0.685729271722016 -0.8466141335859948 -0.9780703478051654 -1.0787194448674573
-1.1448021981847838 -1.1653949455367458 -1.1315083670529102 -1.0556392310799931 -0.9439298784170101 -0.8059015820411709 -0.643575702353086 -0.4992139269806688
-0.33273598100931356 -0.10273439649447058 0.34452140430948014 -0.6878591622375922 -0.834230369286558 -0.9375957687106558 -0.9954308592706695 -1.004560468473813
-0.9700917932391256 -0.8867351757828094 -0.7701249587820028 -0.6291453510387887 -0.4850359069018578 -0.3444602306547553 -0.24417556022514209 -0.17645029444894267
-0.10866814924713886 -0.004632037995500382 -0.669785314270652 -0.8156961703138086 -0.9310785404041386 -1.0122219341931935 -1.057193930554798 -1.0676252007832074
-1.0367544460991867 -0.9660205224490975 -0.8762872434388416 -0.7739586542999799 -0.6624190610799607 -0.569839388614582 -0.4852490926406765 -0.3492457586382167
-0.02436211598080751 -0.6696075500615071 -0.8280545183923008 -0.9470633241655648 -1.0231246161513383 -1.0528963648531389 -1.033848816014014 -0.9539154674423915
-0.8179645999150007 -0.6506643824855411 -0.45397866499177086 -0.2794874368117314 -0.1722730051776994 -0.1617720624050063 -0.20962933667474892 -0.1931015477234478
-0.6866822590217534 -0.8266462155832752 -0.9210443459956142 -0.9748311759038091 -0.9877895778349507 -0.9615531963884127 -0.9026016787884807 -0.807935352645306
-0.6917181967248286 -0.5375264679322695 -0.35739646759126575 -0.1691197625731321 0.020848727258347743 0.266892380310378 0.5652636896537149 -0.7310356822365146

slopes f8 [100, 15, 7]
00000000: de11 9c46 a97e bd3f e4ec c981 9a3c bf3f
00000010: bf71 4eb3 44af cc3f 63ea 29ec 3b06 c0bf
00000020: 405c f643 1fab 613f 9099 77e6 2e8c 8fbf
00000030: 033f 69ba 794e 833f 7b9a 2627 b77c c03f
00000040: dcd9 1e4b d2a4 bc3f 7847 3fb7 2b3b ce3f
00000050: d982 3d09 b59e c0bf a034 88c6 69f7 6b3f
00000060: f438 256f 3586 9abf f4a7 81c4 5c7f 863f
00000070: 73e2 ccac a0bd c13f 7a61 8d72 5e52 ba3f
00000080: d1dc adc1 c8bb cf3f 5227 4de4 5416 c1bf
00000090: b8c2 15a5 721b 733f 2a58 e23d 3dfb a3bf
000000a0: d490 d3e8 2502 8a3f 2f53 8ee1 1984 c23f
000000b0: e219 7540 5855 b83f e14f 58d0 35a3 d03f
000000c0: a5b8 2129 1066 c1bf 28d5 abe1 7572 773f
000000d0: f097 37e9 9fb9 abbf 121a a00d 5110 8d3f
000000e0: d65d 9463 16cf c23f 1ed8 b655 03df b63f
000000f0: 386f 3f7e 746d d13f 7e97 e0c1 4792 c1bf
00000100: 40ed d8fd 4ca3 793f 637a 59e9 b804 b2bf
00000110: 9c38 ac8f 25c1 8f3f 0911 b407 189a c23f
00000120: 7cbf 72de c4b1 b53f efce 2221 b028 d23f
00000130: 8cd4 0dee 19a0 c1bf 5899 563d ca70 793f
00000140: afff 7035 923a b6bf 04a2 7ce2 0435 913f
00000150: 5ab7 0f89 49e2 c13f 44a3 1ebd 067e b43f
00000160: f971 ae19 3696 d23f a6c3 e499 7f92 c1bf
00000170: 7041 2409 a343 753f f42b adf2 9762 babf
00000180: ecc3 0ac9 303d 923f 7ed9 b096 18c2 c03f
00000190: 8c23 5e71 6e2c b33f 390f 0f34 b89d d23f
000001a0: cb75 7839 d679 c1bf 80c0 a82b 5220 6b3f
000001b0: da21 f074 9a33 bebf e29a ae2d bcc3 923f
000001c0: 0134 52a3 d7bd be3f 825c 3a5f adc2 b03f
000001d0: 9ad5 75da 5e4f d23f ce80 0425 c45f c1bf
000001e0: 0003 5b71 adaa 303f abcd fc7c cef9 c0bf
000001f0: 1c93 9e27 6b77 923f 3036 88d4 3691 bb3f
00000200: 7417 97e8 b893 a93f 291b d789 0582 d13f
00000210: 621b f9d4 e23d c1bf 2072 b9ce 3df0 6bbf
00000220: e161 58e6 02a2 c2bf 4025 3d70 d21f 913f
00000230: c8a7 d6a7 b98b b83f dcde 6b66 555a 9a3f
00000240: b2b9 12ac 428f d03f 5282 8055 5628 c1bf
00000250: a06c 39fe 2460 80bf e658 a3ad 0b22 c4bf
00000260: f2a0 b093 0d8a 8d3f 1bd1 76a9 6060 b63f
00000270: 56fa 1d7c e8b1 81bf 96ff 2019 d4eb cf3f
00000280: 74be 441b 8c01 c1bf d04d 0c0d 5ef8 89bf
00000290: 5612 79a7 dd90 c5bf cc43 7c03 4968 883f
000002a0: aaca bdc9 57e5 b43f a8e2 b077 2df3 a8bf
000002b0: e11b 37a3 43fb ce3f 6c4a 9387 b4aa c0bf
000002c0: 4ccb 9816 ca2b 92bf 313d 836b 6ee0 c6bf
000002d0: bd7f 60f5 af33 833f 29ac ebfc ef75 b33f
000002e0: 86d8 8e98 312e b9bf 84d5 67bf 43c5 d03f
000002f0: 3052 e35f a07d bfbf 9233 7309 ef65 98bf
00000300: cca5 6b88 b3df c7bf a910 f9c1 2e51 843f
00000310: 6a00 d52a d583 b03f 43c9 bb9b 1c05 c4bf
00000320: 342b f478 e5bc d53f 8eef f81f 6008 bdbf
00000330: a8a1 29bb 9add 9fbf 6297 1249 185f c8bf
00000340: 6ba1 0c37 a573 7c3f 79a8 9dd0 7c99 bd3f
00000350: 2da7 8bc2 84b6 c03f 333e 2163 9891 cf3f
00000360: 2617 8e8a 3272 bfbf 248b 07f3 8121 763f
00000370: 83e2 9c1e f366 90bf ec14 c2a1 0cba 733f
00000380: db4c 857e 9c73 c03f 30b3 76f4 9100 be3f
00000390: 5184 3359 65ad d03f f842 4751 2f3d c0bf
000003a0: 0076 fb51 f6fc 7a3f 8046 66e8 0aa8 9cbf
000003b0: 840d 1989 5352 783f 5d23 590a 588f c13f
000003c0: 8cd3 b2d3 0ed7 ba3f 035f 8d21 9f7d d13f
000003d0: 2dde 843e b998 c0bf 9898 1645 a6b2 7e3f
000003e0: 8875 5804 c3c2 a5bf d851 e45d 69e5 7e3f
000003f0: 35d4 63cd 1831 c23f 1c81 6153 9203 b83f
00000400: 48b5 5628 a354 d23f 3756 0349 6fc7 c0bf
00000410: 00df 094e ca2b 803f 006f ebbc 6d12 aebf
00000420: 188a 8a3a 3e24 833f 0764 29e1 cd56 c23f
00000430: 464a 0dd6 77c5 b53f c252 9198 0730 d33f
00000440: 54f8 1c2f 45d7 c0bf 7026 442c 8c70 7f3f
00000450: 2dae 44a3 c965 b3bf f609 3e53 0a80 863f
00000460: 0b7e 007e 2212 c23f 96c5 6b69 fafa b33f
00000470: 01a2 9775 1c19 d43f bc97 1e14 a6d5 c0bf
00000480: c0f1 c4fc e265 7c3f 0cad e04d b897 b7bf
00000490: eec9 d0ba a52a 893f 033b aaac 2065 c13f
000004a0: d668 3dce 7334 b23f 97d6 5acb 28d1 d43f
000004b0: f999 a8c3 55ca c0bf c021 6034 507d 763f
000004c0: 6e29 cb57 eb79 bbbf cbc2 1281 b174 893f
000004d0: 5e27 6698 9f7d c03f 6e9c fb30 0e8d b03f
000004e0: 9a15 8774 b82f d53f 5db8 c3c6 65d9 c0bf
000004f0: 002a 28aa 1814 6d3f 2c77 9f23 07b4 bebf
00000500: d49f 3b07 45c8 853f c77a aad1 9aea be3f
00000510: 280b 784f 0c0a ac3f 1c4c 15c2 5441 d53f
00000520: ae61 468f 4315 c1bf 80d4 b56f 4e7d 413f
00000530: d888 b0ae 5ad6 c0bf e078 c139 4eda 7b3f
00000540: d467 e452 07bf bc3f 6ae5 7407 9723 a53f
00000550: bb98 b7e4 0ac7 d43f fa9a 519b 866f c1bf
00000560: 0049 5141 69f5 6bbf 8614 445d 76e7 c1bf
00000570: 98f5 6e90 5cea 553f 3c11 ee03 a7a8 ba3f
00000580: 9c2d 49ed cfb1 933f 25ca 49e3 e28e d33f
00000590: 7b28 334c 8306 c2bf 0874 4940 8ebe 81bf
000005a0: f1b2 d659 00ce c2bf 7408 0d4e 56ee 75bf
000005b0: e8ed 1fcc 4784 b93f 94f8 93a5 b4fb 80bf
000005c0: 9b28 50de 1da4 d23f 9088 ab7c 3bb9 c2bf
000005d0: 90c8 f936 76fb 8dbf 0beb 56bc e1f2 c3bf
000005e0: ee2a b64b 38a8 82bf b7c1 b9ce bf15 b93f
000005f0: 56e4 d746 b438 a8bf e87e 87ec 2992 d13f
00000600: 6e25 779d 245f c3bf 2072 4d04 9d4b 95bf
00000610: 1b26 3947 e24a c5bf cc2a 7118 6c2c 83bf
00000620: f1eb 1c12 95f2 b83f a4a7 4e96 6e14 b7bf
00000630: 0cd9 7cb4 91a0 d13f 362e 337c 0673 c3bf
00000640: 9fd1 1ba2 02ee 9bbf 9c0c 51b5 64f5 c6bf
00000650: 0020 96d7 538b 233f 0a8b 866b f431 b83f
00000660: 4ef1 3e74 a378 c2bf 15b6 28e5 092c d33f
00000670: 4a1f 652f 7c70 c3bf 6d29 ac9b ab73 a0bf
00000680: 9392 3f9d 4453 c9bf c033 271a 15af 923f
00000690: 40e9 3b82 8341 bd3f e0e1 6bba eb32 bf3f
000006a0: 5d74 3ec6 1d5b cc3f 3f29 354c 1e52 c0bf
000006b0: 1017 d375 0c95 623f e8e7 f731 b5d8 8fbf
000006c0: e0dd 7d63 4fd1 7d3f 6555 3d23 c831 c03f
000006d0: 8eb4 c2c2 0098 bc3f 5300 0e2e 3f7f cd3f
000006e0: 0b07 9778 aefd c0bf 6095 f623 4eaa 6e3f
000006f0: 68bb f976 70b3 9cbf 2628 95e9 4362 833f
00000700: 9763 b546 b344 c13f 928b bb33 4212 ba3f
00000710: 0cd7 bf61 885a ce3f 9753 25e1 2785 c1bf
00000720: 4060 c6fd b5ca 763f 066a f3a0 fa51 a6bf
00000730: 8233 1734 0134 883f 5956 eaf4 a1e8 c13f
00000740: 6670 e16e 0083 b73f 28ea daa3 824b cf3f
00000750: cc22 8ac0 67e3 c1bf 706e e2de 3956 7f3f
00000760: 58e4 1a61 a472 afbf 9af4 3d0b a83e 8c3f
00000770: 1ab3 76c5 d721 c23f 6e84 1129 ed1c b53f
00000780: fc8e db71 bf35 d03f 90e4 82a1 bf1a c2bf
00000790: 98c5 a3c5 63cc 833f 483c e5af 1290 b4bf
000007a0: 70cf 2936 d03b 8f3f 20c4 0a8f daf7 c13f
000007b0: 9041 e2ec 9c99 b23f 6b88 fdcb 4301 d13f
000007c0: a160 bde9 7e2b c2bf 004b 19c3 9ef3 863f
000007d0: d2f6 3186 fe5f b9bf 24d7 e9f5 f6d7 8f3f
000007e0: cee6 ca68 9b56 c13f 548d 4820 2a62 af3f
000007f0: 5b28 91c0 fdcc d13f 3115 8617 9b18 c2bf
0.11521394704693175 0.12201848667784848 0.22409876589962427 -0.12519024878914128 0.002156792703043503 -0.015404096992779143 0.009427023888889169 0.12880601321849725
0.11188997587200994 0.2361807484399454 -0.12984335852799836 0.0034138742378276438 -0.025902590664650796 0.010985111948873062 0.1385994762183774 0.10281935021101232
0.24791821915616777 -0.13349400661018734 0.004664848166939954 -0.03902617817327354 0.012699409644888617 0.14465640557741596 0.09505225728671676 0.2599615606898152
-0.13592721947083422 0.005724392389983714 -0.05415057870759188 0.014191277721704618 0.14694480764658974 0.08934040873177237 0.27230560616384336 -0.1372766205469666
0.006259251354602313 -0.07038455674180848 0.01550511688904193 0.14532757164136736 0.08474378996720405 0.2837333987801988 -0.13769840358478225 0.006211080549667201
-0.0868312244865581 0.0168038142429925 0.1397182387585712 0.08004800908260018 0.2904181719584638 -0.13728327764831966 0.005191456659545998 -0.10306691813200058
0.017811548491128024 0.13092334135007982 0.07489671962515682 0.2908764370333646 -0.13653066450289794 0.0033113102811271333 -0.11797490458423657 0.018324795044146643
0.12008426415759745 0.06547053885366164 0.2860943921471858 -0.13573505218028575 0.0002543137974094084 -0.13262349226861878 0.018033670705011592 0.10768454254886062
0.04995515670047626 0.27356089077913964 -0.1347011127383793 -0.0034104544809408083 -0.14556919333769172 0.016722953892245984 0.09588203761691638 0.025735220314316062
0.25874392322557604 -0.1340434949388674 -0.007995881088552814 -0.1572889898149647 0.01442347151721932 0.08740810525234048 -0.008640114104989365 0.24938441493031566
-0.1328597195765614 -0.012680754445262205 -0.1684834544886537 0.011917658251634843 0.08162449527098184 -0.04873029790946265 0.24204297513480724 -0.13020950908556317
-0.017745168332292935 -0.17872410058633073 0.009375929523287025 0.07601833271807891 -0.09836111044464432 0.2620400780864076 -0.123010657701635 -0.02382634635141618
-0.1865143219104496 0.00992046861131997 0.06451160712913553 -0.15640599826981302 0.339654319876604 -0.11340904980255415 -0.03111879126882547 -0.19040206497191564
0.0069462255203592655 0.11562328427467773 0.13057002543728782 0.24663071480107276 -0.12283626444522308 0.005403049101434108 -0.01601772188516516 0.004816102355225765
0.1285281770493388 0.11719619959212646 0.26058324538286565 -0.12686721295042225 0.0065888997921468295 -0.027984781679669002 0.005937887488076558 0.13718700890810967
0.10484402340337179 0.2732923343332773 -0.12966075470625196 0.007494592181876446 -0.04250153949781593 0.0075430026902449585 0.1421233179932259 0.0938044980589478
0.2864158529217389 -0.13108626427735867 0.007896023279712505 -0.058734349547846065 0.009346471940550535 0.14327405447218686 0.08504437423588582 0.29980649851976804
-0.1315695266766307 0.007675693083237442 -0.0757719062427717 0.010986405053476905 0.14117842819631252 0.07804837297205433 0.3140326641428431 -0.131520042251564
0.006933104199842111 -0.09215881253537733 0.01228837467542562 0.13589867049127954 0.07111285958436339 0.3252660737883643 -0.1311747746814971 0.005490601824938712
-0.10732909100912533 0.012429606200698903 0.12883372250899588 0.06465233512754917 0.33103762988715746 -0.13163444714831743 0.0035496217472019698 -0.119934507557869
0.010635890277129002 0.12076728457257523 0.054764160824581076 0.33211249307095314 -0.1334614228806123 0.0005337365140990619 -0.13154157190098803 0.00679998928907663
0.11228986524329737 0.04128715482733976 0.3246485932890086 -0.13621599754261365 -0.003412919594247943 -0.13987617067337882 0.0013376144358824057 0.10413593145319039
0.019232987268237176 0.3055960864650465 -0.14082375736899508 -0.008664237343674955 -0.14691166292813976 -0.0053542491230605845 0.0996746896125199 -0.008292590430297765
0.29126688680902085 -0.14627784335522565 -0.01463978152535031 -0.1558496636988241 -0.009109916506323281 0.09798811718952193 -0.0473076187590286 0.27454612825930136
-0.15134103478184663 -0.02079625452766909 -0.16634777524659303 -0.009362072463905767 0.0974515122624522 -0.090155517288308 0.27542536378622695 -0.15194779457520874
-0.027275124687507476 -0.17936381200170082 0.0001491107794147073 0.09451224923263282 -0.14430659462039802 0.2995629060631882 -0.15187027277192505 -0.03213249469088706
-0.19785363844052437 0.018246011468182166 0.11428090982000061 0.12187073994926534 0.221530648993311 -0.12750605317189387 0.0022683375706006384 -0.015550056064046872
0.007279691802856786 0.12651921959574533 0.1116943812837283 0.23044576405300407 -0.13274174583607876 0.0037433172398830122 -0.02802825666588707 0.009464769903065284
0.1349090667015644 0.10184110415461436 0.23713784001272875 -0.13687609189460367 0.005564413932369006 -0.04359420027477161 0.011817941095523702 0.13991188486822884
0.09184267718359393 0.2444918918680099 -0.13975235844943368 0.007650590951154265 -0.06142152486194935 0.013791382639960315 0.14165780202656536 0.08247263195655005
0.2532805072680586 -0.1414413012151141 0.00966718623064615 -0.08032337946245705 0.015250803616460223 0.1403763960311446 0.07265644820495809 0.2657021991818797
-0.14195238507341393 0.011206856087630168 -0.09912100578545882 0.015548638705904567 0.13545553795648008 0.06129581111988594 0.27813667111752743 -0.14137591026898513

scatter f8 [100, 15]
00000000: a073 ba4e a95c c93f b90c 043f c294 c93f
00000010: 8462 ec46 d8de c93f 6ad9 1896 3d35 ca3f
00000020: 680b 8a9f 4b95 ca3f c982 b2d4 c7fb ca3f
00000030: 6512 9a46 e564 cb3f ff3d 4fae 1ccf cb3f
00000040: bc08 2e0d f338 cc3f e15f 7a76 119f cc3f
00000050: 5a44 cda2 7202 cd3f b1b9 75fd cc5f cd3f
00000060: 76a6 78d4 2bb9 cd3f 4983 2c6c df13 ce3f
00000070: 3a06 22f3 7461 ce3f 080a beab 2258 c93f
00000080: 4bde 26cd 878d c93f 38fd 6f3c b7d4 c93f
00000090: bd28 3896 0028 ca3f 853b 4e41 0c87 ca3f
000000a0: 1a4e 6cfc d2ec ca3f 965a 345d ea58 cb3f
000000b0: 8724 8c61 66cb cb3f 5994 238f ca42 cc3f
000000c0: 416e 46c7 28be cc3f ca01 ddf8 f03e cd3f
000000d0: 9143 b51a a9bf cd3f 5ba9 40e4 473b ce3f
000000e0: 8f5f c716 18be ce3f 8e0b adc2 6528 cf3f
000000f0: 3b31 7f6f d656 c93f 49ae f811 a590 c93f
00000100: 5b86 e8ab 19dd c93f cb85 b403 3d35 ca3f
00000110: 7344 f915 ca96 ca3f 9078 e9cb 59ff ca3f
00000120: a3c7 931a 706b cb3f 7e1e 374c 86db cb3f
00000130: 0757 7b1a 484e cc3f de32 ec58 95be cc3f
00000140: 0206 734d 4135 cd3f eb48 393b efa9 cd3f
00000150: 942a 40eb 6324 ce3f ac13 77e8 86a7 ce3f
00000160: 7719 2a05 4f28 cf3f c7bd def4 b34b c93f
00000170: 9a68 6ad4 4786 c93f 09b9 3f91 d9d4 c93f
00000180: 5eae c1b1 6e33 ca3f a0eb 8672 6a9d ca3f
00000190: 4318 0105 940d cb3f adc5 207d 717e cb3f
000001a0: 0bf7 93ef feea cb3f 2f75 6b76 dc4f cc3f
000001b0: c6f0 6653 4ba9 cc3f 6e19 dbff eff4 cc3f
000001c0: 6c9f 6226 0830 cd3f 777f eab9 6458 cd3f
000001d0: ff82 bad8 5373 cd3f b0d7 adc8 b376 cd3f
000001e0: 1eb8 de36 6c5a c93f c073 942d 2696 c93f
000001f0: 914a 2622 0be5 c93f 3001 66b7 303f ca3f
00000200: 6c4d 4172 71a1 ca3f 5439 cb7a 8007 cb3f
00000210: 3aa1 c1c6 d06c cb3f 8300 f69f fcd0 cb3f
00000220: b1a9 c553 ba34 cc3f caf1 7aa9 e894 cc3f
00000230: c844 8b2e 53f1 cc3f c272 3d81 6a49 cd3f
00000240: 3a89 ff64 ec93 cd3f 3a8f bfd8 27d1 cd3f
00000250: 48b0 4376 e4e8 cd3f 139d d491 7f4c c93f
00000260: d426 94fa 6b7d c93f 5d1e c6b4 5dbf c93f
00000270: d4b4 9c81 7d0d ca3f 6815 e84d b865 ca3f
00000280: 6972 b4d0 6fc4 ca3f 7c09 ac29 8d25 cb3f
00000290: be4d bc5f 5686 cb3f aa8f e696 3ae5 cb3f
000002a0: 9fff 014d b73d cc3f 4848 964e 3590 cc3f
000002b0: f6a1 4748 90dc cc3f c80f f6ce 4122 cd3f
000002c0: 433f 88d6 d466 cd3f f65d 4cc5 818d cd3f
000002d0: 1952 0c54 445d c93f 24fc f095 ce97 c93f
000002e0: 9874 edc5 1ce5 c93f b478 0cb2 213f ca3f
000002f0: 2c01 4556 ffa2 ca3f 749b 63cf d40d cb3f
00000300: 77a6 9a33 f37a cb3f b94d b743 ede8 cb3f
00000310: ab34 475a 1158 cc3f 1ee3 7d9d d6c4 cc3f
00000320: b0b8 c8bd ab36 cd3f 9c3e 9df3 1aad cd3f
00000330: 168f 220b 842b ce3f a99b cf83 eab7 ce3f
00000340: 021f 5e5a 8b40 cf3f 9a5a f14e 4338 c93f
00000350: 1ffb 55b4 506b c93f 7c05 c9af 0db3 c93f
00000360: 8ea8 cf8f aa08 ca3f ea65 5eda c668 ca3f
00000370: 066d 68e6 2ecd ca3f a14a f8be 6032 cb3f
00000380: 83a3 ebac 3993 cb3f 9bdb d942 d8eb cb3f
00000390: b1d0 fbc5 b83a cc3f ab38 ea97 f97d cc3f
000003a0: 3fe0 a497 0cb4 cc3f 5892 94aa cae1 cc3f
000003b0: b491 8355 ec11 cd3f 120f a8b8 fb32 cd3f
000003c0: 82fe 088f 6f55 c93f ec2a d321 ee8e c93f
000003d0: 2530 eb3f cdda c93f 1662 831a 8b32 ca3f
000003e0: 14fa a4b2 2d92 ca3f 8409 01c2 8af7 ca3f
000003f0: 4bed 0c9c 3d5e cb3f c69a e028 35c5 cb3f
00000400: f1ba b755 a32c cc3f d000 ca15 df92 cc3f
00000410: c0c2 9b07 08f7 cc3f 7400 4b2b 575a cd3f
00000420: 480b 8fc8 d3be cd3f 12b9 da2a e02f ce3f
00000430: 2709 0ee1 1096 ce3f 625c d344 b35c c93f
00000440: 1204 d969 478f c93f 1a52 04c2 bed3 c93f
00000450: 1f22 0a21 8f25 ca3f 51ea 4cf3 ff83 ca3f
00000460: c432 6e8a a1eb ca3f 34ba 97e8 9759 cb3f
00000470: 43bf a38a fdca cb3f d417 4e20 133a cc3f
00000480: 6b95 8939 85a0 cc3f fb23 fe10 3afe cc3f
00000490: 66db cb3b 1b4d cd3f b0b9 a28a c18d cd3f
000004a0: 1bae 3a0a bebd cd3f 5e89 340e 3fdb cd3f
000004b0: 2166 0499 564e c93f 5781 bc90 6485 c93f
000004c0: 4efb 8a6e 59ce c93f 9a68 595e ea22 ca3f
000004d0: 3350 c246 f07f ca3f cb14 cf0c 82e1 ca3f
000004e0: 0475 8488 0641 cb3f 1137 c009 bb98 cb3f
000004f0: 62fc d7cd 4ee5 cb3f 46ba bff6 031d cc3f
00000500: 77a7 6459 6b3f cc3f d092 853e 8c4a cc3f
00000510: 6fad 77fd 453d cc3f fa23 290c 661c cc3f
00000520: f33f d110 15db cb3f 5ea7 0cdd 894c c93f
00000530: 043d 32f2 c47f c93f 4401 432c 06c2 c93f
00000540: ae8c cf1d 880f ca3f a5fe 3fce 1267 ca3f
00000550: 8580 68cd 1fc7 ca3f 4141 18fa 432c cb3f
00000560: 42c5 2e6c 1f94 cb3f bc5e 913e 20f7 cb3f
00000570: 461f bd8a 424d cc3f 4fe8 5fd4 f492 cc3f
00000580: 7df4 e987 bcc0 cc3f aab9 4903 5ed7 cc3f
00000590: 9534 510a 13e0 cc3f 2e92 7558 a4e0 cc3f
000005a0: 4c79 91a5 3750 c93f a07b d664 2e90 c93f
000005b0: de38 da71 b6e0 c93f 6586 e56a c53a ca3f
000005c0: 59de 7f31 ff99 ca3f c1f1 217f b7f9 ca3f
000005d0: cebd 7353 8f55 cb3f bdb8 a9c6 d8aa cb3f
000005e0: 7ade 8c9c 05fc cb3f c976 755a 8546 cc3f
000005f0: 6298 cee3 008d cc3f 22bd cc3a 16db cc3f
00000600: 0404 2db3 132e cd3f 029e 0c8e 5f98 cd3f
00000610: 0895 5ff8 9313 ce3f 97d4 ef63 e069 c93f
00000620: e9fc ff03 aba1 c93f 9c1d f0b4 08eb c93f
00000630: 6ea2 01c0 e840 ca3f 6387 28d5 3ba1 ca3f
00000640: 05f3 3dae ec09 cb3f 8eaa 6856 9e77 cb3f
00000650: 790b f69c 02e9 cb3f 9f8c 2ac7 695d cc3f
00000660: 5efb 3f76 71ce cc3f 3fc5 c3e4 9f3a cd3f
00000670: 0ec3 fcc2 5395 cd3f b77d 03e4 f6d8 cd3f
00000680: 1f24 20ef 4001 ce3f 89b6 bb63 7d06 ce3f
00000690: d8d4 cd96 6d43 c93f fb17 0f97 7976 c93f
000006a0: 7be6 e46e b8bc c93f 6512 b0c2 c111 ca3f
000006b0: 1e0b 66e9 ac72 ca3f f633 9297 0dde ca3f
000006c0: 1296 d4fe 0e4f cb3f 8772 7fce 8fc5 cb3f
000006d0: d698 d3d6 e73a cc3f 10fb 0141 70ac cc3f
000006e0: 6e83 0ec2 7b19 cd3f d234 a8c4 e185 cd3f
000006f0: 6e4d 6c2b e1f4 cd3f ce62 3431 036b ce3f
00000700: 8f21 d2b3 54ef ce3f 6543 dbfa 397f c93f
00000710: 3641 8733 a8bb c93f 1270 0485 660a ca3f
00000720: 8684 d411 2365 ca3f 7ee3 91d4 08ca ca3f
00000730: f5d5 e4e1 2f36 cb3f db91 a638 58a6 cb3f
00000740: ca15 130f 7d19 cc3f 2ef8 877f 8a8d cc3f
00000750: 8c5a 1b93 bdff cc3f e5c6 2977 5371 cd3f
00000760: 499e bd76 67da cd3f 5eaa ae12 0038 ce3f
00000770: 04ea 0cf0 ce86 ce3f 00c7 3937 a7aa ce3f
00000780: 0122 6c1e b466 c93f 4f9a 5e81 989a c93f
00000790: 9d21 aece f9dd c93f ccbd d2ad 7629 ca3f
000007a0: 8e41 8623 357d ca3f 07d9 a68f 03d8 ca3f
000007b0: 1c9c fc71 1e3a cb3f dbf3 2295 96a4 cb3f
000007c0: 5d8d c727 b918 cc3f 2df2 a0af a991 cc3f
000007d0: de21 63fd 020d cd3f 55db 2bc0 8180 cd3f
000007e0: 15ae f301 93f1 cd3f 232d 5281 374f ce3f
000007f0: 5b99 8a5e 8e91 ce3f f1ea 66db ed4f c93f
0.1981403002181681 0.1998522575087003 0.20211318457656458 0.20474977330168126 0.20768113412858757 0.2108087338028979 0.2140165896163523 0.21725805770118709
0.22048795836969315 0.22360437665042723 0.22663720082576583 0.22948610664339023 0.2322134768922301 0.23498146802833222 0.2373491465732956 0.19800217996460412
0.19963166730097934 0.20180407000587208 0.20434577307634597 0.20724633396863737 0.21035229993195587 0.2136509852504857 0.2171447731309721 0.22078830708702205
0.22455320101004086 0.2284833159592508 0.23241151622871972 0.23618410725732528 0.24017621147390542 0.24342033391630163 0.19796257442647822 0.1997267091513655
0.2020599450489041 0.2047497051326402 0.207726727227541 0.21091768700256752 0.2142162446758081 0.21763685914469372 0.2211389664941452 0.22456614343572928
0.2281877163095914 0.2317484893015441 0.2354855440792859 0.23948751784169298 0.24341762306375944 0.1976227708487228 0.19941041824205713 0.20180816261513027
0.20469459228057735 0.20792894928112293 0.21135187382077633 0.21479624376074238 0.21810900400299035 0.22118716985907258 0.22391645023697587 0.22622489922487027
0.22802831529883905 0.22926005437784244 0.23008201677750859 0.23018500613005477 0.19807198218535488 0.19989468789654374 0.20230235259494525 0.20505341486933437
0.20805185393201542 0.21116643901627674 0.214258286522872 0.2173152714785865 0.22035912599978993 0.22329433703806806 0.22611465237290518 0.2288029795698972
0.23107676440765507 0.2329454239217002 0.23366981291417432 0.19764704342490144 0.19914006934441508 0.20115252806521058 0.20353669003217212 0.2062292461779791
0.20911977472941892 0.212083478305498 0.21503715204799606 0.2179330097980004 0.2206334234251672 0.2231508859372886 0.22548106698310705 0.2276079426338795
0.2297006652374823 0.23088094838816148 0.1981587801352738 0.1999452812324033 0.20230445541793496 0.20505162423882484 0.20809928619747475 0.21135959745808075
0.21468963641864366 0.2180458622593571 0.2214376154719607 0.22475702943827341 0.22823092238235665 0.23184525389887234 0.2357029966707322 0.23998767314989536
0.24415723717196874 0.19702950815800052 0.1985875015779692 0.20077677806152028 0.20338947317151618 0.20632253325020083 0.20938669443498997 0.2124749119253311
0.21543045943624514 0.21813491119584402 0.22054204623385013 0.2225944511196237 0.22424466518873662 0.22564061478728337 0.2271094720409913 0.2281183864253014
0.19791979297768952 0.1996743836555973 0.2019897997000736 0.20466746134367558 0.2075860140120801 0.21067938301900935 0.21381349677708736 0.21695580001797604
0.22011224446710956 0.2232321602241485 0.22628879901414756 0.2293194733993037 0.23238608639629832 0.23583604900836314 0.23895464886670334 0.1981414876997603
0.1996850268206179 0.2017744490955387 0.20427121270428558 0.20715331439881138 0.21031588801669987 0.21367167336525628 0.21713227529061827 0.22052229955096314
0.22364869412846686 0.2265083868954035 0.2289156000112726 0.23088855046576162 0.232352976793991 0.23325336640943822 0.19770319434682995 0.19938332621769447
0.2016097821960678 0.20419053656479919 0.2070293756011111 0.2100069582503806 0.21292192140473543 0.21559846855273482 0.21793541956864987 0.21963548229492086
0.22068540444280035 0.22102501919575568 0.22061991573660175 0.21961665719780382 0.21762336083565934 0.19764827054433004 0.1992117102240415 0.20123364602296523
0.20359899001696163 0.2062705523567178 0.20920178918550306 0.21228837691934113 0.21545784742697022 0.21847918562956703 0.2211077859340042 0.22323475236754795
0.22463184963627106 0.22532248650118208 0.2255882072808261 0.22560552901554004 0.19776053985965303 0.1997125618335902 0.20217018660736746 0.20491855353889146
0.20782461087195506 0.2107457514538407 0.21354857992945003 0.2161513299974497 0.21862859863334788 0.2209021274274419 0.22305308459653178 0.2254359995945175
0.22796865700550495 0.2312125629043607 0.23497247340780114 0.19854359512070083 0.20024621672926138 0.20248516878949097 0.20510587096511607 0.20804546268578425
0.2112403727332081 0.2145879671018815 0.21804840721241783 0.22160074448502073 0.22505014680788354 0.22835158033516653 0.23111960430971873 0.23318372853735322
0.23441325832416823 0.2345730530718593 0.1973702417705343 0.19892806888509526 0.2010717908358862 0.20366689687957087 0.2066246165887486 0.2099015226453102
0.21335017626658775 0.21696660597708137 0.22054765691354444 0.22401240514951626 0.2273401925604292 0.23064825155635177 0.2340356313730853 0.23764076139993623
0.24167879848779392 0.19919514416553877 0.2010393382647721 0.20344239706980766 0.20621145601856855 0.2092906034411292 0.21259115724539837 0.21601393476625116
0.21952784763395378 0.2230694887838935 0.22655458147956542 0.2300209361888427 0.2332276658810193 0.23608399307461786 0.23848902436459707 0.23958292194907216
0.19844676480740023 0.20003038708564921 0.20208666412169132 0.20439036834203106 0.20694603190032662 0.20971722139592705 0.21271114888915654 0.21596033365304276
0.21950449411734044 0.22319527698154343 0.22695958492683038 0.2304842174850942 0.2339347610026016 0.2367925054025842 0.2388170205715124 0.19775174344052673

Maxvals f8 [11]
00000000: e061 b69d 18f0 2840 f0ba f559 f79e 2840
00000010: 8492 12f5 0165 2840 afa8 7032 a646 2840
00000020: b294 d586 642e 2840 688e 1004 ea1d 2840
00000030: f353 2c7f 53fb 2740 22e9 8ba9 afdd 2740
00000040: 95b8 25ed 1fb8 2740 d387 ad1b fe90 2740
00000050: 47d6 f9c9 1150 2740
12.468937805665462 12.310480891462674 12.19728055812562 12.137986732723531 12.090610707828407 12.058426024457006 11.990871404801487 11.932980821923199
11.85961857877218 11.783188691075258 11.656385719058688
