Data/TNG/Model_snap8.npz (npz, 225162 bytes, 5 tensors)

x f8 [31]
00000000: 0000 0000 0000 2640 3333 3333 3333 2640
00000010: 6666 6666 6666 2640 9999 9999 9999 2640
00000020: cccc cccc cccc 2640 ffff ffff ffff 2640
00000030: 3233 3333 3333 2740 6566 6666 6666 2740
00000040: 9899 9999 9999 2740 cbcc cccc cccc 2740
00000050: feff ffff ffff 2740 3133 3333 3333 2840
00000060: 6466 6666 6666 2840 9799 9999 9999 2840
00000070: cacc cccc cccc 2840 fdff ffff ffff 2840
00000080: 3033 3333 3333 2940 6366 6666 6666 2940
00000090: 9699 9999 9999 2940 c9cc cccc cccc 2940
000000a0: fcff ffff ffff 2940 2f33 3333 3333 2a40
000000b0: 6266 6666 6666 2a40 9599 9999 9999 2a40
000000c0: c8cc cccc cccc 2a40 fbff ffff ffff 2a40
000000d0: 2e33 3333 3333 2b40 6166 6666 6666 2b40
000000e0: 9499 9999 9999 2b40 c7cc cccc cccc 2b40
000000f0: faff ffff ffff 2b40
11.0 11.1 11.2 11.299999999999999 11.399999999999999 11.499999999999998 11.599999999999998 11.699999999999998
11.799999999999997 11.899999999999997 11.999999999999996 12.099999999999996 12.199999999999996 12.299999999999995 12.399999999999995 12.499999999999995
12.599999999999994 12.699999999999994 12.799999999999994 12.899999999999993 12.999999999999993 13.099999999999993 13.199999999999992 13.299999999999992
13.399999999999991 13.499999999999991 13.59999999999999 13.69999999999999 13.79999999999999 13.89999999999999 13.99999999999999

intercept f8 [100, 31]
00000000: 6a7b eedc c361 d23f e4c9 927b 17ea c03f
00000010: 0056 5301 e61f 8c3f 00a0 0a07 28d9 a9bf
00000020: c05c 1810 b304 a9bf 4030 eed4 35b4 9a3f
00000030: 04cc 8425 d1fa c53f 586e 8fbc b12d d83f
00000040: 1d7e 197b 1604 e43f c158 164e f597 ec3f
00000050: b442 1c27 389b f23f be1e e345 0c9a f63f
00000060: c441 bcc8 f529 fa3f fd2f 300d 1426 fd3f
00000070: 4c8a caac 2b99 ff3f 0c4f 83b8 a6b8 0040
00000080: 5cd4 5712 a463 0140 4cc8 6acb 8cc2 0140
00000090: ae06 b98b f4d9 0140 679d 68cc 4d9f 0140
000000a0: ba0a b107 dcff 0040 9e3d 15b3 05e7 ff3f
000000b0: e2c6 7f57 a34f fd3f 40d8 ce1f 0a19 fa3f
000000c0: 003b 1ca0 42e6 f73f 8834 1890 c91d f63f
000000d0: 3093 b154 dc35 f73f f22a a038 0ee1 fb3f
000000e0: fa88 5bd1 2720 0140 0c80 e89f 68d6 0340
000000f0: b271 c35b ed94 0440 df32 278d 5a94 d23f
00000100: 0407 2b28 9e92 c13f 408a f85f 6de7 953f
00000110: e076 6dec 81ca a5bf 30f7 6523 515e a5bf
00000120: 00c6 beb4 a27c 9f3f 5c3e 13f4 543d c63f
00000130: 237f 5b2c e42d d83f 8fc8 2e00 d210 e43f
00000140: ae65 5436 caca ec3f ac1d 2a1f 6acf f23f
00000150: 32b0 d3d6 8dee f63f 06a4 abfe b6ad fa3f
00000160: 90d4 6801 c9dd fd3f f38f 471a 2e44 0040
00000170: 629d 7f20 d550 0140 34f3 9bcc e60a 0240
00000180: b388 ef48 cb5f 0240 8b4b e773 933b 0240
00000190: 36e8 f4ec 6c89 0140 f235 9507 f025 0040
000001a0: e156 23b0 4b45 fc3f 536c 2baf b7d3 f73f
000001b0: 25fc 0382 4837 f33f ebcf 1567 1b20 f13f
000001c0: 84db 4bc5 2b81 f03f ab15 d9fb 1ade f43f
000001d0: 2cbe d910 c19b fb3f 8867 1841 9f18 0340
000001e0: da42 5c03 9fb9 0640 32b1 bcb0 516a 0740
000001f0: 784b 7611 50ee d23f 2429 7ca1 1fe6 c13f
00000200: 00b0 4571 c790 923f b0f5 72b7 031e aabf
00000210: a016 3eec ca2b acbf 4007 c575 c327 8f3f
00000220: 8049 34ed 7339 c43f fe3c 73d5 4f4e d73f
00000230: 41b4 4573 e59e e33f 52c0 f8fe 8935 ec3f
00000240: 058e 7de7 6164 f23f d420 69c4 da54 f63f
00000250: 0230 5125 05db f93f 2e60 e755 ffe5 fc3f
00000260: fa8d 5247 3385 ff3f e64c 726c aed1 0040
00000270: 170f 45e6 1aa5 0140 3620 2280 433e 0240
00000280: 0ef9 387e aa8d 0240 6255 444a ef88 0240
00000290: cc7a dd65 431b 0240 8edf ec45 4754 0140
000002a0: 68af b56d db2b 0040 702b c9e4 1fb9 fc3f
000002b0: 13b2 da5b 38e3 f83f 72ce 1290 b1a4 f43f
000002c0: 2470 5f9b ecf5 f03f bd94 214b e8e6 f03f
000002d0: 0e7f 4a59 08a2 f13f bb54 373a 0e63 f43f
000002e0: 7a33 bf52 b8f9 f83f 0ffa 5655 623d d23f
000002f0: f849 4a57 4010 c13f 20b9 7976 446c 923f
00000300: 0080 ca2a 384e a6bf 4009 085e 3c00 a5bf
00000310: 2051 a2c6 1d2d a13f b042 c767 c7b6 c63f
00000320: 8cd1 9e13 ea60 d83f e9fd c295 fe08 e43f
00000330: 881e 104e 0a78 ec3f 7220 b470 3e6f f23f
00000340: ab6f 54a5 b74a f63f 0b31 1d50 79b6 f93f
00000350: b266 2167 2893 fc3f d6f9 9a49 d0d1 fe3f
00000360: f197 5561 0930 0040 a872 dac4 40b4 0040
00000370: 0c25 e640 d70a 0140 e2ef e786 7328 0140
00000380: 2497 449d ea36 0140 6347 bf30 3b16 0140
00000390: e1cb faa6 e29b 0040 1876 9a0a 827e ff3f
000003a0: 70e6 f834 084e fd3f ead0 38d2 2492 fb3f
000003b0: 88ae 7e3b abe6 f93f b415 8a91 0d3d fc3f
000003c0: 5ecf 25c0 ad81 0040 74d6 0844 ce86 0440
000003d0: 3abb 181e 9295 0840 4614 63f0 a949 0640
000003e0: 20eb 50af 273c d33f ec88 de46 580c c33f
000003f0: d0be 04e2 c65c a03f 606b 8a88 ab7c a1bf
00000400: 20c0 4d77 f552 a3bf 2093 2d7f 08f3 9e3f
00000410: 704a dfc1 0e64 c53f ec0c 0925 9a69 d73f
00000420: dba1 1635 7364 e33f a828 54f5 5ec0 eb3f
00000430: 4198 0b41 a80f f23f 7e5f bdf1 62e9 f53f
00000440: 067c ec11 5252 f93f 5aad 9460 1c32 fc3f
00000450: 7840 6c07 84ab fe3f 7c48 54ad cf58 0040
00000460: 4ae0 3271 0131 0140 4318 7b8b 93c1 0140
00000470: e40f 472b eafb 0140 9480 f3a6 72c6 0140
00000480: 0063 bf6a 02fe 0040 7b68 abe2 b648 ff3f
00000490: 1bf8 a8d8 a987 fc3f 281e b1e3 5ab7 f93f
000004a0: 55cd 6422 9698 f93f aba9 3611 ff52 fb3f
000004b0: a656 15d8 3868 0140 44ed 6a5e 21b9 0640
000004c0: c2fb 7178 dda6 0b40 a3de 17df 21cd 0b40
000004d0: 4eba d1da 8195 0740 8b3b 2dd8 31dc d13f
000004e0: 20ee c92d 6da2 bf3f 80ff 6f2f f83d 753f
000004f0: 30aa 8218 7aea adbf 70d8 0392 646b acbf
00000500: 4071 36d3 24e4 963f 489f beb0 cd25 c63f
00000510: 247d 9f34 1395 d83f 98ea 9493 8c54 e43f
00000520: 7cb5 75b4 06d5 ec3f f426 52c3 85a6 f23f
00000530: f405 7472 9e7a f63f 2157 b58d 46ec f93f
00000540: 8f44 8bbb 12df fc3f aa34 5ec5 905d ff3f
00000550: 2c99 65b6 afb6 0040 47c0 065b 6d89 0140
00000560: 5bcf ab70 e61e 0240 c30c a8ef 388c 0240
00000570: 4209 98cc 65cd 0240 d805 d3e2 35c1 0240
00000580: d03d 97c1 1767 0240 4aa9 1984 e8cb 0140
00000590: 5a98 6dd2 5ec5 0040 9bb2 cfcf 0123 0040
000005a0: e2f7 3f68 fb4e fe3f 8ac5 64b7 b3f8 fd3f
000005b0: 6670 e8ff 9362 0040 513d 0071 2e04 0340
000005c0: 49b6 71d6 1d02 0440 bef9 397c 181b 0240
000005d0: 5d7b c85b 6b47 d23f 64a5 0105 03f2 c03f
000005e0: 0011 4e38 a549 903f 9002 ff46 0973 a7bf
000005f0: f0d8 adc3 053e a6bf c080 7f84 3087 9e3f
00000600: 786b 67d4 4bde c53f 2e77 e237 59b4 d73f
00000610: 5df2 bfc5 aba4 e33f 878e d4bd bb36 ec3f
00000620: bb41 ee4d b785 f23f eeec 9371 17bb f63f
00000630: 2ef0 05c0 d9a3 fa3f 1cf2 e48c b8f5 fd3f
00000640: b49c e5e3 7450 0040 9c4b 2ad5 c128 0140
00000650: f8c0 cffe 918a 0140 5687 5ead 5863 0140
00000660: 0054 9de8 e7c4 0040 cc60 b20f 8e77 ff3f
00000670: c0ad cc06 abc5 fc3f 3c8f ebd0 5faa f93f
00000680: 2494 fa91 7cab f63f 92d0 2335 b207 f43f
00000690: 5ed1 eddb 861c f43f 8060 36fb b200 f63f
000006a0: 5c12 feff 252e fb3f c52b 07a5 db34 0140
000006b0: f2a3 149f d2ee 0540 764e 9035 3e7c 0a40
000006c0: 4a2e cdb9 5523 0b40 26f8 6e45 240d d23f
000006d0: 7006 0f4b bc94 c03f c0d1 3cc8 5093 8e3f
000006e0: 80c6 9e1a c9a9 a6bf 5041 c6bd df67 a3bf
000006f0: 50cb 9f88 2d83 a53f 3831 ae39 3559 c83f
00000700: 6c44 2876 e94a d93f c773 4b6c 9473 e43f
00000710: 3af9 7a45 6be3 ec3f a137 d3b8 1da3 f23f
00000720: d200 c653 7c87 f63f b87b 8706 540d fa3f
00000730: 25ad ab91 ce16 fd3f 6496 7b99 a0b1 ff3f
00000740: d170 7243 2aed 0040 e66f 0c58 21cc 0140
00000750: 12b5 0739 c854 0240 1025 cb78 bc94 0240
00000760: cd5b 6440 035f 0240 15f9 55e7 b6b7 0140
00000770: ded4 3899 8c8e 0040 b48e f8db 89c0 fe3f
00000780: f7aa b622 0f26 fc3f bcc9 077c 3728 fb3f
00000790: 7cfd a7a5 d68c fb3f bac6 c640 6d09 ff3f
000007a0: 7c12 5992 b51e 0340 85da e06c bfa4 0540
000007b0: 359a 75c2 86e5 0440 1465 58ce d1b8 0240
000007c0: a86b d386 8960 d23f 4ce9 b4a5 684b c13f
000007d0: 005e 6764 825d 943f 60fd 29a0 a3e7 a5bf
000007e0: 40ad 22a6 99e0 a4bf 8020 9de6 d213 a13f
000007f0: 00e9 c4da 99a7 c63f 9ffa 1165 1885 d83f
0.287217107537734 0.13214391263825498 0.01373271647973251 -0.0504848965259157 -0.04886397906755624 0.026078072663537677 0.17171682674378996 0.37778895773019405
0.6254990009583171 0.893549587740175 1.1628953483342857 1.4126093606918597 1.6352441636300776 1.8217964663663218 1.974895167317885 2.090161744601465
2.1736527855924077 2.219995106884232 2.2314234653320772 2.2027851075578613 2.1249313927558804 1.9939019198826382 1.8319428842482286 1.6311131708621502
1.493715882712138 1.3822723034566327 1.45064957698305 1.742445203012434 2.1407009464320454 2.4796917431667733 2.5727183503169835 0.29030479225620626
0.1372869201787169 0.021390637381168753 -0.04256063471869509 -0.04173520619495574 0.030748884469806725 0.17374669950230526 0.37780098277834123 0.6270532611436169
0.8997546254278654 1.1756383149494054 1.4332407371212068 1.667410845572023 1.86664677191337 2.033291058834942 2.164469007391447 2.2553230271427314
2.2967744539356203 2.279089837547365 2.1921022903670986 2.018524226418543 1.7669178848640785 1.4891888468325944 1.2009968832715086 1.0703386332288527
1.031535883606666 1.3042249524890888 1.7255259187912868 2.387022503430618 2.8406353247195115 2.9269136245331078 0.29579545693666587 0.13983531365404034
0.018130413330638362 -0.051010242599186184 -0.05502161153621654 0.015212561637443778 0.15800332147825813 0.36415477604619173 0.6131465197955849 0.8815355281749453
1.1495074312778126 1.3957164451876922 1.6159717042637571 1.8061517100923186 1.9700196062120754 2.102383467901393 2.2056177129578702 2.280402184525907
2.319172845948862 2.3168626596549737 2.2633121450629456 2.16615156773691 2.0214146205016057 1.7951964318224007 1.5554736698205758 1.2902083995694764
1.0600400990724745 1.0563738760768466 1.1020587432794318 1.2741834901874387 1.5609667999553651 0.2849965890308405 0.13330845129219404 0.017991132479829308
-0.043565516685021066 -0.041017424086037924 0.03354733514530239 0.17745297019293593 0.3809151832204172 0.6260979580910632 0.8896533512751867 1.1521591570363197
1.39324154455151 1.6070492867903023 1.7859272030386077 1.9262240290842008 2.0234553913351125 2.088014161983967 2.1302933759913056 2.14475160022083
2.151814678817475 2.135855084264152 2.0761158986365307 1.9683857359117436 1.8315507954816006 1.723179646663136 1.6188156436936953 1.7649055180676045
2.063319684175368 2.565823108215051 3.0730326033875857 2.7859686641918726 0.30054657097541515 0.14881423435605912 0.03195783146872844 -0.034154282014432935
-0.03774230080932761 0.03022397304757185 0.1671160170213457 0.36582044235929234 0.6060119664080575 0.8672327796532686 1.1288225689727514 1.3694791262587098
1.5825977993151823 1.7622340939222654 1.9168739595370692 2.0433648625703977 2.1489285319949305 2.219519700712256 2.2480052357732223 2.221898369127368
2.1240280475288955 1.95525253813551 1.783120962456002 1.6072644132817775 1.5997525542741944 1.7077627823260666 2.1758896714698777 2.840395677221439
3.4564771089348776 3.475162260929055 2.948001584554084 0.2790646182156073 0.12357218139543891 0.005186051820601167 -0.05842954205703099 -0.05550684244546822
0.022354674712560696 0.17302867059810922 0.3840988172432438 0.6353209383444947 0.9010041737180212 1.1656549100611615 1.4049362631634468 1.6201844726069299
1.8044612241685944 1.960343142479625 2.0892023324733113 2.1921031104502933 2.2650879671509023 2.3184679721030945 2.3502918228051906 2.3443410607003266
2.3003382801323156 2.224564582856293 2.0963722648330476 2.0170932994136144 1.8942827293644702 1.8732182658971817 2.0481338494119425 2.3770417049596877
2.5010334733440556 2.2632302956764923 0.285609092361417 0.13238561386541925 0.015905934869366867 -0.045799531857032894 -0.043441944252593845 0.02981258209899873
0.17084644194877874 0.3703825994251585 0.6138514387417434 0.8816813190100711 1.1576455158393475 1.4206766544946805 1.6650025845438097 1.8724904540714595
2.039285450405794 2.1449009564907566 2.1926612765456603 2.1735089821312767 2.0961454556477292 1.9666882146030273 1.7982588067633145 1.6040952835982827
1.4168668463037273 1.251878936364879 1.2569645491576789 1.375170689867474 1.6987667083459632 2.1508095639050873 2.7416126659559206 3.3106655296958776
3.392253352712747 0.2820521047650594 0.12953904786086268 0.01492941962315164 -0.04426411104158223 -0.037901870647263025 0.04201643269325095 0.19022240940501844
0.39519726313398595 0.6391088595515776 0.9027611119306933 1.164823266957207 1.408077552070655 1.628253961090861 1.8180680933244926 1.980866050283475
2.1158032674121405 2.2246729735179427 2.2913975196339686 2.3226251065249315 2.2963929205538762 2.2147043297874327 2.06960410790144 1.9220064728369097
1.759291778182783 1.69731853913673 1.721884390921189 1.939801457436643 2.3899947579796486 2.7054432397956725 2.612073439802112 2.340243923256489
0.28714216391170533 0.13511379328867645 0.019887959840927394 -0.04278289156081416 -0.040776063471037904 0.03335436883077225 0.1769897764405144 0.38312349195613565

slopes f8 [100, 31, 7]
00000000: 7f8a d3de caaf aa3f 0285 6875 e637 d23f
00000010: 7c28 e950 c454 ee3f d14e f4a6 9d72 c2bf
00000020: 0090 4033 79d1 603f e071 e6d0 6dff 96bf
00000030: 8aab 0408 9bf1 7c3f fbad 2448 78d1 b03f
00000040: da63 fe7b 023b d13f 4c87 c478 394b ee3f
00000050: 0c75 b846 d927 c4bf d8eb 21ae 7f92 613f
00000060: 7e82 7455 6863 a3bf c4a8 0e65 e38c 803f
00000070: 7990 81d4 4f6a b33f 0a39 e84a 6a48 d03f
00000080: c2ec 8d84 d343 ee3f e09f e0de 09d0 c5bf
00000090: 581c 23cf b0bb 613f 2064 bcb1 5d19 aebf
000000a0: 1c1c 7b95 a465 823f 223d 1a2d d6c0 b43f
000000b0: 2cab 7a9f b6dd ce3f 9a32 e855 823c ee3f
000000c0: 300c f3b3 3253 c7bf 9052 9e60 512b 613f
000000d0: 90ea f400 e1cd b5bf 77a7 4119 eb93 833f
000000e0: 999d bdbd 5897 b43f b81f c216 df70 cd3f
000000f0: 56a6 b341 b42d ee3f 8408 2f27 f499 c8bf
00000100: 702f 849f c92c 5f3f 1008 52c7 bfc3 bdbf
00000110: e305 1123 a89a 833f 3cf5 7589 ebc9 b23f
00000120: c8e7 1792 8f5d cc3f edcf a511 790d ee3f
00000130: c140 d23a 088c c9bf cc9d 37f2 70af 593f
00000140: 6626 da51 1044 c3bf e1b8 5ae3 a13d 823f
00000150: a824 5016 d1de ae3f dc92 1e6c 32b5 cb3f
00000160: 3a0f 780b 58ce ed3f d348 5e9e de19 cabf
00000170: e032 8494 646d 533f 4afb 3f71 e3c2 c7bf
00000180: 6490 3806 5927 7f3f daa9 63e4 e791 a53f
00000190: 103c b189 bb7b cb3f de37 73fd a064 ed3f
000001a0: 404e 23cc af3d cabf 80a2 6d9c 4bd4 493f
000001b0: abbd 133b 9d07 ccbf 069b 8400 1631 783f
000001c0: b906 36f7 7c19 953f 64bf c915 07b2 cb3f
000001d0: 7e3b ee2a c6c9 ec3f 38ad d3ad 57fb c9bf
000001e0: 00a4 2870 6f36 403f 5648 4855 d4c2 cfbf
000001f0: 216c 21cf dce2 703f f35c d0da 99ac 63bf
00000200: 04d4 f0ce dc4e cc3f 4921 5c9b 3800 ec3f
00000210: 9bf5 4132 a85f c9bf 003a de96 eafd 2b3f
00000220: 7387 5201 0a5c d1bf 0000 0007 0bd4 643f
00000230: 981e c194 64de 99bf 6c33 2ed0 ae3d cd3f
00000240: 601c 2bc8 150e eb3f 7cbe 17ce 207b c8bf
00000250: 0058 c22c 2d25 17bf 723f 264b b862 d2bf
00000260: 10e9 20af 4d1a 573f b8aa 4cb3 c6ab a7bf
00000270: b0d4 1ea8 4462 ce3f c413 a38a d305 ea3f
00000280: 761f 0329 5a5c c7bf 5ceb f8fb 0765 3fbf
00000290: ac58 36c9 a7f2 d2bf 90d9 6e91 b4b8 503f
000002a0: a828 9be2 5693 b0bf c8ff 9ab4 c49c cf3f
000002b0: 945b f14b f3ec e83f 2a23 1905 4515 c6bf
000002c0: 00bf 9123 a69f 51bf 1ea6 0a10 0b15 d3bf
000002d0: 00d4 b092 482c 573f bda0 9fc6 0982 b4bf
000002e0: 20e1 56b0 db6d d03f c4fa 5360 32d6 e73f
000002f0: 828f 39be a3b0 c4bf 6057 14f1 bdba 5ebf
00000300: 26d7 260e 69d6 d2bf 8018 7260 e136 643f
00000310: 577e cf5e 50b5 b7bf 2a33 451e e1fd d03f
00000320: adad 5d89 5fca e63f 02b9 e5f9 bb3f c3bf
00000330: 30d2 e2b1 8f65 67bf 4054 6635 2b49 d2bf
00000340: 00db 8566 ff86 6f3f 7b41 72c4 1219 babf
00000350: 3222 1c51 5a79 d13f e6a0 0418 eed1 e53f
00000360: 6f86 bd1d 73d2 c1bf 6881 89c6 1a81 6ebf
00000370: d96e 5cc1 7585 d1bf 9008 109d d2f6 753f
00000380: e5f1 2080 b2d1 bbbf 2866 7335 d2d5 d13f
00000390: 52ad 7e75 67f0 e43f 4af8 0603 b86c c0bf
000003a0: e89d 5b4b c728 71bf 341c abcc 9f98 d0bf
000003b0: 900d 7d95 7d91 783f c0c1 864e f8c4 bcbf
000003c0: 00fa ca49 4610 d23f fe2b 42dd 753a e43f
000003d0: 660b d6b0 8041 bebf e0b9 3007 2f88 71bf
000003e0: fd8b 3127 9011 cfbf f082 e16a b521 793f
000003f0: 864b a95d 5202 bdbf e637 235f ed1f d23f
00000400: b097 eae2 cfb6 e33f 63e0 d1da 22da bbbf
00000410: 0037 e102 b13e 6fbf d4c4 2961 e6c0 ccbf
00000420: 884f d1cc ff19 723f b992 5c34 7673 bcbf
00000430: 00b6 cc34 62fc d13f 4ce4 dfa7 e654 e33f
00000440: 1d4f e06e 2fb5 b9bf 7059 8e7a ed8d 65bf
00000450: 0278 80b0 c36a cabf 00be 20bf 9834 543f
00000460: 8466 1e22 b8e8 babf 0cdd e714 76b6 d13f
00000470: 6ba6 46ad cb32 e33f 1ff5 0e8b 5ad6 b7bf
00000480: 80e4 ac13 2e35 42bf 3dd2 b26c ab04 c8bf
00000490: c0ce 0c59 7a47 6bbf b0e9 d825 8d58 b8bf
000004a0: 7230 1478 4d28 d13f fa2a c967 2713 e33f
000004b0: ec5e 8a4b 3a58 b6bf 0c2b b1f2 bfe7 633f
000004c0: a31d 6518 f2bd c5bf 00f7 239c 85d8 7abf
000004d0: 286c 1d4f 9e39 b5bf 84ea 159f 1543 d03f
000004e0: 8581 4523 6aea e23f d488 02b8 ab19 b5bf
000004f0: 4211 42c7 63f1 773f 78e2 4f0f db67 c3bf
00000500: 4039 236c 6b3c 80bf b115 d552 c862 b1bf
00000510: ac69 7a07 bf66 ce3f b202 2ea9 ab7b e23f
00000520: 0c93 fbba 8be5 b3bf 905d 488f 9f92 853f
00000530: 7ccf acee fedc c0bf e073 e052 0a67 80bf
00000540: e89a 5c9f c9b6 adbf ac98 635d 92a6 cb3f
00000550: 3cf7 ab92 2107 e23f 588a 05fa 4232 b2bf
00000560: 1056 d60e babe 8d3f 50e1 433e f8e9 bbbf
00000570: 8080 f9f3 fd32 77bf de4d df52 2fc8 a9bf
00000580: 3456 cc78 4b8a c83f edc0 481b 8f46 e13f
00000590: 34ab a1c5 24a8 aebf 70e3 b828 7561 943f
000005a0: fc65 54c0 916e b4bf 001e 6b41 4868 55bf
000005b0: f987 45dc 16e8 acbf 8aab 5491 ab1a c53f
000005c0: 2516 ee98 2bce e03f 0cdd c48f 2931 a7bf
000005d0: 8865 5b9d 819e 9d3f cb09 0c28 9039 a6bf
000005e0: 0084 1e78 b68f 3cbf 3a91 be73 e141 b4bf
000005f0: 5ffe 1833 ece9 c23f 98dd ef7d 5899 df3f
00000600: 18c2 2e5d 05b5 97bf 0e51 adc2 e6e5 a63f
00000610: 1c88 585f 6162 7b3f 2023 d662 82b1 6bbf
00000620: 1794 aa5c 0803 bcbf 7661 6999 2677 c13f
00000630: 1ab5 b0b9 995e dd3f e0cf adf2 b095 7d3f
00000640: 18fa 3e06 bdc4 b03f 58f0 ae75 a689 b13f
00000650: fecf 9e39 fa94 91bf 9af1 be16 3747 c1bf
00000660: 96a5 5185 cf2b c03f 5ca1 0b81 cfec db3f
00000670: 500c ef55 877e a43f 1082 dbb3 afd4 b73f
00000680: 2511 9dfd c4e3 c13f d9b0 d161 9d29 a4bf
00000690: 2a9d 306c ed30 c2bf db93 aa76 e95f be3f
000006a0: 047b d8ce 5cda da3f aea2 e3bb d0f7 b43f
000006b0: 210d cbea 092e bf3f 8c9d b1b1 fd60 cd3f
000006c0: a0f2 4d83 84ca b7bf edfb c0e6 6d82 aa3f
000006d0: 7abd 1210 3e24 d23f 6365 8e62 b751 ee3f
000006e0: 8513 7a04 839b c2bf a0c1 a107 3ed3 623f
000006f0: 9989 e24a feb3 95bf 74bb 5161 ae51 7f3f
00000700: 5e28 fe06 e0ac b03f 002d 94a3 1223 d13f
00000710: b645 77df 253c ee3f ca43 01af 0858 c4bf
00000720: d03c d007 f0ef 613f 5562 3a35 f59e a2bf
00000730: 2ab1 8b40 445b 813f c5a7 2a42 9935 b33f
00000740: 1c16 f191 e62c d03f 9a9e 0929 be2b ee3f
00000750: 3ec7 4fd5 8502 c6bf 701a faf0 c900 603f
00000760: a2f5 8353 a03c adbf 7907 60b6 8972 823f
00000770: 3558 4c37 df89 b43f b413 285d 5fa0 ce3f
00000780: 36d3 25a1 8a20 ee3f 4e98 bf8f cf81 c7bf
00000790: 003b 43ab 3077 5a3f 640b 5356 f156 b5bf
000007a0: dc05 59cc af76 823f bec4 b0cc f264 b43f
000007b0: 7459 2a0d f22d cd3f 3f84 b2c4 2014 ee3f
000007c0: ef16 19ea 54bf c8bf 80f4 464a 5043 533f
000007d0: 1438 7208 e246 bdbf 14a4 f4c6 750b 813f
000007e0: 4ae7 b833 66a6 b23f cc11 6a7f 8a18 cc3f
000007f0: c4fd 0ea5 c4fb ed3f 447d 2631 c8a3 c9bf
0.05212244005249022 0.28466187921192454 0.9478475170410685 -0.1441227975088766 0.002053009719036325 -0.02245875918889506 0.007066350546930953 0.0656962562686018
0.2692266665340505 0.9466826781028685 -0.15746608689452335 0.0021450513605123338 -0.03786779444840692 0.00808122303154269 0.0758409398854968 0.25441987338207694
0.9457795704796796 -0.17041133291900135 0.0021646931937513818 -0.05878727717044563 0.00898293095759866 0.08106745339522495 0.24114115511960088 0.9448863675948644
-0.182226503244324 0.0020958508875515494 -0.085172713025637 0.00955947562052349 0.08043436653462378 0.23000706301922746 0.9430791171300352 -0.1921982947661186
0.001902768037385063 -0.1162681447622449 0.009572328157562765 0.07339355569816503 0.22160524972406237 0.9391446442300527 -0.19958594200261895 0.0015677073469023582
-0.1505146407765096 0.008906616926961099 0.06029370686889851 0.21646719245213475 0.9314384674075662 -0.20391447766139112 0.0011857492664290523 -0.18563502340108534
0.007605884314703191 0.04212879813151789 0.21471351836450525 0.9185337972828582 -0.20500752895041963 0.0007882470316476625 -0.2189823664152589 0.005906187005428226
0.020605042065205057 0.21637047351714067 0.8996306265342893 -0.20298286426200618 0.0004947704440542156 -0.2481332222383254 0.004122602973519769 -0.0024016385054995647
0.22115669350174028 0.8750269922611916 -0.19823172048556334 0.00021356094970000072 -0.2712426197923527 0.0025425162675674073 -0.025262424067732242 0.22844491162359348
0.8454693707980248 -0.19125757277605604 -8.829200959534211e-05 -0.2872753843193926 0.0014100798257588622 -0.04623242319788318 0.23737390717511664 0.8132112224344543
-0.18250586512135286 -0.00047904438904182944 -0.2960605111087584 0.0010205996857003165 -0.06474822075247977 0.24697169130922547 0.7789246066339381 -0.17252409695563503
-0.0010756609392749694 -0.29815937582552177 0.0014143666001136257 -0.08010922526557614 0.25670520992891177 0.7448970681578762 -0.16164061344454345 -0.0018755774402214528
-0.29433657056812235 0.0024675752534362716 -0.09261038126668929 0.2654955669029727 0.712203758519015 -0.15038251592654467 -0.002856045393025995 -0.2857158681375189
0.0038485515871643505 -0.10194508834888964 0.27303178711784704 0.6818762272933128 -0.13923491432346988 -0.003723671241729832 -0.2737707508365311 0.005362341603360701
-0.10866847637311812 0.2786756059627771 0.6543462080784741 -0.12831783435643934 -0.004189280027027099 -0.25931544291637754 0.005998125612510022 -0.11238052289150513
0.2822433205255095 0.6321362801985513 -0.1181869918564594 -0.004280265525308441 -0.24272348321673567 0.006135662710307285 -0.11331667696621936 0.2831986836507653
0.6160659248314371 -0.10879724352150925 -0.0038140733004529137 -0.22463683838171866 0.004419326037424905 -0.11113680628165924 0.2810292735692599 0.6041138914871538
-0.10042091805399563 -0.0026311529404196496 -0.20638319128278232 0.0012332431474638694 -0.1051135142610296 0.27676155129979985 0.599950636319773 -0.09311452765446802
-0.0005556559548046819 -0.18764250571770616 -0.00332998176636487 -0.09510118650442823 0.2680848763127478 0.5960881259028092 -0.08728374809504275 0.0024298428520855894
-0.1698591822734957 -0.006554147638096586 -0.08291043693081745 0.2540945104189307 0.591115063562072 -0.08242295496396262 0.005845441588580082 -0.15160692451151525
-0.007927741277310774 -0.06791355154299229 0.23751056542535076 0.5775965027133536 -0.07772134127624158 0.010533567962780294 -0.13174425748877272 -0.008009033827017065
-0.05803518362363552 0.21602086601268888 0.5633705010111281 -0.07107943157238006 0.014523938730046232 -0.10903884430070332 -0.005663864139563768 -0.05035541426300559
0.19172042272900713 0.5398631604093943 -0.0598765841721928 0.019903021440970503 -0.07981215425061089 -0.001306601106692784 -0.056458200825332434 0.1648764094946638
0.5251672732271727 -0.045296953964163306 0.028924966077146702 -0.043407921684792315 -0.00043581204237780335 -0.07913025928298092 0.1477637528896478 0.49373447702915874
-0.023151477634828138 0.04472275854519313 0.006685619698631153 -0.003380541477501345 -0.10942127477990514 0.13644869318774128 0.4588989556676367 0.007222834780680615
0.0655019893883736 0.06850662587288647 -0.01716986633955741 -0.13498581514967328 0.12633699426377792 0.43632876970379697 0.04002783702846868 0.09308908597041232
0.1397634733531358 -0.039379995528038676 -0.14211814673147077 0.1186510004723255 0.4195777912117793 0.0819063624109144 0.12179624540572266 0.22952243019538476
-0.09293392377544274 0.05177634660548578 0.28346206254624173 0.9474751400877434 -0.1453708431110067 0.002297993804909207 -0.021194432564365682 0.007646256611322556
0.06513786478731862 0.26776567434781384 0.944842277962542 -0.15893658204234234 0.0021896064849965327 -0.03636900210148456 0.008474858493592825 0.07503660073658043
0.25274051906703376 0.9428396989360011 -0.17195198932273031 0.0019535011450131853 -0.05710316676593698 0.009007526281496802 0.08022875881246778 0.23926918076190662
0.9414723536889145 -0.18364901083913526 0.001615331199946446 -0.08335789067772975 0.00901543943757848 0.07966535088850699 0.22796464579432618 0.9399570314163909
-0.19333898001257618 0.001175716789574538 -0.11436283785062101 0.008322639593261662 0.07285155070067365 0.21949893208888083 0.9369834159660333 -0.2003107299796999

scatter f8 [100, 31]
00000000: e4a0 42e7 87b7 ca3f cb4d 250f a05a ca3f
00000010: e4ae ca37 5e0f ca3f b347 771c 79d6 c93f
00000020: 617e b729 96ad c93f 7925 cf0f 2990 c93f
00000030: 6a7b 4dda 9278 c93f 5f04 bf72 0562 c93f
00000040: 1076 9386 8d49 c93f dfa6 9560 2b2e c93f
00000050: e33a 7112 be0f c93f 0651 316f 64f0 c83f
00000060: 0f60 f837 a1cf c83f 8b7b a249 9baf c83f
00000070: c1ed 0319 448f c83f 607f ffc9 6b70 c83f
00000080: f7dc 35ee d951 c83f 5c12 0a08 f236 c83f
00000090: e1c1 943d 901e c83f 05e0 67f1 630a c83f
000000a0: 5ffa f0ae 49fa c73f b2df 3502 c1ed c73f
000000b0: 82c4 ab81 99db c73f 4938 ecdf f5ba c73f
000000c0: 3884 03a2 0187 c73f 62de 58c8 f241 c73f
000000d0: 9bc8 95c6 23eb c63f f6ef 10a8 7958 c63f
000000e0: 4030 f103 3085 c53f 049a a5b6 862c c43f
000000f0: f69f bf2b 516a c23f f7dd 31f3 42b2 ca3f
00000100: aa61 9c57 5752 ca3f 9f5c da7f 5e04 ca3f
00000110: 0c9d 3dad 90c9 c93f fd13 35b7 969f c93f
00000120: 6caa a3c2 a681 c93f f062 b108 206a c93f
00000130: 0504 f4c8 ae53 c93f 0341 7d18 953a c93f
00000140: 957e 3ddb 1c1e c93f f6e6 3dce a4fe c83f
00000150: 33e2 aadd abdf c83f 0331 c613 eac1 c83f
00000160: 2017 cda1 dea8 c83f 82ef 4677 4994 c83f
00000170: 1be9 ad9d 4183 c83f 8883 a496 2473 c83f
00000180: fb71 0bda f562 c83f 71d9 0791 a94e c83f
00000190: 64ba 92a3 ed36 c83f 2021 0b1f 4b17 c83f
000001a0: fee6 77af d1eb c73f e7cc 86bc b6ad c73f
000001b0: 4661 8f3e 984a c73f 596f ebbe c6c9 c63f
000001c0: 79b7 778d 9232 c63f c56f 532b d67a c53f
000001d0: e25d 1012 5194 c43f 3ff4 658d a63b c33f
000001e0: 2080 0d05 42b2 c13f b64b ba56 68da be3f
000001f0: 8241 c968 a9b5 ca3f c725 de7e 175a ca3f
00000200: 1985 8228 4d10 ca3f 9c1a 27be 4fd8 c93f
00000210: 93e1 a0e9 45b0 c93f dccd a67a ae93 c93f
00000220: 1095 14e3 5e7d c93f 069f 22b3 5e68 c93f
00000230: 4f75 cd76 d651 c93f 8392 4474 eb37 c93f
00000240: ce0f aeb8 821a c93f 7332 90e6 24fb c83f
00000250: ee1e fcad 5ad9 c83f 1a39 b466 c1b6 c83f
00000260: 7533 5732 3892 c83f 972b 91ec 8a70 c83f
00000270: b2e9 578b f74f c83f 865a 9856 c432 c83f
00000280: ec3e 63d8 3f1e c83f cb8f dead 4711 c83f
00000290: 4771 da84 fa0f c83f e804 3626 6417 c83f
000002a0: 8b3a b2e1 fe1f c83f 6dcf 30be fa17 c83f
000002b0: be15 ccfd 86fc c73f dd4b 6748 bdbe c73f
000002c0: 0fd4 da6a 7862 c73f 6266 d8da 12ad c63f
000002d0: 5ae3 0a9f 9b9c c53f f49d bb8a 1cf2 c33f
000002e0: 1d55 3884 7bc9 c13f a840 1c99 c1bc ca3f
000002f0: c949 38d7 9b61 ca3f 5353 f239 b517 ca3f
00000300: 7fb9 eefa 18df c93f 257d 64a9 4db5 c93f
00000310: 2bb9 de56 aa95 c93f ba2f 0f6e 947b c93f
00000320: c539 f9d9 7662 c93f f3c2 12ed f447 c93f
00000330: ade3 ea68 142b c93f a991 4ad1 5d0b c93f
00000340: dd8e 28f1 08ea c83f fb5a 37b6 eac5 c83f
00000350: ce4b 5eff 1ba0 c83f 214a 14f8 cc78 c83f
00000360: d5ef 8643 a151 c83f 11f9 39e3 4e27 c83f
00000370: a9a2 ed56 8bfc c73f 2782 4bd7 b7d3 c73f
00000380: a5a5 d760 76ac c73f 4a05 1f0d d089 c73f
00000390: 70f1 344d da6f c73f 464c 55d2 3956 c73f
000003a0: 4a9b 0397 162f c73f edfb dcd3 ce02 c73f
000003b0: 1db6 2b88 d8d3 c63f e363 45f8 419a c63f
000003c0: 13ae f852 c01d c63f c70e e838 9b4c c53f
000003d0: f6e3 6609 5ca5 c33f 81f9 3ec7 ed4b c13f
000003e0: 7d0c bc0e 82b9 ca3f cbf4 802b f060 ca3f
000003f0: 7b77 da15 511a ca3f 014b b15c 89e5 c93f
00000400: d902 6642 8dbf c93f bd47 a3d4 b1a3 c93f
00000410: de49 c873 8d8c c93f a2df 9da1 eb75 c93f
00000420: c231 693f b85d c93f 3e61 c60b 7a42 c93f
00000430: 6015 db13 b624 c93f de62 6165 3205 c93f
00000440: fcee a7b0 eae2 c83f 6065 e510 f3bf c83f
00000450: 5c4a 5587 af9a c83f f428 72f7 a375 c83f
00000460: 53ce 2fef 6a4f c83f 928c 45a8 782a c83f
00000470: 76ba 3960 5507 c83f 846d e563 26e7 c73f
00000480: fd65 99e4 07ce c73f bed1 2db5 cdb3 c73f
00000490: 0e3f 1c0f 089a c73f d958 d2b5 0272 c73f
000004a0: 1010 2f42 3b49 c73f 29a5 c909 7d1b c73f
000004b0: 733c bdc5 1cd1 c63f a02c c938 1451 c63f
000004c0: 4f4a 1ba1 6589 c53f 2016 66c9 821f c43f
000004d0: def6 2777 604c c23f c2a0 fcc5 5db8 ca3f
000004e0: 8234 089e 3d5a ca3f d0d0 8783 550d ca3f
000004f0: 9675 6f34 26d2 c93f 7524 5663 88a6 c93f
00000500: 984c 2003 6986 c93f c775 97ac 2f6c c93f
00000510: c6af b8ad 3653 c93f 71b9 6df0 9d38 c93f
00000520: adfc 04b3 e51b c93f 3bda 02ec f9fc c83f
00000530: b190 fae8 f4de c83f f4bc 0db8 26c0 c83f
00000540: 83d3 c6b4 5fa2 c83f a62f d9d0 ad83 c83f
00000550: 3884 f726 ce63 c83f 58d3 c051 1442 c83f
00000560: c18f b56b a122 c83f 696a 15df d304 c83f
00000570: 9d86 8db9 09ec c73f a0cc 5c3c 19de c73f
00000580: 1e46 4b72 d5d7 c73f 8a75 3809 ced3 c73f
00000590: 4c4a 34c0 08cb c73f e231 a849 80ab c73f
000005a0: c4b0 7c18 0079 c73f 6207 ac02 f92a c73f
000005b0: 78ab 6818 aba9 c63f 56e5 e3f9 b5ab c53f
000005c0: 2f4b 6dbe 723b c43f a87d bf04 6108 c23f
000005d0: e061 276a 80ba ca3f 2afe 2533 985e ca3f
000005e0: 702f 0433 3814 ca3f 457b 302a 89dc c93f
000005f0: c3ee 010d 0eb5 c93f 9311 647c 4499 c93f
00000600: b149 9273 8783 c93f 0a1d 0c71 206e c93f
00000610: d6ae 72f8 7356 c93f 9748 71cc 6c3a c93f
00000620: f10e cefa cf1a c93f b735 7493 77fa c83f
00000630: c682 6a12 73d8 c83f 14a4 d07e d2b7 c83f
00000640: bead 09a9 2e96 c83f ae2d 7ad9 bd74 c83f
00000650: 912e 8b7d 3652 c83f 4ad2 fc35 1232 c83f
00000660: a9f7 650f cf11 c83f b32c 0cea 0ff4 c73f
00000670: d353 af47 3fd9 c73f 4247 e296 89b8 c73f
00000680: 1027 20ff a493 c73f 4889 482f 785a c73f
00000690: 40ed 6af4 7a0d c73f 0c77 68b2 e0ae c63f
000006a0: 36f9 2719 0330 c63f 4204 d958 856f c53f
000006b0: bf75 25b9 5b43 c43f 49f3 9800 c9a6 c23f
000006c0: a8fe de14 c75e c03f 93dd 005b 02bb ca3f
000006d0: 1aa2 d2ae 685c ca3f 8a0b c717 0c0f ca3f
000006e0: 7885 cd7d 00d4 c93f cd0e 5e90 36a9 c93f
000006f0: f5bf 8217 ff89 c93f 7a60 6161 0a71 c93f
00000700: 27e1 c687 3e59 c93f 6e0a 63ba dc3e c93f
00000710: 3d75 5370 9720 c93f 2dd8 0fed 88fe c83f
00000720: 6789 1877 79db c83f 6af2 339d 35b6 c83f
00000730: 29be 307a 3092 c83f 06a3 17fe d96f c83f
00000740: 38df 2170 6c4e c83f 944f e46b 012d c83f
00000750: bda3 6762 0710 c83f 3b8c 098e f6f1 c73f
00000760: 9040 f282 add6 c73f 2e9c 33a5 37b8 c73f
00000770: df25 3b29 859e c73f 9aaa 2bb8 f97d c73f
00000780: 25d8 1191 344f c73f 2faf ad60 2217 c73f
00000790: 8095 b344 2ae3 c63f b8d0 fcfe e1b1 c63f
000007a0: 1f34 da89 5b54 c63f 4ea3 1517 5bad c53f
000007b0: 167d 93ad df94 c43f 5b51 3cf4 c2dc c23f
000007c0: 73d0 902b b8bb ca3f 422b 1703 ab5d ca3f
000007d0: 0059 8e06 2d11 ca3f b118 b492 0fd7 c93f
000007e0: a929 96b6 05ad c93f 5cb1 5208 ce8e c93f
000007f0: 3d31 cbde ad76 c93f 422a 4c40 2260 c93f
0.20872591773991822 0.2058906625703528 0.2035939953251421 0.20185769929827088 0.20060994183494343 0.19971192619258796 0.19899211558637414 0.19830387213554254
0.1975571543797945 0.19672147956889938 0.19579292202475704 0.19483619145706416 0.1938363574306554 0.19285908790058345 0.19187213155224295 0.19093081820664803
0.1899979031693204 0.18917680161043193 0.18843272215737186 0.18781708991423343 0.18732567827278765 0.18694317443782676 0.1863891490134258 0.18539308007933844
0.18380756769968953 0.18170008452010494 0.17905089565789897 0.17457504946094077 0.16812706177222658 0.1576088325338817 0.14386953960570253 0.2085651099657608
0.2056378534114292 0.20325833552189906 0.20146378001229726 0.20018276162787166 0.19926914695618636 0.19855118202647004 0.19786629497687627 0.19710029311909957
0.19623146729553712 0.19527111120606094 0.19432590793236812 0.1934177967599525 0.19265349293180467 0.19202535938336146 0.1915056247633594 0.19101388316724077
0.19052003046716934 0.18990058499884868 0.1891762779900602 0.18821085944933547 0.18688412730971743 0.18498882489584575 0.18196394972506819 0.17803272554635433
0.17341834933852932 0.1678111754944195 0.1607762659266277 0.15025789169513534 0.13825249907222403 0.12052013509155199 0.2086688768054153 0.20587438292231594
0.20362247922916124 0.20191380295564876 0.20069192798270005 0.19981938351484885 0.19913850868139393 0.19849761721456377 0.19780998993784712 0.19701903512136107
0.19612154023718492 0.19516431100818785 0.19413312430719237 0.19307725443690843 0.1919622655681469 0.190934529792085 0.18994039825322556 0.18904928425100226
0.1884231382923568 0.18802734365192317 0.1879876278588972 0.18821384301921928 0.18847642917940663 0.18823179518369262 0.18739402191583382 0.18550840411498273
0.182692577529139 0.17715678869062673 0.16884179368733038 0.1558261563688884 0.13896125751549784 0.20888538337795137 0.20610378273756982 0.20384850816176456
0.20212089779438355 0.2008454396354661 0.1998799251718507 0.19908385633459408 0.19831739085425518 0.1975084455093775 0.19662718890120115 0.19565937728215246
0.19464217925371133 0.19353994271542505 0.19238615006596976 0.19118654359097412 0.18999114796849761 0.1886995896820243 0.18739454025787453 0.18614862453888856
0.18495063522941027 0.18389320984537455 0.18310097474921916 0.18231890459228078 0.18112451909765986 0.1797731909263968 0.17834002160036358 0.17658257124529006
0.17278293658579055 0.166400339876523 0.15348387202337194 0.13512966374214488 0.20878625602208337 0.20608331798749754 0.2039281231599793 0.20231740022662595
0.20115819685090378 0.2003080642958234 0.19960182336269744 0.19891114608230703 0.19817259880291088 0.1973412091727002 0.19643283814927326 0.19547109556403702
0.19442494989186077 0.19335783314708532 0.19222063167633763 0.19109010298081552 0.18992363623657357 0.18879612175360144 0.18772380064497768 0.1867416370176721
0.1859750620085804 0.18517466875677074 0.18438816774186545 0.18316682699214118 0.1819223473704601 0.18052638032831084 0.17825660376772454 0.17434933445688205
0.1682555233624776 0.15721163591312948 0.14295583551568475 0.2087514130337294 0.205878927387321 0.20353192255391273 0.2017257457763832 0.20039467668928848
0.1994143738998886 0.19861408164335456 0.19785197718135644 0.1970403121917559 0.19616385689912388 0.19522022270185055 0.1943040978995945 0.19336399065966925
0.19245525671945182 0.1915185231940743 0.19054581549338123 0.18951658241135294 0.18855684050788393 0.18764732735401715 0.1868908077258781 0.18646541068446698
0.1862742240978585 0.18615127039167262 0.18588361153577393 0.18492129894765613 0.18338013835580658 0.18099892263858935 0.17705286685790234 0.16930269910498436
0.15806421564283243 0.1408807061370514 0.20881657775204499 0.20601179597359592 0.20374205103905352 0.2020427185061299 0.20083785662779094 0.1999898536088379
0.19932644980560846 0.1986733009327753 0.19795083647965467 0.19709548933548568 0.19613075014432682 0.19514364910030021 0.1941055145189436 0.1931098098005185
0.1920831990604323 0.19106267088896572 0.19000893716871706 0.18902804981338966 0.18804348232145898 0.18713568618872997 0.18631735801923685 0.18531913630845948
0.1841932531099748 0.18244840916401928 0.18009888586480294 0.1772118445523393 0.17334021309211217 0.1674658473803295 0.15830561199520152 0.14571487931416474
0.12789238471122144 0.20883206790470563 0.20594509636181685 0.2035842052556201 0.2017822851440021 0.20047647523107628 0.19952381752000262 0.19876222376729286
0.19803601865511064 0.19723090268060467 0.1963071154085955 0.19526778769767486 0.19419782939173588 0.1930605905144092 0.19196134535148815 0.1909134379086696
0.18989329791269838 0.1888734604659673 0.18798916153835235 0.1870716279546246 0.18623894590246381 0.18530936781391588 0.1845251513789625 0.18353196613982875
0.18210465510827692 0.18039350243213323 0.17880752901616503 0.17730355215610927 0.17444938880035551 0.16935289981054286 0.16079326606175276 0.14736210752074438
0.2088537419055033 0.20598352099326617 0.2036491662990514 0.20187563575035974 0.20059272208557147 0.1996705570831051 0.19893430117225278 0.19824627055671057

Maxvals f8 [11]
00000000: eae6 8dc4 000e 2c40 c2ea 61fe 4e16 2b40
00000010: 7274 bed6 a6a8 2a40 075a cbe8 f18a 2a40
00000020: 8542 6ad3 5e68 2a40 e5e3 4f0a b956 2a40
00000030: 96a4 0412 7338 2a40 2e02 4fb0 3121 2a40
00000040: dfc2 72fa 4ff2 2940 ec22 5254 4cc3 2940
00000050: af7b b9db c17c 2940
14.027349607774756 13.543571423962366 13.329397879361043 13.271376871894075 13.203848463746235 13.16938049531195 13.110252917353403 13.064832219738573
12.97326643610853 12.881441721941393 12.743666521446213
