Data/TNG/Model_snap9.npz (npz, 225162 bytes, 5 tensors)

x f8 [31]
00000000: 0000 0000 0000 2640 3333 3333 3333 2640
00000010: 6666 6666 6666 2640 9999 9999 9999 2640
00000020: cccc cccc cccc 2640 ffff ffff ffff 2640
00000030: 3233 3333 3333 2740 6566 6666 6666 2740
00000040: 9899 9999 9999 2740 cbcc cccc cccc 2740
00000050: feff ffff ffff 2740 3133 3333 3333 2840
00000060: 6466 6666 6666 2840 9799 9999 9999 2840
00000070: cacc cccc cccc 2840 fdff ffff ffff 2840
00000080: 3033 3333 3333 2940 6366 6666 6666 2940
00000090: 9699 9999 9999 2940 c9cc cccc cccc 2940
000000a0: fcff ffff ffff 2940 2f33 3333 3333 2a40
000000b0: 6266 6666 6666 2a40 9599 9999 9999 2a40
000000c0: c8cc cccc cccc 2a40 fbff ffff ffff 2a40
000000d0: 2e33 3333 3333 2b40 6166 6666 6666 2b40
000000e0: 9499 9999 9999 2b40 c7cc cccc cccc 2b40
000000f0: faff ffff ffff 2b40
11.0 11.1 11.2 11.299999999999999 11.399999999999999 11.499999999999998 11.599999999999998 11.699999999999998
11.799999999999997 11.899999999999997 11.999999999999996 12.099999999999996 12.199999999999996 12.299999999999995 12.399999999999995 12.499999999999995
12.599999999999994 12.699999999999994 12.799999999999994 12.899999999999993 12.999999999999993 13.099999999999993 13.199999999999992 13.299999999999992
13.399999999999991 13.499999999999991 13.59999999999999 13.69999999999999 13.79999999999999 13.89999999999999 13.99999999999999

intercept f8 [100, 31]
00000000: 83f4 8781 ab06 d93f 62f8 1628 72de ce3f
00000010: f009 f183 be56 c03f 8805 1175 9071 b13f
00000020: 30d3 9354 acae b23f 842c 2480 30d2 c23f
00000030: 4d1c 2c49 866d d23f 2d69 5fd2 fb2e df3f
00000040: 40b8 c7c2 fe56 e73f e59c 1a85 97e4 ef3f
00000050: 98c7 ce77 214d f43f 2842 c8b6 5c7a f83f
00000060: a3fb 12ff 1f42 fc3f 451a cc68 c579 ff3f
00000070: a3cb 4436 d00b 0140 fc8f 6db8 0c07 0240
00000080: f860 959a 54ac 0240 f3bd 77c4 0800 0340
00000090: 9231 7c34 49e9 0240 9d35 608a bd74 0240
000000a0: 393d 325a 75a1 0140 536c 9ea4 107c 0040
000000b0: 18e3 a906 7341 fe3f c62d 36d9 370b fb3f
000000c0: 66b2 5fbf b8c4 f73f 5e25 eb45 3005 f53f
000000d0: e654 238d 597e f23f 50c1 7c2e 3262 f03f
000000e0: 6e6d f639 1aff ee3f 7e31 120c eefd e73f
000000f0: a7d5 cb56 85e0 e33f 5440 3d10 1618 d93f
00000100: 4acd 7b71 9d42 cf3f 0863 245d 83f2 c03f
00000110: 1060 2d8c a916 b33f e067 eff1 5030 b43f
00000120: 0462 4d9e 3739 c33f 2406 39ae 1240 d23f
00000130: 1ec9 942a 2678 de3f f715 8b6a e4b6 e63f
00000140: 4c6d 7aee d314 ef3f 9a80 cd6d d8e5 f33f
00000150: 5890 ae8c ea2e f83f b424 45da 654e fc3f
00000160: e2bd c5d2 f0f0 ff3f 39c1 9afc b378 0140
00000170: 51b9 dc13 a38a 0240 524d 03f7 770d 0340
00000180: 7cfc 69c6 6c10 0340 b7ab 6f00 6b6f 0240
00000190: f525 b49b 1451 0140 32f8 4315 37df ff3f
000001a0: 3056 114b 87e8 fc3f f083 ecd7 d019 fa3f
000001b0: 90bb f020 5dcf f63f 6a1c 1455 b4bc f33f
000001c0: 7dec 7278 c71d f03f 50b8 f8e3 cf97 e33f
000001d0: dcdf bab8 ad90 c13f f029 c352 cfa0 ddbf
000001e0: e2cb 605a 072b f6bf b321 d9e6 9a3d 02c0
000001f0: 5680 4929 8e67 d93f ea9d b8bc 3366 cf3f
00000200: 14ed b4d8 ef70 c03f a0f9 b5fc e4b3 b03f
00000210: 5831 b0da e259 b13f a06b 3cbd 4d09 c23f
00000220: 4348 645e 5b15 d23f bcbb c755 f7f6 de3f
00000230: 9e41 e548 b75c e73f 31a3 2e2f a908 f03f
00000240: d81f 2807 476e f43f a611 1b62 158b f83f
00000250: 060b df96 721d fc3f 3b4a 1c3f ae10 ff3f
00000260: f110 c035 1aa1 0040 1e85 d849 4362 0140
00000270: bf4b c440 e6c9 0140 09cf cbd6 3ef0 0140
00000280: 6215 4cf3 c7d3 0140 3ace 55aa 4b9d 0140
00000290: 2292 99a8 5248 0140 d055 44c7 bef9 0040
000002a0: e03d c239 d597 0040 161a 592f 5d23 0040
000002b0: d429 5f72 8fcc fe3f f41b facc e6ea fc3f
000002c0: 9c43 a2e0 c802 fa3f 46f1 b9f1 2443 f53f
000002d0: 4761 3ce5 5c9e f03f 44b3 9c77 5a03 d83f
000002e0: 8809 6aa6 154a b83f 3441 609d a19f d83f
000002f0: fcf6 4a67 cb0d ce3f 2819 99cd a82d bf3f
00000300: 0810 1d57 be5a b03f b0b8 5d75 192a b23f
00000310: 9410 bea5 39fb c23f f282 5a60 d5ca d23f
00000320: a272 c3bf 2eee df3f 6012 1c3d 8ae3 e73f
00000330: 7632 4082 0e4a f03f d687 9733 d3ab f43f
00000340: b099 142b 54d2 f83f 6a06 a493 2578 fc3f
00000350: 8c3a a766 ac86 ff3f 25b0 48db 98f7 0040
00000360: cc80 323a 3de1 0140 793c 8c12 4b82 0240
00000370: 1b9b 7c58 f8f4 0240 7217 6240 140f 0340
00000380: e91c ace0 b5ed 0240 31ec e90e d8a1 0240
00000390: 98cf b72f 8bec 0140 0adf 3480 91b4 0040
000003a0: b9f3 9647 8a28 fd3f fef6 7a37 fc03 f83f
000003b0: 942d acd6 b362 f13f 10fb 3202 7431 e13f
000003c0: 808d 7e35 0b04 9cbf 12a1 eca4 7d3f d3bf
000003d0: b0a4 13e8 7407 e0bf c6b9 41d6 737c d4bf
000003e0: 6813 53f5 faff d83f 2e9b 66ac 3065 cf3f
000003f0: 0096 f6a3 6360 c13f 98fd 6d0b afe5 b33f
00000400: 2857 ec20 5caf b43f 0897 ae58 484b c33f
00000410: 1cff fa01 335c d23f b4ff f604 dbcf de3f
00000420: 538b fc0f 981f e73f aa35 f0fc 39c8 ef3f
00000430: 063d a8c0 b35d f43f be18 26fe c8ae f83f
00000440: d9d1 18d2 8b96 fc3f ee58 1abf 16ef ff3f
00000450: 75ea cbeb f74b 0140 8e43 5978 0244 0240
00000460: 7a1f 3f02 b1e8 0240 c886 69bb 6954 0340
00000470: d0e1 678f a65f 0340 6238 e92c e610 0340
00000480: e86a c29c 8c56 0240 89be 25d7 ed2e 0140
00000490: 3db8 30c0 30d8 fe3f a56c ddc9 6c13 fa3f
000004a0: 15c8 0535 0e96 f43f 5007 4fd1 cf65 ee3f
000004b0: 9e0a f65d 4077 e53f 548b 6fcf 2a95 de3f
000004c0: 6709 20e6 571e e23f ca59 6e35 0231 e33f
000004d0: 2aa5 468a d2b4 e93f 80c9 0358 6e4e d93f
000004e0: 0a97 c7ee 3fa0 cf3f 1466 8cb1 f515 c13f
000004f0: 702c e94e 5869 b23f d012 252c 6b1c b33f
00000500: 8420 d8bd eebb c23f 240e 026d 1c4c d23f
00000510: b2c8 0528 54ec de3f a02e 1c84 fd1e e73f
00000520: 93a0 e456 3fa2 ef3f ad9d fa4c 0925 f43f
00000530: 8c7d 15c2 6a54 f83f 0c9d cc9b d826 fc3f
00000540: 2c5e b3f0 fa81 ff3f 63ac 8db9 fc29 0140
00000550: f198 7348 4b3b 0240 e007 a523 71f5 0240
00000560: 8a2a 9546 6960 0340 4035 fbf6 fa57 0340
00000570: cc61 b04f 09e8 0240 2286 b4df e91a 0240
00000580: 9870 2ff6 7cf7 0040 e262 0fe6 7644 ff3f
00000590: b6bd 545e 5506 fc3f 852e 35ab fd3c f83f
000005a0: 6e90 1e36 43a2 f43f 5e2e 466b 6671 f13f
000005b0: cfc7 bf2d c53a f03f b77e 3620 e6ff f03f
000005c0: 88fc 9945 42fa f03f 6055 5034 ff8b f03f
000005d0: 0517 3f4f 2cd0 d83f ac3b 694f 9b8d ce3f
000005e0: 7881 c7e6 4713 c03f 8015 7d44 981e b13f
000005f0: b04b e457 468c b23f c04e 96a3 a0e7 c23f
00000600: 542f 38c1 b3a4 d23f e096 be26 5290 df3f
00000610: beb2 367e 489b e73f 3574 2d92 741b f03f
00000620: f994 fe68 a26a f43f 1c5f 6b3f 0777 f83f
00000630: 714d bbbc 9d25 fc3f 663d d1fe 9648 ff3f
00000640: 3ad9 b35f 0ef1 0040 53c9 d321 b903 0240
00000650: 5519 4656 97d2 0240 8598 c758 684d 0340
00000660: 7264 6a3b 574a 0340 0f01 79dc a8a1 0240
00000670: bf8b 19aa 6d4b 0140 142b b6b1 1b9a fe3f
00000680: e8a7 b7f2 75c1 f93f 8883 a32b 8146 f53f
00000690: b91a 3dba 1332 f23f 59a5 dee9 b418 f23f
000006a0: 67a1 a216 4f41 f53f c642 0701 92eb fb3f
000006b0: 260d af20 c471 0140 6853 26a3 5d30 0440
000006c0: b85b 6372 204f 0740 c32b b2a3 b6bd d93f
000006d0: d655 0896 d4ac cf3f c85b 9954 c52f c03f
000006e0: 708d 529c e84d ae3f d02f fa76 9b20 ae3f
000006f0: f831 42bf 24dc c03f 8c25 bfa1 4894 d13f
00000700: 25e1 a115 e8b9 de3f 8a96 cc4a cb65 e73f
00000710: 5abb 785f 2125 f03f 22ad 16b4 97af f43f
00000720: 4af4 0773 3c01 f93f 27c3 1bd1 fbd4 fc3f
00000730: 642d 0085 d1ff ff3f b9ba 688c 7d3a 0140
00000740: 8958 ea70 e71c 0240 d7cf 2360 aabe 0240
00000750: a27d 056d 5637 0340 57ca 4513 2b5c 0340
00000760: 22c1 b41d dd46 0340 00d3 e75a f0e8 0240
00000770: be5a b057 572a 0240 1b7b cbe1 d9c9 0040
00000780: 61b5 b324 23e4 fd3f bf1b 7a8b 264f f93f
00000790: 7675 43d9 49d6 f43f fbb1 6518 6b24 f13f
000007a0: e63d 4f5a f77b ec3f c02d f9ff 0f0a e63f
000007b0: 6e69 cebd 1dce c93f 70d3 a51e 47b2 a83f
000007c0: 3ec6 5f71 abd7 d83f d455 4522 c514 ce3f
000007d0: 7804 eef8 a52a be3f 6043 da56 3e2c ac3f
000007e0: f06a 1768 6863 ad3f d02c c069 1bc1 c03f
000007f0: 6ff3 1ffa 8096 d13f 5085 9875 c2d2 de3f
0.39103210114974035 0.24116351087099291 0.12764722292384034 0.06813910348957652 0.07297780098799644 0.14703947312259313 0.2879348482678708 0.4872426561756978
0.7293695263194948 0.9966542815863276 1.268830745696027 1.5298735752040873 1.766143795379073 1.967229279865607 2.1307682265991885 2.2534422310291102
2.334145744022063 2.37501672258781 2.363909158744897 2.307002144871787 2.2038371130544445 2.060578619084063 1.890978837995311 1.6902388081388025
1.4855277514972385 1.3137667399590423 1.1558471215442352 1.0239736381446 0.9686404354173825 0.749747298790268 0.6211573310126156 0.3920951040827323
0.2442204288596293 0.13240091369586815 0.0745645491819007 0.07886224657650542 0.15018363217929231 0.28516070379200387 0.4760833183128329 0.7098257141994385
0.9712924630906996 1.243614605824439 1.511454152620919 1.7691401029754106 1.996323417024421 2.1839370474555406 2.3176938583120905 2.381576471126814
2.3830199719519083 2.304403308303758 2.1645900883056535 1.9919958906825852 1.806769650681769 1.6313026842619784 1.4256259237988367 1.233570415819282
1.0072703080211618 0.6122817471093729 0.1372277404786918 -0.462940054724327 -1.385505059279915 -2.280080607892353 0.3969455149836042 0.2453064605226552
0.12844656068214333 0.06524497194002388 0.06777780379360843 0.1409089254383078 0.28255352228109504 0.4838236177155826 0.7300678657284612 1.0021144717267811
1.2769232062873836 1.5339559395079987 1.7571893590363188 1.9415724244360166 2.0786632727850862 2.172979905052343 2.223583703985667 2.242307355971097
2.228408718833337 2.2018044764934332 2.1603139087549303 2.1219459121445894 2.0741371643450606 2.017267579943346 1.9249414889951497 1.807349014941562
1.6256798529395615 1.3288926546511717 1.0386628107572322 0.37520467453832773 0.09488044083449243 0.3847431218028021 0.23479597610087655 0.12179045695765878
0.06388463618083062 0.07095488658316884 0.14829178421871758 0.29362997445609473 0.4989125130357853 0.7465258782909352 1.0180802429123594 1.2919494643506275
1.5513498003798354 1.7793327109542596 1.9703792581455302 2.1208970195348393 2.23498006312011 2.313619751839323 2.3696143067385385 2.3823628454146553
2.3660695602917383 2.32902537967086 2.2404998519868506 2.08816814576483 1.8223974987479166 1.5009729544830743 1.0865972886702808 0.5372867625190754
-0.02735917581561642 -0.3007501707638919 -0.5009102375744501 -0.32009597705373627 0.3906237979647842 0.2452755777169044 0.13575406557099257 0.07772344616932114
0.08080077937878782 0.15073494272399324 0.2868773955669768 0.4814364956364401 0.7226066887127253 0.9931917133523502 1.2728765035315646 1.5426721503913963
1.7867544371521176 1.9958713021238128 2.1620939656834772 2.2832078363648582 2.363618867446289 2.416217292936242 2.4217044070794387 2.3832515247986956
2.292260384257464 2.147914582099308 1.9277808673318895 1.6297424207066709 1.2866346427149484 0.9499281967220927 0.6708070597818112 0.47785444505114083
0.5662040228492459 0.5997324985099166 0.8033230496122645 0.39541205020136516 0.24707793387568017 0.13348265809399662 0.07191993643316308 0.07465238406900743
0.14636024732340414 0.2858954491168524 0.48317436130958946 0.7225329952502371 0.9885555932169318 1.259042072962852 1.5206096249965837 1.7594839177998578
1.969233455883919 2.1455015655861174 2.278952184703592 2.369844702218856 2.422075797488394 2.4179591460621452 2.363299009866955 2.263141391464857
2.120843814203976 1.9542149531100041 1.7515462574773273 1.5148903549005877 1.2896148790396427 1.090185565032605 1.014348200519169 1.0624753244700693
1.0610983580407112 1.0341789287097853 0.38770587672148366 0.23869649293416495 0.125588405308928 0.06687308952412785 0.07245292325778396 0.14769371020940092
0.29130262250031547 0.4931836489071042 0.7377054658041613 1.0067029676495285 1.2760337926241034 1.529059646350965 1.759183633072862 1.9552221254160371
2.1177031971702975 2.251817955280026 2.352827714933634 2.4127966819679068 2.4112991945117352 2.3289353584697277 2.161830262093161 1.912624067483823
1.6097316247128166 1.329713030303738 1.137225844855193 1.1310319076095168 1.3284445652189676 1.7450122871561446 2.1805498650952755 2.5236160989829166
2.9136361061641445 0.40220418916640827 0.24746186567123968 0.12645784979642216 0.05918814571603093 0.05884252383574984 0.13171824778363805 0.27467551990101735
0.4800968371632897 0.7311760388299302 1.0090650300368993 1.2928692850790147 1.5628017896081183 1.8019979637430852 1.9999556727733188 2.1535597772084114
2.264113313819568 2.343098403065578 2.402020313005509 2.42000403458341 2.409601432875335 2.3637396909711015 2.270674405164157 2.0985601082060277
1.868197577826628 1.5818238685912858 1.3023165213447476 1.071391196538683 0.8901325954301995 0.6887283324698998 0.20160266654859121 0.04823515175932058
0.3881634337586525 0.2350088517511454 0.11783826186548818 0.05502505121433532 0.05739904661796469 0.13089316047294242 0.2748110239625054 0.4816137455364542

slopes f8 [100, 31, 7]
00000000: 45f8 5637 9415 a73f 94c1 66b3 883a d33f
00000010: a862 10e7 8dea ee3f 81f1 48ef a44d c2bf
00000020: 606e 8bc1 a90b 463f 0e93 3dfb 51a7 9cbf
00000030: 8da0 2017 323c 813f 5d6b 7427 a6c2 ad3f
00000040: fa12 fd8c 9229 d23f fad9 788c cce0 ee3f
00000050: 5668 693d b818 c4bf c0a0 d27c c6e8 4a3f
00000060: 1225 45b9 ecf1 a6bf ee23 f0af 9e21 833f
00000070: 1b46 2628 a758 b13f d289 b374 451f d13f
00000080: c21a ed13 acd9 ee3f d635 8894 18d7 c5bf
00000090: 8027 324d 8aaa 503f 6d78 3523 d434 b1bf
000000a0: 9014 053c 48ca 843f 905c 2095 288f b23f
000000b0: c475 2676 282e d03f 51d3 4d5d 47d2 ee3f
000000c0: a996 18e1 356e c7bf 4058 1b82 55a5 543f
000000d0: 24c0 3f42 1558 b8bf e828 ddec 6310 863f
000000e0: 09de ef18 304f b23f 6cfb d551 34c2 ce3f
000000f0: 9c51 85e0 54c5 ee3f 746a 331a 12c0 c8bf
00000100: 10b9 8a96 d255 583f ad99 07a4 b953 c0bf
00000110: 64bc 4dae 67de 863f 336e 2f94 9183 b03f
00000120: 9c2d fab7 7380 cd3f c046 e5ec 7aa9 ee3f
00000130: 3422 5617 d4b1 c9bf 40ec f2b7 b963 5b3f
00000140: ccff 3ba2 f7d5 c4bf 91da b124 3636 873f
00000150: 3fd8 3621 7e81 aa3f b87e dafe 58a1 cc3f
00000160: 04f0 87f5 5370 ee3f fe43 e5ac a931 cabf
00000170: 30b4 c744 8204 5d3f fe89 a968 7c62 c9bf
00000180: a29b 7619 7912 873f e496 4ceb 9979 a13f
00000190: 9ccb 9c7f a827 cc3f 02bc 5b9e 1a0e ee3f
000001a0: 7476 576d 3c39 cabf 8063 3f4b a9a6 5c3f
000001b0: 06dd 6f75 52a0 cdbf 9a0f a724 b9e9 863f
000001c0: cfa3 a443 b2a5 8a3f b4cb 83b5 b812 cc3f
000001d0: a4ed 9773 5476 ed3f 6827 89fa 9ece c9bf
000001e0: 2012 ede5 3efc 593f dec5 7d63 cd9f d0bf
000001f0: f81b 6d44 32df 863f e180 3a9e 4483 84bf
00000200: 80d9 acdf 4c61 cc3f 36ca 5594 2ca9 ec3f
00000210: be6c a72d 1a03 c9bf 6029 e7ed 8242 543f
00000220: 0e8f 216e cbff d1bf f01b 9308 940e 873f
00000230: 8ee4 6709 fd00 a1bf 8892 874b c707 cd3f
00000240: 4bfa 8476 5ca5 eb3f b889 6cef b8ee c7bf
00000250: 0071 5229 572d 463f 6be8 4f7d 6cde d2bf
00000260: 0698 26e9 7893 873f c2d1 c529 a845 acbf
00000270: 1435 dde6 78f6 cd3f 6e05 42b4 3c7d ea3f
00000280: 103a efb8 5fa8 c6bf 005c 8ffa e3b2 0bbf
00000290: 83d2 0514 213b d3bf fd85 0ad0 a6a5 883f
000002a0: 76f1 c3e4 0a2e b3bf ec2c 6d94 ec21 cf3f
000002b0: 7ae9 1711 353d e93f 9601 66de 1a49 c5bf
000002c0: e088 ca74 6167 4cbf e9bc b529 b01b d3bf
000002d0: bfeb 9bff 0b2a 8a3f e161 d90a e76b b7bf
000002e0: 5216 5029 0a3c d03f 38a1 8db5 2100 e83f
000002f0: 9c4e 0c87 86e0 c3bf a02c 0e22 e6b1 5bbf
00000300: 5e8f 0e9d 1992 d2bf 1bfc 9e30 ce8a 8c3f
00000310: b6c3 bc4a 17d4 babf d0b3 5cf6 d3ee d03f
00000320: cbf1 85ae a2d2 e63f 5819 4cf7 337a c2bf
00000330: 8030 0deb 186e 63bf 908a 61cd 45b0 d1bf
00000340: 39dc f7c2 eed6 8f3f 4857 7680 0358 bdbf
00000350: 0011 8eef e8a6 d13f fb12 3921 3fc0 e53f
00000360: a230 8bf2 9d1c c1bf e018 e03b f6d6 65bf
00000370: d0a7 987c 0195 d0bf c816 71bb e9bc 913f
00000380: 75b3 7afb 16f6 bebf 0320 1c20 6b5c d23f
00000390: d8fa efbc 9acf e43f f48e 81e6 7886 bfbf
000003a0: 804d c06d 66d1 64bf 2aba 801a c2a4 cebf
000003b0: c2b4 5798 8830 933f 0cf5 4f6b 38c0 bfbf
000003c0: c409 d2ca 79fa d23f baa3 7aae 16f8 e33f
000003d0: 26a7 f52d 06c0 bcbf e0bd 281f fc9a 64bf
000003e0: 9728 8380 cd02 ccbf fe40 8178 4d43 933f
000003f0: bcfb 61ed ec7d bfbf d3b8 5728 b467 d33f
00000400: 346a 1168 2d2f e33f 3d4c b7ea 82d6 b9bf
00000410: c0db 5f45 0afc 65bf 3782 4c53 8d68 c9bf
00000420: 4e58 2206 9dc8 903f 5ee2 f8a3 be52 bebf
00000430: d04a 2517 e6a2 d33f 1c75 f69a 7180 e23f
00000440: d923 0738 63b0 b6bf c036 74f3 2ba5 6dbf
00000450: ea9d 61cc 2be8 c6bf 604f b6a8 8dea 873f
00000460: 5ed4 9e77 f641 bcbf fcf2 98f2 6bab d33f
00000470: 25f0 6335 93b0 e13f 7b1a 9b4c fe44 b3bf
00000480: dc02 5dbb 7a63 77bf 9204 cb26 528d c4bf
00000490: f0e0 fec8 deb9 733f c49f 3b16 9c6b b9bf
000004a0: 520c c7ab c78c d33f cc3d 401b 5fe0 e03f
000004b0: 88df c175 06b0 afbf 440c 5c2e 1518 83bf
000004c0: 0498 f16a a348 c2bf c039 25a4 8555 66bf
000004d0: 2fd6 a8c9 a91c b6bf 3870 d001 0132 d33f
000004e0: 64a3 7b87 33c1 df3f 9c19 7298 f97f a9bf
000004f0: 786c 2a91 7d06 8ebf 8847 fbd8 2feb bfbf
00000500: 8004 0687 5a0a 7fbf 660a 1cfc 853c b2bf
00000510: 674f b535 b7ab d23f dc4b 7cf4 1c6a dd3f
00000520: c8bb a02b fc1a a4bf 3bc5 e76e cad2 95bf
00000530: 01c2 dd32 df88 babf a0c8 24b3 a723 85bf
00000540: d8f1 2a26 b8a0 acbf da71 a8e6 340a d23f
00000550: 9a82 b981 057a db3f 4058 6d4d f40f a0bf
00000560: 0c9a 0926 fda6 9ebf fd33 ae80 febd b4bf
00000570: 807b 092f 058a 80bf 4e07 b246 d811 a6bf
00000580: 28e0 416e ab66 d13f 6060 3f3b 5300 db3f
00000590: 985d cd5f e0fc 98bf 126a 7f54 d62a a5bf
000005a0: e663 bd93 ee77 abbf 801d ef0c 5237 64bf
000005b0: 0dfe d292 7a42 a0bf 9816 2e14 c704 d03f
000005c0: da64 db10 78be da3f d009 b582 fc12 95bf
000005d0: 563d c4f7 1148 acbf bd6d 7baa 76c8 97bf
000005e0: 702d 9916 c5dc 803f 8187 b9c5 e723 97bf
000005f0: 0dc3 e851 37f8 cb3f a505 ab1f bdbb dc3f
00000600: c8f2 95db 825c 93bf 1981 92fe 9e98 b3bf
00000610: cafc a9f8 aa0c 773f 7c68 8f58 63d4 993f
00000620: a201 9d1b 0709 94bf adc6 c028 e493 c53f
00000630: e168 66c3 439c e03f 60e6 3e1b 7928 93bf
00000640: a6fb 6123 c7c2 bbbf 7219 7714 fa7d 9a3f
00000650: e8bf 72a1 73fd a73f a0c1 8d25 de0c 75bf
00000660: facd c44f 52ef b73f b589 5cf7 f323 e23f
00000670: faf2 0633 bc9f 95bf 50ed c3a0 12a5 c2bf
00000680: cff6 ed00 2fcc a53f 2613 b677 4434 b33f
00000690: 90d3 103c 7f04 643f 0095 ae3d 4143 32bf
000006a0: 0b8d 89d4 accb e73f 3585 6e96 f74c 9ebf
000006b0: ad6b 646c 02f9 c8bf 3784 c025 d5fe a63f
000006c0: b444 ef39 36a2 b93f e83e 729b c203 a73f
000006d0: 767e 197d 9b3f d33f d07a 46c2 cfc8 ee3f
000006e0: 8be3 fb62 a341 c2bf c00f aa90 b680 303f
000006f0: c695 4c11 6f49 9dbf 30fb fd1a 7b8d 7f3f
00000700: 9f59 d8c0 1995 ad3f b4a3 a421 b220 d23f
00000710: b0e5 638b 3ac5 ee3f b162 fa72 860a c4bf
00000720: 7e21 4714 8454 473f e7f3 6981 1146 a7bf
00000730: c8f7 592b af8a 813f eb83 3d12 7436 b13f
00000740: aad9 c966 3109 d13f 4b94 ff5f 58ca ee3f
00000750: b956 57fb 1ec4 c5bf ac0f 36f7 40d9 533f
00000760: 3aca 1596 5157 b1bf a13a efe9 2021 833f
00000770: 2b42 1cc8 c562 b23f ce52 dfa1 430f d03f
00000780: a3c9 01e0 f1d2 ee3f 124e 43cd 6655 c7bf
00000790: 98d1 f8fb bbdc 5b3f 8246 a42b b76a b8bf
000007a0: 6255 4600 9a77 843f 8506 2a00 c126 b23f
000007b0: 0030 02bc 6f80 ce3f 2423 9c42 99d6 ee3f
000007c0: b3b5 30e1 4aa0 c8bf e0b7 41d7 a605 613f
000007d0: 057f b5c7 5451 c0bf b6ce 1317 fd61 853f
000007e0: 08f9 4084 b46c b03f 2046 cce3 f246 cd3f
000007f0: 6c61 20f3 9ac9 ee3f 8259 6d39 de8c c9bf
0.04508650947126162 0.3004476310698234 0.9661321175545554 -0.14299451526484222 0.0006727770697482864 -0.02798202606153937 0.008415595370095974 0.05812567931771782
0.2837873818246376 0.9649412864299045 -0.1570043849813511 0.0008212060144119557 -0.0448144889983927 0.009341468567088253 0.0677589867612131 0.2675336494122834
0.9640713109191312 -0.17062670948545983 0.0010172224617996661 -0.06721235141364597 0.010151447612438497 0.0724969257429271 0.2528172639666446 0.963168794855486
-0.1830508565046121 0.001260121826296437 -0.09509404055984355 0.01077344957925104 0.07152081116498023 0.24030164714710212 0.9615883240863243 -0.19336153296793024
0.0014853054546324941 -0.12755508908521787 0.011166391379189906 0.06450757854275295 0.23048254473938534 0.9581884981982611 -0.2007393945643955 0.0016717256219596216
-0.1627797643814105 0.011333868975481639 0.05176920085379821 0.22367393917101253 0.9512119098212684 -0.20464058820883219 0.0017710945277216276 -0.19831805334531788
0.011265703286722776 0.03413086888603603 0.2199602721317121 0.9392216771065025 -0.2048717054266721 0.0017487195263951871 -0.23145514234759207 0.01118797915558627
0.013011353196434343 0.21932133543995536 0.920694566505905 -0.2016180728263024 0.0015860189666493454 -0.2597535583109599 0.01116790076561179 -0.01001599891543531
0.22171936914100954 0.8956511399431466 -0.19540717343520514 0.0012365606886413846 -0.28123746638287705 0.011258274566342735 -0.033210666082546955 0.2267998808666969
0.8639356913407225 -0.18697272959350442 0.0006767917244761279 -0.294825670600068 0.011511749854275177 -0.05521893987580341 0.23408423683796598 0.8277877350484866
-0.17701336412433522 -5.28312514870774e-05 -0.3004839606794933 0.012034705375586258 -0.07492130360691882 0.24322278258691854 0.7887215932708351 -0.1662934862070073
-0.0008668161259104655 -0.2985649497340562 0.01277551053816761 -0.09149021162864514 0.25366453203637207 0.7500160737954848 -0.15528947443146002 -0.0016903636353358467
-0.2901672395475908 0.013936625345989431 -0.10479875158922777 0.2645769029502931 0.7132123383194594 -0.14435433936177833 -0.0023718344386108314 -0.27638382965793884
0.015546670269925499 -0.11462423216138717 0.27581237215078147 0.6797176026235258 -0.13368582098917609 -0.0026659783607129034 -0.2590945927391859 0.017322208467041716
-0.12094253196364753 0.2868907750676046 0.6503423395332346 -0.12314563396062878 -0.002541256004414627 -0.23940302175601974 0.018739828394178877 -0.12402680034570696
0.2965378266018457 0.6240342529100567 -0.11230505582866765 -0.0025153087856535222 -0.2188355329038287 0.01881142662051704 -0.12301522059895736 0.30320457401002193
0.5995089562014244 -0.1009294341122748 -0.0026836586575842147 -0.19850317542388193 0.016390279292487535 -0.11845008376338614 0.30681755314178094 0.578179171239444
-0.08862896077984263 -0.0036187990587056296 -0.1789602992969173 0.011677843772112062 -0.11038151188297848 0.3073377484432027 0.5528045695095939 -0.07527150507221762
-0.005710105344235852 -0.1605627717417844 0.004815931562852635 -0.09929824393077441 0.30546752715253433 0.527389100288866 -0.06188984096019029 -0.009323277928620873
-0.14284174653874981 -0.002726326959567177 -0.08637486623123246 0.299926997920696 0.49616707068212507 -0.04980449663075889 -0.014660817139249924 -0.12468241736794827
-0.00757823335914154 -0.07123601346033012 0.2917306923384246 0.45960162997761045 -0.03926837952200618 -0.021311915415883603 -0.10365099899150466 -0.010321912912875597
-0.055913691195630555 0.2818729641456038 0.4293226019708897 -0.03137172169833535 -0.029933886953950092 -0.08102408067334461 -0.008075752733189168 -0.043104895238697524
0.27189145819966365 0.42189484392065957 -0.02440214714746744 -0.04134244710413183 -0.053649383101124035 -0.002467785124710964 -0.031757193014979014 0.2502916047163608
0.4178753056163039 -0.02058023975156137 -0.05523735188955452 -0.02322564521351266 0.008233585121294879 -0.022597905581626335 0.21851245402788103 0.4489586648233746
-0.01890758958096475 -0.07654756274360287 0.005627315384685258 0.025224258690152088 -0.019565688190824944 0.1685757826795017 0.5190752808005322 -0.018709080017038082
-0.10844082464062285 0.025871188639734873 0.04685555787852974 -0.0051392247777219124 0.09349550673942267 0.5668887931135972 -0.021117153753709574 -0.14566262102003202
0.042573422301740764 0.07501628801953739 0.002443550591602457 -0.00027866690441620545 0.7436126853102974 -0.029590481335280933 -0.19509916584578715 0.04491296850051934
0.10013140596790288 0.04495056293046479 0.30075728623157916 0.9620131296577146 -0.14262811978531106 0.00025181252627981196 -0.028600440436226802 0.007703286057106948
0.05777817229334236 0.2832455948396799 0.9615757677521994 -0.15657120336688515 0.0007119793813723933 -0.045456454322426336 0.008565300474625462 0.06723714299506837
0.2661860946458555 0.962200343605795 -0.17004763863103792 0.001211465304408836 -0.0677386275690787 0.009340531481851601 0.07181965003497541 0.2509316521439303
0.9632501006256472 -0.1822937490711501 0.0017005763801424042 -0.0953783494517442 0.00999374688471261 0.07090383771903859 0.2382945697794412 0.9636961270308331
-0.19239173884981894 0.0020778902635845004 -0.12748203040518305 0.010440804735913783 0.06415870884754693 0.22872768519350561 0.9621100185932341 -0.1996114521413795

scatter f8 [100, 31]
00000000: ed70 4eb5 c5d8 ca3f 8ec1 f8b4 9075 ca3f
00000010: 75ea 7dd5 a124 ca3f cddd 2515 a6e6 c93f
00000020: 141f a825 a1b8 c93f 6422 5049 ff95 c93f
00000030: fbfe 8ff8 6b78 c93f ed42 0982 245b c93f
00000040: 9ce8 c94f 343b c93f 60fd 0425 e516 c93f
00000050: aaa0 85ab 64f0 c83f 15fc 7f19 a9c7 c83f
00000060: 1e3b f934 ed9e c83f 05ac f6c3 8376 c83f
00000070: 7ad3 232a 194e c83f de13 8f02 aa25 c83f
00000080: 496b 25dd 0ffd c73f 9e4b 9cd6 8dd2 c73f
00000090: 7835 04c6 34a7 c73f cf31 3102 3d79 c73f
000000a0: 9f12 0815 264a c73f 7abf fd91 411c c73f
000000b0: e0ea 633a e4f3 c63f fb39 2852 cacc c63f
000000c0: 23e5 65e0 5fb8 c63f 7754 bda2 4aa7 c63f
000000d0: 31a0 fef2 75a2 c63f eac2 9eef 9da3 c63f
000000e0: e8b8 9dad 198a c63f e253 bac8 ee74 c63f
000000f0: 6d94 17f0 d7c1 c53f 5ac4 35a8 1fcb ca3f
00000100: 7ba7 a51b dd67 ca3f 07f5 9095 f617 ca3f
00000110: 5316 706d 42dc c93f 37c1 bac5 5eb1 c93f
00000120: 739f 7223 7092 c93f ab74 8948 7a78 c93f
00000130: 0bfa 0ccc 1e5e c93f 35b9 ca24 ac3f c93f
00000140: bbb7 8e48 351b c93f d692 3187 61f2 c83f
00000150: be04 967e 25c6 c83f a456 9ec3 b298 c83f
00000160: 91f2 e0f0 366c c83f 5a0b daf0 d341 c83f
00000170: 7b55 ca32 1e1b c83f ef64 d1b7 33f9 c73f
00000180: 738e 81cd a1d8 c73f 8aac eb9c b0b8 c73f
00000190: fb9c 9a39 5994 c73f cb8d b5bb cd6b c73f
000001a0: 99ec 53e2 a73f c73f e7e5 b846 a615 c73f
000001b0: e807 71cd dbea c63f 06d3 656c 95db c63f
000001c0: b2f0 9260 6cd6 c63f f643 70d0 18e7 c63f
000001d0: 6ac9 29b0 4101 c73f 379d 93f0 75f7 c63f
000001e0: 18b1 3765 aef8 c63f 8373 6375 3a81 c63f
000001f0: 8341 2373 e6e4 ca3f caed 5c37 2282 ca3f
00000200: 3040 1988 4331 ca3f 9515 a6a8 cef2 c93f
00000210: c35d df88 88c3 c93f e22d 5ca9 dd9e c93f
00000220: 7b77 1dd1 ec7e c93f 21c4 a03e c85e c93f
00000230: 2b15 922b 223c c93f bd42 2778 0d15 c93f
00000240: 2b98 9e17 23ec c83f 745a e6ad 4dc1 c83f
00000250: 06ea 308c 8796 c83f e096 a653 1a6b c83f
00000260: 70a3 53f7 dd3f c83f 457b daee 4213 c83f
00000270: 78a4 41eb 88e5 c73f 54e3 212d 56b4 c73f
00000280: c2ac f60a 0781 c73f 5331 2774 2e48 c73f
00000290: a132 f534 8108 c73f 1a7e 54f6 d4c7 c63f
000002a0: db8d 48e1 5d8d c63f c4e8 9269 8c56 c63f
000002b0: 0784 3394 6f37 c63f aacf 5b5e e22b c63f
000002c0: 2dd9 e35e 1e30 c63f 6b00 9c7f 7e51 c63f
000002d0: 02c4 5f5c f84e c63f feca d762 e711 c63f
000002e0: 26a3 d9ba fbdd c43f 854a 3f7b 93d2 ca3f
000002f0: 6234 29e2 a06c ca3f 8986 a540 5018 ca3f
00000300: dbc9 c7c9 d4d6 c93f e987 f19e a0a5 c93f
00000310: f194 ac88 ca80 c93f c624 a236 5662 c93f
00000320: e530 8167 bc45 c93f 319a 2392 0828 c93f
00000330: 3520 0ddb c406 c93f edc0 5a3b 67e4 c83f
00000340: 7d8f 3064 33c0 c83f 0d6b 39a5 4d9c c83f
00000350: 8ac5 804c 8e78 c83f 3864 8648 d853 c83f
00000360: 8f8c 430a cb2b c83f 1342 ed66 fe01 c83f
00000370: 88df bfed b2d3 c73f 5f48 5870 65aa c73f
00000380: a271 3852 bf87 c73f fc0d 9de1 0a70 c73f
00000390: 4df0 fc67 a76b c73f 6301 13c8 a07f c73f
000003a0: c8b5 72df 53a2 c73f 66f6 c0e5 08e9 c73f
000003b0: e7b0 2be9 ca43 c83f ef21 d899 479f c83f
000003c0: 4487 4cff a9d4 c83f 3ab0 4f22 f7a1 c83f
000003d0: c3b1 ada7 f6c6 c73f 0548 ec28 8473 c53f
000003e0: bce6 d625 8ce2 ca3f 6de2 1805 ca80 ca3f
000003f0: 68d3 f11c 5630 ca3f c876 6f2c 72f1 c93f
00000400: 2c51 55b7 b2c0 c93f f0d5 45b7 9799 c93f
00000410: d5aa d8cf 1276 c93f 5868 3dc2 4752 c93f
00000420: c36b 191b cc2b c93f 70c1 5e96 6800 c93f
00000430: 9bbf cc3a 23d2 c83f fac4 3fad 13a0 c83f
00000440: b20b d419 186c c83f 9146 d983 8736 c83f
00000450: c32d 9ae2 6301 c83f 0106 c2f8 43d0 c73f
00000460: 1bd3 75cd eea4 c73f 998f 4897 ab7d c73f
00000470: e3dc a8a6 295d c73f 730e 897f 4a40 c73f
00000480: 6e3b 8f30 b424 c73f 6218 cec5 6909 c73f
00000490: db9c 8b20 56ed c63f cea1 c124 5ec9 c63f
000004a0: 28cc b6dd 90a1 c63f d788 8e1b 576c c63f
000004b0: 72c2 505e db39 c63f 7f98 afe2 3d03 c63f
000004c0: 388a 7c98 3c9a c53f 813b d581 ba4a c53f
000004d0: 3b02 535a c67b c43f 52b6 05a1 c9d6 ca3f
000004e0: 39f4 7c9f bd72 ca3f 0b00 fd51 2321 ca3f
000004f0: db6b 78ec fce2 c93f 43f8 bc4e b4b5 c93f
00000500: 4559 eb3b 8694 c93f 45b7 3c6b 6778 c93f
00000510: e49a 29ee c45b c93f e8cc 348e ac3a c93f
00000520: cf82 cbad 9512 c93f ecea e1aa e7e5 c83f
00000530: c43d 3f6c 5db5 c83f 3b62 e13a 2284 c83f
00000540: 1ced 3071 1353 c83f 9f41 f756 6122 c83f
00000550: 70a0 9aee 3df3 c73f 7e6a 94c6 dac4 c73f
00000560: a555 a2e9 2096 c73f 702a 4383 3f68 c73f
00000570: 279f 733c 2038 c73f c58f 836c 7708 c73f
00000580: 47c0 1f39 75dc c63f 9694 3fdc 98b4 c63f
00000590: a1aa 3422 ef8d c63f af68 51ce 8c6c c63f
000005a0: 5ddf 7a56 153b c63f 6603 dcc5 b0f9 c53f
000005b0: 0d5e d689 da88 c53f 7176 256b 32fb c43f
000005c0: 7b74 b15e 2722 c43f 8a34 88b0 9a8d c23f
000005d0: e3ee 6a58 2fd5 ca3f 530f b0ce 2d72 ca3f
000005e0: 31f7 2743 f321 ca3f fdae 514d 26e5 c93f
000005f0: 5a29 94b0 e4b8 c93f 44a4 0eb4 6e98 c93f
00000600: c161 86ec 407d c93f 256d 3b7b bf62 c93f
00000610: 1a00 0ee3 a145 c93f f6b0 1c2e ce23 c93f
00000620: f095 01e0 60ff c83f 4651 4263 c3d8 c83f
00000630: 0293 6fc3 d0b0 c83f 69a5 df39 4b87 c83f
00000640: 6e17 adec f95b c83f 2b30 5fe9 7e2c c83f
00000650: bb8e d638 0ff9 c73f 6cd0 50a6 80c3 c73f
00000660: 0919 b30c 0f8b c73f 0fe0 bc83 1f51 c73f
00000670: a95b 133d d019 c73f 9b01 d2e2 30e2 c63f
00000680: 4051 0e84 5cb5 c63f 4957 de9e d786 c63f
00000690: 0747 404e 4e6e c63f 1fd2 4f08 a565 c63f
000006a0: ffed a625 8a5f c63f bd94 9bc4 2e3d c63f
000006b0: 3961 f8e7 5fd0 c53f dfb5 ae35 ff44 c53f
000006c0: 0832 357b 6fad c33f e178 8e45 b2d8 ca3f
000006d0: 9bb4 8328 1074 ca3f 77a2 f604 f420 ca3f
000006e0: cc32 bc15 41e0 c93f 0804 25a2 5daf c93f
000006f0: 207d 62a1 c48a c93f 8055 e881 726c c93f
00000700: ea46 f7b7 2850 c93f a56f 2841 3b33 c93f
00000710: 6453 1499 5a13 c93f d6a7 0008 f5f1 c83f
00000720: 8f1e 8888 7fce c83f d04f d032 69aa c83f
00000730: b4f3 9397 2085 c83f e576 74f7 f95d c83f
00000740: 4eb0 2a29 4d34 c83f 7c81 0c1d 5007 c83f
00000750: 5ad5 6d67 68d4 c73f 7f7c aadc eea0 c73f
00000760: 5261 89b7 f867 c73f 9c8a b571 9d2f c73f
00000770: 454f b2ae bbfd c63f 67ba eec8 d3d1 c63f
00000780: 797d b9b0 0daf c63f 1de0 3bbe f1a0 c63f
00000790: f830 d047 cb87 c63f 26d4 042d 0568 c63f
000007a0: 2117 7c87 042e c63f a6b7 c3fd a4ae c53f
000007b0: 012a 68ed 73fe c43f 2bc2 14d8 e73f c33f
000007c0: 7490 611f f5e2 ca3f 1308 77e8 0f82 ca3f
000007d0: 8514 f9c5 0b33 ca3f d19e a1c4 fef5 c93f
000007e0: 6f86 c155 2cc7 c93f e7bd cdaf 5ca1 c93f
000007f0: 379a 662c 017e c93f 643d b261 e158 c93f
0.20974036553241807 0.2067128070498367 0.20424292492301147 0.20235134155858106 0.20094694460589635 0.19989005164849794 0.19898748051490842 0.19809395169661262
0.197119273146943 0.19601120288460105 0.19483621955010239 0.19359315629114407 0.1923500546131089 0.19111678188832584 0.1898833709489301 0.18864941716142786
0.18741033838417767 0.18611309985189178 0.1847902266385224 0.18338739974059456 0.1819503405278242 0.1805498087737723 0.17931797839249608 0.17812470447138637
0.17750166375098173 0.17698033281581946 0.1768329082963205 0.1768681926746674 0.17608948685978665 0.1754435043445986 0.16997813437697876 0.20932384217624894
0.20629466867404375 0.2038562994293118 0.2020342859615761 0.20072540907632128 0.1997814343533225 0.1989891866859684 0.19818482364094367 0.1972556285522359
0.19614282648893586 0.19489688016178403 0.19354695015866769 0.192159982220507 0.19080244790702186 0.18950890789354952 0.18832757453916912 0.18729254222379363
0.18629858526684337 0.18532378828181023 0.18421473801320318 0.18297740617263822 0.18163012076533816 0.18034819081530815 0.1790423157818275 0.17857616227015444
0.17841868129278776 0.17892751863158168 0.17972584821434207 0.17942690131096992 0.1794641489244746 0.17581873638019027 0.21011047956427484 0.20709636405250215
0.2046284117263908 0.20272238955309932 0.20127970393398983 0.20016070146117132 0.19918594561289268 0.19820502336509185 0.19714762809250294 0.19595497481215843
0.19470633176132543 0.19339915267183339 0.1920937952543939 0.19076851925381444 0.1894490678453411 0.1880878130222873 0.18669234740380936 0.1851909370778012
0.18362510714846364 0.18189030334031972 0.17994704328375113 0.17797338512262756 0.17618916988531805 0.17451625018094863 0.17356676803959223 0.17321424109797806
0.17334346421530125 0.1743620036213572 0.17428497801259374 0.17242138220134245 0.16302439330618163 0.20955127256327813 0.20644007723822982 0.20386698872157563
0.20186862804946668 0.20036704789077867 0.1992428939203488 0.19831350009579846 0.1974406724351702 0.19653422485062458 0.19551907249319958 0.19447031400841955
0.19336550132822686 0.19226999824135085 0.1911790727186083 0.19005874196298733 0.1888364601246377 0.18756084466669218 0.1861480389486554 0.1848875807341441
0.18383018030807557 0.18310676590236585 0.18297283723393534 0.18358239907503124 0.1846413460784062 0.18679915636487293 0.1895688665894177 0.1923608304207529
0.19398999181526666 0.19244279075008014 0.1857593840353627 0.16758777616684042 0.21003867957715794 0.2070553326500603 0.204600109227296 0.20268084687898225
0.20119317962474648 0.19999977539889313 0.19891581677196393 0.1978234957157976 0.19664908717353854 0.19532496778766584 0.19391289111217422 0.1923851581519001
0.19079877148769026 0.1891641038696901 0.18754242481769098 0.18604325910932576 0.18472085029829874 0.18352265250098013 0.18253059995343 0.18164950587571446
0.1808076130968987 0.1799747672886865 0.1791179331696416 0.17802025599236376 0.1768055994594715 0.17518128247781448 0.1736406527065984 0.17197393005989522
0.1687694305956755 0.16634303416728005 0.16002730760921388 0.20967979776780737 0.20662660872940977 0.20413629058202817 0.2022396235123257 0.20085767597805856
0.19984510350941256 0.19898693786802304 0.19811307553319246 0.19710308974899893 0.19587965951998007 0.1945161423098719 0.19303481851100746 0.19153240084666998
0.19003527666959819 0.18854920145396378 0.18711065435968832 0.18569502540852406 0.1842690602103804 0.18286889943404416 0.1814003272222575 0.17994587706118473
0.1786028412748257 0.17738638643564703 0.17620648546411125 0.17518768381234426 0.17367808077483007 0.17168244992356135 0.16823894243565043 0.16391592246775447
0.15729229091349226 0.14494641895035826 0.20963088814993744 0.206609464570756 0.20416107920748908 0.20230559134812856 0.2009549963189084 0.19996436874251533
0.19913493680065922 0.19832604901498843 0.19743751131682147 0.19640519382063076 0.1952935308246846 0.19411508890756063 0.19289598028912996 0.19162884069309463
0.1903068929333886 0.1888579024802096 0.18728819155977824 0.18565376397021127 0.1839312374124307 0.18216318066129175 0.18047526342590217 0.17877780032359855
0.17740971038859676 0.17599005944492266 0.17524126835683537 0.17497694879388434 0.17479063833694394 0.17374214744555685 0.17042158915206487 0.1661681186791801
0.1537303306198654 0.20973804851832425 0.2066669652771552 0.20413065187792132 0.20215619622503878 0.20066423814026302 0.19954736595261924 0.1986220487894279
0.19775876028739187 0.19687596017399503 0.19590313410358384 0.19488394633054779 0.1938018242510577 0.1927005289186341 0.19156272317186807 0.19036793310890868
0.18909611234755846 0.1877231733169643 0.18616967249151167 0.1845987870665091 0.18286045991659222 0.1811405949802819 0.17961832075217835 0.17827842055472162
0.1772172081864303 0.17678663052333912 0.17601910597330295 0.17504944513498905 0.17327934852090102 0.16939222708554985 0.16401528446324679 0.15038774538835872
0.21005119354515822 0.20709418154552903 0.20468279997490782 0.20281967736376896 0.20139078318884482 0.20023687919773112 0.19915785472876887 0.19802491445851012

Maxvals f8 [11]
00000000: 5fc7 46f0 fd24 2c40 d755 5083 1225 2b40
00000010: ab0a 2b9b 85c5 2a40 fd22 cb65 8da4 2a40
00000020: ed3e 2a3f c485 2a40 8275 2444 4b77 2a40
00000030: 50a9 f191 4e5a 2a40 0276 856b 363c 2a40
00000040: 062e fe67 b310 2a40 7f5c c256 30e0 2940
00000050: be72 b0dd 6a95 2940
14.072249897613515 13.572406867558056 13.385784958843336 13.321391278311689 13.261262868792494 13.232996110392154 13.17638069224327 13.117602691690085
13.03261876085072 12.93786879656386 12.791830947674836
