Data/TNG/Model_snap4.npz (npz, 189122 bytes, 5 tensors)

x f8 [26]
000000 00 00 00 00 00 00 26 40 33 33 33 33 33 33 26 40
       11.0 11.1
000010 66 66 66 66 66 66 26 40 99 99 99 99 99 99 26 40
       11.2 11.299999999999999
000020 cc cc cc cc cc cc 26 40 ff ff ff ff ff ff 26 40
       11.399999999999999 11.499999999999998
000030 32 33 33 33 33 33 27 40 65 66 66 66 66 66 27 40
       11.599999999999998 11.699999999999998
000040 98 99 99 99 99 99 27 40 cb cc cc cc cc cc 27 40
       11.799999999999997 11.899999999999997
000050 fe ff ff ff ff ff 27 40 31 33 33 33 33 33 28 40
       11.999999999999996 12.099999999999996
000060 64 66 66 66 66 66 28 40 97 99 99 99 99 99 28 40
       12.199999999999996 12.299999999999995
000070 ca cc cc cc cc cc 28 40 fd ff ff ff ff ff 28 40
       12.399999999999995 12.499999999999995
000080 30 33 33 33 33 33 29 40 63 66 66 66 66 66 29 40
       12.599999999999994 12.699999999999994
000090 96 99 99 99 99 99 29 40 c9 cc cc cc cc cc 29 40
       12.799999999999994 12.899999999999993
0000a0 fc ff ff ff ff ff 29 40 2f 33 33 33 33 33 2a 40
       12.999999999999993 13.099999999999993
0000b0 62 66 66 66 66 66 2a 40 95 99 99 99 99 99 2a 40
       13.199999999999992 13.299999999999992
0000c0 c8 cc cc cc cc cc 2a 40 fb ff ff ff ff ff 2a 40
       13.399999999999991 13.499999999999991

intercept f8 [100, 26]
000000 38 b8 be 96 8a 4f c1 bf ee f6 28 1f e2 71 d1 bf
       -0.13523990974994304 -0.272575884275155
000010 86 a3 da 5a 4d f5 d7 bf cc 5e f0 62 da 83 db bf
       -0.3743470561262757 -0.4299226728630685
000020 90 0e af 09 23 b7 db bf f4 c5 f4 9e fe 65 d8 bf
       -0.43305278726277496 -0.3812252571397885
000030 54 5f 5e a5 e2 70 d1 bf 60 71 6f c7 00 40 bc bf
       -0.27251497411042647 -0.11035160893465479
000040 b8 eb d1 38 30 76 b9 3f 9b 36 4c 5e 20 32 d6 3f
       0.0994596613617621 0.34680947502861564
000050 6e db bf 42 0f c5 e3 3f f1 cc 95 03 65 7c ec 3f
       0.6178051284503974 0.8901848859808564
000060 96 5a dd fd 67 54 f2 3f 2a 6f ca 76 a1 d5 f5 3f
       1.1456069866741578 1.3646559372200024
000070 18 86 70 e5 e2 7d f8 3f ba 43 ba 0c fe 58 fa 3f
       1.530733963249423 1.6467266556903568
000080 38 53 ad 0b a8 73 fb 3f 00 c3 e0 69 ce cc fb 3f
       1.7157364326605613 1.7375015388353745
000090 b6 31 ae 0c 37 d6 fb 3f 8a b0 6c dc 0a 8d fb 3f
       1.739798593075745 1.7219341860136717
0000a0 9c b4 24 d7 96 75 fb 3f 34 70 00 69 53 83 fb 3f
       1.7162083057440105 1.719561968005121
0000b0 a0 4f e9 ae 8c 9f fd 3f 2d 6f ec c0 8a 94 00 40
       1.8514525253749312 2.072530276503946
0000c0 9e e0 6b 75 9a 72 03 40 9b 8c dc 7f b1 f9 05 40
       2.430958669047029 2.7469205846005713
0000d0 f8 06 87 c9 a3 4a c2 bf 56 c1 aa d2 e6 05 d2 bf
       -0.1429028257389786 -0.2816102082533879
0000e0 3a d5 9d f2 59 85 d8 bf f0 ca 7c 9e b5 0a dc bf
       -0.3831391209890459 -0.43815365292827746
0000f0 36 ff 0a ff c5 37 dc bf de ec 41 13 4b cc d8 bf
       -0.4409041395810961 -0.38746907120339624
000100 7c 29 ad 93 a8 95 d1 bf d8 e4 01 e5 c7 cf ba bf
       -0.2747594301369174 -0.10473298398018771
000110 08 ae ed 11 06 a9 bd 3f 42 88 48 6b 9c 2c d8 3f
       0.11586034715372062 0.37772284008872614
000120 be cb 84 97 42 31 e5 3f fc 3b 62 04 c9 00 ee 3f
       0.662263198790576 0.9375958524341281
000130 f8 fb 0d ae 45 f4 f2 3f e3 7f 32 e9 b8 12 f6 3f
       1.1846367644318416 1.3795708760517236
000140 18 22 74 0d eb 39 f8 3f 4c 05 31 39 00 6a f9 3f
       1.5141401792080895 1.588379119304892
000150 f3 92 63 ea 04 9f f9 3f 10 8e da 71 85 de f8 3f
       1.6013230472391882 1.5543264815722786
000160 a1 8e b7 6f c3 9d f7 3f a0 7f da 7a 5b b6 f5 3f
       1.4760164607950303 1.3570208357777815
000170 41 5b 88 1d 80 81 f3 3f 36 44 fd 0c d0 62 f1 3f
       1.2191163209551663 1.086624193896808
000180 dd fa 66 53 4f 10 f1 3f e8 9b 10 49 ee 22 f2 3f
       1.0664819009686461 1.1335280279251894
000190 75 8f 28 88 03 46 f6 3f f6 52 ba d9 24 30 fd 3f
       1.392093212002661 1.8242538933747574
0001a0 00 52 cf c2 bb ae c2 bf 18 e4 3b b9 24 01 d2 bf
       -0.14595744144629919 -0.2813197907376561
0001b0 b6 e5 af 7f 06 73 d8 bf f6 50 f0 92 80 1b dc bf
       -0.38202059239810227 -0.43917860364423633
0001c0 fe cc f2 4f f7 a7 dc bf 1a d6 88 02 9e d7 d9 bf
       -0.44775183494057547 -0.4037852310897009
0001d0 a6 c0 8c 4c 95 5b d3 bf c0 4a 0e af a7 72 c2 bf
       -0.30246479487960654 -0.14412399337432724
0001e0 68 94 f3 dd c2 6b b1 3f 1c 53 fa 33 5f 21 d5 3f
       0.06805055540788063 0.3301618583293917
0001f0 ce 18 b9 19 3e 15 e4 3f 83 29 05 cd cf f1 ed 3f
       0.6275930883791945 0.9357680324840633
000200 42 4b 85 a9 e6 bd f3 3f 9c 49 0c a6 73 d8 f7 3f
       1.2338625547315165 1.4903446661233835
000210 e5 99 78 f2 87 f8 fa 3f 14 85 a3 8a 8a 05 fd 3f
       1.6856765243079448 1.813852826650252
000220 10 cc 80 99 67 f0 fd 3f 1e a5 7b 9f d0 bb fd 3f
       1.8711925502982503 1.8583532552532414
000230 fc 15 e7 bd 84 d3 fc 3f 6e ac c5 77 da 5f fb 3f
       1.8016402643273741 1.7109017065620509
000240 66 6a ff 23 5d 86 fa 3f f1 82 da 62 7c 35 fb 3f
       1.6578036695633727 1.7005580769984443
000250 3b 72 44 fc 44 84 ff 3f cb 8b 16 fc 4e de 03 40
       1.9697923521226943 2.4835490888958467
000260 26 e1 59 5d 79 04 09 40 8e eb 8b 05 34 f8 0d 40
       3.127184609704403 3.746192973454021
000270 d8 71 61 6a b4 c5 bf bf 3e 1b be 0e 73 44 d0 bf
       -0.12411048505004574 -0.25417782249171583
000280 18 5c 01 57 da 76 d6 bf 72 fb 9c fb 2c db d9 bf
       -0.35100420471775484 -0.40400242396929464
000290 fa 6e c6 ae df 4b da bf b0 d4 87 c8 f4 8f d7 bf
       -0.4108809668339145 -0.3681613882357153
0002a0 3a 03 1f 7c 04 9e d1 bf d4 75 23 a8 c6 e2 c0 bf
       -0.27526962395863885 -0.13192065439117917
0002b0 00 30 8b 2b d0 c5 ae 3f e0 5d 9b 5d 43 c8 d2 3f
       0.060102944674866876 0.29347309247302
0002c0 1e ce ad c8 c3 eb e1 3f 20 ed 30 95 89 b4 ea 3f
       0.5600298804769783 0.8345382608307865
0002d0 16 97 76 89 f3 a4 f1 3f 0e e9 4a df dc 70 f5 3f
       1.1027713174493718 1.3400543901794353
0002e0 f5 93 f4 a3 9f 87 f8 3f f2 4c 49 d0 32 eb fa 3f
       1.533111229372705 1.682421506517866
0002f0 3c 7f c7 7b a2 71 fc 3f df 19 12 4c e2 4b fd 3f
       1.777742846978028 1.8310263606559756
000300 7c b2 6d 5e aa 89 fd 3f 13 3e 1a ee 16 55 fd 3f
       1.8461097420323815 1.8332738209609303
000310 ae 9a 64 39 f4 d9 fc 3f c2 58 ec 07 de 4b fc 3f
       1.8032114259637342 1.7685222920895716
000320 7a b4 92 9d a1 1a fd 3f 26 b2 82 d9 ea ba ff 3f
       1.8190017848203568 1.9831341263299094
000330 64 3c b8 32 e5 12 02 40 ab 7a f4 f8 6d 25 03 40
       2.2592262232279143 2.393276162110245
000340 e0 e1 2e ac d0 d2 c1 bf c2 54 f7 34 16 bf d1 bf
       -0.13924606711749643 -0.27728800938104936
000350 cc a2 9b f5 be 2a d8 bf 2c c4 f0 f4 d4 99 db bf
       -0.3776090048327603 -0.4312641517636304
000360 40 84 dd 84 68 c0 db bf 30 25 85 e6 f8 b0 d8 bf
       -0.4336186692726791 -0.385801529996189
000370 a6 a1 80 27 d5 38 d2 bf 8c 11 e3 d4 80 e1 c0 bf
       -0.2847187886968875 -0.13188181300041568
000380 b0 45 c0 99 e4 86 b1 3f 53 49 fe f5 5b 6d d3 3f
       0.06846455339134283 0.30354975722106764
000390 56 f7 eb e6 7a 09 e2 3f 4b 90 50 4c 98 52 ea 3f
       0.5636572370710649 0.8225823870202559
0003a0 aa c1 e6 5b 54 17 f1 3f ee 99 11 29 9f 9d f4 3f
       1.0681956853769443 1.2884818653343433
0003b0 19 f1 6e 7f be 82 f7 3f 9a db d1 69 15 e6 f9 3f
       1.4694199540964006 1.618672765119959
0003c0 06 2e cd 0b 5b cb fb 3f 7f 95 03 93 5d d9 fc 3f
       1.737147375201745 1.8030677550062533
0003d0 41 33 41 96 13 34 fd 3f 36 49 69 2a d4 74 fc 3f
       1.8252139920543444 1.7785226494493833
0003e0 07 1c c4 46 a2 15 fb 3f 06 84 f6 8b 54 4c f9 3f
       1.6927817119883473 1.5811353175452054
0003f0 b2 18 e6 4f 91 0d f9 3f a1 70 0e 0a d2 81 fb 3f
       1.5658124085471568 1.7191944496944773
000400 46 fd 84 a6 48 77 01 40 83 75 22 ea f6 45 06 40
       2.183244038518441 2.7841623584524213
000410 60 e1 6d 71 c2 93 c1 bf 84 b1 8f e3 c0 95 d1 bf
       -0.13732176340614455 -0.27476522658141556
000420 8c 69 82 a7 e5 0a d8 bf 80 ba 10 00 33 6f db bf
       -0.3756651054224214 -0.42866206175214217
000430 10 0e 88 ac 6f 4f db bf ec 54 f0 b9 bf 97 d7 bf
       -0.42672340248847807 -0.36863701971135643
000440 a6 e3 25 f7 d6 46 d0 bf 18 f7 2a 59 e8 2e b7 bf
       -0.25432371268794396 -0.0905595033354668
000450 10 41 76 90 99 de bd 3f a1 d5 ae 34 18 e8 d6 3f
       0.11667785431768984 0.3579159273607165
000460 8d c9 4d 81 c5 f0 e3 3f 54 3d 74 21 64 75 ec 3f
       0.6231410527673674 0.8893299725913644
000470 7c ee 69 af 5e 5d f2 3f c0 82 26 49 aa 15 f6 3f
       1.1477953769780518 1.380289350265386
000480 0e fa b8 81 b6 07 f9 3f 1f 27 4c ac 56 50 fb 3f
       1.5643830363548008 1.7071139078493116
000490 00 d7 91 9c 36 c7 fc 3f 0f 6f 3b 33 a2 80 fd 3f
       1.7986360660556215 1.843904686093939
0004a0 14 f8 a5 a0 ba 1f fe 3f 19 e5 69 ba 51 97 fe 3f
       1.882746341259467 1.9119431764395982
0004b0 86 99 d4 30 c0 11 00 40 f2 d3 77 00 25 96 01 40
       2.0086673560028343 2.1983127628868653
0004c0 b4 84 7a b8 81 cb 04 40 e5 78 24 37 69 01 09 40
       2.5993685161962166 3.12568896369986
0004d0 b4 f8 97 7b 03 c4 0e 40 73 e8 91 47 74 f3 11 40
       3.8457097678902645 4.487748258858221
0004e0 4c e2 39 35 7f 2f c1 bf 76 24 62 e1 29 bf d1 bf
       -0.1342619905369865 -0.2772926999101125
0004f0 d2 fb 87 3b 6c 8b d8 bf 68 24 7e e7 08 30 dc bf
       -0.3835096913680306 -0.44043181044305024
000500 ee b1 ac 9c f3 42 dc bf c2 6e 31 09 7b a6 d8 bf
       -0.4415864019418042 -0.3851611699844676
000510 58 f3 ee 9d 50 4c d1 bf e0 b1 95 7a e3 59 ba bf
       -0.2702828924482694 -0.10293409102241169
000520 b8 88 69 a1 9d d9 bb 3f ba a0 eb e5 98 89 d6 3f
       0.10878930273750853 0.3521482701603521
000530 cd 7d 09 47 e2 d4 e3 3f f2 5d d0 e6 49 5d ec 3f
       0.6197368037646186 0.8863877780995024
000540 8f ad e7 c6 27 3c f2 3f 98 ba 81 9c 60 ca f5 3f
       1.139686371777177 1.3619085420174653
000550 6c e5 a8 f2 0e 89 f8 3f 8d 19 3a bc 5d a0 fa 3f
       1.5334615210434448 1.6641518929114654
000560 34 c7 ba 12 ec 18 fc 3f f0 6b 9b 6d 3a e3 fc 3f
       1.7560845119118769 1.8054756433036765
000570 02 8b bf 78 f7 8c fd 3f 29 1e d1 b2 78 0a fe 3f
       1.8469156948783056 1.8775565133127066
000580 98 20 93 39 32 5b ff 3f 02 ba d6 1f 13 d5 00 40
       1.9597646950733516 2.1040403830913883
000590 fe 4e 98 97 be ce 03 40 1a 36 9d 7b 78 ea 07 40
       2.475949463210667 2.989487615332803
0005a0 f6 7e c1 1f 23 cf 0e 40 6f 8a 16 ee 0f cb 12 40
       3.85114121255162 4.698302955747393
0005b0 14 98 6d 40 33 00 c1 bf 5e 18 57 db f6 25 d1 bf
       -0.1328186096754399 -0.26794215602820326
0005c0 de 3a 5a 74 d8 87 d7 bf b8 cd 02 82 de 07 db bf
       -0.36766635286850924 -0.42235529610044464
0005d0 dc 87 47 39 01 4e db bf 16 d7 83 2b 0a 32 d8 bf
       -0.42663603395169303 -0.3780541825247935
0005e0 42 ba b5 dc 85 a6 d1 bf 98 48 63 bb f4 2e bf bf
       -0.27578875116060797 -0.12181024145982844
0005f0 d8 1b d9 f4 2f 30 b4 3f 18 28 46 03 48 19 d4 3f
       0.07886028030144077 0.3140430480931413
000600 e7 91 e0 d0 88 81 e2 3f 52 e0 c8 3c c7 24 eb 3f
       0.578312309230168 0.8482395350647585
000610 70 56 b3 4c 21 ba f1 3f dc 27 72 c8 8f 55 f5 3f
       1.1079419132342103 1.3333890752714899
000620 3c 68 3d 81 fd 19 f8 3f e6 86 44 ba 62 21 fa 3f
       1.5063452766830912 1.6331507946092017
000630 28 63 6a 7f 07 08 fb 3f 04 0e 9c 15 51 1b fb 3f
       1.6894602753802221 1.6941691249966206
000640 b0 f4 17 cc 31 a2 fa 3f 48 47 25 5d af 85 f9 3f
       1.6645982715993277 1.5951379431248416
000650 af bc ec ab 65 d2 f8 3f 9d c3 58 a8 84 df f7 3f
       1.5513664928255755 1.4920698715252236
000660 ba cf 7a 6d 1a 31 fa 3f 2a 7e 95 a9 8a 20 fe 3f
       1.6369880940010106 1.8829447388051315
000670 41 9b 6e 3e 18 88 01 40 eb c8 94 55 16 85 03 40
       2.191452491522256 2.4399840055494812
000680 a8 ed 43 94 50 93 c2 bf c4 3a 4a c3 5a 2f d2 bf
       -0.14512068976897052 -0.28414029189381673
000690 d8 c1 c3 28 b8 bf d8 bf c6 47 b6 bf d2 3a dc bf
       -0.3867016218273682 -0.4410902855098552
0006a0 84 71 aa e1 43 40 dc bf 5c 80 b1 d8 67 dc d8 bf
       -0.44142243421244864 -0.3884524933000699
0006b0 18 e0 8c 63 36 00 d2 bf 88 3c 4e 45 77 3a c0 bf
       -0.28126296731670797 -0.12678423770964664
0006c0 58 99 e0 a6 81 f5 b1 3f 2d cf a5 12 81 62 d3 3f
       0.07015238117364697 0.3028872186762211
0006d0 32 a7 23 6a 28 f7 e1 3f 52 1d de c6 1b 44 ea 3f
       0.5614206383736244 0.820814026273107
0006e0 64 66 58 53 6f 26 f1 3f 2a cf be f2 2a 9f f4 3f
       1.0718835120846046 1.288859317993181
0006f0 fe 66 98 a1 d8 6b f7 3f 75 26 ea 4f c9 75 f9 3f
       1.4638296425168273 1.5912564393678654
000700 a6 b6 c9 34 8f f8 fa 3f 36 fb b7 f9 e4 fa fb 3f
       1.685683447077659 1.7487535242687051
000710 9a f0 aa 97 23 c5 fc 3f ff 87 77 a8 19 52 fd 3f
       1.7981296467324115 1.8325440006960887
000720 90 da 78 32 ad 92 fd 3f 9b 33 4a 1a 17 ff fc 3f
       1.8483097049299069 1.8122778918216003
000730 7a 8c e5 58 15 b2 fb 3f 98 ba 1c 77 24 bb f9 3f
       1.7309773895765646 1.6081890728779964
000740 69 6b 9b 1a 1b 00 f7 3f 13 69 e6 89 49 72 f0 3f
       1.4375258483257431 1.0279021631927818
000750 f8 35 6a c8 b4 dc c0 bf 8c 2a 9d ea ca 97 d1 bf
       -0.13173541818507295 -0.2748896876479783
000760 40 b4 ad 18 b2 97 d8 bf 16 f1 8f 2b 2b a1 dc bf
       -0.3842587700845037 -0.4473369527256791
000770 a4 8f 9d 67 84 36 dd bf 02 fd 9c 9b 63 dc d9 bf
       -0.4564524661893705 -0.40407648274045027
000780 34 45 7a 4e 7c 7d d2 bf b8 db 17 52 31 3c bd bf
       -0.28890903152303626 -0.11419971708515575
000790 b8 1d 52 e5 b2 a0 bb 3f 3c b1 79 c8 7d 4f d7 3f
       0.10792081926967156 0.3642267663733667
0007a0 81 53 0f b0 a9 46 e4 3f c4 08 d5 fe b2 8b ec 3f
       0.6336258352917953 0.8920531251135562
0007b0 4a 3a 23 8e 82 1b f2 3f ae 1b 2f b1 cc 8a f5 3f
       1.1317163040399856 1.3463866158724431
0007c0 d2 ea 6e 63 d5 8b f8 3f e2 bc ea bf 9b 5f fb 3f
       1.5341390499221927 1.7108418938403749
0007d0 b9 b6 96 18 bb f5 fd 3f 8e 88 f2 a6 f0 04 00 40
       1.872492881822309 2.0024121325269055
0007e0 b7 83 2d 2f 04 f4 00 40 ad 26 8a 3a 05 8f 01 40
       2.119148605896466 2.194834191647564
0007f0 3a a4 16 8f ba f3 01 40 4b fb 61 24 d4 ff 01 40
       2.244008176687683 2.249916347732698

slopes f8 [100, 26, 7]
000000 b0 6f 2d b1 c1 12 b5 3f ec e7 2e 01 31 a0 ce 3f
       0.08231745315191463 0.2392636543061707
000010 ea b0 ce 51 5c 83 eb 3f 80 21 c7 19 56 ca c2 bf
       0.8597852323341872 -0.14679981478390047
000020 64 72 58 1d 23 ec 63 3f 4e de 36 f1 83 ae 82 bf
       0.0024319349129327417 -0.009121924208428524
000030 92 2d 97 74 75 ee 7c 3f 3f ce ff 30 33 2e b8 3f
       0.007063349542885249 0.09445495554228332
000040 7c cd b8 0d 27 11 cd 3f ac 13 d0 ce f1 92 eb 3f
       0.22708595438016832 0.861687568598986
000050 46 e6 4d f0 18 29 c4 bf 60 4c 34 c4 df b7 65 3f
       -0.15750419362648155 0.002651154559893551
000060 48 9f c1 31 5c 9c 94 bf 6e 97 37 c3 94 68 80 3f
       -0.02012771657646731 0.008011972625307808
000070 d0 0b 8f f3 03 72 ba 3f 3c df 10 74 26 af cb 3f
       0.10330223747500544 0.21628266017227726
000080 8f 1f a7 31 f1 a3 eb 3f 0a 51 6e f4 e0 7d c5 bf
       0.8637624711782211 -0.16790401396850313
000090 c8 9a 11 17 e5 ee 66 3f e8 78 d3 ce 8b 96 a2 bf
       0.002799460832238896 -0.03630482578022215
0000a0 89 6b f6 c3 58 a3 81 3f bb 0f 46 88 5b a4 bb 3f
       0.008612340431502623 0.10797664715761261
0000b0 64 74 8f a8 e3 8e ca 3f ec e9 83 c5 47 b8 eb 3f
       0.20748563509451678 0.8662451608391257
0000c0 d4 85 67 8e b9 b8 c6 bf 74 07 8c c7 ac bd 67 3f
       -0.1775123544057765 0.0028980612372614904
0000d0 c8 bd 98 12 21 b5 ad bf 27 40 a6 92 36 e9 81 3f
       -0.05802253105172955 0.008745600080857297
0000e0 d5 56 fe f1 5d a4 bb 3f 44 33 38 ec a7 ae c9 3f
       0.10797679098171938 0.20064257654339646
0000f0 aa 2f e7 2d a6 c7 eb 3f 7b fa 7d af ae c6 c7 bf
       0.8681212326568943 -0.18575080460501056
000100 ac 2d a7 00 14 84 68 3f cc c2 20 ee 65 b5 b5 bf
       0.002992667262537293 -0.08479916633292389
000110 97 13 d6 ba e1 fe 80 3f a7 c6 47 8e aa 68 ba 3f
       0.00829864837101883 0.1031595799793431
000120 44 d5 1c e4 9e 14 c9 3f be c7 75 a4 2d cb eb 3f
       0.19594179285346958 0.8685520374403877
000130 b1 91 42 0c 57 93 c8 bf 20 0c 0f aa d9 e1 69 3f
       -0.19199646090158987 0.0031594516044335524
000140 dc fc a5 07 41 84 bd bf f2 70 91 78 4d 60 7d 3f
       -0.11529928623893987 0.007171919461225184
000150 1d b5 8b 9b ea ea b7 3f 18 d5 d5 67 0e bd c8 3f
       0.09342829034331541 0.19326953954775017
000160 8e 7d a0 80 8f b8 eb 3f 63 47 cf b7 74 11 c9 bf
       0.8662793647999238 -0.1958452126987665
000170 80 38 9a 09 83 2c 6c 3f a5 3c 5c 07 9d dc c2 bf
       0.0034391936613423213 -0.14735758647336641
000180 04 89 dc 9b 36 77 76 3f 4c 5b f3 35 31 44 b4 3f
       0.005484784427411297 0.07916553084519967
000190 08 9b 74 88 64 ac c8 3f d9 9d f6 76 3a 85 eb 3f
       0.19276100790849449 0.8600132297041753
0001a0 de 44 d7 b8 a5 39 c9 bf 30 72 60 cc 1c 2e 70 3f
       -0.1970717575591498 0.003950226300756074
0001b0 7e 06 15 40 7b d9 c6 bf 64 e4 4b 6b 91 9f 6b 3f
       -0.17851200703630704 0.0033719864098853847
0001c0 f1 e5 23 67 66 34 af 3f 30 9f 99 a1 23 df c8 3f
       0.06094665535961131 0.194309667497913
0001d0 2a 21 91 32 5a 2d eb 3f ab a6 c6 b3 c5 0b c9 bf
       0.8492861735949522 -0.19567176130413108
0001e0 00 47 4a 21 3d ae 72 3f ad be 53 d5 0f 65 ca bf
       0.004560698308198274 -0.2062091628681534
0001f0 74 f9 60 85 46 51 53 3f c7 d6 2b d2 9d 53 a4 3f
       0.0011790455514667205 0.03970044317786186
000200 dc 76 39 82 78 52 c9 3f fc cc 9d 1d ef ab ea 3f
       0.1978293071614904 0.8334880426831712
000210 07 94 10 3a 7c 94 c8 bf 70 7b 13 43 ce b3 75 3f
       -0.1920314105529146 0.005298429213523956
000220 97 88 50 c3 c3 42 cd bf 40 8a ce 3a 26 e3 42 bf
       -0.2285999969181531 -0.0005763947170758857
000230 9e 92 06 c9 44 13 91 3f 50 70 aa e4 1f 0f ca 3f
       0.016675066728242365 0.2035865656406508
000240 9a d8 a0 fb c7 05 ea 3f d3 20 5e 75 a6 da c7 bf
       0.8132057108512243 -0.18636017542690428
000250 a0 91 1e ab f4 a6 78 3f f3 72 9f 43 71 46 cf bf
       0.006018596397471404 -0.24433723260781157
000260 50 53 7e d3 20 0b 56 bf a5 b0 d2 84 74 94 79 bf
       -0.0013454266136012256 -0.006245093490331898
000270 14 d1 a0 35 5b fc ca 3f 54 df fd c6 5d 40 e9 3f
       0.21082630270542124 0.7891072165066171
000280 1f 12 96 55 2e f3 c6 bf d0 97 94 44 0c 3e 7b 3f
       -0.17929629496588093 0.00665097038407754
000290 7c f5 9e b7 c1 39 d0 bf 80 63 b5 55 ff fb 49 bf
       -0.25352518970233695 -0.0007929798843334529
0002a0 52 b1 be 3c 65 34 9c bf c4 6f b2 5f a5 01 cc 3f
       -0.027543622810911224 0.21880023167329743
0002b0 93 fd 16 8e 26 63 e8 3f aa 08 ce 90 82 ee c5 bf
       0.762103345412401 -0.17134124823139035
0002c0 ac ff 64 b8 0a 5d 7d 3f d9 d5 60 a8 da 68 d0 bf
       0.00716880977262228 -0.2563997883147216
0002d0 e0 03 e5 d3 ad f8 51 3f 35 24 c0 46 74 60 a7 bf
       0.0010968873535406251 -0.04565776218084531
0002e0 b4 ec 4c 78 cc 01 cd 3f 0e b5 83 01 8e 72 e7 3f
       0.2266173922924729 0.7327337293224063
0002f0 b3 61 a6 91 d1 e2 c4 bf c0 fe e9 a8 3f ec 7f 3f
       -0.1631719552212992 0.007793663664983519
000300 c6 b0 08 8d 67 47 d0 bf 00 73 c7 6f b8 bc 6d 3f
       -0.2543581845554964 0.003630027988249629
000310 72 c6 4e 83 7d 5a ae bf fc f6 f5 be 58 eb cd 3f
       -0.059284136084340924 0.2337447101999074
000320 96 7c c7 26 8f 6e e6 3f 71 d9 e7 8f f7 e0 c3 bf
       0.7009959943205952 -0.1553029492058147
000330 20 69 a0 f3 af b2 80 3f 4e 7c b6 2c e9 c0 cf bf
       0.008153318998712467 -0.24807467158550128
000340 ec 7b 36 27 1d ec 79 3f 28 f1 50 f2 73 9b b1 bf
       0.006328691367712285 -0.06877827325746877
000350 50 45 ee 18 b4 95 ce 3f eb f9 41 61 38 41 e5 3f
       0.238943588422027 0.6642114543499792
000360 10 62 e2 0d 0e 09 c3 bf 10 0e c5 88 65 1f 81 3f
       -0.14871383359856383 0.008360665546780971
000370 24 e1 c1 19 54 9b ce bf a9 1c e1 d0 7d a8 81 3f
       -0.23911525018389412 0.008622153222076117
000380 ae 94 8a ff f7 0c b3 bf 28 40 46 b6 15 21 cf 3f
       -0.07441663731386214 0.24319716835134497
000390 6c ce 2a e2 54 f3 e3 3f 83 54 ad a6 9a 5c c2 bf
       0.6234535615280499 -0.14345105303315017
0003a0 80 53 23 2b 7c 56 7f 3f aa 88 dd cd ce 28 cd bf
       0.007650837929948362 -0.22780785610217907
0003b0 1c 57 99 51 84 cc 83 3f 2c 8a 36 a2 10 8b b3 bf
       0.009667428722575581 -0.07634071312217178
0003c0 04 40 ff 88 f8 2c cf 3f 48 3a f5 d6 c1 7c e2 3f
       0.24355990113554082 0.5777291487118612
0003d0 8e 80 56 50 9c e0 c1 bf 70 db 6a f3 3b dd 77 3f
       -0.13966707155941943 0.005826219733242918
0003e0 c3 78 22 c2 35 8e cb bf e8 15 c9 92 92 50 83 3f
       -0.21527740458708963 0.00943102369741218
0003f0 69 3f 40 17 10 aa b3 bf 90 d5 48 13 b7 ba ce 3f
       -0.07681370322847915 0.24007309381128694
000400 fa cf f3 06 7f f3 e0 3f 66 e2 1d 96 5d 8d c1 bf
       0.5297236572064314 -0.13712663488310567
000410 10 c3 9b 97 8a c3 62 3f 34 10 02 0f 57 ce c9 bf
       0.0022905070189768242 -0.20160949929061334
000420 80 3a 0e db 3f 3a 7e 3f 13 cb 7e 45 48 6c b3 bf
       0.007379769741318598 -0.07587100693380604
000430 08 3d ae 3f e2 be cd 3f 90 9c aa 75 17 bf dd 3f
       0.2323878107967874 0.46478830805649185
000440 8f 7b a3 9d de 46 c1 bf e0 5b b0 be 08 56 64 bf
       -0.1349752683372256 -0.0024824305342110303
000450 80 7b 78 8a bb 0c c8 bf 80 13 00 46 cb 6f 71 3f
       -0.1878885675550599 0.004257005726690077
000460 1f a9 90 61 c0 80 b3 bf 68 e2 37 d7 4b c0 cb 3f
       -0.07618334180793739 0.2168059159155462
000470 fa 05 91 fa 10 c0 d8 3f a6 bb 96 f0 60 40 c1 bf
       0.38672279805550114 -0.13477718112468756
000480 e0 cd 73 8d ed 47 83 bf c9 a3 0d 55 92 1c c6 bf
       -0.009414535407336666 -0.17274693634979446
000490 c0 84 63 ff 02 0c 5d 3f bf d5 03 7e a2 d7 b3 bf
       0.0017728833459432075 -0.07750907494104008
0004a0 0e a0 ab d8 0f ac c8 3f f7 d1 34 80 35 28 d3 3f
       0.19275091247186577 0.2993291618361406
0004b0 49 61 b9 72 ad e4 c0 bf 80 26 78 1d ef c7 92 bf
       -0.13197868444218333 -0.018340812848725907
0004c0 e5 f1 76 fb c4 49 c4 bf 00 9a 89 59 3f 5d 42 3f
       -0.15850126532121958 0.0005604323697070979
0004d0 e9 7d 91 0e c4 d0 b6 bf 5f f9 7f ce c9 c6 c4 3f
       -0.08912301402732904 0.16231653769495843
0004e0 92 b2 f5 80 b6 5a c9 3f 56 c4 12 e2 0b a4 c0 bf
       0.19808083817351424 -0.13000629938827285
0004f0 d8 78 73 00 fc 0f 9d bf 49 55 c1 35 f9 5a c2 bf
       -0.028381288077860528 -0.14340129017606731
000500 40 21 dd 25 5e 2b 3b 3f 0b 08 e4 e4 f0 b5 bb bf
       0.0004145722249302604 -0.10824494922783871
000510 2c d9 7c bb 8e ae bd 3f 46 7e df cd fe 31 a9 3f
       0.11594478680931236 0.049209559088691665
000520 18 c2 a4 73 89 0c c0 bf 57 dd e3 36 0c cf a3 bf
       -0.12538259646090988 -0.03868902368588561
000530 cc 7a 79 58 d7 3f c0 bf a7 b6 86 b7 e9 bc 7b 3f
       -0.12694827861829194 0.0067719583097819785
000540 49 ab c7 c9 cc bb c1 bf 7d a7 0f db 41 be a8 3f
       -0.13854369976555805 0.04832654761396691
000550 2d 34 09 52 e1 1d c0 bf 1c e9 b8 2a 39 08 be bf
       -0.12591187005674112 -0.11731297772431443
000560 0f 97 4b da cd 56 aa bf b9 e3 2f fc d4 12 bb bf
       -0.05144351281869152 -0.10575610310469487
000570 4c b2 02 b2 fd 0e 8f 3f 62 be 24 82 89 44 c5 bf
       0.015165311808538771 -0.16615408758797218
000580 98 d9 db 36 6c f3 a4 bf c2 e8 1b 11 a2 c7 d7 bf
       -0.040919667908315194 -0.37155963583758134
000590 7e 97 7e a4 40 b3 b9 bf 31 d2 64 e3 e4 1c ae bf
       -0.10039142623881323 -0.05881419444850556
0005a0 26 88 46 5c 87 8f b3 bf 96 9a ba 65 04 98 a2 3f
       -0.07640882494754972 0.03631604902084466
0005b0 ff 6f 3a 67 45 3a b5 3f 94 44 b3 cd 9e 66 ce 3f
       0.08292039652081938 0.2375067238231493
0005c0 09 3a 67 19 bf 66 eb 3f 3c 6e b8 1e fb e7 c2 bf
       0.8562922950894186 -0.14770449638386818
0005d0 40 4b 11 1f c9 df 69 3f 93 ce a3 29 3b 96 84 bf
       0.003158467116500502 -0.010052168091056834
0005e0 48 b6 8b e5 fa 4b 77 3f 02 d4 4d 16 4c 5c b8 3f
       0.005687694611635381 0.09515834373981139
0005f0 e8 3d 0e c2 65 c2 cc 3f ad 6e fa 5c 5f 77 eb 3f
       0.2246825406586901 0.858321839903018
000600 b9 8b 51 e4 db 46 c4 bf 40 44 cb 9f 90 f6 6d 3f
       -0.15841244362226606 0.003657610386973903
000610 22 32 fc 92 6b de 94 bf 8f bd 7e a2 b8 73 7b 3f
       -0.020379715772877678 0.006702157239416264
000620 2e 8d 77 93 33 9d ba 3f e8 aa 95 a6 5b 4d cb 3f
       0.1039612040545321 0.2132982791329916
000630 9d cb aa d6 ac 89 eb 3f 7c 35 b0 fd fb 98 c5 bf
       0.8605560486524727 -0.1687312115395051
000640 38 bb 7d 34 fd 80 70 3f 76 9b c3 19 67 68 a2 bf
       0.004029263574792101 -0.035952779669790866
000650 f1 35 ae 02 11 14 7e 3f 95 53 a2 6d 5a ca bb 3f
       0.007343355605269762 0.10855641533483003
000660 84 ee cd e7 35 14 ca 3f 69 a5 81 c6 65 a0 eb 3f
       0.20374177759719114 0.8633297803000178
000670 6c fe 66 71 2c ce c6 bf 4c 2f 70 24 cf 3b 71 3f
       -0.1781669191095604 0.0042074290750056635
000680 60 56 41 8f 9c 4d ad bf 78 32 6a 2d 75 15 7e 3f
       -0.05723275421830176 0.007344682430482245
000690 8f b3 46 9f 3e c6 bb 3f 74 09 95 86 31 18 c9 3f
       0.10849372280672596 0.19605082579989708
0006a0 44 39 71 ba 1a b6 eb 3f 44 e4 c2 dc d8 d4 c7 bf
       0.8659795419169218 -0.18618307856903205
0006b0 cc ff 54 8d 1f 35 71 3f 3c bc a2 48 19 6e b5 bf
       0.004201052904420476 -0.08371122382480761
0006c0 62 07 ac 14 f8 a9 7a 3f 58 aa 45 02 e2 7e ba 3f
       0.006509751382283687 0.10349857860061584
0006d0 a8 95 b6 cb 68 59 c8 3f e4 55 97 17 52 c4 eb 3f
       0.19022855708059905 0.8677149258389218
0006e0 ec 27 84 45 1b 9a c8 bf 88 d4 5a e7 1b 89 70 3f
       -0.19220295805308696 0.004037007330841232
0006f0 10 fd a3 26 42 34 bd bf 8c 90 b0 d0 97 8f 73 3f
       -0.11407864993451633 0.004775612857916067
000700 49 53 11 fd e9 e7 b7 3f f0 aa 2b 03 fb db c7 3f
       0.09338247707758031 0.18640077261746724
000710 26 95 80 1d ab c0 eb 3f 37 61 e5 fc 89 10 c9 bf
       0.8672690941063237 -0.19581723068655219
000720 60 a1 6c 3d 28 28 6f 3f e9 9d 05 26 6f b1 c2 bf
       0.0038033281265549695 -0.14603986126461102
000730 4c 64 b2 bf 84 81 62 3f bf 00 bf 8e 23 12 b4 3f
       0.0022590248823460054 0.07840177760135968
000740 a0 46 65 6d b7 a8 c7 3f bc cd 25 b0 c6 98 eb 3f
       0.18483631936628786 0.8623994293579282
000750 d1 f0 99 2c a6 30 c9 bf 80 1c bf ef c4 43 6e 3f
       -0.19679715326117855 0.003694424287434439
000760 c9 e6 60 bc 75 a7 c6 bf 70 6e 58 3a e6 a0 41 bf
       -0.17698547075433727 -0.000537979522678934
000770 ae b3 35 dd 9e 53 ae 3f 40 1e 67 0b 9f cf c7 3f
       0.059231724265237914 0.18602359825875858
000780 da 3e 41 89 a4 3e eb 3f 46 5c da 0f 52 f9 c8 bf
       0.8513968163260544 -0.1951086594969828
000790 40 76 48 51 44 5b 6d 3f 91 ad 6a 2a 40 27 ca bf
       0.0035835584951786903 -0.20432283469322646
0007a0 80 57 78 9f 22 3a 67 bf 11 51 ec 92 f7 d0 a2 3f
       -0.0028353382329084353 0.036750542340231125
0007b0 44 3f de 1d e5 59 c8 3f 08 ca e7 1a 9e ac ea 3f
       0.19024337728887464 0.8335714841362583
0007c0 ba 11 18 c6 22 78 c8 bf 40 74 ed ba f8 1a 6d 3f
       -0.19116625473556131 0.0035529001246872582
0007d0 3a f1 f0 83 ca f9 cc bf d8 a9 0e 6a c5 49 70 bf
       -0.22637301866951437 -0.003976603650622988
0007e0 5b 7f a4 e5 d1 da 89 3f 38 dd 2c 89 be 58 c9 3f
       0.012624397106776255 0.1980207605172184
0007f0 d2 b5 df 29 2a e9 e9 3f 0d 22 65 dc 77 b4 c7 bf
       0.8097124879693018 -0.18519495259739963

scatter f8 [100, 26]
000000 30 bd 8c 3b c0 0e ca 3f 48 9b 3d aa 9a cf c9 3f
       0.20357516200736248 0.20164807617694636
000010 8b 7b 38 70 bc a1 c9 3f 63 6f bd 34 a9 84 c9 3f
       0.20024829368136596 0.19936099124140147
000020 20 a5 5f 34 dd 75 c9 3f e4 29 97 06 80 71 c9 3f
       0.19890942628197994 0.19877624818612027
000030 44 3a 52 cd 14 72 c9 3f e9 f7 60 b8 5e 74 c9 3f
       0.19879398370217605 0.19886383059377913
000040 2a fb 4c 64 c7 74 c9 3f 8f 07 d6 35 fc 71 c9 3f
       0.19887630841727716 0.19879105213845746
000050 57 ba 24 32 76 6b c9 3f 79 c9 e3 91 19 61 c9 3f
       0.198591970905414 0.19827575324559257
000060 3f ef b8 38 3a 53 c9 3f 7a d8 8a 90 66 43 c9 3f
       0.19785239953659503 0.19736940438969325
000070 03 cc 3e 05 84 35 c9 3f a3 08 6d 8b 12 27 c9 3f
       0.19694566970937907 0.19650489623933706
000080 62 b0 20 a0 df 1b c9 3f eb f2 de b9 8d 12 c9 3f
       0.19616313284621173 0.1958787114689565
000090 4b 45 ca 73 a8 07 c9 3f ce ec b8 1b 24 f7 c8 3f
       0.1955462041264958 0.19504214624053023
0000a0 e2 ef e7 52 19 e4 c8 3f c1 d7 f8 04 98 d0 c8 3f
       0.19446102665085535 0.19386577837729926
0000b0 c3 58 1b ac cb b2 c8 3f f8 61 db 86 2e 91 c8 3f
       0.19295640853551363 0.19193059525311162
0000c0 0a 6c c3 b6 24 76 c8 3f 2c af 20 a7 f2 2b c8 3f
       0.19110545085899872 0.1888411823323336
0000d0 11 3b c8 8c c6 13 ca 3f a6 f8 74 0b b7 d5 c9 3f
       0.20372850298050385 0.20183456477565648
0000e0 93 62 f8 93 62 a9 c9 3f fe 73 6d 95 23 8e c9 3f
       0.20048172211752 0.1996502380015101
0000f0 7f 57 7b 50 00 81 c9 3f 10 d9 52 fb 49 7d c9 3f
       0.19924930505538538 0.19913601657544477
000100 53 27 8d 18 f0 7c c9 3f 49 0d 67 1c eb 7c c9 3f
       0.19912530134962 0.19912470709651078
000110 d6 c3 cb b0 4f 79 c9 3f 00 6b 84 82 26 71 c9 3f
       0.19901462681403242 0.19876557705796216
000120 e9 3b 91 ed f7 62 c9 3f 99 a6 5c 63 13 4f c9 3f
       0.19833277797667329 0.19772569991737468
000130 5d b4 b6 37 55 35 c9 3f a3 8f 6f b8 5c 17 c9 3f
       0.19694009037394525 0.19602545743611896
000140 e3 dc c4 b0 fa f8 c8 3f 1e 97 24 62 1c d6 c8 3f
       0.19509824401186568 0.19403414528022095
000150 34 bb c1 8c a9 b1 c8 3f af a6 58 5e 92 88 c8 3f
       0.19292182324303442 0.19166783911469085
000160 9e a6 8c 47 04 53 c8 3f 2c 18 0f 14 48 0e c8 3f
       0.190033469139327 0.18793583850328
000170 e9 fe d5 5d 63 bc c7 3f cf e2 09 67 3d 67 c7 3f
       0.18543665010292124 0.18283813029463267
000180 62 09 1a d6 b6 fa c6 3f 25 d2 fe 04 b4 97 c6 3f
       0.17952619032082412 0.17650461429515577
000190 47 f2 4e 25 1b 33 c6 3f 05 c3 ae 4a 89 67 c5 3f
       0.17343463250826316 0.16722217699636857
0001a0 69 e7 68 4e fe 07 ca 3f eb 77 3a c0 3d c8 c9 3f
       0.20336893871882047 0.20142337690498321
0001b0 01 f9 b8 a4 6b 99 c9 3f 19 5c a9 34 eb 7a c9 3f
       0.19999452155202138 0.19906368323674498
0001c0 e7 fa 57 d2 40 6a c9 3f f0 eb 6b 10 6c 64 c9 3f
       0.19855509062468643 0.19837714006266038
0001d0 e0 46 04 40 24 64 c9 3f 9b 8a bb 63 89 67 c9 3f
       0.19836857915702577 0.19847218866114677
0001e0 1a 55 fd 7e ce 6b c9 3f 12 46 64 05 55 6f c9 3f
       0.19860249710715366 0.19871008647219007
0001f0 d7 81 a9 aa 29 71 c9 3f 7a 5b b3 b1 86 70 c9 3f
       0.1987659533797472 0.19874652554309674
000200 23 5a 81 6c c8 6d c9 3f 25 70 ee ce a6 6b c9 3f
       0.19866280840024428 0.19859776596138193
000210 b5 79 be 1f 17 6f c9 3f 5f 04 75 ba e3 74 c9 3f
       0.19870270776750734 0.19887968639708029
000220 6b f9 bc 0c 49 81 c9 3f 3b 83 db 5a f0 92 c9 3f
       0.19925797578793988 0.19979671894454917
000230 fd 39 81 69 e9 a3 c9 3f 73 a6 24 f3 d7 b3 c9 3f
       0.20031469012833716 0.20080088970398755
000240 06 89 00 76 02 c1 c9 3f 79 2b 2e 16 e9 d4 c9 3f
       0.20120268594570961 0.20181001265549606
000250 d5 ec ee 36 32 e6 c9 3f 1f e8 21 a0 b9 f4 c9 3f
       0.20233752901353932 0.20278091734854883
000260 f0 0a 19 83 b8 f1 c9 3f cf 1d ce fb 6b 5f c9 3f
       0.20268923188458343 0.19822454257176367
000270 70 7d cb fe dd 17 ca 3f 46 0f 34 cb 2b d9 c9 3f
       0.20385336819797883 0.20194003507651298
000280 72 8b d8 d1 62 ac c9 3f 0f 6a 80 5a 95 90 c9 3f
       0.20057330366497755 0.19972483557724316
000290 bd ed d9 98 4b 83 c9 3f 67 4c 08 05 d0 80 c9 3f
       0.1993193146080169 0.19924354787562779
0002a0 0d 10 b9 0f 50 84 c9 3f e5 a3 29 64 47 8a c9 3f
       0.19935036437721046 0.19953243628267994
0002b0 02 07 ec fe ec 8e c9 3f 68 dd ce da 78 90 c9 3f
       0.19967424819338225 0.19972143825519173
0002c0 c4 3a bd 35 c7 8b c9 3f 92 22 79 62 5b 7f c9 3f
       0.19957819103225038 0.19919912632237363
0002d0 f1 ac 35 c2 1b 69 c9 3f bd 9c 9f be 57 4a c9 3f
       0.19852015478986787 0.19758126075541851
0002e0 db 8b a9 43 71 23 c9 3f f2 a6 a4 ab 71 f3 c8 3f
       0.19639411739180343 0.19492932206167485
0002f0 f9 99 dd 85 47 be c8 3f b3 b2 77 cd 86 7e c8 3f
       0.19330686603935002 0.19136128456684318
000300 be 4a 53 5f e9 35 c8 3f d0 68 de 74 07 e7 c7 3f
       0.18914525179441982 0.18673794943317157
000310 3a dc a0 c1 a8 97 c7 3f 16 a3 4e ff ce 50 c7 3f
       0.1843157716227511 0.1821535822503157
000320 11 aa 73 fd e6 1b c7 3f 99 e8 7a 07 db ef c6 3f
       0.18053901076866954 0.17919481148948505
000330 90 6d b9 b3 a2 da c6 3f 41 b8 e7 e5 b0 a2 c6 3f
       0.17854722762681918 0.17683993554914149
000340 50 44 1f 06 cb 14 ca 3f ae 20 8e e4 a5 d7 c9 3f
       0.2037595538991206 0.20189355525895308
000350 ef a0 2b ac 05 ac c9 3f a4 ce 7c 2d bf 91 c9 3f
       0.20056219965704922 0.19976033898421008
000360 5b e2 59 3f 58 86 c9 3f 5a 87 3a 26 fc 85 c9 3f
       0.19941237538638998 0.19940139643318383
000370 c5 77 2d 9c 41 8a c9 3f 63 54 ca 89 3b 8f c9 3f
       0.19953174711093716 0.19968361118359032
000380 d0 ef 80 72 bc 8f c9 3f 27 9e 69 fb a4 88 c9 3f
       0.19969897833823191 0.19948255802158707
000390 a5 2c ee b0 90 78 c9 3f ba da 07 78 d8 5f c9 3f
       0.19899185790231858 0.19823747502205952
0003a0 9a eb cc 21 34 3f c9 3f be 5b da b7 6f 1c c9 3f
       0.197241322044502 0.19618031003184727
0003b0 23 f5 ef 3a da fd c8 3f 33 2c b7 ff cd e4 c8 3f
       0.195246962335582 0.1944825647936753
0003c0 c2 32 ac fd 7b d5 c8 3f fe 12 e9 c5 1c cd c8 3f
       0.19401502500877227 0.1937595335349655
0003d0 d3 50 32 f6 a9 cd c8 3f bd b7 51 f8 70 cb c8 3f
       0.19377636452975952 0.19370853543244762
0003e0 16 7d 33 96 87 c6 c8 3f 91 37 4e 87 d3 c1 c8 3f
       0.1935586436656897 0.19341510874477
0003f0 b8 88 29 a5 fb bb c8 3f f0 54 90 60 ed c7 c8 3f
       0.19323678555071466 0.1936012956145201
000400 05 16 46 be c3 cb c8 3f f4 4a 18 d6 95 be c8 3f
       0.1937184027739677 0.19331620172359687
000410 48 d9 62 87 88 0f ca 3f 18 2f dd d8 73 d2 c9 3f
       0.20359903917933253 0.20173500145971768
000420 e0 d5 97 28 07 a8 c9 3f 71 98 90 bd c2 8f c9 3f
       0.20044030649266542 0.1996997285470488
000430 1f 6d 03 b6 f7 86 c9 3f 59 73 fd 5a c2 88 c9 3f
       0.19943138491985565 0.19948605959771262
000440 74 5d 0f 65 1c 8e c9 3f 9b f8 9b ba 72 92 c9 3f
       0.1996493810135963 0.19978174316196803
000450 9b f6 7e d1 2b 91 c9 3f 64 7a 73 35 d3 89 c9 3f
       0.19974277238172963 0.19951858625332186
000460 51 4f 70 65 88 7c c9 3f 80 49 6d 3b 77 6c c9 3f
       0.19911293938695931 0.1986226120157646
000470 ae 9f dc eb bf 59 c9 3f 7b 66 69 75 39 47 c9 3f
       0.19805144325914398 0.19748609765047206
000480 39 7b fc 50 1a 3b c9 3f 4d a7 a7 b4 8b 30 c9 3f
       0.19711617426306718 0.19679399796523925
000490 5e 76 e9 72 63 2a c9 3f 24 0c ee 62 56 20 c9 3f
       0.19660609351096786 0.19629936056671327
0004a0 ff 0c a0 5f 95 11 c9 3f 7a 96 a4 ac 1d f8 c8 3f
       0.195849105541221 0.19507189683752185
0004b0 cc 0a 27 ad 82 d7 c8 3f f7 e4 90 94 2e b3 c8 3f
       0.1940768571349366 0.19296819929312622
0004c0 46 b4 ec 6a 82 84 c8 3f 3b 28 19 6f d8 57 c8 3f
       0.19154386731080048 0.19018083023758145
0004d0 59 ee 50 62 6a 2b c8 3f 0c 0c 3c 32 49 2d c8 3f
       0.18882493782608625 0.18888201668605153
0004e0 42 6f 2a cc 77 11 ca 3f d7 fc 47 dd 67 d4 c9 3f
       0.20365807980567224 0.201794608161413
0004f0 12 e4 b6 ad ac a7 c9 3f 7d d1 04 c7 a7 8a c9 3f
       0.20042952043675705 0.19954392640796562
000500 e3 0b b6 1c 70 7a c9 3f 5d b9 7f 8b 02 73 c9 3f
       0.19904900934133626 0.19882232486220178
000510 55 4e 90 27 67 6e c9 3f 6f 81 f8 2e 52 69 c9 3f
       0.198681730573855 0.19852664273731643
000520 d3 8e 0a 4b cb 60 c9 3f 71 ad bc 28 ed 54 c9 3f
       0.19826642192958008 0.1979042481337774
000530 ef 7c dc 84 2b 46 c9 3f 9f ab af 5d 86 35 c9 3f
       0.19745391833655598 0.1969459493114671
000540 c6 62 60 9d aa 22 c9 3f 36 30 78 c0 43 0d c9 3f
       0.19637043651962055 0.19571730516361335
000550 d9 27 7b d0 d5 f7 c8 3f 95 50 7b 94 6c dc c8 3f
       0.1950633304571159 0.19422681093295027
000560 42 75 60 75 4c c0 c8 3f 1c d9 5d 30 ad a1 c8 3f
       0.19336848956383262 0.19243397580766775
000570 5e 8c 5c 5c 80 79 c8 3f e0 e4 19 f3 5b 4d c8 3f
       0.19120792875137033 0.18986081476376793
000580 fb 27 4b ec 67 1e c8 3f 53 18 65 df 29 fb c7 3f
       0.18842791593334582 0.18735240371660442
000590 fe 5f 4b 6f be d3 c7 3f f1 00 31 40 95 ad c7 3f
       0.1861494105748988 0.18498483309122762
0005a0 19 cd ed fa be 78 c7 3f ee 08 c5 2d 9c 03 c7 3f
       0.18337237598789427 0.1797976706967072
0005b0 c4 04 3d 6b 66 0b ca 3f 1a a0 11 61 9e ce c9 3f
       0.20347290264365914 0.2016180013627043
0005c0 11 10 21 70 bf a3 c9 3f ad 7a eb 1d 14 8a c9 3f
       0.2003096864228842 0.19952632389955252
0005d0 aa 69 44 33 17 7e c9 3f eb 05 4b a3 4d 7b c9 3f
       0.1991604805305774 0.1990754172639265
0005e0 b7 3a 28 b3 7f 7b c9 3f dd 97 71 8b d8 7a c9 3f
       0.19908138511569515 0.19906145867133676
0005f0 2f ce e3 f5 c6 75 c9 3f 8a 3c d7 77 1a 6c c9 3f
       0.19890677458134706 0.1986115536842344
000600 52 7f 11 93 23 5d c9 3f 65 e3 51 a7 c1 49 c9 3f
       0.198154875574796 0.19756336851039716
000610 9a 37 43 92 88 32 c9 3f a8 1d 3b b1 22 1c c9 3f
       0.19685465947844422 0.19617112783292368
000620 cd 11 f5 f1 55 09 c9 3f 8b 83 ef a7 d4 f8 c8 3f
       0.19559740366288594 0.19509370994549288
000630 7f 46 e6 90 61 ef c8 3f 80 72 ce 68 52 e9 c8 3f
       0.19480533194705527 0.19462041966916743
000640 27 61 5a 0c f8 e4 c8 3f 98 4f 9d 0c 27 db c8 3f
       0.1944875774686434 0.1941880046457498
000650 26 26 97 57 01 d0 c8 3f 4d 57 46 7b 5f c0 c8 3f
       0.19384781624676 0.19337075728679523
000660 20 01 da 03 7e 9e c8 3f 5d 67 21 14 dc 67 c8 3f
       0.19233679950776494 0.190669545964563
000670 b3 01 19 c5 e2 0f c8 3f e3 89 17 b3 a8 37 c7 3f
       0.18798479675207388 0.18138607735370646
000680 cc 29 4e 97 17 10 ca 3f e2 a3 63 34 df d1 c9 3f
       0.2036160935206922 0.20171728189532617
000690 0e f8 65 34 7a a4 c9 3f 70 c9 31 da 3b 87 c9 3f
       0.2003319507456926 0.1994395079996809
0006a0 1c 6a 36 c0 6c 77 c9 3f bf 13 f0 cf 55 71 c9 3f
       0.19895705590609303 0.19877121594632105
0006b0 8c c6 94 a0 f3 6f c9 3f 59 77 14 58 4e 70 c9 3f
       0.198728993805663 0.19873980809000605
0006c0 80 91 96 fb 3b 6f c9 3f 5e 54 45 ac 60 6b c9 3f
       0.19870710167482386 0.19858940517102303
0006d0 15 a2 e0 90 d0 62 c9 3f c3 79 8c a4 05 55 c9 3f
       0.19832808565230722 0.19790716681104756
0006e0 0d 95 09 09 bd 40 c9 3f 1c a9 25 5f 18 27 c9 3f
       0.19728815976410666 0.19650559087615072
0006f0 1f 9d 99 45 fc 0b c9 3f 52 94 da f8 99 ee c8 3f
       0.1956782665103924 0.1947815384966441
000700 fc cc 89 81 e7 d0 c8 3f cf f0 42 3c 1b b2 c8 3f
       0.19387525391685034 0.19293537561850946
000710 e7 a7 ca 4f ae 90 c8 3f 72 6b 5d 68 cf 67 c8 3f
       0.1919153108222524 0.19066803546851535
000720 cb c2 99 0e 3a 3f c8 3f 76 51 fc 82 1e 10 c8 3f
       0.18942952835961643 0.18799191852361802
000730 24 c2 a3 30 29 cc c7 3f b3 5a 98 bc c8 78 c7 3f
       0.1859179961679881 0.18337353905436302
000740 05 b3 6a 3c f2 fd c6 3f b8 37 71 21 91 3c c6 3f
       0.17962482404745841 0.17372335560724905
000750 30 9a bd 52 8e 16 ca 3f c8 3e 16 40 7c d8 c9 3f
       0.20381335296697634 0.20191910866969054
000760 52 55 0f 42 de aa c9 3f 86 39 e7 66 76 8d c9 3f
       0.20052698350506631 0.19962959312983858
000770 b7 26 26 f4 f6 7d c9 3f ae 5a 2a 2f a4 78 c9 3f
       0.19915663644160528 0.1989941816616087
000780 3d ac 14 ce 98 78 c9 3f da e5 01 ad 23 7b c9 3f
       0.19899282515084052 0.19907041499736416
000790 4e 83 53 91 09 7d c9 3f a4 4b 64 1d bb 7c c9 3f
       0.1991283378220267 0.19911898551125973
0007a0 57 0f 43 8b bd 79 c9 3f fd ae 4f 1b 8c 73 c9 3f
       0.19902772235775032 0.1988387235027104
0007b0 41 a4 5d d5 e0 6a c9 3f fb a7 b6 a2 a1 5e c9 3f
       0.19857416551829668 0.19820042080874586
0007c0 2a 17 36 c1 dd 4f c9 3f c4 e3 ab 12 71 3a c9 3f
       0.1977498238958842 0.19709599887553797
0007d0 da bf 7d 7d 9d 21 c9 3f 90 1d 3e cb 10 04 c9 3f
       0.19633835437298225 0.19543657230336153
0007e0 39 91 ba 1b 91 e0 c8 3f bb 8a f8 6c b7 b1 c8 3f
       0.19435323575920352 0.19292347737162693
0007f0 0f 82 8b cb af 74 c8 3f 3f e4 71 af 18 35 c8 3f
       0.19106099547117636 0.1891203743614671

Maxvals f8 [11]
000000 0d 0b de 93 97 1a 2b 40 42 1d f9 fc de 89 2a 40
       13.551937695364837 13.2692793897719
000010 a0 83 5c ea cd 16 2a 40 42 d3 a0 52 01 fa 29 40
       13.04453976039241 12.988291341907487
000020 0b 27 b2 8b 71 db 29 40 42 18 7b 96 e1 cd 29 40
       12.928600659844525 12.902111723448005
000030 5f 75 4b 64 d8 ac 29 40 1b ed 03 f5 93 91 29 40
       12.837588438235512 12.784331948022148
000040 48 6f 6a 49 d4 72 29 40 9e 09 10 5c 5e 41 29 40
       12.724275869600788 12.627673031766616
000050 ba 4c b2 69 c9 fa 28 40
       12.48981790830145
