Data/TNG/Model_snap14.npz (npz, 232370 bytes, 5 tensors)

x f8 [32]
0	0x4026000000000000	11.0
1	0x4026333333333333	11.1
2	0x4026666666666666	11.2
3	0x4026999999999999	11.299999999999999
4	0x4026cccccccccccc	11.399999999999999
5	0x4026ffffffffffff	11.499999999999998
6	0x4027333333333332	11.599999999999998
7	0x4027666666666665	11.699999999999998
8	0x4027999999999998	11.799999999999997
9	0x4027cccccccccccb	11.899999999999997
10	0x4027fffffffffffe	11.999999999999996
11	0x4028333333333331	12.099999999999996
12	0x4028666666666664	12.199999999999996
13	0x4028999999999997	12.299999999999995
14	0x4028ccccccccccca	12.399999999999995
15	0x4028fffffffffffd	12.499999999999995
16	0x4029333333333330	12.599999999999994
17	0x4029666666666663	12.699999999999994
18	0x4029999999999996	12.799999999999994
19	0x4029ccccccccccc9	12.899999999999993
20	0x4029fffffffffffc	12.999999999999993
21	0x402a33333333332f	13.099999999999993
22	0x402a666666666662	13.199999999999992
23	0x402a999999999995	13.299999999999992
24	0x402accccccccccc8	13.399999999999991
25	0x402afffffffffffb	13.499999999999991
26	0x402b33333333332e	13.59999999999999
27	0x402b666666666661	13.69999999999999
28	0x402b999999999994	13.79999999999999
29	0x402bccccccccccc7	13.89999999999999
30	0x402bfffffffffffa	13.99999999999999
31	0x402c33333333332d	14.099999999999989

intercept f8 [100, 32]
0	0x3fec3d49f8c3eed0	0.882481561536645
1	0x3fe757d6beb9a607	0.7294725155927048
2	0x3fe38cb8f8df166a	0.610928045346282
3	0x3fe1b0e49bf00e67	0.5528433843287076
4	0x3fe2387b7bc246b4	0.5693948189893576
5	0x3fe555f39f38d0fe	0.6667421445659156
6	0x3feae30a5b3fe5f4	0.8402148992747116
7	0x3ff13a7adb215904	1.07677732084045
8	0x3ff5b48a21657869	1.3565770439668319
9	0x3ffa76f91f100aea	1.6540461743722354
10	0x3fff1c2481196616	1.94437075070744
11	0x4001a9b45000c49a	2.207863450072705
12	0x40036ef16edf1692	2.4291714345770936
13	0x4004cabffab76564	2.598998984071544
14	0x4005b0c29c77d170	2.711308691412505
15	0x400636e9ef4f1a3d	2.7768133827223935
16	0x4006629602a3c56d	2.798137684462452
17	0x400639a3182379cc	2.7781431089235635
18	0x4005c09d7d934a26	2.719050389344619
19	0x4004fecebd23233c	2.624417760500732
20	0x4003eab43a6ea2a9	2.4896015706074945
21	0x40029f8320fcaefc	2.3278868271935362
22	0x40012b7376539413	2.146216320443736
23	0x3fff5e52e40a8858	1.9605282695634028
24	0x3ffc3b7c1043b740	1.764522613080274
25	0x3ff8e7bb06da5518	1.5565748470010643
26	0x3ff5b62476cc06a8	1.356968368578615
27	0x3ff1a9c45992e3fd	1.1039470194793914
28	0x3fe6d40d0472b24b	0.7133851134181638
29	0x3fc9a2d477825ca0	0.20028167567645472
30	0xbfdb8f01d7730230	-0.4306034664150813
31	0xbff22772d3c5ca0a	-1.1346309921615352
32	0x3fec16956d1ff03d	0.8777567988722762
33	0x3fe734618bd5bb02	0.7251441699171155
34	0x3fe372ccddb7cb54	0.6077637033871306
35	0x3fe19c28b8046109	0.5503123849948973
36	0x3fe22b8786818930	0.567813646990805
37	0x3fe555f39db8fe71	0.6667421417732396
38	0x3feaebee496871e5	0.8413001474141849
39	0x3ff143e3898a746e	1.0790744183243777
40	0x3ff5bba0c4d86182	1.3583076180712799
41	0x3ffa7c453d6756a0	1.6553394697743116
42	0x3fff1aec61e3fcd8	1.944073088059488
43	0x4001a381278e735e	2.2048361864421357
44	0x4003682ef40439a2	2.4258708061017424
45	0x4004c30aa376a659	2.595235135134129
46	0x4005ab4cc697ac4e	2.708642531875319
47	0x40063295628ead49	2.7746989917556317
48	0x4006611f4a293d6e	2.797422961600822
49	0x40063419d00c76d7	2.775439858799341
50	0x4005c1ebf5c406c6	2.719688339276078
51	0x400513bbaca9fd27	2.634635304391526
52	0x40041e9349054776	2.5149293617950503
53	0x4002f272c7203055	2.3683829838464967
54	0x4001ac149976a2a7	2.209023665364231
55	0x40004be26fb3bc10	2.0370529867864278
56	0x3ffd5a74b37b9e7d	1.8345839510965611
57	0x3ff97aff82bcb7f7	1.5925288302346396
58	0x3ff5256f8b0e3c78	1.3216395789966366
59	0x3fef869e1c574382	0.9851828149349873
60	0x3fdf28c87e110851	0.48686420737442854
61	0xbfd0d59dc10b85a4	-0.26303809978534276
62	0xbff2a0ff03d25d87	-1.164305701187773
63	0xc00420c767aace42	-2.516005334758831
64	0x3fec2ba06e3d9972	0.8803255227219735
65	0x3fe749ceccb4d05a	0.7277597425622944
66	0x3fe3889dc7af70d9	0.6104267978767225
67	0x3fe1c4a900356afd	0.5552563671184029
68	0x3fe2746419cce874	0.5767078880228511
69	0x3fe5c0c76a864a08	0.6797825890119507
70	0x3feb7443e1d11f3f	0.8579425249563214
71	0x3ff18de0bbe0d6ae	1.097138151072993
72	0x3ff60a2eb6b3e500	1.377485955889199
73	0x3ffac100a08e8e8c	1.6721197387459226
74	0x3fff5c33ca3f1d0b	1.9600103283171986
75	0x4001c5be9f380c1b	2.22155498876374
76	0x40038d15db834fd2	2.443889346070116
77	0x4004f35015669e16	2.6188050910893805
78	0x4005f051abd3908c	2.742343275445881
79	0x4006937f91690a07	2.822020660417596
80	0x4006d3b7c0bae45f	2.8533778245005545
81	0x4006bbc92917f85a	2.841692276996622
82	0x4006455ca13d8fb2	2.783868083659365
83	0x40056f193c203d30	2.679247350438935
84	0x40043be7bf4f88f4	2.529250616659846
85	0x4002c8498a37adde	2.3477965162507948
86	0x4001254dd6362fc9	2.1432148680960137
87	0x3ffee2cce9080f01	1.9303711989204546
88	0x3ffb288481211404	1.697391991053565
89	0x3ff6c011a062d35b	1.4218918099479285
90	0x3ff263f01414159a	1.1493988785090097
91	0x3fe9518112f8bcaa	0.7911992426433205
92	0x3fceb8fa2d2d4d68	0.24002005773455015
93	0xbfdc0d81b372a36c	-0.4383243801517469
94	0xbff6139bd629f4db	-1.3797872892167138
95	0xc0044e63748f21b6	-2.538275633447678
96	0x3febeaea773898d9	0.8724262550865901
97	0x3fe7216fd14a2376	0.7228316390693255
98	0x3fe386e94b9d39f2	0.6102186657752198
99	0x3fe1e7b81be296e4	0.5595360321646834
100	0x3fe2a82ae45f49d4	0.5830282650370529
101	0x3fe5e9315b763cb1	0.6847159181942485
102	0x3feb6a6f93d6cfe1	0.8567426574213607
103	0x3ff16e4500ae667f	1.0894212748156915
104	0x3ff5d66ea919fe89	1.3648516278771317
105	0x3ffa95c1bd4ef960	1.6615617174971575
106	0x3fff4641c2c0eb7f	1.9546525580942384
107	0x4001c30b2c992f20	2.2202361568687508
108	0x400384e3fbcf9e6d	2.439887969277882
109	0x4004cf4fd77bf157	2.601226504774029
110	0x400591bb8ce70733	2.696158505249423
111	0x4005ed4567caecaa	2.740855036621345
112	0x4005f4cf3b3e9db4	2.7445358875736137
113	0x4005b5a9124823c9	2.71370138437894
114	0x400541d719df24c2	2.6571485539649027
115	0x4004abc587a21901	2.583872851976708
116	0x4003ee7e1f039045	2.491451494499446
117	0x40032bca3e101d9d	2.396381840578853
118	0x40024e37e70ba119	2.2881925630973794
119	0x400157864b21d108	2.167736613244532
120	0x40003335d00f70e4	2.025004983397695
121	0x3ffe3bcf4aa3d73d	1.8896019855141752
122	0x3ffbff7afe24c186	1.7498731544002069
123	0x3ff8553f83ab7834	1.520812525115173
124	0x3ff2bf6756503bfa	1.171729409372118
125	0x3fe6e134f2b3d720	0.7149910679133633
126	0x3fb432a6ea9346f8	0.07889788844047618
127	0xbfe338364ab6c994	-0.6006118258722375
128	0x3fec76bf7ba1ac5f	0.8894956030538984
129	0x3fe797c4ca69416e	0.7372764542906631
130	0x3fe3c8d88e91ec92	0.6182673248835207
131	0x3fe1de2809e8ab6e	0.558368701318029
132	0x3fe249fdc3a8547f	0.5715321370540919
133	0x3fe53f1863f9d206	0.6639520599988493
134	0x3fea9a04c2eb60e7	0.8313010985393959
135	0x3ff0fee1e3b491b8	1.062227143739717
136	0x3ff56a2c44d838cc	1.3384211243861044
137	0x3ffa2c2d53f06036	1.6357854155412617
138	0x3ffeea2ea6f9a747	1.9321733972996797
139	0x4001a3598d92e440	2.2047606525852927
140	0x40037c6d8faaf357	2.4357558464093176
141	0x4004e8ec605d8331	2.613732102254652
142	0x4005ce94d50b7309	2.7258698124045435
143	0x400640872297d55d	2.781507749804105
144	0x4006567d57e1de9a	2.792231260853282
145	0x40061b9b1fd81944	2.763479470045384
146	0x4005b74d35c53f25	2.7145027352161315
147	0x40053667172017a4	2.6515638167065436
148	0x4004944e41f98f4a	2.572414889744242
149	0x4003ce46bd36f3b8	2.475720861663344
150	0x4002b6efe8ff757e	2.3393247797927748
151	0x40013da39badc413	2.1550972139743947
152	0x3ffe79296fe2c48c	1.904580533079101
153	0x3ff97d8ff834f2fc	1.5931548781947518
154	0x3ff4419af614db10	1.2660169231946306
155	0x3feb02cee2e4a0b0	0.8440927917008789
156	0x3fd2efdee2f6780b	0.2958905426438611
157	0xbfd4255eac964bc0	-0.3147808728619417
158	0xbff068bdd425f8ec	-1.0255716597599145
159	0xbffbe880f592090c	-1.744263610133717
160	0x3fec66b33540c166	0.8875366249176693
161	0x3fe78dc4cce6776b	0.7360557558019826
162	0x3fe3c48c9a9c11b2	0.6177428264350537
163	0x3fe1d6d15e52ea32	0.5574728815329932
164	0x3fe23485459a5f65	0.5689112052377651
165	0x3fe5151401d5ad98	0.658823016723022
166	0x3fea671c81ce10c6	0.8250868354084779
167	0x3ff0dcdbaa372da5	1.0539204262775936
168	0x3ff53e421f807fae	1.327699778608785
169	0x3ff9f44003a4e746	1.6221313612317814
170	0x3ffe9f920f27fe6e	1.9139576522865371
171	0x400178e51151d219	2.18403066187808
172	0x40035afd5146e01a	2.4194284772638754
173	0x4004dae887384b08	2.6068888248495377
174	0x4005e945e4747807	2.73890284042773
175	0x40069a044b1da8c8	2.8252035015512753
176	0x4006e0bd486bbb64	2.8597360284688182
177	0x4006c51b42f1c812	2.846243403438174
178	0x40064299189ba920	2.7825185701850756
179	0x40055e543d0dde82	2.6710591096742187
180	0x40041232d6fab144	2.5088860316519987
181	0x400296b9cdd31dc3	2.3235965805103844
182	0x4000f54463fa94ef	2.1197593508573997
183	0x3ffea6782625d8dd	1.9156419267797482
184	0x3ffb5da5312d9ff8	1.710362617590361
185	0x3ff7613a3f173057	1.4612371887660822
186	0x3ff33978749de5c6	1.2015308909743552
187	0x3fec2534fe63e8c2	0.8795418709335296
188	0x3fd9701bfb709d22	0.3974676089732886
189	0xbfc749c38782e1dc	-0.18193859211693464
190	0xbfebde571bcf8d13	-0.8708911460093155
191	0xbff5227c9dc3946f	-1.3209196245818722
192	0x3fec547ed555e41e	0.8853143851002903
193	0x3fe75e5320436ee6	0.7302642469544167
194	0x3fe37cc9abf75f55	0.6089828833309904
195	0x3fe193497bd80e86	0.5492293757274218
196	0x3fe21c8fe7e0da4a	0.5659865883706712
197	0x3fe542f6ee4095b6	0.6644243863453798
198	0x3feadb5b41d6070a	0.8392769132480862
199	0x3ff13e7dbc00f1c2	1.0777566284078692
200	0x3ff5b9adafb47f06	1.3578316558341057
201	0x3ffa7d2039465fde	1.6555483090687555
202	0x3fff1fd7ffe8f0da	1.9452743526917886
203	0x4001a63a179e65d1	2.2061654896940373
204	0x400363cf3543c5a6	2.4237350617701905
205	0x4004ad5c9df9f27a	2.5846493093397926
206	0x400576c4d19a2198	2.682992589489185
207	0x4005d8c29cf8f9d5	2.7308399451714913
208	0x4005e165176f00fe	2.7350560980559058
209	0x4005a6543852a156	2.7062153244225255
210	0x40052d7e31a78d5c	2.647213352132594
211	0x400485a48431106d	2.565255196330375
212	0x40038b75cd644d42	2.4430957838282277
213	0x40025abf90eda663	2.294310695888997
214	0x4001023929f97acc	2.126085594106689
215	0x3fff4f63522c5166	1.95688182925104
216	0x3ffce04637acdd34	1.8047544646086182
217	0x3ffa8536c203b838	1.6575229242985312
218	0x3ff8dc3b9e303335	1.5537677935819378
219	0x3ff6afdd615d5782	1.417935734110387
220	0x3ff13ca075e800ec	1.0773014646256867
221	0x3fe40b4baa666925	0.6263788536191767
222	0xbfc1cafa036ebe78	-0.13900685470206375
223	0xbfee923810646553	-0.9553489990386573
224	0x3fec6acdb16d99d7	0.8880375352280748
225	0x3fe79c221bde1d23	0.7378092331208886
226	0x3fe3e4d597b1e81e	0.6216838801185565
227	0x3fe2146357dc6c4d	0.5649887767825789
228	0x3fe2996aab875399	0.5812276220482203
229	0x3fe59ec5ff92ba7e	0.6756315223372693
230	0x3feafca7f6a3cb32	0.8433418099578829
231	0x3ff13029c5e6ddb8	1.0742585878887052
232	0x3ff592f9e1d514b4	1.348382837445837
233	0x3ffa43a4ee100492	1.641514711315072
234	0x3ffee2e573e3bdf9	1.9303946043909248
235	0x40018cdac4821fb9	2.1937766411028545
236	0x4003521e31c5304b	2.4150966537763785
237	0x4004b10adc7e7f4e	2.586446497545615
238	0x4005a3569ef5cc6f	2.704755060077836
239	0x40063db74d087edc	2.7801347749917635
240	0x40068426028e4758	2.814525623290063
241	0x40066a88fd5a2af2	2.8020190995351806
242	0x4005e7dd0cda393e	2.7382145885559614
243	0x400506b658e27720	2.628277487193273
244	0x4003bbd66373a958	2.4667175073310936
245	0x400228f3121cafd6	2.2699948706631217
246	0x40006fdc669423ca	2.0546195997198753
247	0x3ffd1407035875c8	1.8173895006833494
248	0x3ff90a5700f086ca	1.5650243794156489
249	0x3ff51c8f321af124	1.319472499583818
250	0x3ff22f4f7425b86c	1.1365503823285747
251	0x3fecaa1e9aa97ca0	0.895766546320278
252	0x3fe01d4ffa8abd18	0.5035781758687419
253	0x3fbe2359bb407e30	0.11772690602855884
254	0xbfe47a829ccc24aa	-0.6399548590135471
255	0xbff513a1d68f46cb	-1.3172930127370133

slopes f8 [100, 32, 7]
0	0x3f899c5b7efe6d48	0.012505259335560695
1	0x3fd7f147387eb478	0.37410145299038033
2	0x3ff0d537fecb4985	1.052055354394356
3	0xbfc1359862b22e3c	-0.1344480974115515
4	0x3f6178165204bb70	0.002132457346440679
5	0xbfa859452e9af3e5	-0.04755607789909514
6	0x3f7d5e3895ad3fa8	0.007169934305082316
7	0x3f9a4e97965a79c9	0.025690430213779956
8	0x3fd69f801add6dae	0.3534851324418139
9	0x3ff0e36252f1502b	1.0555136909433809
10	0xbfc3477f9fae67c4	-0.1506194619840341
11	0x3f617eca0b909be0	0.002135653132899304
12	0xbfb1e2da65902376	-0.06986775378767426
13	0x3f814c46ef57419a	0.008446268252470902
14	0x3fa238b3fbc95bdc	0.03558886002127057
15	0x3fd54a44df97f37c	0.33265802226360797
16	0x3ff0e8b95e2fedeb	1.0568174056232873
17	0xbfc549a56ec88d6a	-0.16631000432344517
18	0x3f60cfbbf3c74b50	0.002052180380112935
19	0xbfb91abfd19d1ac2	-0.09806441180726735
20	0x3f8396b69fc7a436	0.009564806700796163
21	0x3fa4795655f27e43	0.03998822974358209
22	0x3fd40eef5c159094	0.31341155998803427
23	0x3ff0e3530b534f60	1.055499119033776
24	0xbfc7164aca8ef8bc	-0.18036780252982065
25	0x3f5f146ba0b9d3d0	0.0018969584515648903
26	0xbfc0d59bab9c44f6	-0.13151880149283784
27	0x3f854947f71a6eb6	0.01039367888306884
28	0x3fa3565c12e3b023	0.03776824694236349
29	0x3fd302cde9261e44	0.297046163258049
30	0x3ff0d0c44d0cb57d	1.050968457198308
31	0xbfc883bae7ca3e9e	-0.1915200835978696
32	0x3f5aec061b3254a0	0.0016431865340440846
33	0xbfc59ed6df4ae036	-0.16890989211037927
34	0x3f8622960a1c8b76	0.010808155234888633
35	0x3f9d3711b24b48f1	0.028530384547431124
36	0x3fd236771cafc0c0	0.2845742969648306
37	0x3ff0ab408517de11	1.0418095778421768
38	0xbfc96f8479e039e7	-0.19871574355097651
39	0x3f55aabb0de8eda0	0.0013224436476225523
40	0xbfcaa2e93894b48c	-0.20809664976824072
41	0x3f8607f2b6554390	0.010757347287524671
42	0x3f8a42585cdf6396	0.012821855863806946
43	0x3fd1b2002fa87bda	0.2764893021976015
44	0x3ff06fcd5c2f6ba8	1.0272954560266303
45	0xbfc9c180887594fc	-0.20121771491100293
46	0x3f4e657f1ce05600	0.000927626673503823
47	0xbfcf8d3ee9cd8efd	-0.2464979783645659
48	0x3f8525f90e922326	0.01032633376805021
49	0xbf80a1d2b984ec44	-0.008121153151128387
50	0x3fd173af765b1484	0.2726858764475042
51	0x3ff01af0ee47dbe5	1.006577425750714
52	0xbfc973918e2c7eb9	-0.1988393730361986
53	0x3f3ef71e06f15200	0.0004724930103681413
54	0xbfd2012feaa71b5a	-0.2813224593668814
55	0x3f83c84e19609886	0.009659395360426492
56	0xbfa0a630041f7c45	-0.03251791048364131
57	0x3fd173767c32e94a	0.2726722920302974
58	0x3fef54f7afd4b32a	0.9791220125385725
59	0xbfc88f45d1b09ec3	-0.19187233675733326
60	0xbf008c2435314b00	-3.156171319375865e-05
61	0xbfd3d9fa0a31bf89	-0.310179243045234
62	0x3f824446cab03086	0.008919289646677219
63	0xbfadc65e87306d7f	-0.05815406227358277
64	0x3fd1a334cc2c8f80	0.27558631838677883
65	0x3fee3ea0b059df95	0.9451449817997736
66	0xbfc72f1e8370f088	-0.18112546365762605
67	0xbf44ac0930b5ed60	-0.0006308598398584823
68	0xbfd532935e1c146c	-0.33121189299010356
69	0x3f80bd1c8d4a3543	0.00817320161993485
70	0xbfb53b3909ee027d	-0.08293491833138407
71	0x3fd1f180cf0aed78	0.28036518305790237
72	0x3fecfbdfb9e9e046	0.9057463294148043
73	0xbfc575341a036604	-0.16763926763705694
74	0xbf55a888a9f3d100	-0.0013219198806924681
75	0xbfd5f951f05cec5c	-0.34334228966662805
76	0x3f7e50e62ab163f8	0.0074013701333450685
77	0xbfbaf1a1c4542405	-0.10524951022320302
78	0x3fd24c81e431f1a7	0.28591964039494616
79	0x3feb958d35aa9725	0.8620058105632081
80	0xbfc38748506c2226	-0.15256599356531914
81	0xbf61169a4e28b110	-0.0020859731460146705
82	0xbfd6321082cf252b	-0.3468056943352901
83	0x3f7adaedd8991f88	0.006556443296695032
84	0xbfbfb58ae2f7680e	-0.12386386910603184
85	0x3fd2a85611de7d36	0.29152442688969715
86	0x3fea206ef1b82b1a	0.8164591523248845
87	0xbfc186f4b3d2d3a8	-0.1369310262722625
88	0xbf680e98702bb248	-0.0029366471584267063
89	0xbfd5e5ea4405f0a8	-0.34215790408030466
90	0x3f77f2f873ec6802	0.0058469491184727235
91	0xbfc1acb13d98dde8	-0.13808265216515214
92	0x3fd2f751e3a99736	0.2963452075258489
93	0x3fe8ad2acbd0e6d6	0.7711385708600698
94	0xbfbf2592ef2e85e4	-0.12166708316228597
95	0xbf6f194a79933020	-0.0037962393367703268
96	0xbfd528aea9334d62	-0.3306080486629154
97	0x3f74cac5e42618a8	0.005076191914105056
98	0xbfc2e102705f702f	-0.14749174582436939
99	0x3fd3337f37885899	0.30001812384706167
100	0x3fe7408f5e502562	0.7266308633854062
101	0xbfbb80c017aa3c4c	-0.10743332460173
102	0xbf7289877c9dc5f2	-0.004525689358943806
103	0xbfd412ba0767b682	-0.3136429855647763
104	0x3f71ee3d3c601b28	0.0043775932335908055
105	0xbfc396a4796afdac	-0.15303474358186742
106	0x3fd35793c544644e	0.3022202898442331
107	0x3fe5ea27262b11cc	0.6848331208680576
108	0xbfb84720dfa67900	-0.09483533344470985
109	0xbf74db22ca573194	-0.005091796779606379
110	0xbfd2bfdab047468a	-0.2929598542660662
111	0x3f6d6343807e8f28	0.0035873716733067114
112	0xbfc3d63713462eb6	-0.1549748272049009
113	0x3fd36a8418287a24	0.30337622031393807
114	0x3fe4a3d5359bc0f9	0.6449991271056482
115	0xbfb584aaa61ca528	-0.08405558162180127
116	0xbf7656dd0eda1c10	-0.005453933246491807
117	0xbfd14758fdc1ff1c	-0.26997971325907755
118	0x3f62fa9660176ed8	0.0023167550104811023
119	0xbfc3a8c8b838d4ca	-0.15358838076796238
120	0x3fd3713caefae153	0.30378644073382083
121	0x3fe36a65a6efc575	0.6067379246216392
122	0xbfb347502ab2e162	-0.07530690233659734
123	0xbf7723cba6f5513c	-0.00564937163956741
124	0xbfcf80b0086db594	-0.24611473475981127
125	0x3f280d155d349d80	0.00018349538604776547
126	0xbfc3154654fd69f3	-0.14908675336739882
127	0x3fd370e3ee819674	0.30376528064366615
128	0x3fe24245c9914350	0.570589917837518
129	0xbfb184e60ac60534	-0.06843412173295321
130	0xbf78364dc1626dbf	-0.005911163074553582
131	0xbfcc782376aeb89d	-0.2224163369659821
132	0xbf6a665cd0c5cf0c	-0.0032226383975116953
133	0xbfc22615b98373bc	-0.14178725775027867
134	0x3fd36e7f15c69b23	0.3036191666273444
135	0x3fe126904c5d0654	0.5359574786636565
136	0xbfb02b8332021478	-0.06316394778157697
137	0xbf7ae9df06f4a7e8	-0.0065706932066777815
138	0xbfc98e9d556be6b2	-0.19966475172968995
139	0xbf80b801f9f6809e	-0.00816346687389596
140	0xbfc0d0c04c397772	-0.1313705799283827
141	0x3fd369e6b2bb644e	0.3033386941365891
142	0x3fe01242edb36eb8	0.502229179629885
143	0xbfae1f28bcdfd0e7	-0.058831475311224506
144	0xbf7f7f2c8dc779d0	-0.0076896419891156614
145	0xbfc6c99d7a30efbe	-0.1780278059612765
146	0xbf8dca53d5f37f1a	-0.014546065298815903
147	0xbfbe73f05e7cf438	-0.11895658785665908
148	0x3fd34a714dd058e8	0.30141861533173975
149	0x3fde254cdc9a8e32	0.4710266260464976
150	0xbfac2a43e12b2253	-0.055009957538974995
151	0xbf83c02120982584	-0.009643801505279333
152	0xbfc42b4f19d3072a	-0.15757168541863936
153	0xbf973e2d5935d5f3	-0.022698124475445124
154	0xbfbae8bd4f27b07f	-0.10511382277008073
155	0x3fd3119b8f5e0145	0.29794968605712696
156	0x3fdc466dc6d9db42	0.4417986337570491
157	0xbfaa4704a88d885b	-0.05132307584314396
158	0xbf88da13422df1cc	-0.012134695489060564
159	0xbfc1bb0775d2f958	-0.13852017644053194
160	0xbfa078a72c1e6a78	-0.03217050946769445
161	0xbfb755dac157466e	-0.09115378589856402
162	0x3fd2a3cad0861958	0.29124708522467335
163	0x3fda6c18c98c078d	0.41284770662616027
164	0xbfa83e6e9b90772b	-0.04735131882647033
165	0xbf8eab7aeb099e80	-0.01497550992753749
166	0xbfbf0a0295edad28	-0.12124649200784587
167	0xbfa517bb6f75d5ba	-0.041196687084191067
168	0xbfb39bc0253a5079	-0.07659531506425478
169	0x3fd20189c113d86b	0.2813438783190409
170	0x3fd8a626f01dbd02	0.3851411194691111
171	0xbfa658f799dc2769	-0.043647515804038424
172	0xbf920433c85b10bc	-0.017594155410521437
173	0xbfbb1ede49c74802	-0.10593976308089739
174	0xbfa9af8e6ff5226c	-0.05016751400632277
175	0xbfaf5c5c1ae952ec	-0.06125152424343647
176	0x3fd154ae6a4707bb	0.27079353693636293
177	0x3fd6cc7b997c2418	0.3562306403042057
178	0xbfa4ac21e78bbebe	-0.040375766291501844
179	0xbf94a727c9f8703c	-0.020168897344874134
180	0xbfb7ca5413d0eba1	-0.09293103679458038
181	0xbfae15a9098d3580	-0.05875900498959208
182	0xbfa7d2ed43d84eec	-0.04653111890016057
183	0x3fd0d0269ee753e3	0.26270452039653786
184	0x3fd4fc5060baee06	0.32790002294834186
185	0xbfa3d6c111d6fc44	-0.03874781935473284
186	0xbf967cc9e3b82a2e	-0.02196040584935071
187	0xbfb4d48e707951e2	-0.08136835332817996
188	0xbfb11f03a4ab3d5a	-0.06687948961483894
189	0xbf9c9102c3615e47	-0.027896922278470872
190	0x3fd03097f7280616	0.2529659188877259
191	0x3fd345f1c45904b2	0.30114406752188494
192	0xbfa44342aa708bd4	-0.039575656228656136
193	0xbf96f467a880c7dd	-0.022416705760583844
194	0xbfb2338050eb726e	-0.07109834647730803
195	0xbfb2f9062c7b3b3e	-0.07411230646105779
196	0x3f503e1318d6989e	0.0009913622373943008
197	0x3fcf88a004986eee	0.24635696625124787
198	0x3fd12c4f0ae675db	0.2683293920943847
199	0xbfa6ab6842338ed8	-0.04427648361322917
200	0xbf9517e643a77626	-0.020598981742173582
201	0xbfaed27fc9be8148	-0.06019973123261707
202	0xbfb4fccf3e13d452	-0.08198256745875313
203	0x3fa4064febfdf586	0.039110658223743974
204	0x3fcfce57ba9421c5	0.24848457918439074
205	0x3fcf45e9241f4b55	0.2443210054758206
206	0xbfab6723d461e9c4	-0.05352127044257629
207	0xbf902dfd92b29cae	-0.015800439909665336
208	0xbfa882a0e371c05b	-0.04787161613865073
209	0xbfb7ba895f9ee2d0	-0.09269007286537634
210	0x3fb5e0b98940fa7c	0.08546027756617919
211	0x3fcf931ef3165d9c	0.24667727345943724
212	0x3fc8e0408e81b818	0.19434363325439175
213	0xbfb090acb3dc1022	-0.06470755950073273
214	0xbf82a97059af1c00	-0.00911224149412071
215	0xbf9c32c9d4ba9509	-0.0275374923791292
216	0xbfbaa75f8180d8f1	-0.10411641036703025
217	0x3fc1897e584da8be	0.13700846969306285
218	0x3fcfbf81bea7b0a0	0.24803182420089787
219	0x3fc7ea39c58ef590	0.18683550020606932
220	0xbfb35553010d1cd4	-0.07552069450058535
221	0xbf6d1b7d57e1f460	-0.0035531471358454664
222	0xbf67394fa83ec9d5	-0.0028349452786298004
223	0xbfc0461d416e4edc	-0.1271397180067798
224	0x3f8abab279f7f2a6	0.01305140909880127
225	0x3fd807b7a47a0ab6	0.37547102987461345
226	0x3ff0e6c0b4b91f62	1.056336122464892
227	0xbfc134ee1a14b7ac	-0.1344277980182914
228	0x3f5c2ce71132aec0	0.001719689990561088
229	0xbfa8577804635ff0	-0.04754233411375697
230	0x3f7edda9743d58b8	0.007535612039495536
231	0x3f9ad08025403631	0.026185991548166313
232	0x3fd6b0d7a578bc56	0.3545436016019655
233	0x3ff0f51941cee8d5	1.059838540137709
234	0xbfc34960771528d0	-0.15067678274710383
235	0x3f59470257d59b80	0.0015428088075510604
236	0xbfb1eaa14928d3ab	-0.06998642002220261
237	0x3f81d0ceb1da6e52	0.00869904976143868
238	0x3fa268ab3b434912	0.035954810127480155
239	0x3fd5531d65602274	0.33319792652085956
240	0x3ff0f9fdf57362c3	1.061033209602258
241	0xbfc54ceb4a929d5c	-0.16640988484617025
242	0x3f568a0a89248300	0.001375685013563721
243	0xbfb92702d3969aaa	-0.09825151124696654
244	0x3f839da7bbd0dace	0.009578047198471575
245	0x3fa49dc7af16aa51	0.040266265986549706
246	0x3fd40d8953a70a48	0.3133261982840492
247	0x3ff0f2e7f33a5389	1.0593032361113919
248	0xbfc719b3ffff873c	-0.18047189712438605
249	0x3f53ec49ce4bd900	0.00121600349046741
250	0xbfc0da4c2a9aedb8	-0.1316619117768434
251	0x3f84b6ba8f92bf5e	0.01011415243769392
252	0x3fa36c2b30003c9d	0.03793463669728079
253	0x3fd2f8bd21408e46	0.29643181082994763
254	0x3ff0de59482ee452	1.0542843646674283
255	0xbfc8863ef043a8e2	-0.19159685832648338

scatter f8 [100, 32]
0	0x3fcbc943bd1e39ff	0.21707960829048997
1	0x3fcb4fcb89a7606b	0.2133726522577065
2	0x3fcae4e67c515643	0.21011048383904737
3	0x3fca8afddf9884b5	0.20736668985140275
4	0x3fca42020c7766cf	0.2051394043799548
5	0x3fca070753e7d3e6	0.20333949658348088
6	0x3fc9d4fd58614bf8	0.2018124276679314
7	0x3fc9a75e771f6abf	0.2004201966909331
8	0x3fc979e69539ae83	0.19903261457817586
9	0x3fc94b99fd520988	0.1976196753422068
10	0x3fc91d13750695ea	0.19619982923647622
11	0x3fc8ef4a8142cae4	0.19480258285110275
12	0x3fc8c3eb42afd3ae	0.19347897297089162
13	0x3fc89acf0ebc0615	0.19222439021545826
14	0x3fc873031c89590e	0.19100989240059402
15	0x3fc84ad6007bd99c	0.18978381179449577
16	0x3fc81fde75bfaf27	0.1884725642151974
17	0x3fc7f36db9556443	0.1871163515996007
18	0x3fc7c478f19a130e	0.1856833629318761
19	0x3fc795311cbaa3c3	0.18424047377382466
20	0x3fc764d35ac51ee5	0.1827644532406715
21	0x3fc73844b6ba291e	0.18140467569566793
22	0x3fc7114405e41c40	0.1802144078030512
23	0x3fc6f0e6d7bd94a4	0.1792267373486186
24	0x3fc6cf46b7a8456e	0.17820056884424268
25	0x3fc6a98866e40a30	0.17704873107875718
26	0x3fc6761c5fff07ba	0.17547945678057691
27	0x3fc62ac36f37ed88	0.17318003588284747
28	0x3fc5bf1d1431843f	0.16989482389456786
29	0x3fc536bcde2eaa82	0.16573296402687637
30	0x3fc4734b7b31bfd2	0.1597685195479231
31	0x3fc383b1e8f8e30b	0.15245651126476675
32	0x3fcbbffb6f5fff2e	0.2167963308165723
33	0x3fcb445a6c6cb0fa	0.21302347463768695
34	0x3fcad7dacba05b0f	0.2097123617429237
35	0x3fca7d20a33dfee2	0.20694358797844986
36	0x3fca33a05e4da8dc	0.20470051388412613
37	0x3fc9f7f394460d22	0.20287937869952893
38	0x3fc9c4b4a4a5114d	0.20131547965332644
39	0x3fc995843297200d	0.1998753783248052
40	0x3fc966b1abb132f5	0.1984464729634038
41	0x3fc936e57c574558	0.19698780604680155
42	0x3fc908164abf46e5	0.1955592980362361
43	0x3fc8db983325fc3b	0.19420149323920718
44	0x3fc8b3cc3a69d784	0.19298699238032324
45	0x3fc89176ff96290d	0.19193923454106035
46	0x3fc871fe6bb903a5	0.19097881564996758
47	0x3fc85329afd29a20	0.19003792843905476
48	0x3fc82fde5a2dd9f5	0.18896083262707433
49	0x3fc8069344cbb1eb	0.18770066126980053
50	0x3fc7d594744b4b24	0.18620544126914595
51	0x3fc79eb2858c46b5	0.18453055878540217
52	0x3fc76163a62e5783	0.18265958418185954
53	0x3fc725391f93a413	0.18082346002418656
54	0x3fc6eea3ad242f40	0.17915769533316883
55	0x3fc6c1e2ecef4021	0.1777919442088214
56	0x3fc69a2a0b031332	0.17657971894927865
57	0x3fc671fd5bc25c4f	0.17535368900709833
58	0x3fc63a6abf59beb8	0.17365774482049345
59	0x3fc5e4acd0d11ce9	0.1710411090482247
60	0x3fc55f3e54fe0f1d	0.16696910047550598
61	0x3fc4ab79e2adee96	0.161483035739242
62	0x3fc39d4a7896ea3b	0.15323763740691895
63	0x3fc25238959059e9	0.14313418677256998
64	0x3fcbce56e03569eb	0.21723447749793875
65	0x3fcb525413dc81f2	0.2134499642352377
66	0x3fcae48058def2ea	0.21009830798529744
67	0x3fca87a760946666	0.20726482597165158
68	0x3fca3ce5e518aaee	0.2049834602961122
69	0x3fca022af4bdc419	0.2031911559129476
70	0x3fc9d34c16d92ecd	0.20176077952998242
71	0x3fc9aba3d0be712c	0.20055053417753166
72	0x3fc98665470b0a20	0.19941392868902685
73	0x3fc961712f1b9258	0.1982861976640773
74	0x3fc93a6c6c2275d1	0.1970954444886233
75	0x3fc911302a97c8db	0.19583704070789207
76	0x3fc8e62b284112b1	0.1945241877130193
77	0x3fc8b85c6fdeb006	0.19312625372310793
78	0x3fc889b460eb78af	0.19170241100704774
79	0x3fc859c2f1b47408	0.19023930360791064
80	0x3fc82a378aec41de	0.18878835948318246
81	0x3fc7fd00eb591efb	0.1874085568581377
82	0x3fc7d263ba235624	0.18610807980319166
83	0x3fc7abbdb8135353	0.18492862213192982
84	0x3fc7836379e5db2f	0.18369716121716226
85	0x3fc75b6e3520e9c2	0.18247773737114242
86	0x3fc732d1370e8bc3	0.18123831928559583
87	0x3fc7084dc72e9978	0.17994091249165556
88	0x3fc6ce344f7821e8	0.17816785698256798
89	0x3fc68bc5c9325800	0.17614052127891
90	0x3fc6368f0dede43e	0.17354000263347474
91	0x3fc5c7588072354a	0.17014604827674368
92	0x3fc5462c90a25382	0.16620404302798525
93	0x3fc4c40c4d641dfd	0.16223291186200575
94	0x3fc404e52e2064a3	0.15639939071914907
95	0x3fc323d2e9c01756	0.14953075803367238
96	0x3fcbc4920cd8a00d	0.2169363558507488
97	0x3fcb4b5fe3d938a3	0.21323774934211767
98	0x3fcae157cb781eb0	0.21000192103405402
99	0x3fca892e6db03b45	0.20731144290808792
100	0x3fca4280eb32334b	0.20515452846702895
101	0x3fca0a14ccaf100a	0.20343265528038074
102	0x3fc9da653e6c9a3a	0.20197740123804114
103	0x3fc9ae2776e6ce7a	0.20062726312390905
104	0x3fc9811ac981d771	0.1992524608537525
105	0x3fc9517d8111e16f	0.19779938509214953
106	0x3fc91fd8971f21b6	0.19628436449990055
107	0x3fc8edb235c5b0ff	0.1947539103088118
108	0x3fc8bccae0183769	0.19326148931616707
109	0x3fc88e69a5f89d38	0.19184609035549172
110	0x3fc862ffc36caff6	0.1905212120267376
111	0x3fc839f7a2cc435c	0.18926902245632504
112	0x3fc810931e503a99	0.1880058191313381
113	0x3fc7e90e97f78c7a	0.18679983539832162
114	0x3fc7c1dd4826f88b	0.185603771429616
115	0x3fc79d3aa777ef21	0.18448575188801278
116	0x3fc77b139863a9f9	0.18344349804767981
117	0x3fc75f075001826f	0.18258754164255062
118	0x3fc74ddff233edbd	0.18206404997168404
119	0x3fc746958337c08c	0.18184155375593425
120	0x3fc73d66ec379c0e	0.18156134161037624
121	0x3fc72a50a925403f	0.18097885378893072
122	0x3fc701781e7f8abe	0.1797323368947072
123	0x3fc6bb438d85ea2b	0.17758984003360587
124	0x3fc646beafdeb948	0.17403396212962208
125	0x3fc5b642a890df8c	0.1696246455264795
126	0x3fc4f20a2058243e	0.16363646106063529
127	0x3fc438464716bb71	0.15796736212856957
128	0x3fcbce891581fff9	0.21724046278177392
129	0x3fcb54e47c87338d	0.21352821426844706
130	0x3fcaea1b61c70e6d	0.21026937746329413
131	0x3fca90f1fb5ff149	0.20754837774428328
132	0x3fca493e3692e6c7	0.2053601995919989
133	0x3fca1011c58bff3f	0.20361539979784912
134	0x3fc9df97fa8f26b8	0.2021360372003096
135	0x3fc9b301e8e64ba5	0.20077537414598826
136	0x3fc985caa21239aa	0.19939549363739434
137	0x3fc9576fe8345093	0.19798086965659376
138	0x3fc9277a123ac08f	0.19651723756897296
139	0x3fc8f8082c0ad47d	0.19506933355811276
140	0x3fc8ca215c87eeeb	0.1936685277759048
141	0x3fc89d9bf3cdda38	0.19230985073564155
142	0x3fc872ad603fb50c	0.19099967193270861
143	0x3fc84764c131ffcc	0.18967875893940656
144	0x3fc8179d5f5cb6b5	0.188220664561802
145	0x3fc7e4f34881e1f6	0.1866745094337287
146	0x3fc7aece3ea986d2	0.18502214488676444
147	0x3fc7795630a983fc	0.18339040161211517
148	0x3fc74384f0f92153	0.1817480255724698
149	0x3fc7127674b2dcb4	0.18025093744447462
150	0x3fc6ec577d6c4fb1	0.17908757805036893
151	0x3fc6cd3c11546ff5	0.17813826414283054
152	0x3fc6a8a8091f580c	0.1770219845336104
153	0x3fc67bf327c5ec7c	0.17565764848754728
154	0x3fc63c6ee41d9e60	0.1737192739340001
155	0x3fc5d13cf2daf395	0.17044793947380002
156	0x3fc541d1dc853c41	0.16607116000747804
157	0x3fc4967b18a54378	0.1608423109378483
158	0x3fc3afe71fff434f	0.1538056284175817
159	0x3fc2c322bcc5c1c1	0.14658006875425936
160	0x3fcbc7b390c1bf72	0.21703190391735522
161	0x3fcb4f6a6844f276	0.21336107341075533
162	0x3fcae5b24387ad7e	0.2101347760902676
163	0x3fca8c35e62bfb62	0.207403886211945
164	0x3fca42b072591161	0.20516019423861123
165	0x3fca05b9768d0d82	0.20329969681379728
166	0x3fc9d00cbafc63fc	0.2016616738335698
167	0x3fc99dd8b6addbc9	0.2001295940387691
168	0x3fc96a935f392f9a	0.19856493138865688
169	0x3fc935a27b08ebc2	0.19694930083809764
170	0x3fc90010da74301c	0.19531450907413805
171	0x3fc8cc3d0e18f03f	0.19373286426878342
172	0x3fc89c7580244fa1	0.19227474934507163
173	0x3fc8730189925813	0.19100970475545917
174	0x3fc84ee0de8f1517	0.1899071776116805
175	0x3fc82e49a621a076	0.1889125882328277
176	0x3fc80d7d66c2208f	0.18791167752738544
177	0x3fc7eac1682bd449	0.1868516691826321
178	0x3fc7c479d8e9f3a4	0.1856834706449294
179	0x3fc79b24499d1411	0.18442205042279672
180	0x3fc76dd58a915b10	0.18303937211995747
181	0x3fc740a8087fd6f7	0.1816606561184739
182	0x3fc712355b23b43f	0.1802431769387187
183	0x3fc6eae9df619851	0.17904399306570665
184	0x3fc6c518ec39c3c2	0.17788993391471136
185	0x3fc6997b3ed903ee	0.17655888146148818
186	0x3fc6680979fb927b	0.17504995781122887
187	0x3fc619c03b2e5c30	0.17266085519506325
188	0x3fc5a1c6ea1e650b	0.16899954253748492
189	0x3fc4f4e08333a047	0.1637230530388953
190	0x3fc3e7a6df98b37f	0.15550695340916929
191	0x3fc28300d3ef4d17	0.14462290142419285
192	0x3fcbcfe44aca8dd8	0.21728185321727156
193	0x3fcb597c19a82f58	0.2136683583524881
194	0x3fcaf19a0ec928e6	0.2104981014438813
195	0x3fca9a018ca6f58a	0.20782489173681667
196	0x3fca5232764ff6d3	0.2056334569642134
197	0x3fca173e8f6dadbd	0.20383436206189556
198	0x3fc9e423b66483c5	0.2022747650708238
199	0x3fc9b4a3afe921f1	0.20082517709148776
200	0x3fc98508455a7866	0.19937232386013476
201	0x3fc954d26a9f393d	0.19790106016302814
202	0x3fc9250b553ac3fc	0.19644300138091342
203	0x3fc8f7517e282f8a	0.19504755649574818
204	0x3fc8cd3a0165fdc5	0.1937630183056013
205	0x3fc8a787abacce0c	0.1926126087433747
206	0x3fc883e8cda4f92d	0.19152555505019944
207	0x3fc8609d66f4bbd3	0.19044845130107876
208	0x3fc83a382ed29749	0.18927671705494678
209	0x3fc8124dc998604d	0.1880585893966348
210	0x3fc7e6b0f33e0457	0.18672763707221193
211	0x3fc7b6824d82215e	0.18525723251901643
212	0x3fc781833dbdbfdd	0.18363991274554695
213	0x3fc7493bee16728f	0.18192242741942663
214	0x3fc70aaaf07d4fe1	0.18001305334712384
215	0x3fc6cbfdfe8c905d	0.1781003468432826
216	0x3fc688a49645a9b5	0.17604501092439553
217	0x3fc640baf5ec1a10	0.17385041244433852
218	0x3fc5eae744917338	0.1712311825566759
219	0x3fc57df4f27ec5c2	0.16790639725290474
220	0x3fc4f7599fda3c03	0.1637985258607558
221	0x3fc455c6a46cf8ab	0.15886767414662492
222	0x3fc369ce821df882	0.15166646340725626
223	0x3fc213790785ec33	0.14121926181164354
224	0x3fcbcc6b2db014dd	0.21717586260653024
225	0x3fcb53e901d0c8f5	0.2134982355942793
226	0x3fcaea83b36076d1	0.2102818132270188
227	0x3fca929a59620f18	0.2075989662590636
228	0x3fca4bc47765cf71	0.20543723897901203
229	0x3fca12e7bb55d9c7	0.20370194098695846
230	0x3fc9e28f4a394736	0.2022265541477794
231	0x3fc9b5a3ebf1f3ef	0.200855722625334
232	0x3fc9882c209aa9fe	0.19946815101623366
233	0x3fc958b4f98898e1	0.1980196207452485
234	0x3fc927bf2c68aa62	0.19652547520066138
235	0x3fc8f5f675310e53	0.19500618669745737
236	0x3fc8c5a4e33baee7	0.19353161902778668
237	0x3fc896b9eb8238dc	0.19209980010459204
238	0x3fc8699be50a9b5d	0.19072292979873398
239	0x3fc83db31d65f87d	0.18938292441811547
240	0x3fc810e6815f7727	0.18801575963055336
241	0x3fc7e69532916bae	0.186724328700476
242	0x3fc7bc8bb77ae85f	0.18544146021833094
243	0x3fc794d56089084a	0.18422953809391834
244	0x3fc76ca2ea79e77d	0.183002819528891
245	0x3fc7462439b15294	0.18182804886841508
246	0x3fc71c8ba5b40882	0.1805586394403385
247	0x3fc6f1d43ab0e10e	0.17925503602760567
248	0x3fc6b8f830d7e5b7	0.17751982102326533
249	0x3fc66ede84810450	0.17525845975800047
250	0x3fc60de69427e24a	0.17229921564264067
251	0x3fc58d03ff2f8587	0.1683659549735632
252	0x3fc4f9ddf97be3f0	0.16387533838113155
253	0x3fc4460e5f6292b8	0.15838794381592947
254	0x3fc37281b4221ec4	0.151931965785698
255	0x3fc276e58167ffc8	0.14425343340553654

Maxvals f8 [11]
0	0x402c66225ccb051c	14.199480914862356
1	0x402ba6eac7a1909f	13.8260099777911
2	0x402b48d72b96ffbc	13.642266618902674
3	0x402b266fe13f8d0c	13.575072325713812
4	0x402b01f0da37852b	13.503790683057181
5	0x402aea201ab0befa	13.457276186061325
6	0x402ac5cbcf6d4b34	13.386320573894047
7	0x402aab57de9e6d95	13.334654766883242
8	0x402a89a1b6beacfc	13.268811903739781
9	0x402a513c67c14c6b	13.158663980813989
10	0x402a0cf4e3ef6b18	13.02530586526477
