Data/TNG/Model_snap12.npz (npz, 225162 bytes, 5 tensors)

x f8 [31]
0	0x4026000000000000	11.0
1	0x4026333333333333	11.1
2	0x4026666666666666	11.2
3	0x4026999999999999	11.299999999999999
4	0x4026cccccccccccc	11.399999999999999
5	0x4026ffffffffffff	11.499999999999998
6	0x4027333333333332	11.599999999999998
7	0x4027666666666665	11.699999999999998
8	0x4027999999999998	11.799999999999997
9	0x4027cccccccccccb	11.899999999999997
10	0x4027fffffffffffe	11.999999999999996
11	0x4028333333333331	12.099999999999996
12	0x4028666666666664	12.199999999999996
13	0x4028999999999997	12.299999999999995
14	0x4028ccccccccccca	12.399999999999995
15	0x4028fffffffffffd	12.499999999999995
16	0x4029333333333330	12.599999999999994
17	0x4029666666666663	12.699999999999994
18	0x4029999999999996	12.799999999999994
19	0x4029ccccccccccc9	12.899999999999993
20	0x4029fffffffffffc	12.999999999999993
21	0x402a33333333332f	13.099999999999993
22	0x402a666666666662	13.199999999999992
23	0x402a999999999995	13.299999999999992
24	0x402accccccccccc8	13.399999999999991
25	0x402afffffffffffb	13.499999999999991
26	0x402b33333333332e	13.59999999999999
27	0x402b666666666661	13.69999999999999
28	0x402b999999999994	13.79999999999999
29	0x402bccccccccccc7	13.89999999999999
30	0x402bfffffffffffa	13.99999999999999

intercept f8 [100, 31]
0	0x3fe67e5f9421e6cf	0.702926434823178
1	0x3fe17dc49e100421	0.5466025435599741
2	0x3fdb3759c84a10f6	0.4252533393812564
3	0x3fd714adcd5d5c1d	0.3606371407999534
4	0x3fd771b2bb695d21	0.36631458570396275
5	0x3fdcbc1d92b9081c	0.44898166016003116
6	0x3fe3663d37bc3d22	0.6062303627567511
7	0x3fea7990e220a21a	0.8273395935585228
8	0x3ff1793bcfca9df6	1.0920980564932257
9	0x3ff60f1225679a00	1.3786794148560375
10	0x3ffa93d778da9076	1.6610941620683923
11	0x3ffeafc24ac09a9d	1.9179099006666214
12	0x4001179ed75579f3	2.1365334341965023
13	0x4002785998234a0a	2.3087646375436224
14	0x40037340210adf9f	2.431274660248121
15	0x400414da3a3cd974	2.510181860906579
16	0x40046b22229d23e4	2.5523112014966376
17	0x4004761fec6f637a	2.5576780768864724
18	0x4004446b54d34a2c	2.5334078433018217
19	0x4003cb26dfb3955b	2.4741952397040854
20	0x40031faabf29bd3b	2.390462392293242
21	0x400219c947da19be	2.2625909436639793
22	0x4000ce8b7d56bedc	2.100851992807163
23	0x3ffe1f61d66155a9	1.8826616644122203
24	0x3ff9efdd5be2b8a6	1.6210607136995718
25	0x3ff52c65d7209d5e	1.3233393100179778
26	0x3fef026b7e25f69c	0.969045397170436
27	0x3fe3a15d8abf989e	0.613447924607289
28	0x3fd7c1b973347194	0.3711989998862688
29	0x3fd803be6f643007	0.37522850874006547
30	0x3fe739cf437f7e79	0.7258068388291142
31	0x3fe6a06024701087	0.7070770942377899
32	0x3fe186630c31a91b	0.5476546514667321
33	0x3fdb1ee1490c30ce	0.4237597668986951
34	0x3fd6fc0c14b8d8a0	0.35913373969686724
35	0x3fd78ac92bd237d4	0.36784581450853904
36	0x3fdd48bfec6ccc84	0.45756528938654406
37	0x3fe3e97ee8b3876a	0.6222528977343533
38	0x3feb1feb321dffca	0.8476463297702079
39	0x3ff1c90dfedf4710	1.1115856128639656
40	0x3ff64365c862a940	1.3914544894747252
41	0x3ffa9dec81faefd2	1.6635556294777314
42	0x3ffe940f629f14b6	1.9111474850081271
43	0x400102aafbd58a18	2.1263026880781233
44	0x400261db2ed7d83a	2.297781339609199
45	0x40035ef472356936	2.4213646814870584
46	0x4003f9b908f93638	2.496934957604733
47	0x40044f4eb3d5021c	2.538724331796642
48	0x4004568ec2c42e8a	2.542264482128137
49	0x4004249fe936fcb5	2.5178831310182326
50	0x4003b8b06a9a0893	2.465180237603883
51	0x40030bd55570deb6	2.380777995593088
52	0x40020ab6fcd79eb8	2.25523183377285
53	0x40009f75fab2b8c6	2.0778617463866764
54	0x3ffd59c9a44803d4	1.834420816158162
55	0x3ff886fe40ce3277	1.5329573184455094
56	0x3ff2ff67613f5cc3	1.1873544501047923
57	0x3fe7edd7e0016846	0.7477836012942667
58	0x3fd695a9d6a7b028	0.3528847309341949
59	0x3fbe6beac669d7a8	0.1188341841132955
60	0x3fb0b3e4b8605d50	0.06524495602967773
61	0x3fdf54ddce50eaf3	0.48955483577780895
62	0x3fe6c2b71e8adcb9	0.7112689587146611
63	0x3fe1c7a0ad738c76	0.5556186092111506
64	0x3fdbdb5215f6d113	0.4352612699979243
65	0x3fd7c63b8ea3b512	0.3714741604770363
66	0x3fd83769e10d9111	0.3783821771414902
67	0x3fdd7caaa44dc48f	0.46073404355326714
68	0x3fe39ed6ee2b8f32	0.613139596153337
69	0x3fea73dd2be61ff9	0.8266435487175833
70	0x3ff1569d8222a329	1.0836463054094543
71	0x3ff5d6ebac43627f	1.364970848944864
72	0x3ffa5da80e5fcbba	1.647865348958233
73	0x3ffe9e3b8743af9e	1.9136309894338193
74	0x40012efef34ae4c2	2.1479472167235096
75	0x4002b4a7d34fae8a	2.338210726613231
76	0x4003d662a9804694	2.4796803705474506
77	0x40049a4f5c599416	2.5753466811024834
78	0x40050d05b1b105a1	2.6313585168979476
79	0x4005291184b3cbf1	2.6450529448861677
80	0x4004f661a84c8ea5	2.620303454243031
81	0x400459a01a313837	2.543762402178824
82	0x400360ee5a78234d	2.422329623023336
83	0x4001c63e904b2d96	2.22179901818681
84	0x3fff7dfbabdfa7da	1.9682575906576774
85	0x3ffa27f7138b54c1	1.634757114739202
86	0x3ff3f4d28bad1514	1.2472711044404763
87	0x3feda84af2a9a0ab	0.9267935504440364
88	0x3fe51c5004a283d1	0.6597061243556884
89	0x3fddce21c5b5d9b6	0.4657062941327256
90	0x3fe198834c17dae4	0.5498672949023242
91	0x3fe63e07567f5f3d	0.6950718583493437
92	0x3ff11d618d92cc20	1.0696731119358063
93	0x3fe6b9ed5b6a455f	0.7101961884929259
94	0x3fe1d7d5b3744c92	0.5575970177618663
95	0x3fdbeacd8064a95e	0.4362062219467101
96	0x3fd783a719863789	0.3674104451428027
97	0x3fd764aa4564810b	0.3655191114103366
98	0x3fdc1fcb713564c5	0.43944059424900345
99	0x3fe2e25d0db44a56	0.590132262006885
100	0x3fe9e6e3dc324f8d	0.8094348240579038
101	0x3ff13e806d5268b6	1.0777591963183517
102	0x3ff5e3e0793c9d57	1.3681339965640598
103	0x3ffa6fc3a0473d75	1.6522861729498264
104	0x3ffe7deb43550d9c	1.9057419424214919
105	0x4000ed86ff94ba3c	2.1159801451933884
106	0x400232e195dd22a9	2.2748443325147787
107	0x400310cd3b9f442f	2.3832039506892424
108	0x4003a67411fe4f8a	2.456276074002692
109	0x40040d71c03d4724	2.506564618940404
110	0x40044e0591aefd2e	2.5380965596702003
111	0x40046dd5c9ff9bce	2.5536304265146788
112	0x400456347089ac26	2.542092208100729
113	0x40041bd9512f1646	2.513598093270761
114	0x4003af70c600613f	2.460664317022889
115	0x40031de25fc2aa61	2.3895919305116853
116	0x4001fee684036118	2.2494631112605354
117	0x40006c631735630e	2.0529233754317664
118	0x3ffc5767b39e76f2	1.7713391319625171
119	0x3ff4ec0807815deb	1.307624844854099
120	0x3fe6f5a8d4cdde79	0.7174877315837441
121	0xbf73b4553a064b00	-0.004810650745997291
122	0xbfe5fc81e5157a17	-0.6870736574454125
123	0xbff0029b65ee2612	-1.000636480488883
124	0x3fe6a6ab99326bb7	0.7078454963806199
125	0x3fe1a76ba8de675a	0.5516870783060128
126	0x3fdb78dfaa44c7b4	0.42925254466819784
127	0x3fd7396fa3490129	0.3628806204396989
128	0x3fd77a7c542fcccc	0.3668509313713002
129	0x3fdcb525b9cdb4c3	0.4485563578117075
130	0x3fe366ed8c5e5801	0.6063144437382563
131	0x3fea82d24682999e	0.8284694077636237
132	0x3ff17d8a83ac0184	1.0931496756967087
133	0x3ff61048d6bb3a1a	1.378975714487416
134	0x3ffa87adb11bd88a	1.6581246298133316
135	0x3ffe924599ecdac1	1.9107109081939344
136	0x4000f99460601b78	2.121865036900484
137	0x4002560b1b126271	2.2920133700356975
138	0x40035b3167cd2b26	2.419527827214
139	0x400411669039ea4a	2.5084964053797068
140	0x40047b8948587164	2.5603204395285264
141	0x4004966266549240	2.573429870086585
142	0x40044c58ef961027	2.537279006735861
143	0x4003aa0cd8bd1640	2.458032315512156
144	0x4002a3b0333fe956	2.329925918949054
145	0x40013dbf38a1ab3c	2.1551498817765644
146	0x3fff4ffad64f2998	1.957026326318191
147	0x3ffb5aa9b1432c8b	1.7096344875633658
148	0x3ff7025469b1937b	1.4380687836321318
149	0x3ff33dedf5448578	1.2026195126312285
150	0x3fec86caad312922	0.8914540655762588
151	0x3fe40f3112c67843	0.6268544546799223
152	0x3fe18e6484486c8a	0.5486319144869338
153	0x3fe323430c4e5f40	0.5980544319490733
154	0x3fef63039e522894	0.98083668634469
155	0x3fe66f4759d36c05	0.7010838274394479
156	0x3fe169d759e5e4a0	0.5441700702496242
157	0x3fdafa4d94b36613	0.42152728578148063
158	0x3fd6b66a2892d452	0.3548837085939499
159	0x3fd6deab9020e909	0.35734070849470406
160	0x3fdbe6dfbfeb7557	0.4359664320198439
161	0x3fe2e26e195bf9fe	0.5901403899477484
162	0x3fe9edb3b0a5e9e8	0.8102663469465456
163	0x3ff13560b28d1896	1.0755316710142657
164	0x3ff5da6f11b6a7d6	1.365828580087045
165	0x3ffa746607fdf202	1.6534176170526966
166	0x3ffe997a761cb7fe	1.9124703038937692
167	0x40010baf024a642d	2.1307048968269755
168	0x400265f34a93d9de	2.2997804476137693
169	0x40035a260aaacd83	2.419017871224868
170	0x4003f37bb735e9a1	2.4938883126571487
171	0x40043eacd37239a2	2.5306030768617385
172	0x40043e2f28ca36f0	2.5303633867941855
173	0x4003fdf1f8af4973	2.4989966801160164
174	0x40036885e415e01a	2.426036626737198
175	0x4002a6afe32399ba	2.3313901658286484
176	0x4001770640facb00	2.183117396977991
177	0x3ffff78d462bb4ea	1.9979374638599503
178	0x3ffbe47f21423c9b	1.7432853030366349
179	0x3ff74a4268a4bb98	1.4556297385822514
180	0x3ff2a75d3fdb5915	1.1658604139716477
181	0x3feb7e5d37d0898a	0.8591753091935044
182	0x3fe4eb35ebbf6235	0.653712234920994
183	0x3fe639bafe0d925e	0.6945471727345411
184	0x3ff14066c5ef43d2	1.0782230121442251
185	0x40000a036a514e97	2.0048893266737866
186	0x3fe6896bdfb03c4d	0.7042750710405784
187	0x3fe1aa51b1427ac9	0.5520409071067088
188	0x3fdbda381f62be98	0.4351940447331599
189	0x3fd7f7aa9aef76e4	0.37449135904704023
190	0x3fd8630688c9be33	0.3810440383740314
191	0x3fdd7a3e8949815c	0.4605861988730078
192	0x3fe38e7821a3afde	0.6111412674922538
193	0x3fea63737821864e	0.824640020972035
194	0x3ff14ddee4b5b6d2	1.081511395833719
195	0x3ff5cf0156fbc3ea	1.3630383870879492
196	0x3ffa5741d5369d6a	1.6463030174871514
197	0x3ffe910afde6e6df	1.9104108732266736
198	0x40011fc6f848ce80	2.140516223642237
199	0x40029e188c8e0e00	2.3271952610828066
200	0x4003bba089da3e03	2.4666147966124767
201	0x400475cab0e9125e	2.557515508759294
202	0x4004ce0127c57b50	2.6005881411687497
203	0x4004ccc39958e87e	2.599982450509798
204	0x4004822f7d7f08fb	2.5635671429055242
205	0x4003ee17f6e4ef23	2.4912566460242416
206	0x40032ede7c408c31	2.3978852946470615
207	0x40022a813366e5ee	2.270754243447974
208	0x400106c6b670026d	2.1283087017948703
209	0x3fff1d2c95ed9f33	1.9446225983210297
210	0x3ffba27e68e263ff	1.7271713349384752
211	0x3ff7a4e90b63d0d4	1.477761311046426
212	0x3ff1a2d9cc5123d3	1.1022584897166225
213	0x3fe6816abf8cccbd	0.7032979718409461
214	0x3fd48ba1745315e8	0.32102238044566755
215	0x3fb900956da411f0	0.09766515661983255
216	0x3fb4c27cd01e9620	0.08109264451066922
217	0x3fe6d2fd86d4131f	0.7132556565635219
218	0x3fe1e7e05d9ae54d	0.559555228063951
219	0x3fdc2667575cd3d6	0.4398439744139159
220	0x3fd8155022900151	0.3763008439564333
221	0x3fd884740130f559	0.38308429828960794
222	0x3fdde0aad3ee771c	0.4668376035350421
223	0x3fe4027a19380b47	0.6253023617322037
224	0x3feb1d08b92d31ea	0.847294198677955
225	0x3ff1c4bf7a0ff9aa	1.1105341690123205
226	0x3ff63bb1a6c9679d	1.3895737185580181
227	0x3ffa86bb571c24ba	1.6578935053569652
228	0x3ffe4991434b8706	1.8929607990943977
229	0x4000af7316d1c39c	2.0856687338604853
230	0x4001e6a9644b7472	2.2376277766730306
231	0x4002d657d5056c55	2.354659713962557
232	0x40039ace2594e598	2.45058850632331
233	0x400441062792d5ec	2.5317500201879195
234	0x4004b683ca7a809c	2.5891185587534675
235	0x4004deec4afbcb29	2.608849130448466
236	0x400489ede67f6a8d	2.5673482902178137
237	0x4003b1ecd6f0516d	2.461877516945768
238	0x40021f6ef5a7d50a	2.265348357376415
239	0x3fff9625139df490	1.9741564527787752
240	0x3ff8e9d8bdb53f54	1.5570914659947066
241	0x3ff1d7c58ee77f46	1.1151786405752815
242	0x3fe52012a62105ea	0.6601651425082171
243	0x3fc98c0e17e719c4	0.19958664099813295
244	0xbfd0787237d6eeea	-0.2573514504726818
245	0xbfe5198f51b92e1e	-0.659370097747743
246	0xbfece278d8d0d15b	-0.902645514934686
247	0xbff2276b51d3ef3c	-1.1346238323594227
248	0x3fe68bf31b2c4417	0.7045836954804398
249	0x3fe175a55522a30f	0.5456110632704582
250	0x3fdaf43ed1512ce1	0.42115755501863644
251	0x3fd6a86af3ce0900	0.35402940568032193
252	0x3fd6ffc0ad1c6991	0.3593599024331065
253	0x3fdc53841f59bec8	0.4425974184186825
254	0x3fe33cce858cf849	0.6011726959620854
255	0x3fea603687b681da	0.824244751991553

slopes f8 [100, 31, 7]
0	0x3f98740dd7051770	0.0238802111137128
1	0x3fd61a88bd5f8ff4	0.3453695153568781
2	0x3ff04f715cb3fdb0	1.0193952199186747
3	0xbfc1a78ab11d8914	-0.13792546890460555
4	0x3f5e816574bce618	0.0018619051724740928
5	0xbfa4b8b31832548b	-0.04047164602631267
6	0x3f80a1b8617f4c3a	0.00812095687425628
7	0x3fa32700e57cb965	0.03740694810254545
8	0x3fd4dba6c5e8d612	0.32590646102048126
9	0x3ff0560639ec547e	1.0210020315765003
10	0xbfc3a49b00c7f0a0	-0.153460860616069
11	0x3f60e972c69f5e38	0.0020644418445774602
12	0xbfaec4fa8ccfd402	-0.06009657830137628
13	0x3f823a806714ebfe	0.008900645395092607
14	0x3fa85ea5d41adee9	0.047597105161399096
15	0x3fd397153ea2ecaa	0.3060963737186265
16	0x3ff05502b0325376	1.0207545168570653
17	0xbfc593934c8220f4	-0.16856614337689957
18	0x3f63445caf66f6a8	0.002351933503830523
19	0xbfb5e1b71fd18758	-0.08547539259737158
20	0x3f83c790c4f0843e	0.009657984743229982
21	0x3faaefa3ba248078	0.052609554741366915
22	0x3fd265992c662cde	0.28745107017375726
23	0x3ff04b82e59df5eb	1.0184353799262407
24	0xbfc753d45b7ae9fe	-0.18224577395251623
25	0x3f664296126d84bc	0.0027172976582937308
26	0xbfbdc2cd1ce4a348	-0.11625368075750686
27	0x3f85397b16379242	0.010363542190085732
28	0x3faa4cd5d415ec96	0.05136745656906176
29	0x3fd15ac98ab79980	0.2711662153873462
30	0x3ff0372fa8fe21a5	1.0134731866147402
31	0xbfc8c1ff3b45b3d5	-0.19342031854776445
32	0x3f69680d347fae78	0.003101373473318788
33	0xbfc36212b5b420c8	-0.15143045303580593
34	0x3f866755d24cd348	0.01093928382906885
35	0x3fa63b663a388776	0.04342193089202244
36	0x3fd086e55a4c8f50	0.25823339288966896
37	0x3ff0152d515811f0	1.0051701714993406
38	0xbfc9be183adc36c3	-0.20111372827562066
39	0x3f6c183c7e18cde4	0.0034295255179814677
40	0xbfc8319701103c39	-0.1890133624260402
41	0x3f873359916bca98	0.011328410864256441
42	0x3f9dcf37e49ef65e	0.029110787705340584
43	0x3fcfe40409934a90	0.24914598910853103
44	0x3fefc1371d4f5b24	0.9923358509503015
45	0xbfca31c10b7f4ac7	-0.20464337407482544
46	0x3f6d6bb0cd1b13d4	0.0035913899563148974
47	0xbfccfe609469c582	-0.22651297804581466
48	0x3f876114262c088a	0.011415631689946321
49	0x3f83664dbe214265	0.009472472538761776
50	0x3fcf3be7bbc84c60	0.24401566189826251
51	0x3fef287640816d30	0.9736891994356593
52	0xbfca1546d05217de	-0.20377431079776803
53	0x3f6ca350cca732ef	0.0034958437074464814
54	0xbfd0b66a297bb53e	-0.2611337094411573
55	0x3f86f9b67f73db9e	0.011218477024596937
56	0xbf8c003048d3add4	-0.013672234747409563
57	0x3fcf0ff7c78c63a8	0.24267480128835683
58	0x3fee576c029863ac	0.9481716204346546
59	0xbfc96bd3ba74f486	-0.19860312084520987
60	0x3f69403300f9c156	0.003082370392626081
61	0xbfd295cab430079e	-0.2903925666470232
62	0x3f862a646d77e03c	0.010823044386583651
63	0xbfa3ab9a4e2fb23e	-0.038418600124576305
64	0x3fcf4db2c7606900	0.24455866561113027
65	0x3fed494b295df248	0.9151969726513665
66	0xbfc848739d7e96de	-0.1897110480323851
67	0x3f6236eb634e95d8	0.002223453275706371
68	0xbfd3fc9dd3d82074	-0.3122934883872468
69	0x3f850d3f80777549	0.010279174907675286
70	0xbfb0038dcffa333e	-0.06255422904559979
71	0x3fcfdd405df5f06c	0.24893955791401667
72	0x3fec0409568686d2	0.8754927339507168
73	0xbfc6c5aaacf98558	-0.17790730901746588
74	0x3f5008d464cad630	0.0009786676556989941
75	0xbfd4d9463f35117e	-0.32576137707317077
76	0x3f83da7969ba254a	0.009694050349269862
77	0xbfb5943d4f5f1365	-0.08429320514467305
78	0x3fd056a2f077f872	0.25528787120118246
79	0x3fea92a3d680ac58	0.8304003896240699
80	0xbfc502177bdb548b	-0.1641263346452074
81	0xbf455a0045b17900	-0.0006515981034558582
82	0xbfd529eebd9cde7e	-0.3306843616187293
83	0x3f82aa1af8b586e5	0.009113512721060821
84	0xbfba463964da9727	-0.10263403618099841
85	0x3fd0d1209ccf423d	0.2627641230911058
86	0x3fe908d0271797b8	0.7823258174437262
87	0xbfc31d096e889462	-0.14932363412040944
88	0xbf649bb7cf71f61c	-0.0025156583829459966
89	0xbfd4f7a1a096deac	-0.32761421854545847
90	0x3f819df3ad05407a	0.008602050511996352
91	0xbfbdf1f084369cf2	-0.11697295406212385
92	0x3fd14dd6c499374c	0.27037591170379893
93	0x3fe7776bf539f256	0.7333278455331065
94	0xbfc13251abe4cfd9	-0.13434811490299017
95	0xbf7211a924769153	-0.004411373818048086
96	0xbfd4520d8232574a	-0.3175081035091024
97	0x3f80300ba90bad84	0.007904139610636525
98	0xbfc0449f63d68b41	-0.1270941960802592
99	0x3fd1c9ee7b9bfc8e	0.2779499251482286
100	0x3fe5ef337231c1a4	0.6854493360861409
101	0xbfbeaff868f3c31c	-0.11987259447392912
102	0xbf795f0b7d938b16	-0.006194157490628146
103	0xbfd34f0aa4ba421f	-0.30169931494404695
104	0x3f7c61d13ce2c050	0.006929223380368013
105	0xbfc11893deb48348	-0.13356254934572065
106	0x3fd2410519fe98e6	0.2852185014584293
107	0x3fe47c80cfbce44e	0.6401981408481647
108	0xbfbb4881787e83a0	-0.10657509986641722
109	0xbf7efe5d222d79b8	-0.007566798975715043
110	0xbfd20893bb85aa48	-0.2817735034247204
111	0x3f765200380c2210	0.00544929585954225
112	0xbfc1890658dde36d	-0.1369941648406682
113	0x3fd2ad8b819df015	0.2918423429289317
114	0x3fe32536ce87e598	0.5982927354627234
115	0xbfb845b71559ead0	-0.09481376906652916
116	0xbf8136948c97bb00	-0.00840488485388624
117	0xbfd09d30cf0d4d6f	-0.25959415645521394
118	0x3f684de0e3a22900	0.0029668228499463156
119	0xbfc1972d71a80959	-0.1374260716402869
120	0x3fd3104680066de1	0.297868371033216
121	0x3fe1f77d3ad4f5e1	0.5614610814151854
122	0xbfb5ac6ea18b60de	-0.08466235584217283
123	0xbf822a7c44a93408	-0.008870097012868797
124	0xbfce4e55029e6708	-0.2367655051028168
125	0xbf4344e92a8121c0	-0.0005880487924594877
126	0xbfc1579a13fa2b58	-0.1354858968300856
127	0x3fd36538c857623a	0.30305308880409465
128	0x3fe0eb00cb8297e0	0.5286869025046563
129	0xbfb379369bfb38ca	-0.07606831844461506
130	0xbf8274c8e136d910	-0.009011811612122972
131	0xbfcb81a04b952f0f	-0.21489337626041347
132	0xbf76ea30cd0dd5ac	-0.00559443533790242
133	0xbfc0beac65c36a52	-0.13081889122880114
134	0x3fd39accd9b34f67	0.306323254201962
135	0x3fe00997af0ea9df	0.5011709612929812
136	0xbfb1a59f2625efa4	-0.06893343621589892
137	0xbf82ebfa19b87830	-0.009239152822427682
138	0xbfc8fd99ed91800a	-0.1952392969133146
139	0xbf8897a2b461c2fc	-0.012007971887415085
140	0xbfbfd21608cf497f	-0.12429940905648172
141	0x3fd3aaa04b953345	0.3072891939271368
142	0x3fde9450561cd964	0.47780235681002226
143	0xbfb008b75cb354ee	-0.0626329995460144
144	0xbf83fd0a49e3fda0	-0.0097599796104067
145	0xbfc6ee46eb98f3ba	-0.17914663795263924
146	0xbf9418be5849ae96	-0.019625639094029333
147	0xbfbd4fcdd052988b	-0.11449896179201084
148	0x3fd3752527f5de55	0.3040249719847215
149	0x3fdd3a4770ced755	0.45668207184222825
150	0xbfad6c0cdaa5b7d2	-0.057464982691143654
151	0xbf864b5c6ee12970	-0.010885927327895145
152	0xbfc55beb406f8785	-0.16686764379761257
153	0xbf9c90b267c533a8	-0.027895724853170073
154	0xbfba30653a373606	-0.10230095549851378
155	0x3fd2e54a5a5b7599	0.29524477790786247
156	0x3fdbeb3646f6c363	0.4362312024123211
157	0xbfab3361668bbd54	-0.05312637688427438
158	0xbf8a5045e1c6287c	-0.012848421051576013
159	0xbfc445aa8cc60f72	-0.1583760440226985
160	0xbfa2557dd1a32ec0	-0.03580849823046384
161	0xbfb5ff20cb99f766	-0.0859241959642226
162	0x3fd22d642e10fb66	0.28402046679177884
163	0x3fda57970eab70a4	0.4115960734614055
164	0xbfa9028e85b13664	-0.048847631282666254
165	0xbf8fd05f51ed8ac0	-0.015534157455197373
166	0xbfc36951f55a6e90	-0.15165161590708864
167	0xbfa65295cfa3d3ec	-0.04359882507007015
168	0xbfb1023fd7b31e1e	-0.06644057289224078
169	0x3fd13ea56f7bab31	0.2694486225797617
170	0x3fd8736ee4d36872	0.38204548212309597
171	0xbfa6eae7b101b478	-0.044760933263071345
172	0xbf92ec474f58416c	-0.018479456155604465
173	0xbfc2d31ad5949569	-0.14706740788202957
174	0xbfa9bc6512dfb22c	-0.050265463403637106
175	0xbfa6ae050601f134	-0.04429641435942458
176	0x3fd06b366657b1c6	0.25654373163595456
177	0x3fd5f4a8414ca6a4	0.3430576932611109
178	0xbfa42ea31c720fa8	-0.039418313238484715
179	0xbf96ab15756f074e	-0.02213700799234824
180	0xbfc2266be89f663a	-0.14179753168609627
181	0xbfac9cf0961e4cd4	-0.055884855580325216
182	0xbf92533a5285535d	-0.017895613943739053
183	0x3fcfa01a85ce1140	0.24707347424931392
184	0x3fd362c5ea15ae0f	0.30290363178093654
185	0xbf9fd45ebc9923d8	-0.03108356500732498
186	0xbf9b6e49ac7f99b5	-0.026787902024716554
187	0xbfc10b3374c478c2	-0.13315432740723138
188	0xbfad734ef7fc880e	-0.057520358821662496
189	0x3f815ee122e7093a	0.008481749417914675
190	0x3fcee36419816248	0.24131442304021022
191	0x3fcf34ee77635053	0.24380284146775696
192	0xbf9326aed40a1940	-0.018702251140461756
193	0xbfa0767836b33e72	-0.0321538512013121
194	0xbfbecf67df74590a	-0.12035226064140062
195	0xbfac59e4cfe7ddb6	-0.05537333524619774
196	0x3f9b171602cbbfd5	0.0264552535253982
197	0x3fcf70ea2c4f01b5	0.24563338435656382
198	0x3fc56590f131ce4e	0.16716205384328692
199	0xbf50b7a5c8e0ad80	-0.0010203474989890216
200	0xbfa447871e234733	-0.039608213833743376
201	0xbfbb5479d1cb58a9	-0.10675774928981475
202	0xbfababd3a80e6cd8	-0.05404530931920143
203	0x3f9aca26df44194c	0.026161773087573878
204	0x3fd056d60e82001c	0.2553000585248826
205	0x3fb503f4df9f5351	0.08209162196665189
206	0x3f9860610fb2f888	0.02380515726394397
207	0xbfa936914fd3df32	-0.049244442934592306
208	0xbfb6f1960f3de638	-0.08962381240953554
209	0xbfa99d0315f18614	-0.050026031902927454
210	0x3f50d18bea3b6433	0.0010265222890011416
211	0x3fd2e5a209ca49be	0.2952656837088873
212	0xbfa4ac0f6f36c4f4	-0.040375215841217754
213	0x3fac37f9dd1174c4	0.05511456321321753
214	0xbfacb5ac3727c408	-0.056073552830533
215	0xbfb4a2c0c8f6e316	-0.08060841471059307
216	0xbfa6975269f0f31a	-0.04412324469783453
217	0x3f981c75dddfe7e4	0.023546067874100532
218	0x3fd6338eb18e417c	0.3468968137686017
219	0x3ff04c027ca48e52	1.018557059179234
220	0xbfc1bb79c706a4b2	-0.13853380411209099
221	0x3f66557451915f28	0.0027262946937688555
222	0xbfa42803f336ed27	-0.03936779350211799
223	0x3f83cddda38b5101	0.00967000155780129
224	0x3fa31ff390884e6f	0.03735314502060027
225	0x3fd4f500be652c82	0.32745379060060753
226	0x3ff0507b29eb6d68	1.0196487081037393
227	0xbfc3b60f7d13a19c	-0.15399354560146328
228	0x3f6aeda6bd80f610	0.0032871491094101993
229	0xbfae3b8c03633836	-0.05904805699684383
230	0x3f859d409bd85715	0.010553841358198516
231	0x3fa873dae851d1b5	0.04775890432293598
232	0x3fd3ac55a5c6dc48	0.30739346684589863
233	0x3ff04d024c53f62e	1.0188010198174982
234	0xbfc5a16449e41f36	-0.1689877854153054
235	0x3f6fe2a3162f5b0a	0.003892248657830226
236	0xbfb5a0e6a0d8dbbc	-0.08448640276843283
237	0x3f871d5432a38982	0.011286409182905247
238	0x3fab022a10a49a30	0.05275088742410039
239	0x3fd2745657e26fec	0.28835066397164044
240	0x3ff0414d7e0572a1	1.0159430430132164
241	0xbfc75e42b5e99963	-0.18256410486646776
242	0x3f726a91ee5ceb1e	0.004496164363269965
243	0xbfbd81b83736dfe8	-0.11526061389929476
244	0x3f881d415b371d72	0.011774550052804787
245	0x3faa3825387313a9	0.051209605351267236
246	0x3fd16113c3859dc2	0.27155012220324803
247	0x3ff02a0064830c9c	1.0102542806860475
248	0xbfc8ca0890bf838a	-0.1936655718591534
249	0x3f7498acbad157f8	0.0050284144645811255
250	0xbfc33ae3440c099f	-0.1502346117268418
251	0x3f8863cc25a7f2eb	0.011909098529025516
252	0x3fa5d180ec843917	0.04261401068844089
253	0x3fd086371b77c386	0.25819184954075813
254	0x3ff0042fd0d362a8	1.0010221631293152
255	0xbfc9c63d277e750a	-0.20136227062622708

scatter f8 [100, 31]
0	0x3fcb6532d5d93adf	0.21402583543609574
1	0x3fcaf5cfd665fd66	0.21062658280059593
2	0x3fca96626335e1d1	0.20771436542760438
3	0x3fca484b74dc98c1	0.2053312607396887
4	0x3fca09a98ca729a4	0.2034198700697064
5	0x3fc9d684d49f8a41	0.20185909635536528
6	0x3fc9aa32b2ef36ef	0.20050653206856547
7	0x3fc9801ca26db272	0.19922216349677374
8	0x3fc955cfd97129d2	0.1979312717179043
9	0x3fc92a572df025aa	0.19660463088102392
10	0x3fc8fe581494d569	0.19526196484518302
11	0x3fc8d402c8a1e612	0.1939700584078286
12	0x3fc8abc97373ef64	0.1927425206885075
13	0x3fc8877ae3b0968c	0.19163452260652425
14	0x3fc867457c32cd22	0.19065159382226066
15	0x3fc849e6ca1bcbb6	0.18975529545386188
16	0x3fc82dc3bc6521bc	0.18889662455536704
17	0x3fc811c5e1e17f7d	0.18804238824213462
18	0x3fc7efe0902c2112	0.18700797118823026
19	0x3fc7c7b426e8a2ef	0.1857819738372863
20	0x3fc794fa25a30779	0.1842339214109037
21	0x3fc75e8f8decba06	0.18257326536100055
22	0x3fc7238c1ea99e38	0.18077231881328415
23	0x3fc6e31c20c2c8f8	0.17880584334995553
24	0x3fc6a1b6ba60f948	0.17681011295821691
25	0x3fc65899a7c3563c	0.17457886401705192
26	0x3fc6035685b29d80	0.1719768669911268
27	0x3fc5a00fa337d6d9	0.1689471766437041
28	0x3fc51ef666c80e3b	0.1650074006903298
29	0x3fc4ade10f5dfb79	0.16155637026164607
30	0x3fc4271775c917aa	0.1574429822086903
31	0x3fcb6cae26d2b17c	0.21425415893225963
32	0x3fcafdd932eb879f	0.21087183939294804
33	0x3fca9e5b1e840767	0.20795763959909694
34	0x3fca4f824e462dfb	0.20555142232875298
35	0x3fca0fa767e5096b	0.20360272000295807
36	0x3fc9dab79775666d	0.20198721785964172
37	0x3fc9ac36255560c3	0.200567978123905
38	0x3fc97f61413daeb6	0.19919982610314485
39	0x3fc951fa4aa351e4	0.1978142609065251
40	0x3fc92264ead2ea03	0.19636212793359684
41	0x3fc8f2043bafd7ef	0.1948857585372816
42	0x3fc8c2df135f81ac	0.19344700284910965
43	0x3fc8956f3751de7e	0.19206037713205498
44	0x3fc86c0c36afc8a2	0.19079735441443285
45	0x3fc84669fc81f199	0.18964886502716352
46	0x3fc8242d84ba3b8c	0.18860405903657484
47	0x3fc80260aefd0e7b	0.18757256073341808
48	0x3fc7e1a73c73633a	0.18657389117904605
49	0x3fc7bd32b15d6bcc	0.18546136532208235
50	0x3fc7962725d86d44	0.1842698035041882
51	0x3fc767e6c43022aa	0.1828583200406418
52	0x3fc73b0bd5a1ca76	0.18148944789171012
53	0x3fc70e5caae2bdaa	0.18012579292324676
54	0x3fc6e052939a5aef	0.1787207813947229
55	0x3fc6b51fe48fc3f0	0.17740248356088228
56	0x3fc68a9a1ee1dcff	0.17610479839252233
57	0x3fc650426dfb593b	0.17432432527739103
58	0x3fc603b1e606cf3b	0.17198775989310797
59	0x3fc59e15fde53162	0.16888689896803571
60	0x3fc5321d2e6559d5	0.1655918575804224
61	0x3fc4b7ae9c421113	0.16185553197659228
62	0x3fcb60ec3c9c0a52	0.2138953491158469
63	0x3fcaf262aeba56c5	0.21052201778063853
64	0x3fca9436fb6e11e1	0.20764815594533473
65	0x3fca47ba7f32cc0d	0.20531398020611427
66	0x3fca0adc7853f374	0.2034564578570116
67	0x3fc9d93211eaaccf	0.20194078326071582
68	0x3fc9adfd8d681ea8	0.20062226681351558
69	0x3fc984adbed9c9ec	0.19936153239139232
70	0x3fc95b23be9e2684	0.19809386069782786
71	0x3fc9312cef1d2e85	0.19681321788299413
72	0x3fc90733cdd4cdc6	0.19553229856829385
73	0x3fc8df7536e1b603	0.19431939296502784
74	0x3fc8baaef3e49046	0.19319712551907936
75	0x3fc898f932209243	0.19216837833040942
76	0x3fc87a4385064a35	0.19123119349804232
77	0x3fc85b3f79c31c32	0.19028466649453574
78	0x3fc838d579519279	0.18923443244706897
79	0x3fc810a7c8553b61	0.18800828248864845
80	0x3fc7ddb126f4fd87	0.18645300295063924
81	0x3fc7a395734c06eb	0.18467968110785846
82	0x3fc759dcfdbe6e3f	0.1824299086555232
83	0x3fc710c7aa09bab1	0.18019958307873687
84	0x3fc6c353f1775857	0.1778359345468654
85	0x3fc6770371a800f7	0.1755070023500662
86	0x3fc629d8fd662f44	0.17315208790784642
87	0x3fc5df09ee71fa5e	0.1708691038401921
88	0x3fc5863d32905edc	0.16815915078108545
89	0x3fc517a84c1fdbe7	0.16478446690572854
90	0x3fc4733620b02c8c	0.1597659740076306
91	0x3fc394cb009bfb97	0.15297830133200982
92	0x3fc24eb1d8341299	0.14302657181555814
93	0x3fcb5e3e2728d1b4	0.21381356155474196
94	0x3fcaf01fca36ce7c	0.2104530084012487
95	0x3fca929625dbdc8b	0.20759846542907598
96	0x3fca46094f225741	0.20526234020206327
97	0x3fca08aabb07dc44	0.20338949329718237
98	0x3fc9d62930e51944	0.20184817206809147
99	0x3fc9a9f1401edcdb	0.20049873000036808
100	0x3fc97f7512d42c17	0.19920218867659464
101	0x3fc95461b2722242	0.19788762295890377
102	0x3fc927dfdacad5b5	0.1965293711015598
103	0x3fc8f9fef2c1fd8f	0.19512926915556902
104	0x3fc8ccee026c76c3	0.19375395887703037
105	0x3fc8a1899dd8dd5a	0.19242973525409007
106	0x3fc87aed0a406dc4	0.19125140190668166
107	0x3fc8599dbd5510ae	0.1902348684763004
108	0x3fc83dc9c2b2cec9	0.18938562399636386
109	0x3fc8257bede1261e	0.1886439239045083
110	0x3fc80f740c607af8	0.18797159771289507
111	0x3fc7f442734aa397	0.18714171056242598
112	0x3fc7d0a6832a4e34	0.1860550060706473
113	0x3fc79fc7d91d985e	0.18456361867282828
114	0x3fc769fab980c048	0.18292173440704773
115	0x3fc729dc179a799d	0.18096495773802426
116	0x3fc6e04b9339e657	0.1787199467542446
117	0x3fc695f9a599e9f6	0.17645187936780332
118	0x3fc646eb72e20fff	0.17403929814838645
119	0x3fc5f1c3062a29b3	0.17144048501024897
120	0x3fc58f77c00ff53b	0.16844078901332601
121	0x3fc50b69217564cb	0.16441072591513825
122	0x3fc4a89009fa8b50	0.16139412390938412
123	0x3fc469794f6329ba	0.15946880699477878
124	0x3fcb5f68223b2332	0.2138490836280425
125	0x3fcaed53e9303e76	0.21036766897349296
126	0x3fca8b6fb170b397	0.20738025821756587
127	0x3fca3b76212492e1	0.20493961923889173
128	0x3fc9fc4b2e2cd3c2	0.2030118918861757
129	0x3fc9c9a2a002cbb6	0.20146591961892363
130	0x3fc99eed7f12f2b3	0.20016258911882331
131	0x3fc97722b2bcd6b0	0.19894822814392432
132	0x3fc94f0bda83249a	0.19772480172676837
133	0x3fc92506a58eaa10	0.19644244273997957
134	0x3fc8f8f00f58c724	0.19509697675089754
135	0x3fc8cbf982a0c383	0.193724812300868
136	0x3fc89e998850a851	0.19234007984170146
137	0x3fc87253f20cda32	0.1909890109906925
138	0x3fc847ebae6e6de4	0.18969484345585308
139	0x3fc820c7ebde600e	0.18850039498352128
140	0x3fc7fcb522a080db	0.18739952269334634
141	0x3fc7ddbf526e7591	0.18645469212507895
142	0x3fc7be696e20dc60	0.18549840810166796
143	0x3fc79dc5b77b78f1	0.18450232943627712
144	0x3fc775ebf5385fa7	0.18328618501322788
145	0x3fc74a192240b6fc	0.18194879696368804
146	0x3fc715c85bc74c61	0.1803522537362339
147	0x3fc6d3f8ebee8b86	0.17834388275249696
148	0x3fc688b7edfd814e	0.17604731674783597
149	0x3fc630a81a33a9f1	0.17335988311181397
150	0x3fc5be3b44330a14	0.1698679049496411
151	0x3fc547520bfb8102	0.16623902878837532
152	0x3fc4b08b13c7c8cc	0.16163767305221766
153	0x3fc42b91583154e9	0.15757958227428695
154	0x3fc3931f744ba27f	0.1529273336266392
155	0x3fcb69d82fcd4a20	0.214167617169168
156	0x3fcaf9e864107cf6	0.21075158010442124
157	0x3fca9a5ca03dba01	0.20783574890397463
158	0x3fca4cab542510e8	0.20546475990898405
159	0x3fca0eb3c2d63eb8	0.2035736752845787
160	0x3fc9dc375eb9d5e4	0.20203296780861912
161	0x3fc9b051e454696d	0.20069335602677132
162	0x3fc986967eeb133b	0.19941979596310397
163	0x3fc95cd2e3410b31	0.1981452569617317
164	0x3fc931a61fbbce82	0.19682766484730868
165	0x3fc90606371576a6	0.19549634637489993
166	0x3fc8dc880c390a40	0.19423008534256958
167	0x3fc8b4187f5b3125	0.19299608439030994
168	0x3fc88f308ca5188a	0.19186980121066127
169	0x3fc86d18fbddf3b0	0.1908293943232855
170	0x3fc84bd1e9019746	0.1898138416028649
171	0x3fc82901c17d743a	0.18875143001324252
172	0x3fc804125e233faa	0.1876242599159899
173	0x3fc7d5138e3063a2	0.1861900753290487
174	0x3fc79e8abb11d090	0.18452581533677348
175	0x3fc75ca048137372	0.1825142242368219
176	0x3fc71773adf8585b	0.18040319437631322
177	0x3fc6cf7e58ac8003	0.17820720033432744
178	0x3fc681513c42c0be	0.17582145159167867
179	0x3fc62cc29b0a9498	0.1732409722364181
180	0x3fc5d334147c7b4f	0.17050791740708823
181	0x3fc56949a9b02e1c	0.16727562699848952
182	0x3fc50d26d5c18ab3	0.1644638580065326
183	0x3fc4a57806fc426a	0.16129970875819605
184	0x3fc461c2d88889dc	0.15923343251149802
185	0x3fc405de5a158e95	0.15642909430163301
186	0x3fcb6384f93df1ed	0.21397459192293358
187	0x3fcaf2244dfa4381	0.21051458175181995
188	0x3fca911e2ae1bdd7	0.2075536450752071
189	0x3fca41d43c34d768	0.205133942983305
190	0x3fca029c2f0acc6e	0.20320465371114288
191	0x3fc9ceb80cc5c79e	0.20162106155072207
192	0x3fc9a14fbb8bed8d	0.20023533494518767
193	0x3fc975f1233cc05b	0.19891180248805793
194	0x3fc94afb76cdef71	0.1976007776355533
195	0x3fc91fa7175ff23e	0.19627846375796482
196	0x3fc8f5fd50a58c54	0.19500700414491468
197	0x3fc8d04629f43f02	0.19385602043666245
198	0x3fc8aee3e1fa0107	0.19283722433102232
199	0x3fc893431f3f3984	0.19199408555727981
200	0x3fc87b9d77abb339	0.1912724336938483
201	0x3fc866b094877775	0.19063384296799382
202	0x3fc853250bc7d17b	0.19003737521382988
203	0x3fc83cf25d1bfbc2	0.18935994669297257
204	0x3fc81ee4c06e0921	0.18844279666888844
205	0x3fc7f7dbb775075e	0.1872515340601763
206	0x3fc7c317a9d943ee	0.1856412486399956
207	0x3fc788a489532a42	0.18385750489535907
208	0x3fc74769034d50b8	0.18186676655989742
209	0x3fc70560f5c9ff4b	0.1798516464368681
210	0x3fc6c59047988719	0.17790416236771803
211	0x3fc682cc35fdf689	0.17586662899332264
212	0x3fc63c6622560ab8	0.1737182300240272
213	0x3fc5efa615272827	0.17137599976405335
214	0x3fc583c500c373f1	0.16808378731994325
215	0x3fc527b2dfb078c0	0.16527400896388222
216	0x3fc4a7e74cf676ed	0.16137400873133548
217	0x3fcb5a6992a98a87	0.21369666730159428
218	0x3fcaeca17560358f	0.21034639579049183
219	0x3fca8faf3f451b0b	0.2075099047599099
220	0x3fca44b1a19c5f78	0.20522137061265844
221	0x3fca097f2650ecc5	0.20341481562522837
222	0x3fc9d95c6e5c22b3	0.20194583309809885
223	0x3fc9af799bde1908	0.20066757307740368
224	0x3fc987949e343a88	0.19945008969121525
225	0x3fc95f01c2092a17	0.19821187948612426
226	0x3fc935425c907652	0.19693784255734897
227	0x3fc90b4a27e6385c	0.19565703342635998
228	0x3fc8e2f9aea8411c	0.19442673710046499
229	0x3fc8bc20447d7a62	0.19324115127797642
230	0x3fc8976ad49e2e78	0.1921208894894908
231	0x3fc874d128552346	0.19106497258533234
232	0x3fc8530d90e1744b	0.19003457617046346
233	0x3fc831b1500fa58c	0.1890164986537396
234	0x3fc80fb3bed703d2	0.18797919100145905
235	0x3fc7e8a87f4f4761	0.18678766456883536
236	0x3fc7bc46c9ce3311	0.18543324331076197
237	0x3fc788845fc73017	0.1838536708513636
238	0x3fc75630c6b8aa22	0.18231782630148624
239	0x3fc7246189292418	0.18079775998401781
240	0x3fc6f6b97ca7eaba	0.17940443598475558
241	0x3fc6d2d472fd1ba8	0.17830901732142235
242	0x3fc6af89a6e53f93	0.17723198556131745
243	0x3fc67e9ab50c0758	0.17573865738091388
244	0x3fc646174290b8ca	0.1740140032793021
245	0x3fc5cfbc2121dc5d	0.17040206544672545
246	0x3fc553d776df0d38	0.16662114433538888
247	0x3fc47cbdda75bb5b	0.16005681197153873
248	0x3fcb67d4997164e3	0.21410615436869937
249	0x3fcaf9a00fe54bcd	0.2107429578414596
250	0x3fca9be3dd273cc3	0.20788238810061985
251	0x3fca503f31a01ec7	0.20557393954390177
252	0x3fca1411195b080c	0.20373738992753976
253	0x3fc9e348c7314413	0.202248666059433
254	0x3fc9b858848cd8b9	0.20093828651596882
255	0x3fc98dbf0dbe2fd1	0.19963825388947368

Maxvals f8 [11]
0	0x402c2c65fed9636e	14.086715663944883
1	0x402b7b828d6c4f61	13.741230411025471
2	0x402b1a47a97bb127	13.551327988003846
3	0x402af519937e576d	13.47871075551276
4	0x402ad052a9c6789b	13.406880670049125
5	0x402abe7597be4d55	13.371990911464914
6	0x402a993c739be57b	13.29928933408768
7	0x402a7d937bee9771	13.245265839457462
8	0x402a59dcaf34ea53	13.175511813363448
9	0x402a270dae6cd84c	13.076276255404217
10	0x4029de83d14c0361	12.934599438218074
