Data/TNG/Model_snap29.npz (npz, 268410 bytes, 5 tensors)

x f8 [37]
00000000: 0000 0000 0000 2640 3333 3333 3333 2640
00000010: 6666 6666 6666 2640 9999 9999 9999 2640
00000020: cccc cccc cccc 2640 ffff ffff ffff 2640
00000030: 3233 3333 3333 2740 6566 6666 6666 2740
00000040: 9899 9999 9999 2740 cbcc cccc cccc 2740
00000050: feff ffff ffff 2740 3133 3333 3333 2840
00000060: 6466 6666 6666 2840 9799 9999 9999 2840
00000070: cacc cccc cccc 2840 fdff ffff ffff 2840
00000080: 3033 3333 3333 2940 6366 6666 6666 2940
00000090: 9699 9999 9999 2940 c9cc cccc cccc 2940
000000a0: fcff ffff ffff 2940 2f33 3333 3333 2a40
000000b0: 6266 6666 6666 2a40 9599 9999 9999 2a40
000000c0: c8cc cccc cccc 2a40 fbff ffff ffff 2a40
000000d0: 2e33 3333 3333 2b40 6166 6666 6666 2b40
000000e0: 9499 9999 9999 2b40 c7cc cccc cccc 2b40
000000f0: faff ffff ffff 2b40 2d33 3333 3333 2c40
00000100: 6066 6666 6666 2c40 9399 9999 9999 2c40
00000110: c6cc cccc cccc 2c40 f9ff ffff ffff 2c40
00000120: 2c33 3333 3333 2d40
11.0 11.1 11.2 11.299999999999999 11.399999999999999 11.499999999999998 11.599999999999998 11.699999999999998
11.799999999999997 11.899999999999997 11.999999999999996 12.099999999999996 12.199999999999996 12.299999999999995 12.399999999999995 12.499999999999995
12.599999999999994 12.699999999999994 12.799999999999994 12.899999999999993 12.999999999999993 13.099999999999993 13.199999999999992 13.299999999999992
13.399999999999991 13.499999999999991 13.59999999999999 13.69999999999999 13.79999999999999 13.89999999999999 13.99999999999999 14.099999999999989
14.199999999999989 14.299999999999988 14.399999999999988 14.499999999999988 14.599999999999987

intercept f8 [100, 37]
00000000: d73c de35 66b5 fc3f bd70 7650 d442 fb3f
00000010: 9ac3 7601 5449 fa3f 8d1a 6d7b 4485 fa3f
00000020: ba13 03af 4a65 fc3f d226 778c ccff ff3f
00000030: 6a39 57f9 8385 0240 5317 04d3 e183 0540
00000040: b872 1604 ada6 0840 dfb8 5a49 179d 0b40
00000050: 6c6f 8afa 9126 0e40 8d5c 6287 cc0a 1040
00000060: c273 4cf8 e1ab 1040 cc01 28ea 48f9 1040
00000070: 4fde 2deb 94ff 1040 eb7d 2e64 38d0 1040
00000080: c448 ce99 a17d 1040 4ba0 fa7e c212 1040
00000090: a0d9 b05d 4421 0f40 360b a09c 3beb 0d40
000000a0: 3c30 0f42 796e 0c40 364d 972f f3b0 0a40
000000b0: 13c4 ce91 bda3 0840 0c82 f795 a060 0640
000000c0: 3c33 d670 d0ee 0340 1022 76e0 bd74 0140
000000d0: 3075 6433 1fd9 fd3f 3935 5d3e 17d8 f83f
000000e0: 9c61 a0fe f300 f43f 4ecb 7ba7 70aa ef3f
000000f0: bc54 302d 3b4e e83f bf02 823f e335 e33f
00000100: 1d3c 5958 b6b4 db3f e1ab 2486 9421 d33f
00000110: 60df 42a0 bca7 cd3f 1820 bfa2 7741 c43f
00000120: c01f 8a1e 7ad0 ba3f 3cec 56e7 9790 fc3f
00000130: 1681 cc22 660e fb3f 1b91 9cd7 e909 fa3f
00000140: 1f72 1914 c540 fa3f 0eb1 ddcd 7c27 fc3f
00000150: 1431 8693 22da ff3f ec4b 0798 0a86 0240
00000160: b844 2a39 db9b 0540 4468 6233 67d4 0840
00000170: 50b2 9867 ddd9 0b40 5bfc 2201 ba62 0e40
00000180: c2e1 c6cd d421 1040 8dd4 cf40 b3b7 1040
00000190: bb08 4749 64f7 1040 4b70 cb36 54ee 1040
000001a0: b001 d57a 3eaf 1040 9415 645b 1850 1040
000001b0: f287 cc14 b7c0 0f40 88bd ba08 00cb 0e40
000001c0: 7920 2d65 6eb3 0d40 d856 abfd e056 0c40
000001d0: efcd 3ce3 67bd 0a40 42bf 9513 ecc7 0840
000001e0: f024 d085 4597 0640 c8e2 2eeb 2a3e 0440
000001f0: c9b8 53e5 0ee0 0140 4332 0a58 2bfe fe3f
00000200: bb39 7070 ad8e fa3f 83a5 34b9 4d31 f63f
00000210: 8cd0 75a6 df87 f23f 7596 e034 0491 ed3f
00000220: b593 d6aa 57b3 e73f 2e48 358b 8815 e13f
00000230: 7358 be07 9ceb d93f 7ef4 e877 5d4d d33f
00000240: 247b 228c 0d58 c83f e81e 4d25 cae9 c33f
00000250: acb5 412b c6ab fc3f 683d 8110 2a45 fb3f
00000260: fb53 7aae 695e fa3f 9eee 45fa 6fb0 fa3f
00000270: 779e 419d dba4 fc3f ff70 3938 2d28 0040
00000280: 6aa3 9603 72b0 0240 44fe fe25 48a9 0540
00000290: 35eb 4f71 5cbe 0840 8447 fd0d faa2 0b40
000002a0: dcd6 ef7f 2c1d 0e40 ee99 6fa1 5e02 1040
000002b0: e239 dd5a b9a3 1040 abb1 3099 c9f5 1040
000002c0: 362b eb52 6603 1140 e0a1 f42d 38d9 1040
000002d0: d0c3 6f58 7689 1040 13de d37c fa1b 1040
000002e0: 35f0 e4aa cd21 0f40 b869 3ca1 50d8 0d40
000002f0: d811 8fe7 685b 0c40 241a 4125 f4b9 0a40
00000300: dbc7 e0c5 faf0 0840 3e54 6836 0714 0740
00000310: 8833 2cf8 a4fa 0440 05b3 378e d0ad 0240
00000320: 4730 5d0b 5311 0040 40ed 97fc 0d42 fa3f
00000330: eba4 a4ca 1e07 f43f 842b 34b1 f21a ec3f
00000340: 1f13 981d ca5e e13f 3396 07d6 df4b d13f
00000350: 809a cd41 d9de a13f 6cc6 fa75 ae5b c5bf
00000360: 1c86 a1f5 4c9d c5bf 3c78 5eea fb21 cbbf
00000370: c03d 69f8 75fc bcbf 8269 eb5d 4eaa fc3f
00000380: a182 b7c6 503f fb3f de82 399d a056 fa3f
00000390: 0e94 fcb4 8ea7 fa3f e4cc d487 169f fc3f
000003a0: e64b 694b b124 0040 32f7 86dc 30aa 0240
000003b0: f4a4 ca61 0aa2 0540 8e66 2afa a7b5 0840
000003c0: e7fd 535b 5c9c 0b40 0ba4 76c7 7219 0e40
000003d0: 814f 60c4 d801 1040 ba70 4aa7 9ba0 1040
000003e0: 1f65 f326 2fed 1040 888e 6a8b 53ef 1040
000003f0: 7fbc 5ad3 34b8 1040 da7a c5e8 0058 1040
00000400: 4ef3 215a a0c1 0f40 301b f5ff 2caa 0e40
00000410: a961 f2ca a56a 0d40 da3f 3dae 30f6 0b40
00000420: fd3b bf81 cd4c 0a40 4098 d3cc e553 0840
00000430: 6ea4 b90f 2d2f 0640 0257 433d 01f2 0340
00000440: bf60 908e d6c5 0140 38d4 0983 591b ff3f
00000450: 8206 1bec e602 fb3f d489 6862 5ce9 f63f
00000460: 24a3 f21f 158f f33f 3c70 ebb3 4615 f03f
00000470: a437 bf8c 18be eb3f f6c4 bccf 39d1 e33f
00000480: 99cc 85f6 eb3e d93f 581b 273d c179 c83f
00000490: 4073 cbac 962c 883f 3c57 c5d4 7413 c8bf
000004a0: a663 dfbc 92c3 fc3f 73a7 efc8 2344 fb3f
000004b0: 96d1 75f0 9b3e fa3f 9fc4 98d3 1670 fa3f
000004c0: dfbb 4052 704f fc3f d64e d096 acf8 ff3f
000004d0: 4e1d efbc 9f8b 0240 dc85 2ff0 e191 0540
000004e0: 08b5 c128 bdba 0840 9067 9437 fbb0 0b40
000004f0: 6478 0ed0 863a 0e40 b2e9 f413 f710 1040
00000500: a5b8 99cf ddac 1040 2a2a f0de daf1 1040
00000510: 293c 2726 b8ef 1040 ec77 ff90 82b3 1040
00000520: ee95 7074 7654 1040 9f39 64a1 1bb9 0f40
00000530: cd3b 6d49 66a1 0e40 2b1f 70af 746c 0d40
00000540: d54b 9032 7503 0c40 6b85 9637 9870 0a40
00000550: 8e8f bbe2 3497 0840 7366 d59f dca6 0640
00000560: bfac 633f 4b83 0440 de0c 9f96 c338 0240
00000570: ca38 878c e461 ff3f 6454 8125 b9cf f93f
00000580: b854 ddf8 58f2 f33f 568e 0550 11d9 eb3f
00000590: 585f cbf6 3062 de3f 3047 0f97 0738 c23f
000005a0: 98a9 d112 ff86 cabf 46d3 47ea 324e dfbf
000005b0: 4b74 2cbc fd73 e4bf abcd cddc e2a6 e6bf
000005c0: 52c2 7758 43af ddbf 8e74 c251 c28f fc3f
000005d0: 243e 70d1 4828 fb3f d45a f5f3 af3b fa3f
000005e0: 4e70 37bd 567c fa3f b6f1 0613 5958 fc3f
000005f0: 909b 278c 2ce5 ff3f 4bd2 c335 a371 0240
00000600: 32fc 7241 c56d 0540 923c 0e20 bb92 0840
00000610: 582d 14e3 858e 0b40 da43 061e 041f 0e40
00000620: f6ed ba82 2006 1040 68d5 54a3 97a5 1040
00000630: ae09 1aeb 5bf3 1040 13e3 6665 a4fc 1040
00000640: 5f64 6da0 a1d1 1040 42dc d982 8884 1040
00000650: c59b 07c3 1621 1040 7da7 2649 0747 0f40
00000660: ed7d fec6 e315 0e40 0553 a50c 908f 0c40
00000670: c791 584b ebac 0a40 c973 3330 0567 0840
00000680: 8c49 1180 06d1 0540 2406 3660 4dff 0240
00000690: d090 466d 7732 0040 a2eb bc3b baf9 fa3f
000006a0: 8c09 e8c6 c7e3 f53f 2e46 036e b540 f13f
000006b0: 78f8 4f25 2e68 eb3f 592c a273 a4af e53f
000006c0: 3998 7460 e02a e23f db66 bd8c e76d dd3f
000006d0: 4e11 1fae a6e1 d83f a281 2aea 35cc d83f
000006e0: 346b d92d ab5b dd3f 2e57 4786 b18e e13f
000006f0: e3bf fdd3 cce1 fc3f ee1c 30f4 726a fb3f
00000700: 166e d1a1 8767 fa3f 8186 2bf9 f89b fa3f
00000710: 9bc0 f0de fb77 fc3f 7ee9 0198 0409 0040
00000720: de2b 44e8 3b8e 0240 812b da93 728d 0540
00000730: de7d 936e 61b4 0840 3623 8c8d aeb1 0b40
00000740: d02c 7b7b 7741 0e40 0815 74e7 5a19 1040
00000750: 8651 319f 10b6 1040 1a05 604c 9ef7 1040
00000760: 52b7 ef7b 7eed 1040 e6c5 36f7 d8ab 1040
00000770: d304 6e97 7c50 1040 5dea 1256 69d4 0f40
00000780: f0ac a4d1 fbfd 0e40 7e75 0308 b111 0e40
00000790: 3deb 894c 11dc 0c40 6079 91fd 3752 0b40
000007a0: ecb2 675b 3151 0940 6719 ca30 9aef 0640
000007b0: ee63 1a41 f64c 0440 177a 4bd8 15ac 0140
000007c0: 823f 34f7 8404 fe3f d838 1ea1 e9c6 f83f
000007d0: 1f9c 74ab 05af f33f b02f 2c8c 7b4a ee3f
000007e0: 348d 0a10 a23e e63f b526 98d3 bb25 e03f
000007f0: 058c 95eb 47bd d23f 209b bea3 b3df be3f
1.7942869285796428 1.7038157599518364 1.642902379721113 1.6575360127768903 1.7747294269949934 1.9999509322100733 2.3151931266540275 2.6893955693839557
3.0813846892691252 3.4517045718013004 3.768833119725903 4.010545840624343 4.167854194322844 4.243442209903559 4.249591517138085 4.203340115869177
4.122686770644751 4.018320068404203 3.891243679008042 3.7398597942677965 3.553942218864931 3.3364013402985178 3.0799514189934682 2.7971812931211897
2.4916085067146962 2.1820027862597797 1.8655082709804667 1.5527565418336293 1.2502326914164774 0.9895556708491797 0.75954970193802 0.600328086890009
0.4329048025874174 0.2989245710365918 0.231681421520757 0.1582479042683651 0.10474360700220497 1.7853011166287294 1.691015373166072 1.627420274956484
1.640812948716423 1.7596405069007832 1.990755630747178 2.315449893686937 2.7011017290138533 3.103712464752819 3.481379327151707 3.7982063378145035
4.0330383446348055 4.1793947340821775 4.241593499146059 4.232743126074705 4.17113677907075 4.078217914565716 3.9690991997640532 3.8491211587895044
3.7126129059216137 3.542421323577269 3.342483306210617 3.0976182489465893 2.8238630727906795 2.5303552983935766 2.2344034115004416 1.937053054719528
1.6598333732723478 1.3870370134921763 1.1581722738601767 0.9239522011527713 0.7406423889811921 0.5338785857113686 0.4050054622288208 0.30159699163397835
0.190187161851065 0.15557219334936367 1.7919370355333326 1.7043858189316214 1.648050004533842 1.6680755401893417 1.790248503000752 2.0196174995927545
2.336154964480035 2.707657143444324 3.0929497578157688 3.4545785038871504 3.7642450327938217 4.002314112125971 4.159886760475702 4.240026849362418
4.253320022204937 4.212128370338604 4.134240514585102 4.027322721892705 3.8915055609814098 3.7306225391923498 3.5446336832558067 3.340797701882609
3.1176658114645597 2.8847793818081575 2.6223849667061963 2.3348704443691326 2.0084591758550547 1.6411266200000938 1.251738349509021 0.8782895527850632
0.5428209856041554 0.2702560033925209 0.0349033253503892 -0.16686039696428467 -0.16886293405245645 -0.2119746107463828 -0.11322724642490467 1.791578642724375
1.7029578935982175 1.6461492673481 1.665907580355682 1.788839846220804 2.0179162875660834 2.3331010082901225 2.704121364590373 3.088699297350849
3.4513480315215364 3.762425955112581 4.0018034633429815 4.156843770903089 4.231625183683064 4.233717134836873 4.179889013684373 4.085940968564239
3.9695441285715907 3.8330936428714253 3.6770740370959243 3.4952100384179916 3.287501348160275 3.040965652663573 2.7730351666000876 2.4931664262938975
2.221600641041817 1.9441771620452197 1.6882085059045555 1.4319728702617924 1.2224322555504807 1.0051943805801917 0.8669550656284071 0.6192902619715415
0.3944654376457009 0.1912156628224817 0.011803795955921736 -0.18809376134111655 1.7977473619305129 1.70413568964656 1.6402854340532023 1.6523655190942816
1.7693942273142438 1.9982114688072463 2.3181757698509164 2.696231724214824 3.0911811050524456 3.4614166586079094 3.7785774473587015 4.0165675276024775
4.168814891583826 4.236186488541117 4.234100910324778 4.175302758781964 4.08248311936539 3.965384732123496 3.8288083778820465 3.677956934556183
3.5016883802686416 3.3049778311548628 3.0738313401688577 2.8314754950522967 2.5641083671849567 2.27771680519946 1.961399601877519 1.6132136788412703
1.2466668816826267 0.8702475130962266 0.47474311924951484 0.1423348891826719 -0.20724476260086244 -0.4891478813072364 -0.6391590762392608 -0.7078718483521035
-0.4638222087806173 1.785097426770594 1.6973350697698004 1.6395720986962958 1.6553561583778165 1.771569322895727 1.993450686911931 2.3054870796570746
2.678598891564911 3.0716459755272547 3.444591306737191 3.765144571844286 4.005983393344186 4.1617112656143505 4.2376553282396525 4.246720871357655
4.204718119313013 4.1294269986602234 4.032313392009148 3.9096818652078 3.7606883570112957 3.5700989711716624 3.3344331632999658 3.0503028646184913
2.7270631795192397 2.374659301422769 2.024641851154321 1.6859686215891334 1.368110444048031 1.0782980248808474 0.8564673165090104 0.677690721365603
0.5677339443107093 0.45983303779722257 0.3887726498035321 0.38746402614381215 0.4587200114962571 0.5486686346655227 1.805126979914342 1.7134885347930395
1.6502758332270608 1.663079236336131 1.7792929371462722 2.004403293188431 2.319450201588082 2.6940661955790692 3.088076461673821 3.461758714522513
3.781966175743584 4.024760834179013 4.1777977823115915 4.241814797745315 4.231927811151609 4.1678198458844005 4.078600278940217 3.9787165379068896
3.8740154627208696 3.7586384416633214 3.6074548701848514 3.41514585590555 3.1646449223538777 2.8669933139491834 2.537579067819471 2.2090260408433653
1.876103368416779 1.5485626500772494 1.2302300164681197 0.9465921151872774 0.6951456368737241 0.5046061642362561 0.2928027916552199 0.12060091731710232

slopes f8 [100, 37, 7]
00000000: 3a1a 2555 1e1e a0bf 3ada 7d6e d2a7 e23f
00000010: 4c63 7438 3021 f33f f0c2 1cf8 bf28 b7bf
00000020: 7cb4 b18a c4ed 5f3f d4f5 ee77 a00d b8bf
00000030: 40a5 4b38 68be 5b3f 0f92 c336 6517 99bf
00000040: 199f 80d2 04a8 e13f 7f87 4444 9932 f33f
00000050: 846e 8f67 821b bbbf 48bc b093 2116 623f
00000060: 12f4 c07f ae53 c0bf 586d 60a2 cdee 683f
00000070: e36c aede efcd 94bf 9ae0 6244 b0ac e03f
00000080: f924 d412 8a2f f33f 7a8b c849 e9d6 bebf
00000090: 8845 17fc bd0b 643f 5825 0cc0 bd6a c5bf
000000a0: 145d 010c a70a 713f 396a 8f1a c161 97bf
000000b0: a10f 6051 a8ad df3f 61f4 a0ec 2819 f33f
000000c0: ad91 8498 b5fd c0bf 60fc 0097 9c3e 653f
000000d0: fd05 4583 5219 cbbf d02f ecea 82ff 733f
000000e0: 77b6 cd63 a585 a1bf 9060 0863 5877 de3f
000000f0: 4d17 1c69 f8f1 f23f 76f7 7ae6 f218 c2bf
00000100: 0405 9d37 213c 653f b8a1 7f32 5c87 d0bf
00000110: 8e39 cff3 4522 753f d77a 5acf 8708 acbf
00000120: d638 bf86 a5c7 dd3f 529d 2fbb 51bc f23f
00000130: 3423 5f4c b49a c2bf c042 33ca d124 633f
00000140: 6848 80dd c874 d3bf 8d74 fd66 1c8a 743f
00000150: 9920 9a0c f92a b5bf 22b4 b73e f399 dd3f
00000160: 4845 eeea ed79 f23f 87ee ae37 e970 c2bf
00000170: 0046 1476 9a55 5d3f 6c6b ad26 051e d6bf
00000180: 39cf 3eea fd51 723f be8f e823 5180 bdbf
00000190: 9465 c65b d0da dd3f 395b 4fc3 982c f23f
000001a0: 630f 3e85 bb9b c1bf 608f dfe8 f161 4c3f
000001b0: 40ed bbca c64f d8bf 2c57 5dcf c849 6e3f
000001c0: c2a5 c9a0 6a0d c3bf 609f 2604 cd6d de3f
000001d0: 5246 299a 28d7 f13f 04be cc51 782a c0bf
000001e0: 80d7 b418 4a41 3dbf 9820 b821 f0de d9bf
000001f0: dc53 dabd 5575 653f 10ce 6ef3 c510 c7bf
00000200: ca24 a9ab 3832 df3f 4b1e e6cb 337b f13f
00000210: e4f9 6821 6977 bcbf a0da a2f6 966b 61bf
00000220: 8fe3 2324 3caf dabf 68e8 93b5 d34d 543f
00000230: 6b18 ca41 f975 cabf ce8c ce35 9d06 e03f
00000240: 721a f775 a21b f13f d016 5b33 43f0 b7bf
00000250: 60c2 1acf f79d 70bf ed69 f1a3 e4bd dabf
00000260: b89b 4feb 5ab9 3abf f2f2 9a3a c404 cdbf
00000270: 2673 ca1f 8170 e03f d44b 675d d5ba f03f
00000280: bc1c 4f02 cb1f b3bf c0d9 ebd0 83fb 78bf
00000290: a45b 635f 2a14 dabf 0d4b 8a3d f955 62bf
000002a0: d95c ec75 18a9 cebf f261 52e4 52cf e03f
000002b0: f48c a1dc 585d f03f 08e7 9ed2 b7e3 acbf
000002c0: e8fb 10ef b790 80bf 4404 7fa2 c5cc d8bf
000002d0: 1a2c 6aaf fe79 71bf 9194 34ef a26e cfbf
000002e0: ffa7 7676 271e e13f f9d8 1b11 7807 f03f
000002f0: b0ff 06bd 8b84 a4bf 248c 2f66 5b0b 84bf
00000300: e949 d53c 480a d7bf cdeb 30e0 f173 7abf
00000310: f6b4 d6fc 6179 cfbf 3dc1 d36d ca5e e13f
00000320: cb94 fcfc ee7d ef3f e00b e843 e561 9bbf
00000330: 86ea 85dd bdbc 86bf df81 49ec 2bef d4bf
00000340: f9b1 4c8b 884c 81bf 3e45 bd33 39f9 cebf
00000350: 08f8 a8ce ee92 e13f 054c 5184 4c10 ef3f
00000360: f045 f9a4 2779 91bf 1276 dcb8 8a87 88bf
00000370: 0c59 b11f 41a0 d2bf e680 1ba5 cf8f 84bf
00000380: ca8f 8f77 a81e cebf 797b 1c02 35c1 e13f
00000390: 4003 a1b9 ffcf ee3f 4037 7c7c e45c 86bf
000003a0: 90f8 d603 5f92 89bf 3f82 d974 c639 d0bf
000003b0: 5814 b0dc 6704 87bf 5d98 c2ed f006 cdbf
000003c0: acd4 fb3d 62ec e13f c788 1f6a 36b5 ee3f
000003d0: 801d d88d 252c 80bf 90d4 47bb 6140 8abf
000003e0: f69d a9d7 bab1 cbbf 5c2c 2db5 f111 89bf
000003f0: 597a b318 e2b5 cbbf 7a93 bc38 8914 e23f
00000400: 0747 9117 d9b7 ee3f f0db 7540 4463 7dbf
00000410: a0bf ec76 05ae 8abf 48cc 93cb 9d22 c7bf
00000420: 60a7 50d2 83a2 8bbf ff38 628c b328 cabf
00000430: 5718 8d6e 413c e23f 7124 06fc feb9 ee3f
00000440: 70c4 7aec d9e5 7fbf e0ff 814f 9f15 8bbf
00000450: 5291 310e dadd c2bf a06d 265c 95c8 8fbf
00000460: 66eb 5fac b147 c8bf 7ad2 92ec 325c e23f
00000470: c84f 7308 04ab ee3f 60e3 a0ca ae7e 81bf
00000480: 58af 0553 8b86 8bbf 4075 0c0f 2ce3 bdbf
00000490: 00f3 95a5 582f 93bf 819b 7b48 981d c6bf
000004a0: e103 2cf4 cd68 e23f cd45 a137 2d76 ee3f
000004b0: b0df 1783 eadc 81bf f058 4bad 9aa2 8bbf
000004c0: ca9d ded4 99c2 b6bf 2842 6b74 7bf0 97bf
000004d0: b02b 3ffa b19a c3bf 8654 e22b 1c5a e23f
000004e0: 4d00 1f59 7d10 ee3f c0c4 6d61 0a98 7ebf
000004f0: e422 9f11 b93d 8bbf 4b6b 059b 8741 b0bf
00000500: e06e 376e 4b21 9ebf c610 7c6c d0e1 c0bf
00000510: ab12 e93e 531f e23f 8ab0 a937 1c81 ed3f
00000520: 38be e1b1 a4d7 71bf 645c f908 fc5f 8abf
00000530: fa45 17f1 938c a4bf fbd9 543a 48e2 a2bf
00000540: eea8 e1a6 b9f8 bbbf 23ff ab26 61b7 e13f
00000550: e7ff 92fb 8ed0 ec3f 88d9 25b4 441f 513f
00000560: 5417 4b6f 23f1 88bf 9843 cdc1 f54c 93bf
00000570: b950 530d 2b8d a7bf a25f 3407 fe32 b6bf
00000580: a64d 231f c01e e13f 2edb 6c9a e9fb eb3f
00000590: 0013 7822 c19e 803f 3877 bc03 ece6 86bf
000005a0: 0054 95d9 c6c6 2e3f 7cba 569f 0d19 adbf
000005b0: f768 39fe 7860 b0bf 94a9 8bbd 2d5c e03f
000005c0: e279 c499 0e23 eb3f 5cda 3d9f a700 913f
000005d0: 9080 f5c8 cc0a 84bf 08f5 f91a 1d2a 913f
000005e0: cac6 7068 36b3 b1bf 81b1 80cb d65f a5bf
000005f0: 5434 5045 ad06 df3f 0cdb 3b17 883f ea3f
00000600: 8800 031d e332 9a3f e04e 45b8 30a7 80bf
00000610: 80f6 8676 b4ec 9e3f 4a63 753c 883b b5bf
00000620: 2563 b06f 100f 95bf 085f 9b29 5c10 dd3f
00000630: 540a 33df 4043 e93f 20de 9f7a c8d0 a13f
00000640: e0c9 b2cd c200 7abf 8cab 7e2f 9bf3 a43f
00000650: 99e5 6464 f90d b9bf 2d0d 46c8 75c2 65bf
00000660: 1a68 3d3f b3f1 da3f 86cb ea71 043c e83f
00000670: d8ce afed 2425 a63f 0076 e397 4433 73bf
00000680: 322b 19dd fc75 a83f 3eb1 7465 1d50 bdbf
00000690: 013e c47c 5261 8a3f 6296 d16a 97bb d83f
000006a0: d707 0408 be41 e73f 1877 3875 0f1a aa3f
000006b0: 8055 9ac4 aa05 6abf 0d15 7d68 2618 ab3f
000006c0: 5c08 316a 0f01 c1bf 2d49 7ef1 09c1 973f
000006d0: a87b 13c2 8774 d63f 231a 79f1 9e56 e63f
000006e0: 38f3 1381 7014 ad3f c0ea 434c 262c 61bf
000006f0: 03e9 2709 e43e ac3f 4d50 8022 c9a4 c3bf
00000700: 99eb 4226 357c a13f c123 57aa 0263 d43f
00000710: 220a f328 a575 e53f 38c3 b317 013c af3f
00000720: 80dd d858 2a10 5ebf 4922 2835 5a57 ac3f
00000730: a47d b479 95ac c6bf 451e 72a3 04e8 a53f
00000740: 143b 4609 5999 d23f fa56 d916 0490 e43f
00000750: cc2c 14aa 613c b03f 0051 06a6 3060 5dbf
00000760: 2286 96c2 e923 ac3f dac7 e84c 49e5 c9bf
00000770: 46cb c438 a205 a83f 1c74 709d 2b73 d13f
00000780: 8c0a f8fa 43a7 e33f f0df 1a04 ac0a af3f
00000790: 007e e47f 429f 51bf e264 c295 57cb ac3f
000007a0: 0c88 24fb 2f62 cdbf 8dce b614 1478 aa3f
000007b0: dd3f 427f 4fdc d03f d377 506d bb99 e23f
000007c0: c03f ea72 bd5e ab3f 0022 84d2 68eb 4abf
000007d0: f5a3 9aba 8f83 ad3f d674 58c3 9f7b d0bf
000007e0: e0cc 30f2 c537 ac3f 2a16 05eb 968b d03f
000007f0: d4f6 75de 4436 e13f 0043 3087 b594 a53f
-0.031479785817783726 0.5829860837973861 1.1956026273021108 -0.09046554381781013 0.0019487780907881105 -0.09395792892515625 0.0016933458111288574 -0.024503308742071236
0.5517601119399586 1.1998531977373827 -0.10588851002051497 0.002207818584359287 -0.1275537608907205 0.0030435577673536933 -0.020316837278738908 0.5210801444691413
1.1991062865729971 -0.12046678592063911 0.0024470053328761766 -0.16731998326603548 0.004160549666344399 -0.022833840604884 0.49497421213913567 1.1936425441083645
-0.13274259516869105 0.0025933321376494928 -0.21171027574204962 0.004882346531996221 -0.03422276347451441 0.4760342566601219 1.1840747934197282 -0.1413863778488424
0.002592148663922546 -0.25826172763347754 0.005159638644683174 -0.054752582608889426 0.4653104606521884 1.1709763824417974 -0.1453462002666811 0.0023368928392318578
-0.30400296812979954 0.005014525362495037 -0.08268696363131979 0.46252137303128127 1.1547679116232121 -0.14407077044403513 0.0017904289637197257 -0.34558228280155023
0.004472724776792885 -0.11523921133681278 0.46648034059907073 1.1358878735824887 -0.13756507879235888 0.0008661681365506983 -0.37986917303324574 0.0036972925253547975
-0.148846939572918 0.47545171170576417 1.115028955642988 -0.12629608148698435 -0.00044639643666088274 -0.4042320565499806 0.0026194262162086823 -0.18019937883728732
0.48744026912443117 1.0925786938477298 -0.1111970621650254 -0.0021264980797142813 -0.41694549111667184 0.001239258525230125 -0.20672527038931618 0.50080738553188
1.069246731569049 -0.09350986484340784 -0.004056900028147042 -0.417840156651123 -0.00040777654368045644 -0.22670796262345722 0.513733446208424 1.0456136368345499
-0.07470387274144036 -0.006099238306651988 -0.40748080554242905 -0.002238261029853367 -0.23953538663838606 0.525308080616979 1.02278982337958 -0.05642485090306876
-0.008088528617120574 -0.387498291671424 -0.0042667339936413255 -0.24556385688734797 0.5349309266796353 1.001823489028139 -0.04007374460661539 -0.00978728681179148
-0.3600025743554896 -0.006458229853758502 -0.24589180799140536 0.5428211350499975 0.9841227475305002 -0.026740629453353537 -0.011102183649872598 -0.327097874402197
-0.0084467570792066 -0.24198069597563604 0.5491861378029634 0.9707396110846963 -0.017063731617161737 -0.011977275625720405 -0.2910311517238291 -0.010039922929934563
-0.2353106101792249 0.5548348466144112 0.962890493923716 -0.010919365929591529 -0.012486212067298191 -0.2535263196096231 -0.011238871977193352 -0.22677432641393383
0.5601054392451679 0.9596206734388709 -0.007896703139535388 -0.01281811096940036 -0.2163613846816898 -0.012241257039610591 -0.2164881344424028 0.5650068386208738
0.9599423847487011 -0.007174746140086605 -0.013027231876179546 -0.18074390831279374 -0.013493566375547494 -0.20436710695907576 0.5698554190828514 0.9602045938819527
-0.007787562622682306 -0.013224835027585813 -0.14739537900016814 -0.015519301294992627 -0.1896879283593435 0.5737547512604373 0.9583759465262967 -0.00854240947602286
-0.013440216513764078 -0.11674762122534776 -0.01873529921202799 -0.17277816333009002 0.5752935189231004 0.9519258581660154 -0.008722145200394354 -0.01349373666145623
-0.08890687415134049 -0.02337830446305325 -0.15315842360572907 0.5734997613059398 0.9395128956457569 -0.007469215916772132 -0.013301320886868813 -0.0634999040097856
-0.029423884012301893 -0.13189130112744446 0.5663238743514588 0.9220105254330673 -0.004356044139157293 -0.012878388427607308 -0.040135024242442044 -0.03688264572194907
-0.10926399540190676 0.5536351924238015 0.9004588044699603 0.0010450526175112846 -0.012178685029890758 -0.018848266557430188 -0.04599890268005553 -0.08671558071034594
0.53500372010824 0.8745010391347472 0.008115300049220675 -0.01118263613130531 0.00023480584494942058 -0.056831765842947995 -0.06397205549857064 0.5112522794782302
0.8480294230719745 0.016604060263001194 -0.009786224253446357 0.016762213489063732 -0.06914081620996196 -0.04174681886829302 0.48478252190472415 0.8202553228173612
0.025584744115577013 -0.008131390212532563 0.03019983266289339 -0.0829396388629792 -0.020565277878719663 0.4541235357587401 0.7894596442568607 0.034796013802346204
-0.006348381949623477 0.04092106776018686 -0.0978694791891911 -0.0026562023578563716 0.42100220847862746 0.7573263382858932 0.043252138151641695 -0.004687564795145871
0.04777517508462949 -0.11450370528172457 0.012880939896176892 0.3864496749068619 0.7267751843030464 0.050980074938918374 -0.003176530390940513 0.052918625121075015
-0.1328448551667546 0.023197322239476726 0.35086244538063704 0.6980738369246108 0.05679656577738118 -0.002096247482879704 0.05516731845632885 -0.1534663599455847
0.03415075389917561 0.31854311594775814 0.6706109809677552 0.061004671233496344 -0.0018349088235377342 0.055353945721496496 -0.17714184229496965 0.042785782768131976
0.2906096067971913 0.6425800749081809 0.06342134859385168 -0.001792953022321575 0.05496149540273289 -0.20230976348244561 0.046917981557632646 0.2726544415943992
0.6141681577431242 0.060628295422645695 -0.0010755681428874508 0.05623887732617462 -0.2295589424402923 0.051697375801635116 0.26344668796173015 0.5812661299748875
0.053457184102739586 -0.0008215200259949484 0.05764435913926739 -0.25754541470253167 0.05511301595142881 0.25851986838492513 0.5378746361672833 0.04215018534899251

scatter f8 [100, 37]
00000000: 3a72 317d b6ba cd3f 803d 9131 68ee cc3f
00000010: e326 b5a3 a328 cc3f 060f 251b 1872 cb3f
00000020: c78e 17b4 e6d3 ca3f f890 6691 fd52 ca3f
00000030: 2733 2782 87ee c93f 6de4 6f24 96a2 c93f
00000040: 40eb bba0 f869 c93f 8684 05f5 5e3f c93f
00000050: 3d85 3848 e11e c93f 1828 37f5 f203 c93f
00000060: 2180 8f0c 2ceb c83f cf45 0117 fbd1 c83f
00000070: 7927 b46f 30b6 c83f 5070 22ee 2796 c83f
00000080: 1b96 c58d 6870 c83f 0b5d ebcc 9f43 c83f
00000090: da10 a798 330e c83f 831b 63b2 f0ce c73f
000000a0: 593e 2e47 5385 c73f 2ca6 da46 c436 c73f
000000b0: 9fe5 7658 a6e6 c63f d716 15d2 f698 c63f
000000c0: c6c4 b0c0 a354 c63f f035 af83 dc18 c63f
000000d0: b9db 675f 6be5 c53f d201 00bf 9bba c53f
000000e0: f1ae eccc 5e95 c53f b977 8a5b 0675 c53f
000000f0: b528 d73c 5a56 c53f feb6 bfb3 a937 c53f
00000100: 7f9b 8f7c 501f c53f 5336 44c4 150a c53f
00000110: ee4c 89cf 90f3 c43f 1538 d54f 44eb c43f
00000120: 4d5b bd8f afcc c43f 3af5 273e f9be cd3f
00000130: d731 7366 19f0 cc3f 7657 c84c e627 cc3f
00000140: af73 97c6 4970 cb3f 36d5 6350 ebd2 ca3f
00000150: 6457 4194 3255 ca3f 3fb3 e714 2df6 c93f
00000160: 67be 5b9a 07b1 c93f 4864 dad4 cf7f c93f
00000170: e0b0 1b1a 5a5c c93f 15e5 581d 5442 c93f
00000180: acc0 3e51 152c c93f 087e 1991 cb14 c93f
00000190: bcee d695 a4f9 c83f 94c8 2f6c 24d8 c83f
000001a0: c0af df3d c1af c83f a79d 9e05 2280 c83f
000001b0: c027 5365 ab48 c83f 6e27 e9e5 260b c83f
000001c0: b220 ebfa 9ac6 c73f 0a9f 341f b779 c73f
000001d0: 5a7d 8a67 a02d c73f 615d c6aa fce2 c63f
000001e0: e0a3 e53a 1b9a c63f e687 9676 1d5c c63f
000001f0: d11c eaca 5b26 c63f 2aaa 9302 e3f9 c53f
00000200: 869f bf7b add1 c53f bb1b 6274 d4ac c53f
00000210: ce7a 2402 9a82 c53f da7f 3699 db58 c53f
00000220: 94e2 8d2b ca26 c53f 1f68 f2d3 b9ef c43f
00000230: b17e 6410 4bb5 c43f f59c 4d35 9582 c43f
00000240: f31a db3b 4d51 c43f f1f8 1c69 72fb c33f
00000250: 2b8a 0560 bcb5 cd3f 4194 0d19 8ae8 cc3f
00000260: 2609 c308 8f22 cc3f d5d6 af26 d86c cb3f
00000270: 3c74 a142 83d0 ca3f 868d 043a 3952 ca3f
00000280: 5664 337b 27f1 c93f bc98 3a85 d4a9 c93f
00000290: 353e 9c88 3377 c93f 8d0f 30dd a953 c93f
000002a0: 1ce7 756b 523a c93f 422c 1af8 0326 c93f
000002b0: 1aa3 f748 7812 c93f 5d58 f6d7 54fc c83f
000002c0: 03e8 c15a cfe0 c83f ac55 4ca2 8fbe c83f
000002d0: a5d0 8bbb b993 c83f 19b2 8a48 905f c83f
000002e0: 0061 8ad5 a722 c83f a6dd 41eb a6db c73f
000002f0: 4fd7 996e d089 c73f b29d f37f 5734 c73f
00000300: 6641 02eb d4dd c63f a418 532e 5e8d c63f
00000310: 5913 842f 964b c63f f5f8 07c7 7e13 c63f
00000320: e974 3d86 0ce3 c53f 6c64 7a15 d6b8 c53f
00000330: b04d b65d bf8b c53f 9e19 2934 8b59 c53f
00000340: 2dda c343 fe1f c53f 9c4e ced9 7be7 c43f
00000350: 6b97 d4db 1fb0 c43f 3a53 7f8d cb83 c43f
00000360: 28fe 640e f64c c43f b921 65bb f527 c43f
00000370: dfba c06a b8f5 c33f 8f6b 171b 1db6 cd3f
00000380: 49d7 1644 61eb cc3f 5e60 4275 4127 cc3f
00000390: efb9 e64e 7772 cb3f c7be f11a 1bd5 ca3f
000003a0: 5956 7c11 f453 ca3f 26b5 3e9f 1dee c93f
000003b0: a662 50a9 1a9f c93f b2f7 966a 8f62 c93f
000003c0: 0451 d63c f733 c93f 11e0 772d 100f c93f
000003d0: 256c 48d0 b1ef c83f a108 e361 15d4 c83f
000003e0: ba32 a53f 57b9 c83f c81c 9562 259e c83f
000003f0: 9e65 5552 5c7f c83f bad3 c18e f859 c83f
00000400: 946a 1b8a b42a c83f 1117 d80b c5ee c73f
00000410: a257 dda3 f8a4 c73f 98df 024f 274f c73f
00000420: a350 6d12 fbf1 c63f 9357 47c1 7093 c63f
00000430: 878e af2f 5236 c63f 0fea 4fb2 29e4 c53f
00000440: 6d4f fcf1 209e c53f 069e 78b5 9763 c53f
00000450: fc84 2f7e 263a c53f 83cc 8bdd a71a c53f
00000460: 1971 9f47 2602 c53f 433c 34e5 b4e6 c43f
00000470: 64fd 00e3 f0c3 c43f b02c a0b8 18ab c43f
00000480: a704 af97 ba92 c43f 2c43 3bbd ef7d c43f
00000490: 2193 de54 c077 c43f 6ed1 480b c55a c43f
000004a0: 3d67 e762 14be cd3f 76ed d950 47f3 cc3f
000004b0: 5265 af25 002e cc3f 7409 baa6 7977 cb3f
000004c0: 0abe 355c f4d8 ca3f e018 df75 1e57 ca3f
000004d0: 5532 dfa4 60f2 c93f 51e3 59a6 26a6 c93f
000004e0: 64c3 7100 df6d c93f 045c 8eab 0844 c93f
000004f0: 3312 46b4 3225 c93f 6da1 a9ba b50c c93f
00000500: 2a20 4f98 a9f5 c83f c7f7 7c84 78dd c83f
00000510: 8aab 70d5 fcc0 c83f 1c65 9442 8f9e c83f
00000520: 7752 f5a1 5074 c83f ae1f c3e0 5e40 c83f
00000530: 9996 aff1 9601 c83f e5f8 77c3 20b7 c73f
00000540: 44e8 188b 2063 c73f c637 99cb 0d0d c73f
00000550: c320 8e6f 51ba c63f 8a03 c93a 6b6f c63f
00000560: 1283 17ee bd36 c63f 450c 1195 3910 c63f
00000570: 3b43 c80f 71fc c53f f762 a460 42f9 c53f
00000580: f693 83fe 7afb c53f 4275 03e6 3bfe c53f
00000590: 7a2b 807d baf3 c53f 5b5f a9ca accf c53f
000005a0: c334 01b5 b090 c53f 514f 059a 932d c53f
000005b0: 5ced c7d4 2e9b c43f f57f 75f5 67f1 c33f
000005c0: 5e61 552b cf09 c33f 5558 db1e 0cbd cd3f
000005d0: 96a9 5c7f c3ee cc3f eb58 e8a1 2e27 cc3f
000005e0: b441 2f84 f26e cb3f 14c4 f688 b7ce ca3f
000005f0: 76a3 1fbd 444b ca3f c738 9eb1 a5e4 c93f
00000600: 4137 aee1 aa97 c93f 9c46 8ab7 8d5f c93f
00000610: 0765 4b3f 4036 c93f 5aeb 7c16 1c17 c93f
00000620: 3279 4e17 2efe c83f a521 03c1 a7e6 c83f
00000630: 0988 e63c 4fce c83f fb49 f91b f4b2 c83f
00000640: 4ff5 2302 7594 c83f bab2 0f87 6e71 c83f
00000650: f858 baa7 3447 c83f cd40 867b ff13 c83f
00000660: 4f0f 0a88 a2d7 c73f 81f8 b556 7b91 c73f
00000670: 2ba1 57c9 5a43 c73f 3d4d fced 98ee c63f
00000680: 10e6 4149 8b93 c63f 10e3 94f8 4937 c63f
00000690: e6fe 4ba6 80db c53f 7d7f ba11 8884 c53f
000006a0: fc06 40a0 4937 c53f c984 a14c 5ffc c43f
000006b0: f3df c272 dbd5 c43f c536 d48d 79b7 c43f
000006c0: 2d15 e892 53a0 c43f 3230 9dbf 928f c43f
000006d0: a061 c849 f181 c43f 43a9 0fef a687 c43f
000006e0: 8f71 0bf9 4aa3 c43f 6e8b 56e7 3dbf c43f
000006f0: d744 123e c1b6 cd3f b6b5 c23a d4e9 cc3f
00000700: a78e 4951 d123 cc3f 6443 4432 146d cb3f
00000710: 6e14 feea cfce ca3f eb1f c841 c44d ca3f
00000720: 299a cb62 93e9 c93f d4d2 85ea 849e c93f
00000730: 5ffb 8872 8066 c93f 8b7e 9eef 403c c93f
00000740: 24db 08e6 651b c93f 7212 96e7 55ff c83f
00000750: 0d6b 8efe bee4 c83f 9f48 5f99 1ec9 c83f
00000760: c8d0 ad08 0faa c83f 6cf7 a386 0086 c83f
00000770: 8b56 2f9b 755b c83f f83d 7658 b829 c83f
00000780: b6f6 6d41 b0f0 c73f 3be3 2e2f 37af c73f
00000790: 4a12 b1fc be68 c73f dc8d ff2d 901e c73f
000007a0: ddc9 6ad4 e3d4 c63f ccef 67a3 958c c63f
000007b0: e45c df59 e24b c63f 70e8 c77c 0711 c63f
000007c0: 161e a047 f1df c53f bc86 0aba 1ebb c53f
000007d0: cb47 43e4 5e9f c53f 1b9b 71cd 6e8e c53f
000007e0: a35d 5631 3486 c53f f58c 6a0e ed81 c53f
000007f0: 9ceb c2d8 5689 c53f d7f9 7436 d7a1 c53f
0.23226052391955126 0.2260256044414568 0.2199902104715 0.21441937756946333 0.20959171098285465 0.20565766906396 0.20259183745511075 0.20027424601701985
0.19854648445456213 0.19724642719214475 0.19625488306432173 0.19543301556979098 0.19467688191707658 0.19390810607232686 0.1930599732807499 0.19208239677107253
0.19093043253376227 0.1895637274344398 0.18793339685192373 0.18600281439122676 0.18375626540772563 0.18135884723351248 0.17891387290528102 0.1765430951874609
0.17445799740520423 0.1726337092390362 0.17106382521134636 0.16975733591244918 0.16862092023926992 0.16763381452341067 0.16669776888585877 0.16576119686890672
0.16501813966825904 0.16437027057002015 0.16368303426370495 0.16342977426614938 0.1624965144971732 0.23239055190053098 0.226077246689228 0.21996763943814884
0.21436426350456148 0.20956174302379232 0.20572502364182832 0.2028251983714657 0.20071501767187103 0.19921300786225715 0.19813085818112253 0.1973366874024484
0.1966578146652912 0.1959471186155357 0.19511849705110318 0.19409613878776055 0.19286361237698024 0.19141030573267168 0.18971769759656176 0.18784033037291742
0.18574845554235747 0.1834019567843302 0.18107991271697693 0.17880209292045904 0.1765779531081355 0.1746861294787429 0.17304561050352743 0.17168843866177613
0.17046135466011608 0.1693368500020521 0.1680481443845196 0.16677422505472245 0.16524626852676205 0.16356585358590878 0.16178262997072104 0.16023507216161872
0.15873113081598653 0.1561110509155195 0.23210863770062082 0.22584654067319046 0.219804648664714 0.2142591656590215 0.2094883036942593 0.2056342633523906
0.2026719428602372 0.2004953051120476 0.19895023508478152 0.19786570835287556 0.1970923447332148 0.1964726411282261 0.19587615549905807 0.1952005438330983
0.19436065608516637 0.19331546234813624 0.19200822503592466 0.190416369839469 0.18855760504516894 0.18639074790165217 0.1838932552379284 0.18128484485280932
0.17864476656951495 0.1761892057604132 0.1741817218791322 0.17246994703595644 0.17099148325625116 0.16970325516448115 0.168327255971787 0.16679515883352009
0.16503885563698031 0.16331432471325946 0.16162489160449964 0.16027206810999833 0.15859866812569234 0.1574694790854332 0.15593629086057256 0.23212016890360274
0.22593322586697642 0.21994798875380445 0.21443072655297565 0.20962847533836834 0.2056870541934355 0.20257921481735613 0.20016797320638097 0.1983203192193606
0.19689836950841066 0.19577219219331757 0.1948148982054089 0.19397227553969734 0.1931561527984707 0.19232623399350346 0.19138673801607536 0.19024569483340575
0.18880326026449679 0.18697417333913127 0.18472202302171775 0.18210307462663589 0.17925966644054822 0.17637452542720364 0.17353274658590953 0.17102547842644397
0.16888820472433555 0.16710182534119172 0.16583710824401254 0.16487596814804215 0.16412809846122725 0.16329060737231957 0.16222964367077986 0.1614714528553569
0.16072780996731703 0.1600932764036086 0.15990451950087795 0.159020071516021 0.23236327008526728 0.22617427299324405 0.2201538261422607 0.21458359375908354
0.20974592688024557 0.20578366046374352 0.20270927477249026 0.20038302538503186 0.19866549989412896 0.19738872887384684 0.19644769480159283 0.19570037474046434
0.19499702393500346 0.19425875157497627 0.19338951513176666 0.19233885527572958 0.19104965122336967 0.18946443533627416 0.18754851151532106 0.1852761225163199
0.18271261970386565 0.18008587304433216 0.17756097743063579 0.17527523393985361 0.17354559064462954 0.1723701455940462 0.17176640768641413 0.17166928976873638
0.1717370741600061 0.1718211053002197 0.17150050285303192 0.17040023704134452 0.16847809637184782 0.16545338650268573 0.16098580732055268 0.15580462918569507
0.1487368547048033 0.23233176714592454 0.2260364887127479 0.21994574456829893 0.21432334379507056 0.20943350017253748 0.20542201265859789 0.20229026005512749
0.19994102496678504 0.19822856389923948 0.1969681080870844 0.1960177526287577 0.19525695932402126 0.19453904079842946 0.1937960669866359 0.19296122899920917
0.19203055004610767 0.19096166224280414 0.1896730250343308 0.1881102898737538 0.18626815455001597 0.18412725194861326 0.18174300032775056 0.17915641422642095
0.17637768818876554 0.17356228482983527 0.17076118583644656 0.16810704103135868 0.16574974369728313 0.16395179025406595 0.16277640441489857 0.16184920716516707
0.16114277527973667 0.16063150745537907 0.16021553137467226 0.16038977311047561 0.16123330269227806 0.16208623691371876 0.23213973551586406 0.2258858954350395
0.21984306782825522 0.2142663236086505 0.2094364068435967 0.2054982491683853 0.20244066547384534 0.20015012217813555 0.1984406050923679 0.19715129566337838
0.1961486218658247 0.19529222305222366 0.19448077611453876 0.19363768090130848 0.1926897804620522 0.1915894181656158 0.1902911193598594 0.1887731964056767
0.18703273005296744 0.18503465465416888 0.18288409555875013 0.1806202149010535 0.17837188598566814 0.17616529921349267 0.1741908015089627 0.17239469139878194
0.17089668271386022 0.1697729500202082 0.1689261068882487 0.16840920478281238 0.16815807732630814 0.168027526892821 0.16825376113942248 0.16900148543386592

Maxvals f8 [11]
00000000: 99ca 6a34 da44 2d40 be15 7252 eebe 2c40
00000010: f062 3555 9f79 2c40 d2d6 ca0f 3e4c 2c40
00000020: 9229 d20a a72f 2c40 ed80 6b3d 631a 2c40
00000030: 001b 3889 a9f9 2b40 8783 091f b6e6 2b40
00000040: caba b518 64c1 2b40 d2ef c234 827f 2b40
00000050: d0bc 0f92 4723 2b40
14.634477270160732 14.372912002970107 14.237543738142875 14.148910993109357 14.093071306376064 14.051538390515327 13.987621582125485 13.950608224784231
13.877716800864977 13.749040268703457 13.56890541498288
