Data/TNG/Model_snap23.npz (npz, 253994 bytes, 5 tensors)

x f8 [35]
11.0 11.1 11.2 11.299999999999999 11.399999999999999 11.499999999999998 11.599999999999998 11.699999999999998
11.799999999999997 11.899999999999997 11.999999999999996 12.099999999999996 12.199999999999996 12.299999999999995 12.399999999999995 12.499999999999995
12.599999999999994 12.699999999999994 12.799999999999994 12.899999999999993 12.999999999999993 13.099999999999993 13.199999999999992 13.299999999999992
13.399999999999991 13.499999999999991 13.59999999999999 13.69999999999999 13.79999999999999 13.89999999999999 13.99999999999999 14.099999999999989
14.199999999999989 14.299999999999988 14.399999999999988
00000000: 0000 0000 0000 2640 3333 3333 3333 2640
00000010: 6666 6666 6666 2640 9999 9999 9999 2640
00000020: cccc cccc cccc 2640 ffff ffff ffff 2640
00000030: 3233 3333 3333 2740 6566 6666 6666 2740
00000040: 9899 9999 9999 2740 cbcc cccc cccc 2740
00000050: feff ffff ffff 2740 3133 3333 3333 2840
00000060: 6466 6666 6666 2840 9799 9999 9999 2840
00000070: cacc cccc cccc 2840 fdff ffff ffff 2840
00000080: 3033 3333 3333 2940 6366 6666 6666 2940
00000090: 9699 9999 9999 2940 c9cc cccc cccc 2940
000000a0: fcff ffff ffff 2940 2f33 3333 3333 2a40
000000b0: 6266 6666 6666 2a40 9599 9999 9999 2a40
000000c0: c8cc cccc cccc 2a40 fbff ffff ffff 2a40
000000d0: 2e33 3333 3333 2b40 6166 6666 6666 2b40
000000e0: 9499 9999 9999 2b40 c7cc cccc cccc 2b40
000000f0: faff ffff ffff 2b40 2d33 3333 3333 2c40
00000100: 6066 6666 6666 2c40 9399 9999 9999 2c40
00000110: c6cc cccc cccc 2c40

intercept f8 [100, 35]
1.5187684608246963 1.389565989228544 1.2903450305797308 1.2602524484555522 1.3236321786112026 1.4872453273707356 1.7411326211990443 2.06192328657313
2.4172938199183247 2.7745741719533887 3.101888356259229 3.375044116089326 3.582039373658181 3.716323786708638 3.785133167941236 3.7912682652520813
3.7477574199184587 3.6671924411755006 3.5542197351853164 3.4118466055488104 3.236972807225297 3.0299132281971355 2.7918595465730913 2.538909168981417
2.271801263413697 1.9983000616867757 1.7297154196597113 1.459389802741629 1.1856799570342227 0.8830135209029418 0.596449379671796 0.2968389936789122
0.0454361907113795 -0.2147411964325775 -0.4496900694840348 1.5157001531676553 1.3893934367728784 1.2917449428684862 1.26207713617941 1.3254102337286993
1.488637172304776 1.742483943926393 2.0622075568530733 2.4146745720716547 2.770366881632201 3.097746985300963 3.372401117294157 3.58639434820427
3.7305113935052994 3.8102553865195357 3.8207064089273626 3.7710570344908034 3.669262449763478 3.5268560501806254 3.357744700154242 3.1626252168113522
2.951900254926417 2.7202761612352093 2.4864341892926873 2.244662704661677 1.9847275982299282 1.7348467038314705 1.501035982220741 1.288734801964903
1.038139246709588 0.8358497421999163 0.5997550104284806 0.5867636346570693 0.47449417834783403 0.2622843080507485 1.5151700127321823 1.381810110900484
1.2810284286656608 1.2511209345829828 1.3174155262493614 1.4847742881106203 1.7421952916121048 2.0647405986942777 2.4207983248916785 2.7775533556363214
3.1045094275975824 3.3757325289639626 3.5822639570908446 3.7162488771173408 3.7863692288759596 3.7945541960207168 3.7553698220545906 3.681443339924055
3.574895797948521 3.4339282748645816 3.257581143643857 3.042978992630534 2.7879539117226506 2.5237068825619726 2.251834417283776 1.9907702653961865
1.7577445290513716 1.5394418803857302 1.3203762219410062 1.0824567087848773 0.8971814866462319 0.6928234850023139 0.5653321051322443 0.3976939552375051
0.3906643113058102 1.5252114144831355 1.3915881763581863 1.2892179248214206 1.2559357542759007 1.316045501572506 1.4767605554302108 1.7287398036017707
2.0505865704628685 2.4114297580823467 2.7790787049598067 3.1188783196883 3.4008800312827203 3.6081929949171805 3.7323227169122952 3.7855684537531715
3.778709100199686 3.729370788320543 3.6545758291345103 3.5535811452987365 3.4213570402038322 3.2484338263806096 3.025210082082968 2.7650670683450786
2.4938978450828158 2.217610983829304 1.9507518117412386 1.7038119686192297 1.4537027686662904 1.2192499813122821 0.9467750470625602 0.7106654334690141
0.4587655437269541 0.25254440152557467 0.005077891283794322 -0.16210533472713617 1.5218622431602258 1.3938958785299302 1.2978419436747781 1.2722769606616622
1.3386545065087456 1.5038104378041446 1.7554300845348505 2.071387439507849 2.4208958093543687 2.7738152307423944 3.099942354030766 3.375782973773194
3.5873297621246727 3.72782273083917 3.8004644639789396 3.808268706065334 3.7654197084775083 3.6907143181244453 3.585508716140784 3.456864691697512
3.2908621594476384 3.084347862242491 2.819352940502177 2.519424912350053 2.1883793744964186 1.841620534327988 1.53764338796275 1.2931185451770637
1.1081560342947543 0.974860574670787 0.9037756528440286 0.7485063226569642 0.6573223323670985 0.3842385955683151 -0.08676234085615564 1.5208998694566147
1.3898969176262106 1.2879256997092607 1.255034213525427 1.314822188462824 1.475547617624803 1.7276842618155466 2.0479038205055957 2.4048293928797717
2.7653237000848723 3.098518034174515 3.3777886433269777 3.592985911582327 3.736518199314997 3.812693085089737 3.822333675426584 3.772673436696023
3.670288340642869 3.5256711173352997 3.349616902535794 3.1522158878264945 2.9484024518802396 2.736083980576211 2.534507137156181 2.313092628614756
2.0718132182683 1.8118214224540257 1.5293022339008093 1.2077171464152006 0.8313704560341364 0.45111492557202904 0.07502888023797805 -0.3479130206078841
-0.7932149839449969 -1.3223815639297039 1.5284793754587391 1.3994957472623981 1.3007790107954946 1.2706120814877555 1.3338138342696184 1.4961860293019262
1.7484414248202649 2.0659062895124523 2.4194335671308984 2.7729891311750983 3.096237309187973 3.362654844902104 3.56198660743293 3.6883274979303993
3.750106640504405 3.7510114624759936 3.7026469708867773 3.6192707836250317 3.5086430977461935 3.3720946206893516 3.206211743682884 3.0149975040343477
2.804610236198634 2.5801634249634877 2.3513853246873015 2.096194939648929 1.8279192747890076 1.5503314347452148 1.284431128536669 1.003828579932008
0.8038438824484095 0.5817669036993044 0.46236530478198956 0.28659661388853414 0.03792185892183775 1.5062572086842474 1.3743469621405473 1.2758049418416009
1.24946790811684 1.3206990212569252 1.494002020716013 1.7568438813546081 2.082940385313264 2.4372489199719825 2.78673508887145 3.099505084412561
00000000: 6403 5728 e04c f83f 81ed f58b a93b f63f
00000010: 4756 aed4 40a5 f43f dc20 ad78 fe29 f43f
00000020: f217 71ef 982d f53f 5cfa a2c1 c1cb f73f
00000030: 47c7 20e1 addb fb3f 188a d5a2 d17e 0040
00000040: 19fa 6a24 9e56 0340 beed 86f1 5332 0640
00000050: 0cd0 afd7 aad0 0840 7d49 2921 1700 0b40
00000060: 0ac5 5642 04a8 0c40 7615 2af7 07bb 0d40
00000070: f87f fae5 f347 0e40 76f6 cc74 8454 0e40
00000080: 0321 ff3d 68fb 0d40 bee5 97fd 6856 0d40
00000090: 8759 abc1 0a6f 0c40 f167 ae3b 764b 0b40
000000a0: 7a97 c8ff 51e5 0940 8a98 8625 433d 0840
000000b0: 5c74 3c75 ba55 0640 5b51 429c af4f 0440
000000c0: 8afc 0a24 a62c 0240 baa1 487c 09f9 ff3f
000000d0: bd34 6d13 eaac fb3f 4e42 2e1f a959 f73f
000000e0: 37c1 ef8b 8bf8 f23f bd86 4692 a541 ec3f
000000f0: 801d 6d02 1d16 e33f 98d2 81fa 68ff d23f
00000100: f004 5292 6943 a73f 1413 e4b7 a37c cbbf
00000110: fe45 71db b8c7 dcbf 385b c6cd 4e40 f83f
00000120: 0477 c39c f43a f63f ed4b c6be fcaa f43f
00000130: eeb7 8ecb 7731 f43f 2c60 7a5c e134 f53f
00000140: fa8a 2a36 75d1 f73f d880 0fd8 36e1 fb3f
00000150: edfb f1ac 667f 0040 923e ece6 4051 0340
00000160: 2441 941c b629 0640 ab33 4992 2fc8 0840
00000170: 992d de6f adfa 0a40 cac5 2085 efb0 0c40
00000180: 68af 835b 16d8 0d40 ef12 142d 677b 0e40
00000190: 5caf 8f85 ce90 0e40 f3e8 53f3 1f2b 0e40
000001a0: 5c66 7145 a65a 0d40 decd 094e 0037 0c40
000001b0: 9fd6 db40 a9dc 0a40 66ad 1d73 0e4d 0940
000001c0: 46b4 7fe1 7d9d 0740 cabf e425 20c3 0540
000001d0: d058 b59b 37e4 0340 1d95 58b8 11f5 0140
000001e0: d4db ddb9 71c1 ff3f 1879 089e eec1 fb3f
000001f0: fc1d 5c4e 3e04 f83f 2f80 3a62 a89e f43f
00000200: f4fc 14e6 379c f03f 28cc 63f5 47bf ea3f
00000210: fae0 6c6b 3131 e33f ceb1 aa87 c4c6 e23f
00000220: 9c5d 89d4 1c5e de3f bd3e 551f 44c9 d03f
00000230: b608 49e9 223e f83f 6b98 39eb e41b f63f
00000240: 32d8 65aa 177f f43f 74ff 9562 9704 f43f
00000250: fabc 874d 2214 f53f 5b07 16af a2c1 f73f
00000260: bc81 8b2b 08e0 fb3f 4eec 10b8 9684 0040
00000270: 82f8 1c83 cb5d 0340 10d3 cae4 6d38 0640
00000280: 0c3e ed09 09d6 0840 7a8c 5f0e 8001 0b40
00000290: ffc1 6a01 7aa8 0c40 2820 f8b0 e0ba 0d40
000002a0: ead2 44f3 7b4a 0e40 ea77 f63a 3f5b 0e40
000002b0: e2e0 5055 ff0a 0e40 1868 d890 9873 0d40
000002c0: b05f d6f7 6299 0c40 1ad3 2a63 af78 0b40
000002d0: 1622 e0b3 860f 0a40 f81a be5e 0558 0840
000002e0: 1bd5 ccc7 ba4d 0640 ac59 ea3b 8d30 0440
000002f0: a4ed 51c3 c103 0240 219d fbeb 31da ff3f
00000300: 1dfa 2fba b81f fc3f 5e97 25cf 8da1 f83f
00000310: 4b71 3ad1 4220 f53f cb11 3920 be51 f13f
00000320: 7b1c f7f2 b5b5 ec3f bb8a 3f28 9c2b e63f
00000330: 937f dd5a 3317 e23f 5bf7 e358 d173 d93f
00000340: d975 31e2 a400 d93f 340e 8b15 4467 f83f
00000350: cc56 aff6 f143 f63f 5a66 88f9 a2a0 f43f
00000360: 95df e716 5018 f43f 4cd4 54ba 850e f53f
00000370: 6087 19ad cfa0 f73f 8735 7c11 eba8 fb3f
00000380: df09 8eee 9967 0040 db84 5caf 9b4a 0340
00000390: cd7f b69d 8d3b 0640 111e fa79 76f3 0840
000003a0: 76d4 ff96 0035 0b40 cc9a f649 94dd 0c40
000003b0: a50c 3a03 ccdb 0d40 001d 0d1d d848 0e40
000003c0: 54a4 33d6 cb3a 0e40 adf4 135a c0d5 0d40
000003d0: 1514 9740 923c 0d40 21ec 95f3 bb6d 0c40
000003e0: 25eb 9c70 f05e 0b40 ea32 bcdf cafc 0940
000003f0: 499b f057 a133 0840 474f ae7b db1e 0640
00000400: 8690 a1b6 80f3 0340 c260 d6d3 aabd 0140
00000410: 72a9 2088 4736 ff3f 2a0c bc56 d042 fb3f
00000420: 046c 98d5 5d42 f73f 6628 b644 0c82 f33f
00000430: 8cae f92e fb4b ee3f e0b4 646f c5bd e63f
00000440: f6b0 b527 6a5c dd3f 6cc6 55fe af29 d03f
00000450: 00d4 f10f 8ecc 743f e080 941b debf c4bf
00000460: f43e 3639 8c59 f83f 380b c5c3 654d f63f
00000470: 2b5d f7e9 f5c3 f43f 19f0 1716 3f5b f43f
00000480: be91 e1fc 206b f53f 3009 9c88 9b0f f83f
00000490: ffdd 37db 3d16 fc3f 4940 f093 3392 0040
000004a0: 8d9a 419f fe5d 0340 737b 290a c630 0640
000004b0: 1061 b093 aecc 0840 f7fe f580 9a01 0b40
000004c0: eb57 42f2 d9b2 0c40 cbea 51b9 94d2 0d40
000004d0: 9e32 b3e9 5967 0e40 6072 5795 5577 0e40
000004e0: 7eff 3c5e 941f 0e40 97c9 793a 9586 0d40
000004f0: eac7 9a31 1faf 0c40 b24d ecac a8a7 0b40
00000500: b9c5 338a af53 0a40 568d 6e92 beac 0840
00000510: ceb4 1aea 088e 0640 4e2b 9a3f c827 0440
00000520: db9f a50b cd81 0140 c44a e917 4777 fd3f
00000530: d45e 03f4 2f9a f83f 762f 5612 9db0 f43f
00000540: 8e93 62d2 01bb f13f 90dd cbcd 0e32 ef3f
00000550: 5c5b fcea baeb ec3f f825 1588 c3f3 e73f
00000560: e44e 0ed8 c808 e53f aaeb 747a 5d97 d83f
00000570: 6868 8088 0e36 b6bf c6e8 fc19 9b55 f83f
00000580: a340 e08c 043d f63f f8dd 7efa 579b f43f
00000590: a13e 67c1 9e14 f43f 320c b8fd 8209 f53f
000005a0: 563a 96d1 d79b f73f 9efc a440 98a4 fb3f
000005b0: 6066 f365 1b62 0040 7606 5731 173d 0340
000005c0: f4be 3508 621f 0640 1ac4 b6d2 c3c9 0840
000005d0: db1d 5f0d b605 0b40 f5e0 c965 6fbe 0c40
000005e0: d9bb 57a7 63e4 0d40 872a 713b 6580 0e40
000005f0: 6fda 92ad 2394 0e40 5dc7 2869 6f2e 0e40
00000600: 1e9c 2f22 c05c 0d40 5041 0b0f 9334 0c40
00000610: 1229 54f2 03cc 0a40 d32b a1f6 bc37 0940
00000620: bc2c 5206 5496 0740 8079 7dff 7fe3 0540
00000630: dc83 8cad ab46 0440 0427 44b5 3681 0240
00000640: 1810 ffce 1293 0040 a81d ba75 38fd fc3f
00000650: 08dc 849e 0578 f83f 68bf ea36 cf52 f33f
00000660: 00df f036 969a ea3f 0c70 0423 11df dc3f
00000670: 78ab e0ba 1735 b33f 8a42 57f9 3444 d6bf
00000680: acb5 d763 0462 e9bf 2495 1e92 7928 f5bf
00000690: ea4a 23ca a674 f83f 1a21 16a7 5564 f63f
000006a0: c009 eba6 fdcf f43f 4247 7e55 6d54 f43f
000006b0: fa3e d22c 4d57 f53f 8957 09c3 60f0 f73f
000006c0: e431 29b7 9df9 fb3f 1a74 70e0 f986 0040
000006d0: e85f 6dfc ff5a 0340 e87b f4ec 142f 0640
000006e0: 67f0 fc10 18c5 0840 52b9 5495 b7e6 0a40
000006f0: 24b7 9dd5 f27e 0c40 7a63 e4d8 b181 0d40
00000700: aed4 0be9 3700 0e40 500b 324c 1202 0e40
00000710: c5bc 0460 059f 0d40 6c4d 983d 44f4 0c40
00000720: 8e3f f178 b311 0c40 bd06 97be 0cfa 0a40
00000730: 5c5a b957 52a6 0940 10cb ea02 b71e 0840
00000740: efff d37d d76f 0640 a16d c4b8 2ca4 0440
00000750: 449c ee1b a3cf 0240 aaa9 3eda 01c5 0040
00000760: 3226 0f48 283f fd3f 3410 a355 28ce f83f
00000770: 4878 b0a7 078d f43f cd91 998e ae0f f03f
00000780: 2c94 46ce 16b9 e93f 0514 29a0 d59d e23f
00000790: 78ff b5a5 6497 dd3f 01eb f252 9957 d23f
000007a0: 20e2 be6f 7e6a a33f 049c aa28 a119 f83f
000007b0: 7602 7c3d 53fd f53f c78e 5471 b269 f43f
000007c0: ba36 ac0f d2fd f33f f385 024c 9521 f53f
000007d0: 8c21 b2a9 6ee7 f73f 2d88 6954 081c fc3f
000007e0: 3f81 13a6 dca9 0040 8aed 9b5c 7c7f 0340
000007f0: 5a8c 2ac4 3b4b 0640 8cb3 5a52 c9cb 0840

slopes f8 [100, 35, 7]
-0.022043927164637038 0.49734562176870944 1.1771378403607866 -0.10986234854850896 0.0014819278906536212 -0.08131436048438713 0.005630450794641598 -0.011217354762896314
0.4716474899074036 1.1866675030044638 -0.12673061843658573 0.0015993308527435524 -0.11038965463538158 0.006907467941624789 -0.0032879907062855315 0.4455829064350344
1.191344284923365 -0.14290523348175488 0.0017326915978828211 -0.145395327264348 0.007901742017813095 -0.0015985854167992872 0.4222208788324277 1.1910808020576313
-0.15693515719682816 0.0018208524749736832 -0.1852982300651047 0.00844532452781949 -0.008115146507606372 0.4037984489149635 1.1855698383666602 -0.1674511541254503
0.0018037512868616379 -0.2282867491330608 0.008438064608817415 -0.02322706235811119 0.3917432926279977 1.1746947597444994 -0.17327626342718527 0.0016087598972419348
-0.27191601712534935 0.007911775584679176 -0.04589112073091683 0.3864478208865362 1.1582571311061294 -0.17372894129104957 0.001114161301956084 -0.3132494442846486
0.006832279785947408 -0.0739642078409982 0.3873319090599041 1.136385292248177 -0.1686682069503302 0.00029045065323857894 -0.349182430091436 0.005330779795187951
-0.1046142873333646 0.39321323780013184 1.1091416551406923 -0.15855019145870392 -0.0008699468444035019 -0.37693922519347167 0.0034390493608118747 -0.1350694952062808
0.4024154984045926 1.0767529170231194 -0.1442394988759318 -0.0023828874009222123 -0.39464676041985214 0.001333742462036404 -0.16269619254218878 0.4131636500576391
1.0400620992311427 -0.12697860648746723 -0.004145047600453103 -0.40133582535269124 -0.0009044675416992017 -0.18556482102334254 0.4238207657625549 1.0001870345423751
-0.10814864586705975 -0.006083052208303262 -0.39739237915110404 -0.003173562096777661 -0.2027893220896659 0.43320072163771917 0.9585575221035065 -0.0892660078735587
-0.008026813203445178 -0.3840288676939885 -0.005546763489864079 -0.21394465125248316 0.4403594982876245 0.9168642405827986 -0.07167002760026642 -0.00991868660844427
-0.3630165380947227 -0.008003994595839857 -0.21972053822140314 0.44495585153675066 0.8766731133625212 -0.05637649678547235 -0.011614186915919459 -0.3362553210320407
-0.010387839119305969 -0.2204248261202121 0.4470338454801178 0.838754324686937 -0.043920740574514505 -0.013033355397740753 -0.30581947770803086 -0.012727846503832994
-0.21717129075179764 0.44703367274053196 0.8032334464113071 -0.03442651939718261 -0.014069616215989407 -0.27345727355328214 -0.014709623836965724 -0.21100747552253454
0.44561876421839464 0.7696613313835872 -0.02757909365510114 -0.014616829904974857 -0.2405164041230984 -0.016439508998518065 -0.2023272755086645 0.4431000136428428
0.7391072480130253 -0.022772783446320166 -0.014663569702706956 -0.20821529471285713 -0.0179003206566387 -0.19138821020684874 0.44020693346520434 0.7103642606496972
-0.019150058678533546 -0.014305725169974966 -0.17711944207360525 -0.01952896617197556 -0.17795768651142083 0.43738044600790527 0.6844411489943811 -0.015810517435327465
-0.013490927022169114 -0.1475242136929484 -0.02170402735826623 -0.16210228104112664 0.434714283671396 0.6600436513781527 -0.011972781518335904 -0.012453479376688975
-0.1196463374995024 -0.02452690960978613 -0.1439510732140611 0.43201675500113557 0.6382935933421099 -0.007231119837080149 -0.01129855307422141 -0.09319258306840907
-0.028449072647663002 -0.12476362833451943 0.429423064243463 0.6188320520252695 -0.0011608843381857928 -0.010002167537694825 -0.06832651844430747 -0.032982818831962746
-0.10465014992141355 0.42577503976436326 0.6023633547996988 0.005675736894377222 -0.008569033245007934 -0.04490628750814124 -0.03840251266908746 -0.08427530222058878
0.4193819146251456 0.5870399149750068 0.012834768284450446 -0.007039203606109157 -0.023297765795291997 -0.044600213612620954 -0.06448374539618981 0.4096046134064335
0.5760979062806059 0.019229640717236235 -0.005576693740920569 -0.0038861941517491783 -0.05222807280925849 -0.044795241440144656 0.39567012113715005 0.5690989901841067
0.025361369431910835 -0.004066010968988287 0.01310029200119539 -0.061809924059414385 -0.025018432886111493 0.3794229235556936 0.5663264401002405 0.030058513233145016
-0.0030458722028836316 0.02674335125836481 -0.0735784019388759 -0.0032764220842872926 0.36057081243559774 0.5695829026775172 0.03374963438135756 -0.0027354278547622457
0.03869092073127775 -0.08652440619125593 0.01704397307526666 0.3368348271830749 0.5766703053917721 0.03624954256580881 -0.0025937091981556165 0.0468786908443507
-0.09974846191604628 0.038196616620852296 0.3117490357246755 0.5916020491322116 0.03740044702061679 -0.002915676668538105 0.05607658499088375 -0.11033425326782395
0.05576469168083443 0.2864905677477593 0.6099089284392608 0.03885093462559597 -0.0036904548333057605 0.06356728045420973 -0.11733958492670177 0.07385626645459105
0.25943051164338704 0.6384470747436688 0.03897281415608311 -0.0036670916775327286 0.07000816748835964 -0.11972913382624498 0.09010738837369686 0.23143202974863114
0.6854356312715097 0.04187479251931081 -0.004198813939455662 0.07644969562371474 -0.11634022437579292 -0.021720316471907853 0.4978651624618122 1.1756769424263682
-0.10971390118802082 0.001541641689019435 -0.08028443951918633 0.005644128869679895 -0.011161939930910105 0.4721779973931582 1.1850142193677518 -0.1268062227034794
00000000: 6e76 fde8 ae92 96bf 8e8b 13bb 82d4 df3f
00000010: 05bd f37c 8ed5 f23f 88dd 135a f01f bcbf
00000020: 6026 d3f4 a747 583f c1c0 f996 04d1 b4bf
00000030: d043 65a0 f40f 773f 408b d5de 1ff9 86bf
00000040: 7323 19f4 782f de3f 1c15 4a10 97fc f23f
00000050: 8022 cb7a b538 c0bf 0028 506d 1434 5a3f
00000060: 64c7 7914 7f42 bcbf 0ce7 844e 014b 7c3f
00000070: 5992 b291 6aef 6abf eee2 b22a 6e84 dc3f
00000080: 955b 6006 bf0f f33f e89d 1dfc b74a c2bf
00000090: 4034 ce6f 6f63 5c3f 48b9 cb67 509c c2bf
000000a0: 6c2c 62dc c92e 803f b7e4 7005 f430 5abf
000000b0: 9383 91b8 aa05 db3f 14b2 3bbe aa0e f33f
000000c0: 2c62 e083 7316 c4bf 80b0 2c75 35d5 5d3f
000000d0: 9072 1137 dab7 c7bf 626f 3545 c84b 813f
000000e0: 85c0 d186 ac9e 80bf 98fa 1073 d5d7 d93f
000000f0: 7e8a 2e14 18f8 f23f ccb8 5217 0a6f c5bf
00000100: 804c 6132 7b8d 5d3f d47d d10c 8038 cdbf
00000110: 248f 4adc f947 813f 3549 d7c4 d5c8 97bf
00000120: 56ef 9075 5212 d93f ca29 7ebb 8ccb f23f
00000130: 3ce2 4ba6 ea2d c6bf 804d 54c9 a05b 5a3f
00000140: 03f7 3370 1267 d1bf 10ac 1d8b 0c34 803f
00000150: 6fa1 6e7d 0a7f a7bf 625c 14a4 8fbb d83f
00000160: 905a 27a1 3888 f23f 8d5c 9bfc bf3c c6bf
00000170: 3000 ae96 2141 523f da55 ac65 470c d4bf
00000180: b8e3 cd23 2afc 7b3f 176b c07d 51ef b2bf
00000190: 9c02 87c6 0bca d83f fac7 1d58 a22e f23f
000001a0: 2602 5d78 eb96 c5bf 80ec 870e f408 333f
000001b0: 4e27 6543 0159 d6bf a0c2 1e4e bad5 753f
000001c0: ad88 ca7e 00c8 babf 702c 2ddb 672a d93f
000001d0: 8d5e f751 0bbf f13f 5e7a 8b67 5f4b c4bf
000001e0: 00fe 7b9f a481 4cbf 4a46 32b3 c51f d8bf
000001f0: 34aa 1691 352c 6c3f fa91 4c0c f549 c1bf
00000200: ef47 43ef 2cc1 d93f 57ca 4744 613a f13f
00000210: cc55 3b9d 7076 c2bf 40d6 9fee 4685 63bf
00000220: 6e70 5e7c e441 d9bf 6eed 5d10 1fda 553f
00000230: 7f82 1395 3ad3 c4bf e62f 39f3 4571 da3f
00000240: 1e1c e027 18a4 f03f b2e1 13c1 d540 c0bf
00000250: 9021 26be 65fa 70bf 2b97 2675 7caf d9bf
00000260: dea9 8541 39a3 4dbf 32ab ca8a 96c0 c7bf
00000270: e236 1422 e11f db3f 32e2 b31e c400 f03f
00000280: a00f 1b31 a1af bbbf d85d b6e4 8aea 78bf
00000290: 4c8d 0872 e06e d9bf 020a 5c2d 71ff 69bf
000002a0: 3733 2d21 00f5 c9bf 1868 0285 8fb9 db3f
000002b0: 949e 18d3 80ac ee3f 2c1f 7618 23da b6bf
000002c0: 2464 99a1 5c70 80bf 40cc ddd0 ed93 d8bf
000002d0: 2310 9afc 33b8 76bf 0f4b 24d0 8962 cbbf
000002e0: 5136 e89a d92e dc3f 9199 05ad f356 ed3f
000002f0: 1085 a588 f758 b2bf 2c01 d294 3f50 84bf
00000300: c288 c1b7 a93b d7bf ec41 36f8 6564 80bf
00000310: 20d1 f576 cd1f ccbf 40e8 a01b 287a dc3f
00000320: be95 e5c5 b40d ec3f 68ce e953 61dd acbf
00000330: 15bd c9c7 2dc9 87bf f411 bc09 3585 d5bf
00000340: 8325 592a 3846 85bf 8dd6 b475 e136 ccbf
00000350: cab3 a2d8 339c dc3f 3316 3d4f 13d7 ea3f
00000360: 786c c480 c77c a6bf 4006 8659 3bb1 8abf
00000370: 3e17 cfdb 8b92 d3bf 9219 dca3 0e11 8abf
00000380: ac5c b4d3 44cc cbbf 1068 281f 339c dc3f
00000390: 547a eca0 16b4 e93f d81d da4d 5aa0 a1bf
000003a0: e49b 1eec 87d0 8cbf 65f0 b0ef 5280 d1bf
000003b0: 80a3 874a 1420 8ebf dd57 4aff 4a02 cbbf
000003c0: fc52 b390 0485 dc3f f639 e9cc 10a1 e83f
000003d0: 603a 35a5 b13d 9cbf 58f3 4db3 6def 8dbf
000003e0: ed1b eed4 3dc9 cebf f831 0bc6 84d5 90bf
000003f0: e901 b333 dce5 c9bf a200 dd28 c05b dc3f
00000400: eb7a 4e3e c4a6 e73f 2037 90a0 bf51 97bf
00000410: 2ca4 8602 ef07 8ebf ebcb a87c cca6 cabf
00000420: 9c92 3b2f 7654 92bf 71d5 d6ab 687f c8bf
00000430: ec26 adb3 592c dc3f fc9a 77d4 4dbb e63f
00000440: b48f f6ae 129c 93bf fe3d 01ee 514c 8dbf
00000450: 3690 9891 d9ab c6bf 0a20 22bc 66ff 93bf
00000460: 33b6 d145 51c7 c6bf dee2 e08d 0afe db3f
00000470: 02f6 de1f f1e6 e53f e030 45dd a130 90bf
00000480: b0d1 d292 21a1 8bbf 3ff4 96cc 12e2 c2bf
00000490: b6ed c79e 9439 96bf abdd d67d c4bf c4bf
000004a0: ec40 dedb 5bd2 db3f 3c40 13dd 131f e53f
000004b0: f8da 8188 2f85 88bf 5081 27b5 3581 89bf
000004c0: ba83 a572 24a1 bebf aa7b 950a 951d 99bf
000004d0: e4d8 d61f fd6c c2bf 7473 839a 29a6 db3f
000004e0: 6ad2 94af e66c e43f 9061 6bf3 609e 7dbf
000004f0: a834 911f b223 87bf 5132 8218 78db b7bf
00000500: d132 7ef2 c021 9dbf cc53 6d57 82f0 bfbf
00000510: d2b8 44e0 aa7b db3f 8648 25e0 78cd e33f
00000520: 20a7 1511 1a05 53bf d845 b533 047c 84bf
00000530: a7f7 2ac2 d87d b1bf 0025 6dc0 1fe3 a0bf
00000540: 8a18 6f2b 5aca babf 326d cff3 e53f db3f
00000550: bb8d a583 8f46 e33f 3c0a 7905 713f 773f
00000560: 907b 5d2c a48c 81bf 28e8 76f8 f4fd a6bf
00000570: 21f4 fe7f 7ea9 a3bf b9df e5f2 1093 b5bf
00000580: cc53 f63d 27d7 da3f f174 88ee 07c9 e23f
00000590: d882 4470 1d49 8a3f 4032 73d4 23d5 7cbf
000005a0: 8880 a498 5edb 97bf 88bd b8d5 d6d5 a6bf
000005b0: 66a8 99b9 0182 b0bf 48c4 b744 f636 da3f
000005c0: e79d 58e0 646f e23f 6839 fa57 efb0 933f
000005d0: 4001 cb53 96d7 76bf 0096 3499 f0d5 6fbf
000005e0: f538 4c51 a3bd aabf dcf1 00e2 66ef a6bf
000005f0: 7075 92c5 a852 d93f 29e0 e015 0f36 e23f
00000600: c8d5 2ab1 54f8 993f 0014 3182 85a7 70bf
00000610: 209a b46d 53d4 8a3f 298e cee4 8ca5 afbf
00000620: 5f0d 2c9c 6e9e 99bf f88f 0116 7748 d83f
00000630: 7de6 62a0 581f e23f c101 36ad a8c7 9e3f
00000640: c049 f92f a8f3 68bf 8314 29ec 9b62 9b3f
00000650: 61f8 04be 08d6 b2bf 6ea1 65b6 27d7 6abf
00000660: 0c65 d399 9713 d73f c08a 6bec 053a e23f
00000670: 8cfb d6cf a147 a13f 401c a8a5 9b68 66bf
00000680: 7ccc 62de 4bcf a33f 1ab3 e5a6 7626 b6bf
00000690: ed06 cfab f973 913f 76ed b9a9 b38e d53f
000006a0: 7e6c c748 1574 e23f f055 a1cf 4c8f a23f
000006b0: 2022 ce05 673f 65bf 508f 1cd8 7b00 a83f
000006c0: e276 c17d 1d89 b9bf 83a8 68c6 818e a33f
000006d0: 20cf 3f3a b2f3 d33f 349f a86b 67ee e23f
000006e0: 7860 9ec1 2626 a33f 1e92 fcfd 9de2 67bf
000006f0: 40e4 36f5 11b6 ac3f 5ef4 6999 dd3e bcbf
00000700: 91d7 148e 308d ac3f cab3 c588 dc55 d23f
00000710: c3eb a5ba 5f84 e33f b09d 450b 45e4 a33f
00000720: f00e 20da 713b 6ebf 6c80 a5fe f145 b03f
00000730: 6c51 c98f f709 bebf 05f2 0689 3ee8 b23f
00000740: fcf1 c56e 829a d03f 9407 488f 286e e43f
00000750: 7088 77a4 3ef4 a33f b02b 72da 720a 6ebf
00000760: bcbd d025 0eec b13f 5281 298a 91a6 bebf
00000770: 5c68 311e 4711 b73f e635 8293 909f cd3f
00000780: 4060 7ab4 16ef e53f 2061 cbe0 9c70 a53f
00000790: 90ca d488 c632 71bf d935 7e0e 3592 b33f
000007a0: ce40 e712 79c8 bdbf 5d59 9fc3 d93d 96bf
000007b0: 64d6 a5d7 05dd df3f d41e 26a0 92cf f23f
000007c0: 60e5 84d1 3516 bcbf 003b bc28 1d42 593f
000007d0: 0bd3 1c62 858d b4bf 6f11 8e4e 4c1e 773f
000007e0: 4e95 b437 12dc 86bf d970 2c10 2a38 de3f
000007f0: e2ab 5778 d1f5 f23f 106a b8b1 2f3b c0bf

scatter f8 [100, 35]
0.22731300807613647 0.22245985450794 0.2178874448325641 0.2137527063361614 0.21017249936299615 0.20717537155271024 0.20467241837204578 0.2025426936122038
0.2006630781161901 0.19894461057461746 0.19737111560119602 0.19594991787253985 0.19469484795634887 0.19362349304735227 0.19265954679341837 0.19175690073500393
0.19076116178025115 0.18958669419406743 0.18814555324313967 0.18644088151176721 0.1845220377954254 0.18244375875261887 0.18024774972600494 0.1779127341606793
0.175524858786929 0.1730922682419896 0.17083655663870628 0.16891036075738886 0.16730646053259152 0.16596877436408988 0.1649147842422857 0.1638154960850917
0.1623341152343739 0.1605855642291902 0.1579356549115249 0.22707125640427167 0.22227452288172558 0.21781340558523846 0.21382892095330558 0.21040458773244325
0.20753693017304767 0.20510478332770943 0.20297286235739098 0.20104349929474763 0.1992301482874681 0.1975558225464742 0.19605538212406629 0.19473351204965564
0.19360787595578538 0.1926101001047486 0.19173044096896574 0.19081054940473555 0.18974760325120518 0.1883989349526806 0.18669227217631135 0.1846878919456068
0.18243771206531856 0.1800343366639959 0.17759349457618812 0.17512491291193247 0.17259943823998725 0.1704197260053441 0.16874843067464237 0.1675437647233894
0.16655834832176075 0.1655914835784294 0.164476036207218 0.16192989613556283 0.15912703335937003 0.15524091031018464 0.22768601257733614 0.22288074556879534
0.21834525617866926 0.21424422637288723 0.21070231619666935 0.2077343150121033 0.20525663780952114 0.20314008097558733 0.20125710555600201 0.19952753468716497
0.19793790775493034 0.1965064326151656 0.195245438882514 0.1941695432145547 0.19319031076220877 0.1922810501129233 0.1912697894167313 0.19013494269564468
0.1887999350511698 0.18730162087388547 0.18563428222709377 0.18380048740257993 0.18179845811510395 0.17948042542421636 0.17688603594093705 0.17420728955507483
0.17154937106662443 0.16909835203671533 0.16692761171958795 0.16508669009410462 0.16351168332536534 0.16193435334176032 0.1601331345741367 0.15830197164015863
0.15522544011601033 0.22731421363606155 0.22245024556867352 0.21784030480516686 0.2136426557189613 0.20998553787553978 0.2069071839952472 0.20432360528566432
0.20211585602388935 0.20016576086354004 0.19839721926343265 0.1967984571455997 0.19538438522453658 0.19416239271437147 0.19313526263638608 0.19220507561795058
0.19131208708854483 0.19029710758770793 0.18908680423907318 0.18757807854792666 0.1858025476872395 0.1837677428283338 0.18151345860600004 0.17904992624631083
0.17645715275898832 0.17394986848754937 0.1717947042373993 0.17016755583774892 0.16914362388572643 0.16848401100834734 0.16786506385083808 0.16698140462936514
0.16538765186036988 0.16284518191439348 0.15927038413788155 0.15426837087421053 0.22719064253510082 0.2223762607063404 0.21785339396973233 0.21377935571165826
0.2102629528688499 0.20730633163422138 0.20480827822018619 0.20262597424519216 0.20065133688785478 0.1987992356477682 0.19708679865967674 0.19552370723982196
0.19415163698586058 0.1929767030990982 0.1919446713527142 0.19100010191762315 0.19001496929968203 0.18889930485436324 0.18756705029455034 0.18598079556923153
0.18415642486666361 0.18213481563761266 0.17997154345503985 0.1776021189424617 0.17508061862379085 0.1724380598022068 0.17014274759754888 0.16848127860431136
0.1676748200932266 0.16766408603824645 0.16822290361875694 0.16889488215466655 0.16896304622241826 0.16816620157995416 0.16624997297540692 0.22741832871858517
0.22258219516880803 0.21802541351717203 0.2139042060405413 0.21033182976035714 0.20732375219530694 0.20477668856876682 0.20256547855500845 0.20057296479714992
0.19874327506060682 0.19710245763851963 0.1957195583152917 0.19462685723095502 0.19384997805212886 0.19327129293014117 0.19274866008689373 0.1921141492888877
0.1911817220341306 0.1898719398918073 0.18824882761669096 0.18639276923774498 0.18442806688739394 0.18245673057544687 0.18044363863957455 0.17841229856156648
0.1762308059921331 0.1740573377272059 0.17196142198756426 0.16979253949274836 0.167655021582297 0.16572092576974948 0.16351101697210788 0.16070788013248904
0.15786123811518227 0.15419800876692255 0.22706606463454607 0.22212314274854691 0.2174987123886472 0.2133700569703384 0.2098649144060499 0.20700987721716826
0.2047004296375567 0.20277697292488295 0.20109545301870096 0.19955608979020778 0.19812498721217212 0.1968116262251273 0.1956174099829196 0.19455350784832087
0.19352111502176936 0.19247921262415904 0.19132433638448587 0.1899629065661753 0.18831835770490724 0.18633429612956018 0.18412817699057293 0.18170557102119012
0.17919750395582504 0.1765427529657619 0.17384848208945558 0.1711206877033942 0.16848898908955082 0.16613091757661033 0.1642840775041902 0.16292510646267439
0.16239431215434252 0.16205414908770688 0.16161802026239128 0.16015697450842212 0.15701575504943666 0.227154955107115 0.2222583617886584 0.21768572013240847
0.2135983305887391 0.21011845222993802 0.20724284611598198 0.2048647684432033 0.20285465195829624 0.2010731155644114 0.19940727563099547 0.19785149239692443
00000000: d639 d2b7 9718 cd3f 2b6b e483 9079 cc3f
00000010: 29e7 e15c bce3 cb3f 5c99 92a9 3f5c cb3f
00000020: da2d a4b5 eee6 ca3f 4f82 adfa b884 ca3f
00000030: 9d8c a6af b432 ca3f 4dd8 8d42 ebec c93f
00000040: 9409 03e7 53af c93f 7d14 115a 0477 c93f
00000050: 6c51 57eb 7443 c93f 0e4e 750c e314 c93f
00000060: 010b 56c2 c2eb c83f ac15 3095 a7c8 c83f
00000070: 7db5 5e6a 11a9 c83f 6736 b878 7d8b c83f
00000080: f0b8 989b dc6a c83f b2fe a875 6044 c83f
00000090: 1d97 084b 2715 c83f 6d7f 5d78 4bdd c73f
000000a0: 137f dc0a 6b9e c73f f8d4 992c 515a c73f
000000b0: b219 20b7 5b12 c73f 2b8b 612f d8c5 c63f
000000c0: 03fc 0f3c 9977 c63f 5218 a52f e327 c63f
000000d0: 42bc dce7 f8dd c53f 444b b4cd da9e c53f
000000e0: bed0 3250 4c6a c53f 2986 06fd 763e c53f
000000f0: 1d48 797a ed1b c53f dfb9 21fb e7f7 c43f
00000100: 2c76 fa41 5dc7 c43f 6f7b 4959 118e c43f
00000110: d6d1 5b4c 3c37 c43f e219 0fc2 ab10 cd3f
00000120: f168 41d7 7d73 cc3f d53a cf46 4fe1 cb3f
00000130: 327a 37ff be5e cb3f 529e 9e9b 89ee ca3f
00000140: d119 e7f3 9190 ca3f 94a5 52a0 df40 ca3f
00000150: e876 e6c6 03fb c93f f0ac 451b cbbb c93f
00000160: d0cd a29d 5f80 c93f a859 7c5a 8249 c93f
00000170: 29bd 36bf 5718 c93f 8920 d818 07ed c83f
00000180: 2233 bd93 24c8 c83f 9e22 6aa0 72a7 c83f
00000190: b8ff cd82 9f8a c83f b56a b6e6 7a6c c83f
000001a0: e3a9 3a43 a649 c83f 158b 1cd0 741d c83f
000001b0: 58e3 b449 88e5 c73f ead0 ef53 daa3 c73f
000001c0: 7455 7073 1e5a c73f 5380 107a 5d0b c73f
000001d0: 48f2 9735 62bb c63f edf6 d53e 7e6a c63f
000001e0: 5c3c 4607 bd17 c63f 4ea3 e446 50d0 c53f
000001f0: 5bdc 7f6f 8c99 c53f d45d 11f7 1272 c53f
00000200: 7878 75b1 c851 c53f b294 3b0b 1a32 c53f
00000210: da2b 3efe 8c0d c53f 3fce 126c 1eba c43f
00000220: 3b10 184e 465e c43f 214a 6424 efde c33f
00000230: e95d e3b4 d024 cd3f 2823 9034 5b87 cc3f
00000240: 9316 43c3 bcf2 cb3f 796e d0d4 5a6c cb3f
00000250: 64c9 a022 4bf8 ca3f edf1 9dbc 0997 ca3f
00000260: 42e3 5679 d945 ca3f 1c02 2682 7e00 ca3f
00000270: daae 39f7 cac2 c93f 2f02 1146 1e8a c93f
00000280: 7f19 3984 0756 c93f ea93 c46e 1f27 c93f
00000290: b8c6 5873 cdfd c83f c02d fe2e 8cda c83f
000002a0: 8e5a 50c9 75ba c83f c811 f05a aa9c c83f
000002b0: 43fb 2049 877b c83f 4031 5a80 5756 c83f
000002c0: b10e 44a5 982a c83f 8410 12e0 7ff9 c73f
000002d0: 4845 9739 ddc2 c73f 3404 313d c686 c73f
000002e0: 07a7 0800 2c45 c73f f70d bcee 36f9 c63f
000002f0: c221 be9d 33a4 c63f 9992 aea9 6c4c c63f
00000300: e6b4 306d 54f5 c53f 6110 e7c9 03a5 c53f
00000310: 3948 914c e25d c53f b1c2 7a87 8f21 c53f
00000320: afbb 326a f3ed c43f 90d3 d9cf 43ba c43f
00000330: bc3d 0018 3e7f c43f 4a1c 8b2f 3d43 c43f
00000340: ab19 675e 6dde c33f c1cd bdd4 a118 cd3f
00000350: 0b31 dae8 3f79 cc3f 46c6 71ec 30e2 cb3f
00000360: aaf8 ab7d a458 cb3f 117a e75c cee0 ca3f
00000370: d094 4842 ef7b ca3f d159 40a1 4627 ca3f
00000380: 4715 d0af eede c93f d60b 581a 089f c93f
00000390: cf48 2d80 1465 c93f 5bfb ab1c b130 c93f
000003a0: 231f 5804 5b02 c93f 7a21 6933 50da c83f
000003b0: 9a23 5d02 a8b8 c83f 42c0 f308 2d9a c83f
000003c0: 93f9 af1a ea7c c83f a569 ced6 a75b c83f
000003d0: bfee 2714 ff33 c83f a1a9 67f8 8e02 c83f
000003e0: 2543 eabc 60c8 c73f 8af3 c08e b385 c73f
000003f0: 3e91 3f40 d53b c73f 8220 caa4 1beb c63f
00000400: 7460 1fe2 2596 c63f 5115 2642 fd43 c63f
00000410: 00ae 296e 5efd c53f d1e9 94eb 0cc8 c53f
00000420: 6743 758e 7fa6 c53f 3d02 9752 e290 c53f
00000430: b7ad b037 9a7c c53f 972d f68b a55f c53f
00000440: d985 f32d 6c2b c53f 3916 5165 1cd8 c43f
00000450: b9f9 8bd1 f862 c43f a020 dbe3 10bf c33f
00000460: 3d9f d23d 9514 cd3f f7fb 9147 d376 cc3f
00000470: e317 36b9 9ee2 cb3f 07b7 ab36 1f5d cb3f
00000480: a5e8 107d e5e9 ca3f ffb4 4f8d 0389 ca3f
00000490: 3bf0 735c 2837 ca3f b903 5ade a5ef c93f
000004a0: 757f ea68 f1ae c93f e2d9 c9db 4072 c93f
000004b0: 21bb 5be5 233a c93f 0107 18bc eb06 c93f
000004c0: 6cd9 a8f9 f5d9 c83f ecaa 59ea 75b3 c83f
000004d0: e0f9 0c9b a491 c83f f369 a2fb b072 c83f
000004e0: 0240 7217 6952 c83f 8016 4b38 da2d c83f
000004f0: 8040 6975 3202 c83f 5cb3 53fd 37ce c73f
00000500: e846 130f 7092 c73f 5332 5092 3150 c73f
00000510: 14ce acba 4e09 c73f 4872 478e aabb c63f
00000520: 6389 93ad 0a69 c63f 6fd4 b749 7312 c63f
00000530: 8ca1 4ad0 3cc7 c53f 0b01 cc66 cb90 c53f
00000540: 32e0 5456 5e76 c53f 6cbe 1f4b 0476 c53f
00000550: 4588 bdfe 5388 c53f e174 a8f5 589e c53f
00000560: 5600 e1c2 94a0 c53f 8a0a 0a58 7886 c53f
00000570: edf3 71da ad47 c53f 09bc 2d36 0b1c cd3f
00000580: 7701 76c8 927d cc3f 9266 60ba 41e8 cb3f
00000590: 5de2 b588 3661 cb3f 1875 1045 27ec ca3f
000005a0: eb71 aeaf 9589 ca3f 7369 315e 1f36 ca3f
000005b0: f29e d864 aaed c93f 80fc 21fa 5fac c93f
000005c0: e7b5 576d 6b70 c93f b063 c240 a73a c93f
000005d0: 4e6c 13a7 560d c93f 9e77 5d69 88e9 c83f
000005e0: 1338 087a 13d0 c83f eefe 311d 1dbd c83f
000005f0: 48e4 b5f3 fcab c83f 94b6 254a 3297 c83f
00000600: 0362 dd85 a478 c83f c5b6 2146 b94d c83f
00000610: 31e0 0f9f 8918 c83f 7922 0be0 b7db c73f
00000620: 4278 dfc1 569b c73f 2cd9 60fd bd5a c73f
00000630: 2336 5df3 c618 c73f c457 c3d5 36d6 c63f
00000640: e657 2426 bb8e c63f 0966 95c6 8247 c63f
00000650: 781c cef5 d402 c63f 3ef2 1c0e c3bb c53f
00000660: ca62 5a41 b875 c53f 4bd2 38e2 5736 c53f
00000670: df27 37d3 eded c43f a073 b068 1392 c43f
00000680: 2061 810b cc34 c43f 8791 61a6 c2bc c33f
00000690: 9582 d134 8010 cd3f 7b16 e5f8 876e cc3f
000006a0: 12d0 5070 ffd6 cb3f ac0e 51c4 b54f cb3f
000006b0: 5bd5 f97f dadc ca3f 1961 4cb6 4c7f ca3f
000006c0: 469e 62a9 9f33 ca3f 6010 8c89 98f4 c93f
000006d0: d678 0bed 7ebd c93f 28ec aecf 0d8b c93f
000006e0: 9560 4cda 285c c93f 0504 0e95 1f31 c93f
000006f0: 92d2 33c5 fd09 c93f 46eb c31c 21e7 c83f
00000700: 5b4e 0dc6 4cc5 c83f 49b7 b0a9 28a3 c83f
00000710: 70a2 d9db 507d c83f 5bd1 935b b450 c83f
00000720: e01c cae1 d01a c83f 37f4 ff5d cdd9 c73f
00000730: 882a 3919 8391 c73f f8bc 84ce 2042 c73f
00000740: c5ee 819d f1ef c63f 77b8 2af3 f398 c63f
00000750: 3448 84c4 aa40 c63f 2974 ad5e 48e7 c53f
00000760: a517 f014 0c91 c53f 274a ec24 c743 c53f
00000770: c527 11ba 4207 c53f 362d fad9 bada c43f
00000780: 4831 e139 56c9 c43f bca3 41bb 30be c43f
00000790: 7551 bc37 e6af c43f 9fb7 de13 0680 c43f
000007a0: 2071 729e 1719 c43f a79a a7df 6913 cd3f
000007b0: 9789 9245 f672 cc3f 0730 632c 20dd cb3f
000007c0: 2bee 2daa 3057 cb3f 728e 4e54 29e5 ca3f
000007d0: 0cf5 32ff ee86 ca3f 4b78 483c 0239 ca3f
000007e0: d54c 0028 24f7 c93f df1b ba8b c3bc c93f
000007f0: e8b4 b577 2d86 c93f 6ba0 a79c 3253 c93f

Maxvals f8 [11]
14.472902651803665 14.16790781000148 14.052309099647324 13.961088719767897 13.913813852383717 13.863620220270315 13.801335095674547 13.748498126613738
13.656385719058688 13.55291145021651 13.390758528738717
00000000: 7860 df4b 20f2 2c40 1066 3103 f855 2c40
00000010: 7489 2042 c81a 2c40 4eea 17d2 13ec 2b40
00000020: 5b3d c568 dfd3 2b40 5d73 f46d 2cba 2b40
00000030: 511e fa97 489a 2b40 b7d8 7d25 3b7f 2b40
00000040: 47d6 f9c9 1150 2b40 1687 a835 171b 2b40
00000050: b921 7b80 11c8 2a40
