Data/TNG/Model_snap25.npz (npz, 261202 bytes, 5 tensors)

x f8 [36]
11.0 11.1 11.2 11.299999999999999 11.399999999999999 11.499999999999998 11.599999999999998 11.699999999999998
11.799999999999997 11.899999999999997 11.999999999999996 12.099999999999996 12.199999999999996 12.299999999999995 12.399999999999995 12.499999999999995
12.599999999999994 12.699999999999994 12.799999999999994 12.899999999999993 12.999999999999993 13.099999999999993 13.199999999999992 13.299999999999992
13.399999999999991 13.499999999999991 13.59999999999999 13.69999999999999 13.79999999999999 13.89999999999999 13.99999999999999 14.099999999999989
14.199999999999989 14.299999999999988 14.399999999999988 14.499999999999988
00000000: 0000 0000 0000 2640 3333 3333 3333 2640
00000010: 6666 6666 6666 2640 9999 9999 9999 2640
00000020: cccc cccc cccc 2640 ffff ffff ffff 2640
00000030: 3233 3333 3333 2740 6566 6666 6666 2740
00000040: 9899 9999 9999 2740 cbcc cccc cccc 2740
00000050: feff ffff ffff 2740 3133 3333 3333 2840
00000060: 6466 6666 6666 2840 9799 9999 9999 2840
00000070: cacc cccc cccc 2840 fdff ffff ffff 2840
00000080: 3033 3333 3333 2940 6366 6666 6666 2940
00000090: 9699 9999 9999 2940 c9cc cccc cccc 2940
000000a0: fcff ffff ffff 2940 2f33 3333 3333 2a40
000000b0: 6266 6666 6666 2a40 9599 9999 9999 2a40
000000c0: c8cc cccc cccc 2a40 fbff ffff ffff 2a40
000000d0: 2e33 3333 3333 2b40 6166 6666 6666 2b40
000000e0: 9499 9999 9999 2b40 c7cc cccc cccc 2b40
000000f0: faff ffff ffff 2b40 2d33 3333 3333 2c40
00000100: 6066 6666 6666 2c40 9399 9999 9999 2c40
00000110: c6cc cccc cccc 2c40 f9ff ffff ffff 2c40

intercept f8 [100, 36]
1.6099889110881744 1.490856533211621 1.4039082943573988 1.3914994509373506 1.478204825393246 1.6709089506449475 1.9541267122019779 2.300436836595055
2.675031518401555 3.040972952238859 3.3655244380658673 3.625884384575395 3.8120960467445495 3.9235256896120783 3.969008810323584 3.9597415023859184
3.910777561203674 3.82794035018132 3.716648003079382 3.5718911254051737 3.3874987165024386 3.161338999861172 2.895138491825907 2.6002121934907523
2.289539830264319 1.9792422402055143 1.6694456213380162 1.39059735406653 1.109102131306542 0.854699789330221 0.6242008855029264 0.40546805021556903
0.24632352187137369 0.18042379213595017 0.1468421067317015 0.31207797201247817 1.6094538245149588 1.4879918551884623 1.3967394730709686 1.3803727707778966
1.4646559666278618 1.6575937951172555 1.9441124345847531 2.2969650120625364 2.6770452285241415 3.046073036608015 3.3699600829184844 3.629814453887874
3.814641117218663 3.928154977788479 3.9828474426838163 3.989603105791964 3.960823053992168 3.8932772845643804 3.789292912318506 3.6360844854306915
3.4315500761413817 3.1820344161533756 2.8873093722866354 2.560430319391264 2.21557770930857 1.8825017222929046 1.5502925440042503 1.245974970434594
0.9445740226632435 0.679938989198936 0.4585694211745217 0.26899332263457376 0.1473501292323235 0.05712805865912696 -0.08440294867536546 -0.20130576354112895
1.6163916316721822 1.4984479570863185 1.4127824077133908 1.4024864150017058 1.4921941411375692 1.6880835660095534 1.9731836572528239 2.3185518796300424
2.6877624362365102 3.045962886337879 3.36290005639612 3.617084585776525 3.8018618765908254 3.916246625678679 3.970047843492729 3.9744247218196316
3.939210843254359 3.862392952808616 3.7499191628867505 3.5907109151120897 3.3885996686775153 3.148075445612342 2.8801918280372316 2.6021994183732273
2.3189209890153966 2.052172220678976 1.7764363874390547 1.513954570147533 1.2478359691797265 1.0104321829748268 0.8703351299339552 0.8944992314603797
1.2428297323108444 2.037574131076309 3.288586956226121 5.0236508257763655 1.6022808293897164 1.4793035169557398 1.388645243865079 1.3725474418930874
1.457244657145187 1.6499392201188474 1.9348220447806377 2.2844111702731595 2.6638311155465555 3.0352458348558256 3.36427701585742 3.625688316670201
3.8097470611242086 3.916254113951058 3.9592487280574433 3.955923112304776 3.9205501046905886 3.8626230418347367 3.7788829458727227 3.654276028807668
3.4783841768365145 3.2421534454490795 2.960715844336532 2.6520651402256337 2.3295306297133327 2.021384720373273 1.7275853326386297 1.4765389538285651
1.2380237449937894 1.0581728355032256 0.9556308293572846 0.9532979336258809 1.0777662050462666 1.4134426000177291 1.8635392947476124 2.365765719038096
1.6110506077914086 1.4950148239564214 1.410711239053606 1.4001229538877837 1.4867878842858575 1.67677192884267 1.9555900031707345 2.2968465674603786
2.6673452059509457 3.0300670277793103 3.3543454520405307 3.616835681825912 3.8083210488953965 3.928969164883787 3.9849521095089373 3.983864044786075
3.9388653775606866 3.8524223035994227 3.7283480383719416 3.5720165152112555 3.380265993136278 3.1487029679573215 2.885872539343507 2.5827681697203224
2.255287691852211 1.902118010119481 1.5200542478614212 1.1374790307086047 0.7492129598193623 0.39617549830830395 0.0873704194612962 -0.16799444708407574
-0.3467921377501245 -0.46877584191388666 -0.589773514894679 -0.6498251313731902 1.59941693029519 1.4795661853774589 1.3931923225612932 1.383693313459052
1.474593280156158 1.6718428093725066 1.9594279864730488 2.3087556390277686 2.685857891151863 3.05437310280253 3.382082682057669 3.6416574242347957
3.823843121966952 3.928111798303389 3.9665176343840587 3.953506351579688 3.9032029085529656 3.8277782295338607 3.7288635845603793 3.6048501119589313
3.439819736728272 3.2270575346616743 2.9581118397308965 2.6519621449204243 2.322648678637761 1.9784645304468007 1.6389538067890685 1.3349570732418417
1.0708384549769279 0.8609268038343727 0.6822907828092248 0.5248323584012713 0.3703621160226675 0.29550156564698127 0.12581188607826888 0.07829294267929088
1.6086041250150953 1.4849844495153839 1.3947048251816987 1.380784387316399 1.4680867204369168 1.663714901183158 1.9517864931289948 2.30295337328151
2.6820262391097494 3.0517710996474454 3.3771385099389204 3.6376345171151216 3.8225176071497406 3.9344055596246523 3.9840715793053456 3.981357059121949
3.9389372238237614 3.8577744193773036 3.7430866920371617 3.5895311582076084 3.392084674693812 3.153337469876817 2.881753739811972 2.5861460107804373
2.285883356414979 2.007416467290676 1.732970574951168 1.4976768056611345 1.2747310162823722 1.0517907128472823 0.8035184066566605 0.4668042806665867
-0.0037085346423175736 -0.5888541607786638 -1.5216036924249132 -2.6851760885792624 1.6131039478491727 1.4943672671392085 1.4067025174064207 1.3928223828940003
00000000: e5bd 80bb 83c2 f93f e6bf 5261 8cda f73f
00000010: 1a92 2d8b 6876 f63f 96d8 a2ed 9443 f63f
00000020: 74a7 5d1a baa6 f73f d4d1 1906 0bbc fa3f
00000030: 285c 125f 1a44 ff3f 0284 9d6d 4b67 0240
00000040: 646e baec 7666 0540 7d17 8fa0 e953 0840
00000050: ad0d 9b13 98ec 0a40 95a0 16ac cf01 0d40
00000060: 6fd4 4f36 2c7f 0e40 a232 cf6f 6163 0f40
00000070: 5a01 efb0 87c0 0f40 33e4 eaf3 8cad 0f40
00000080: 4267 fabe 4549 0f40 5b8a b830 9f9f 0e40
00000090: d9c1 bff2 b1bb 0d40 21e7 83a7 3b93 0c40
000000a0: a8f5 54ed 9819 0b40 dfc8 ff19 6c4a 0940
000000b0: a743 9e5e 3e29 0740 2aa0 ed0c 3ccd 0440
000000c0: 44ff 2e42 fa50 0240 1cb6 48e9 f9aa ff3f
000000d0: 0c8e a19c 0cb6 fa3f 06eb d902 e33f f63f
000000e0: fd2a 5ee0 e1be f13f d148 625f b359 eb3f
000000f0: 62d1 ab22 74f9 e33f 99eb cf43 30f3 d93f
00000100: d627 5677 8787 cf3f 6875 5277 2018 c73f
00000110: ac50 0bdf b8cb c23f 431e e6e2 15f9 d33f
00000120: 046c 4ba7 52c0 f93f 24fb 2b8c d0ce f73f
00000130: 0df4 5d7d 0b59 f63f c27a 2cc2 0116 f63f
00000140: 4ced 4818 3b6f f73f 564c 4112 8185 fa3f
00000150: 829d e4a3 151b ff3f 31eb 3631 2f60 0240
00000160: 6c64 53b0 966a 0540 b2ab 4b8a 5b5e 0840
00000170: c6ae c7a1 adf5 0a40 dff8 0f29 dc09 0d40
00000180: d072 e38f 6284 0e40 ddc4 5984 dc6c 0f40
00000190: 1846 ba1e dfdc 0f40 0f2c 7b08 b5ea 0f40
000001a0: 171d 51ff c3af 0f40 a8b5 9b8f 6e25 0f40
000001b0: 0bfb 6acd 7850 0e40 ac57 7376 b316 0d40
000001c0: 8ae8 bc86 d073 0b40 6a00 c175 ce74 0940
000001d0: 3c3e fba7 3519 0740 4cc7 2be4 c27b 0440
000001e0: b2d0 59ce 80b9 0140 5296 3e20 ba1e fe3f
000001f0: c0b1 fb8d ffcd f83f 1a6b 5a73 83ef f33f
00000200: 64ac ff4c f339 ee3f b04f 3c69 0fc2 e53f
00000210: 60f9 b88e 3359 dd3f 28b4 e3c4 2f37 d13f
00000220: 349e 0e79 5edc c23f 80f5 3f8f e33f ad3f
00000230: 3025 3f80 6e9b b5bf 0ce6 7323 63c4 c9bf
00000240: 2cf6 b878 bddc f93f 9919 a790 a4f9 f73f
00000250: f3e3 d7b9 c19a f63f 0944 5898 9570 f63f
00000260: aa7f b7f6 06e0 f73f 43d1 cee9 6302 fb3f
00000270: da70 ce06 2992 ff3f 0fb9 88ed 648c 0240
00000280: be6c 9897 8980 0540 2835 2dca 215e 0840
00000290: cd80 0f25 38e7 0a40 0135 160b caef 0c40
000002a0: 2cef 3e8f 366a 0e40 dbe1 621c 7954 0f40
000002b0: 50da 9a71 a8c2 0f40 a208 4530 9fcb 0f40
000002c0: c29b 7ef9 8083 0f40 38e9 c446 2ee6 0e40
000002d0: 36f0 399e d5ff 0d40 8e5f eea4 c6b9 0c40
000002e0: a2a6 a124 da1b 0b40 10f7 e12d 422f 0940
000002f0: cc02 5d03 a20a 0740 76aa bced 4dd1 0440
00000300: 01a2 8e72 268d 0240 709b ec44 d96a 0040
00000310: 1d9a b78f 486c fc3f 419d 666d 2839 f83f
00000320: e663 66d9 22f7 f33f 8b3e cbef ba2a f03f
00000330: 3a0a f40e c9d9 eb3f 426c 2dda bc9f ec3f
00000340: 1c58 ec6d a1e2 f33f da2f 81aa f34c 0040
00000350: d458 98ad 064f 0a40 79ee 0cec 3718 1440
00000360: 10c9 1339 f1a2 f93f 46ec 222a 3aab f73f
00000370: e557 4213 e437 f63f 743a 724e f4f5 f53f
00000380: 5659 0bc6 df50 f73f 68c5 ecaa 2666 fa3f
00000390: 5d9a def5 07f5 fe3f c085 175d 7946 0240
000003a0: 9cb7 1ab0 864f 0540 3935 e0f7 2e48 0840
000003b0: 3456 6e11 0aea 0a40 d3b3 4ce0 6801 0d40
000003c0: 167c ccaa 5c7a 0e40 46f6 7109 7d54 0f40
000003d0: fae3 dd98 8aac 0f40 65b7 4604 bba5 0f40
000003e0: bbcd 8f5f 495d 0f40 5ea6 cbe8 a6e6 0e40
000003f0: de7b 5ffb 263b 0e40 1749 1212 f53b 0d40
00000400: 627e 5315 bbd3 0b40 468a 4625 eeef 0940
00000410: 3c65 e1c9 8baf 0740 c70b a1ed 6d37 0540
00000420: 4131 6df4 e0a2 0240 3719 95c0 cb2b 0040
00000430: 13b7 8b84 30a4 fb3f 7c6b 5f4f e79f f73f
00000440: 60b7 86fc f1ce f33f f407 a0a3 46ee f03f
00000450: d271 e41a 8794 ee3f aa8f 08ab 6a81 ee3f
00000460: 2086 b6c6 873e f13f f696 ddfc 759d f63f
00000470: c807 5c94 0ed1 fd3f e321 ca93 16ed 0240
00000480: efa3 8a00 ddc6 f93f 33d9 fea9 94eb f73f
00000490: a75b bdf2 4592 f63f 2d3b 9553 e766 f63f
000004a0: 748c b117 e2c9 f73f 84ae 53cd 0ed4 fa3f
000004b0: a30b 40be 184a ff3f a260 d917 f15f 0240
000004c0: 139d 5515 b956 0540 2000 28c8 933d 0840
000004d0: da00 8011 b3d5 0a40 d295 c38b 47ef 0c40
000004e0: a664 ad06 7177 0e40 ac58 b162 876e 0f40
000004f0: 9dbc 5392 2ee1 0f40 2288 c01c f4de 0f40
00000500: 3cc2 dfd9 cb82 0f40 5ab9 e2c8 c2d1 0e40
00000510: 524e e722 a8d3 0d40 76d5 0c65 7d93 0c40
00000520: 0369 a2e5 c80a 0b40 048f 812e 8b30 0940
00000530: 1b3d 8757 4416 0740 dbc9 b05b 82a9 0440
00000540: d29c fc45 d40a 0240 4488 694b 136f fe3f
00000550: f45e 2b67 2452 f83f c177 4c36 1d33 f23f
00000560: 953b 0575 8df9 e73f 997b 2d7a f05a d93f
00000570: 985c 3966 e85d b63f e05e 1190 d780 c5bf
00000580: ba63 89a6 d731 d6bf 5a33 8b63 6c00 debf
00000590: b0a0 d0b4 6cdf e2bf 76bc eb12 5ecb e4bf
000005a0: b895 0435 3697 f93f 266b a797 4dac f73f
000005b0: 4c06 6708 844a f63f 1202 9099 9b23 f63f
000005c0: c7c0 921f ef97 f73f 40ec e43e debf fa3f
000005d0: 504d 0c29 d159 ff3f 87a3 60e0 5478 0240
000005e0: 329b e10f a37c 0540 228d 522a 5b6f 0840
000005f0: fb71 7e5d 810e 0b40 a597 a249 1d22 0d40
00000600: 900f 0f10 3b97 0e40 5cf5 e5e0 c56c 0f40
00000610: 9a7e f598 6dbb 0f40 1a81 24f0 c7a0 0f40
00000620: b618 4f72 c239 0f40 7c82 4131 4a9f 0e40
00000630: 1075 576e b6d4 0d40 afc3 cea7 bbd6 0c40
00000640: ea10 cb35 c084 0b40 4e75 6d8a 03d1 0940
00000650: cf6f 4c8a 36aa 0740 4e4e d5ed 3737 0540
00000660: 3ec6 96d4 c894 0240 430a 696c caa7 ff3f
00000670: 2105 7da0 2739 fa3f 8e33 b2f2 fb5b f53f
00000680: 1acd f680 2722 f13f 72fd 565e b68c eb3f
00000690: 3ae4 d07a 53d5 e53f 90e9 e63a 6dcb e03f
000006a0: 67a9 ff4d 03b4 d73f 9cb7 1766 7fe9 d23f
000006b0: 38be 1398 9a1a c03f 20ae 509c 010b b43f
000006c0: 9268 d2ad d7bc f93f 50cb db0d 7fc2 f73f
000006d0: 23a9 bb01 b650 f63f 0d9f a55e b117 f63f
000006e0: c87e 3f80 487d f73f 4c31 2784 939e fa3f
000006f0: 8c37 4c79 843a ff3f dea7 73d1 726c 0240
00000700: 08ec 3f2c ca74 0540 eee8 5ef7 066a 0840
00000710: a9ff f131 6104 0b40 4a7b 2e20 e019 0d40
00000720: 0ebd 781c 8494 0e40 c44e 3e9f a979 0f40
00000730: f550 90eb 60df 0f40 2405 d5ba d1d9 0f40
00000740: 8a8f ea84 f182 0f40 3891 b4d5 b8dc 0e40
00000750: b423 836f d7f1 0d40 25cc a31c 5cb7 0c40
00000760: ef94 384a fd22 0b40 80fa d2fe 083a 0940
00000770: e5f1 9ce7 d40d 0740 dcdc d751 6db0 0440
00000780: 332f 9236 7d49 0240 f3b8 635d 300f 0040
00000790: 8287 855a 3fba fb3f 58ad 44f4 7bf6 f73f
000007a0: f912 a259 4c65 f43f 51a6 9e7f 22d4 f03f
000007b0: 5e61 ca3b 6cb6 e93f 8121 c60f 1fe0 dd3f
000007c0: 00a0 2760 5c61 6ebf 690d 55ae e4d7 e2bf
000007d0: 6a01 071d 7d58 f8bf d297 e399 3d7b 05c0
000007e0: 92f8 d015 46cf f93f 7636 c9a6 ede8 f73f
000007f0: 1762 b77f da81 f63f 12aa 7a1f 0049 f63f

slopes f8 [100, 36, 7]
-0.025048652759178374 0.5256125267101756 1.1893632537174343 -0.10355897816832005 0.001347241462679269 -0.08450956750624515 0.005668599346130496 -0.015240697603037088
0.497980418578583 1.197944767011919 -0.12003880917175558 0.0015097349615402038 -0.1150581381790107 0.006928414957294005 -0.008520609634739405 0.47007989788094584
1.201455826509918 -0.13572371425482244 0.0017897488707293175 -0.1517141373285568 0.007984783294457034 -0.00849848800944986 0.4453952053163524 1.1997365579533572
-0.14915977556470192 0.002062495346526744 -0.19335340493533723 0.008769599748326045 -0.017148619547095664 0.42625889055888694 1.19238151662498 -0.15900985329413442
0.002226030174665633 -0.23797572751281848 0.009121981559909453 -0.03485479361529888 0.4141640635017597 1.1795975433205843 -0.16416410220963062 0.002136255443509205
-0.28296228623595465 0.009044582647209441 -0.06007877611463469 0.40947577690904235 1.1616327754705293 -0.16396192493319856 0.0016619682492911084 -0.3252257514828844
0.008477509963446057 -0.09032429738124187 0.4116013991474552 1.1388998622559159 -0.15829132207271515 0.0007298806298990284 -0.36146291359287963 0.007445639750936692
-0.12254379813598115 0.41935122881107945 1.11230414407465 -0.1476054267182934 -0.0007161861809868927 -0.38886651780731274 0.005949774701714422 -0.15361791689211307
0.43081675309667444 1.0826305954586437 -0.13281803129927122 -0.0025922671165318906 -0.40548816011710964 0.004172028783627225 -0.18086449438160282 0.44399755203358304
1.0509030015429848 -0.11517028659492923 -0.004775424251094174 -0.4104432329979002 0.0024282656517634928 -0.20250531580580225 0.45687026174801093 1.018074421183514
-0.09614147564605874 -0.00707771325206611 -0.40420797963482175 0.0008896363548875214 -0.21784119077372552 0.46819191494528845 0.9856412233501815 -0.07728897828527898
-0.009289692086658488 -0.3881056163831592 -0.00030366862056337065 -0.2269483726337219 0.4770601380192905 0.9549154339427148 -0.05990864159868603 -0.011227390080750039
-0.3639698963185454 -0.001122525480450597 -0.23063705603717768 0.4836217799384507 0.9271306891298329 -0.04512050179530075 -0.012787172262939316 -0.33403374490337423
-0.0016592475341855265 -0.22988855886541013 0.48826778063708376 0.9026630496153736 -0.03334863133492577 -0.01383636445268982 -0.30030886019552977 -0.002070314633355181
-0.22596552363547137 0.49157736388430534 0.8814662918837235 -0.024688266674801063 -0.014383414086170054 -0.26492377574144577 -0.002564874555265481 -0.21935845614900065
0.4944905059860569 0.8625602524273832 -0.018740190207118146 -0.014572103098025854 -0.22950977222391938 -0.0033634733839053854 -0.21054457831378492 0.4970410092708455
0.844616106959656 -0.014842163653439655 -0.014386735725432559 -0.19573211745892427 -0.004492245021775268 -0.19916483176058883 0.49929726491748816 0.8268191786254306
-0.01227392211429153 -0.014025989111241172 -0.16452058698186656 -0.0060671798044771574 -0.18478231958046729 0.5010779577051256 0.8087670508554203 -0.01010319539381084
-0.01362028972327372 -0.13640947559034383 -0.008686825241455531 -0.16734294598213795 0.5004798409048118 0.7900967964315111 -0.007894132894029654 -0.013147817832923119
-0.11169632218154193 -0.012265069230491955 -0.14704335318713255 0.49696889376724784 0.7712256477215778 -0.005318276970020748 -0.013030869273288996 -0.08972761480479316
-0.017954291331065467 -0.1248703950314665 0.48832772434053795 0.7511942340780964 -0.0019526777278536106 -0.013049586138348217 -0.0697374467038808 -0.024914668290301915
-0.10180897609126645 0.4748034457202719 0.7330768335997446 0.002384884259624215 -0.013061885578436475 -0.05141679237346097 -0.033823785823803715 -0.07913770352979602
0.45502524940530653 0.7150680343328648 0.007245065133614101 -0.012759358355954237 -0.034284461164333785 -0.04354071582845509 -0.0568136092396537 0.4306910840711057
0.6957138455720786 0.012757313266522408 -0.01171531612696522 -0.017650641976179937 -0.053591150779809076 -0.03699118286333238 0.4046462124573713 0.6746458014182379
0.018046937629764954 -0.009435273606197364 -0.0013169894255094516 -0.06370804106308746 -0.017180419608164025 0.3767697571177997 0.6485682097481824 0.022388499369289216
-0.006842869525442802 0.014797510112188994 -0.07390894615950618 0.0005572312867418424 0.3500840539977633 0.6204088560635395 0.02492368960949143 -0.0034781878921771453
0.03050844688283859 -0.08458978829792366 0.01646848098708702 0.32421230743557206 0.5889392882623297 0.025331554725509797 -0.00019637834958894512 0.04693287492104892
-0.09374025518062983 0.031590039359267484 0.30274837675906663 0.560381304854625 0.023622069783490074 0.004009932360906285 0.06322145908949922 -0.10313074439629444
0.042416377197202065 0.28229066950983894 0.5428466953139739 0.02024518280536114 0.008775097770441317 0.08160867589505257 -0.10993768378734087 0.04666184456493233
0.26605853567536103 0.537158827953435 0.018538146310065118 0.014330339933983263 0.10295184214127219 -0.11651745602626007 0.04857821960149751 0.24659343535638512
0.5602935202904791 0.018914531820029112 0.020493853143535926 0.12875147449137195 -0.12020762402440892 0.03641782129828462 0.2200934438173025 0.6575143711764659
0.022017694488095763 0.029598671664973063 0.1624183409524419 -0.12027047342108743 -0.025014555242620348 0.5247357299493085 1.1919312215841043 -0.10296010375689935
00000000: 2b5c a3a1 5aa6 99bf f7d1 925c d1d1 e03f
00000010: 0e7d 5cc3 a107 f33f 38ab 7058 d782 babf
00000020: c0d1 6881 bd12 563f f76f a344 6ba2 b5bf
00000030: f061 e40c f537 773f 1fa8 2fce 8336 8fbf
00000040: 58fa f542 e9de df3f 42b0 cb21 c82a f33f
00000050: c8ba a407 ddba bebf b0b2 4492 49bc 583f
00000060: 7a14 9e3c 7374 bdbf 74a1 793a f860 7c3f
00000070: ec16 c9dd 4073 81bf b2f6 f9fe c915 de3f
00000080: 122e a7be 2939 f33f f00f 0209 655f c1bf
00000090: 489d 8a37 c052 5d3f 6560 156d 5e6b c3bf
000000a0: 6e37 ec78 535a 803f 823d 87c0 a767 81bf
000000b0: 8940 28e4 5a81 dc3f bd9a 03f6 1e32 f33f
000000c0: 93ec f6e2 aa17 c3bf 74ae f7c1 5de5 603f
000000d0: 0b3e 62eb cdbf c8bf c9ce f1c0 cbf5 813f
000000e0: 9c5a 8160 688f 91bf 3119 a55e d347 db3f
000000f0: 8f25 24a4 fe13 f33f a8ed d153 6f5a c4bf
00000100: 4067 9ad9 523c 623f 0066 7417 fd75 cebf
00000110: 60d4 cba3 8bae 823f f381 5fcd 7cd8 a1bf
00000120: 1ec9 fafc a981 da3f c80f 70ac a1df f23f
00000130: c472 154d 5403 c5bf 8038 8168 0d80 613f
00000140: d4a0 58d9 0d1c d2bf 0ce7 6755 f785 823f
00000150: 082f 3135 a5c2 aebf 9e06 95e3 d934 da3f
00000160: dfb8 c93f 0c96 f23f 324b b050 b4fc c4bf
00000170: 20c4 c5d1 cc3a 5b3f 9fe7 9bab 7fd0 d4bf
00000180: aa2a 5b20 a85c 813f 6c5f 493f 7e1f b7bf
00000190: d8df 1465 ad57 da3f d4ed dc0f ef38 f23f
000001a0: 397e c5d9 e342 c4bf a831 bbb7 aeea 473f
000001b0: 6a4a 2658 3522 d7bf 702d a6b3 517f 7e3f
000001c0: a058 52c5 075f bfbf e4fb 5189 a6d6 da3f
000001d0: 2418 206e ffcb f13f 0acd 3b10 bce4 c2bf
000001e0: c0e3 d21c ce77 47bf d079 1f64 30e3 d8bf
000001f0: 7aeb 327c ca5e 783f 82cd 907c c0a9 c3bf
00000200: b89f 476e 8092 db3f 564d 9275 7452 f13f
00000210: c6ee 5f66 2e00 c1bf a0b3 9dcf 603c 65bf
00000220: 8c90 a79c 84f3 d9bf 8e3a f072 b016 713f
00000230: 1d33 3058 9126 c7bf 4440 5fb5 746a dc3f
00000240: 6253 6eaa 7fd0 f03f 486b 65c6 cc7b bdbf
00000250: c043 ba2f 658f 73bf 94ca a5b1 b344 dabf
00000260: 482d ee31 71e4 633f 1d77 53b6 b1eb c9bf
00000270: 2c40 2ec4 5c3d dd3f 8309 7e67 084a f03f
00000280: 7c62 b04d ba9c b8bf 2860 2b2f 85fd 7cbf
00000290: 3115 5425 8bde d9bf 8075 5886 cf26 4d3f
000002a0: fb23 0c5b 38e2 cbbf a043 bc38 dbf6 dd3f
000002b0: 5a1c 7c76 5f8a ef3f 4c97 13e2 35c9 b3bf
000002c0: e8ea 9d5d 7906 83bf 229d 70f0 b8d6 d8bf
000002d0: f0d4 4ccb b6e6 33bf 13cf 2bef a40c cdbf
000002e0: 8828 c13e 2788 de3f f458 e7cf aa8e ee3f
000002f0: 600a d470 58ac aebf 8ae4 bac9 62fe 86bf
00000300: 9daa 5a64 484b d7bf c8bc 8e8e 3664 52bf
00000310: 6d73 76da 8385 cdbf 5a03 1ec4 a8f3 de3f
00000320: 45c7 9dfa 0dab ed3f c80a 2ecf 081a a7bf
00000330: eccf 6b35 2930 8abf 9eb4 8712 cf60 d5bf
00000340: 6885 4c79 632f 5bbf cb97 0601 fd6c cdbf
00000350: b6b6 6181 c73f df3f 20fb ac9e 9de2 ec3f
00000360: f854 e661 1213 a1bf 2008 8f66 3d56 8cbf
00000370: 1949 4fa7 4238 d3bf 28ec 90b4 c3f5 60bf
00000380: bfd8 0433 70ec ccbf 2191 55e7 0076 df3f
00000390: ec57 05cc f834 ec3f 6050 da87 e147 99bf
000003a0: 80e3 d628 0d75 8dbf a082 2fda 82f4 d0bf
000003b0: 60a3 a98a ee02 65bf b568 a119 f013 ccbf
000003c0: 7820 d981 bba5 df3f e829 60f5 179a eb3f
000003d0: 60d7 3de0 a030 93bf d870 eb91 fad7 8dbf
000003e0: d635 e882 9360 cdbf c035 ea05 b78d 6bbf
000003f0: c099 1aef 1ff3 cabf 0cb4 e517 85cf df3f
00000400: 4421 a25b 1807 eb3f 607d f27b 9165 8ebf
00000410: f0d3 7efb ca76 8dbf 0ca7 a101 c00d c9bf
00000420: 102c 44d7 7566 72bf bb68 76b3 3b7e c9bf
00000430: 0e62 f383 7cf4 df3f 9adb 7c7e 4d75 ea3f
00000440: eaa4 98f0 1123 89bf 30f4 3664 a8b9 8cbf
00000450: 2c8c 4db6 020f c5bf 2049 6d2d e6d9 78bf
00000460: 8312 bd71 f2a6 c7bf 2ae1 22a4 d408 e03f
00000470: 6c34 3070 6be1 e93f e880 69ee fbb0 84bf
00000480: dc56 6357 f4e4 8bbf 6a34 439e dd75 c1bf
00000490: e081 8bf2 65ca 81bf 6cd3 1a60 7e6b c5bf
000004a0: 57ca 9f4c ee03 e03f 7020 ab13 7948 e93f
000004b0: 908e e194 cc2a 80bf dc6f d93c 3eed 8abf
000004c0: 726b da52 2198 bcbf 743a d3b9 6d1e 89bf
000004d0: 7336 840c 51d2 c2bf 2404 779e 56ce df3f
000004e0: 769e d968 e1ad e83f 8856 841a 9ec8 75bf
000004f0: fc14 f0aa edaf 8abf de79 2293 63f8 b6bf
00000500: f1ef 5b18 9c62 92bf 7314 e696 81f7 bfbf
00000510: 2474 71ed c240 df3f e8e4 897d c809 e83f
00000520: c0c0 c4be 1ffe 5fbf 1c3a 86cd bdb9 8abf
00000530: 7653 e634 50da b1bf ce79 fd15 3b83 99bf
00000540: f550 c02e 2710 babf 3063 d9fd 2d63 de3f
00000550: 3284 388c 5d75 e73f c06a cbfc 7689 633f
00000560: 485d 119b 30c0 8abf 2021 6b43 4d53 aabf
00000570: bc5a e1eb 5951 a1bf 2280 8a58 5e42 b4bf
00000580: c633 4339 221f dd3f 36fd bb5b d6e1 e63f
00000590: 7073 e65c 00ad 7d3f 10a9 da16 9421 8abf
000005a0: 7c70 ec9e bb8d a1bf 6027 0efd f74a a6bf
000005b0: acd7 4d63 ac16 adbf 6ae8 3056 7190 db3f
000005c0: 3868 c3ae 4943 e63f 80c7 1d9a 8120 8a3f
000005d0: 105c 051d 33fe 87bf 8015 2a88 0213 92bf
000005e0: 0798 e89f 4c70 abbf 33d8 4621 82f0 a2bf
000005f0: 7019 3d3a b9e5 d93f 8c33 afca b296 e53f
00000600: 02b3 a67b e57a 923f 9018 8afc cc52 83bf
00000610: 005d c0a0 da93 55bf 0fb2 db90 2b4f b0bf
00000620: 11fd 6471 be97 91bf 0c57 3ce6 fe1c d83f
00000630: b0ff 421e 12c1 e43f e0f4 63c2 02ed 963f
00000640: 2041 29cd 4407 7cbf c0e0 f32f 284e 8e3f
00000650: 210c a35a b2eb b2bf f30d 9113 6542 423f
00000660: 1e60 b1f2 c667 d63f 3022 5eac 63da e33f
00000670: e0dc 127f 9885 993f 203b e1e7 497e 6cbf
00000680: 1c45 7436 9b3d 9f3f 62ad 5026 ada7 b5bf
00000690: cd70 040d 1ddd 903f ec5f 59fa e4bf d43f
000006a0: b251 cd34 97d8 e23f 505e 69dc 83f0 993f
000006b0: 000d a22d 5dbd 29bf c04c c9f5 9507 a83f
000006c0: bbca 5182 5cff b7bf 0bd5 dad3 912c a03f
000006d0: cc39 46ba 3a60 d33f 537e 34c6 a4ee e13f
000006e0: 7055 bc44 6230 983f 7096 9605 b86c 703f
000006f0: 7cde 3113 482f b03f 98eb 64c6 c666 babf
00000700: b4e9 c071 99b7 a53f 5aaf 60e2 0c11 d23f
00000710: acaf 6308 005f e13f 00c8 3338 27bb 943f
00000720: 98c5 8baf adf8 813f 6503 0a62 4ee4 b43f
00000730: 3cf1 7644 e024 bcbf 283d c1b0 0fe4 a73f
00000740: 5f07 6361 1a07 d13f 8c2a dab5 6730 e13f
00000750: 4051 85f0 a9fb 923f c82d dbaa 3959 8d3f
00000760: b949 0f4b 0d5b ba3f 70c0 0b87 16d4 bdbf
00000770: 4a01 f990 3edf a83f 94c9 21aa 5f90 cf3f
00000780: c2dd 39ad eced e13f a03e 58be 545e 933f
00000790: 8401 1534 57fc 943f c548 20a6 ed7a c03f
000007a0: cb29 ea45 edc5 bebf fe76 ef4e 5ba5 a23f
000007b0: a631 a19f 052c cc3f 2c4b 1b94 5b0a e53f
000007c0: 60ec 0977 ce8b 963f 9672 393b 1d4f 9e3f
000007d0: fca5 54cb 1fca c43f 289c 04b6 0bca bebf
000007e0: ec9f c362 6a9d 99bf 5699 e595 a2ca e03f
000007f0: 988f fc78 2612 f33f f8bb 6de6 975b babf

scatter f8 [100, 36]
0.229551962089903 0.2241468056705497 0.21898905207239006 0.21430795979637787 0.2102863192652355 0.20696786545961085 0.20428419340540505 0.20210868186736014
0.20030130347012368 0.19879932612038115 0.19756020102722324 0.19654104097111988 0.19568477760625186 0.19488572163889703 0.19408518331054417 0.19318724690553143
0.19213961411861197 0.19089969007110533 0.18942563199426632 0.18768951560251024 0.18565609086495707 0.183315603928985 0.18070134097638152 0.17786074996696422
0.17492821379259466 0.17214188138067038 0.16971556625235487 0.16777408676119918 0.16649781068134234 0.1656464659959869 0.16536443138770418 0.16546412438088443
0.16622322745163307 0.16803016267357362 0.1712803191144838 0.17617740030327714 0.22995654640646776 0.22460727219856877 0.2194638106788938 0.21474861466532494
0.2106550710686092 0.20723072537865594 0.2044248171516352 0.20209136691817575 0.20011187251625065 0.19845242650600792 0.19709286825089592 0.1959920537300041
0.19512353586750086 0.19436779829257977 0.19367082611111525 0.1929232159077364 0.19204015381966427 0.19102413761802553 0.18980001649727613 0.1882596979750857
0.18639048902393862 0.18413416739262606 0.1815473892834922 0.17876044486176748 0.17583934076921728 0.173092887034254 0.17046037276674034 0.16804867504330712
0.16583231631985712 0.16351025279489748 0.16113097455126288 0.15854210636482718 0.1556816212440213 0.1526176802377453 0.14953594647799232 0.14458974215579753
0.22944914795870844 0.22402307827427823 0.21886052426016073 0.21419036640483086 0.21018469640830237 0.2068941984216471 0.2042241723984903 0.20205184694152414
0.20023896758807375 0.19873243534285703 0.19749018662462325 0.19651472121019947 0.1956972687631566 0.19492881512256804 0.19416515330584735 0.1932849609365221
0.19222553793207542 0.19097958969524975 0.18952669199386948 0.18781008163265117 0.18579312346114668 0.18351230111789954 0.18093672272678668 0.17801469154428182
0.1749985707730128 0.17209031524125556 0.16950368315933567 0.16723735100471976 0.16548698503693576 0.16415378044411183 0.16381495090286702 0.16484839372091142
0.16797588133177946 0.1731273513560134 0.17950287892379946 0.18393698301867045 0.22977015522604036 0.22428958963955173 0.2190117588397365 0.21417810054162148
0.209992890465341 0.20654070633923377 0.2037808394819504 0.2016131313031815 0.19987278197541272 0.19847184079249405 0.1972977262280294 0.1962601855284448
0.19526337409694214 0.19421936404725748 0.19308559441332893 0.19183877849903266 0.19052291797784976 0.18912742021568163 0.18765722841042806 0.18608337574806177
0.18426914007518005 0.18218460187975916 0.1797870479285347 0.17701921862369402 0.17410809686651357 0.171246084273247 0.16873367653842913 0.16691160414886108
0.1659223226034428 0.16574595550476742 0.16679126468825073 0.1687740878631551 0.17246408701990115 0.17819542576441277 0.18601142294214937 0.19469670847529638
0.22967304414479767 0.22426247808560226 0.21909245910780872 0.2143935129532487 0.21035671965657712 0.2070288686384787 0.2043322193232783 0.20213626305070162
0.20029562080679825 0.19875113043429285 0.1974451753230169 0.19633030419735745 0.19539380649659996 0.1945087093897783 0.193650708832965 0.19273008180656714
0.19163084757952434 0.19027162248208146 0.1885839540284715 0.1864542268189254 0.18391222814061386 0.181062477333571 0.1779464015906268 0.1748079581103528
0.17169970853830546 0.16881925974221512 0.16611381373077905 0.16370917305270136 0.16160559178255018 0.15969144163776627 0.15802094551638515 0.15634232236017653
0.1546420286393914 0.15296693378006873 0.15107991704054835 0.14863681783849858 0.22953564271868307 0.22400061852458794 0.2187076810000394 0.2139070966166144
0.20980658888178633 0.20644874061462265 0.2037799841399408 0.2016546990991961 0.19994115780042934 0.19855709298357146 0.19743375737181426 0.19654425287507243
0.19578076548519335 0.19505463934255451 0.19429268510641914 0.19337273679053912 0.1923042582504152 0.19102588670579587 0.18952621207181838 0.18781612861468694
0.18586946082527223 0.18367942321980252 0.18129420506026683 0.17873588240672453 0.1761023982836659 0.17356534387363146 0.1712051837510873 0.16919939773740514
0.16756513444007712 0.16637330633026837 0.16582172613489427 0.16573860792800105 0.1664361676297648 0.16795155580972532 0.17076684450278945 0.1746059604339757
0.22971774657790017 0.22439368925272468 0.2192916519155753 0.2146433165155917 0.21064042162162286 0.2073187283960332 0.20462996554280113 0.20245852387729898
0.20067075572354343 0.19920456034148257 0.19806718950758087 0.19719010369750267 0.19650257354290485 0.19587367918217635 0.19519420282526231 0.1943447438358369
0.1932472227921879 0.1918862450090642 0.19017156210062017 0.1880714070444736 0.18557394824983048 0.18274981060696788 0.17966755086968555 0.1765180104558985
0.1735249631379604 0.17094540698375668 0.16913062986090116 0.1681740167905556 0.16821801750440238 0.16898683442233323 0.1701530685730713 0.1712721933302827
0.172064980232086 0.17198141263255487 0.17092219218057614 0.16753249058087755 0.22966502604476338 0.2242897321190909 0.219150714463186 0.21444118401037263
00000000: 6b52 f46c f561 cd3f f5ce edaf d7b0 cc3f
00000010: 509e 6a50 d507 cc3f d588 4c77 716e cb3f
00000020: de2b 0580 a9ea ca3f 1369 bc4a ec7d ca3f
00000030: c40a e204 fc25 ca3f 4ad2 6d81 b2de c93f
00000040: 8d0b e01d 79a3 c93f 32b2 139e 4172 c93f
00000050: 1799 3315 a749 c93f 0779 a5bf 4128 c93f
00000060: d26a 12e4 320c c93f f7bd 72ec 03f2 c83f
00000070: 697d 7a85 c8d7 c83f 1b55 bb15 5cba c83f
00000080: 5ee7 73e7 0798 c83f e901 d6aa 666f c83f
00000090: b441 385f 193f c83f 704d a8c5 3506 c83f
000000a0: 9dba 482b 94c3 c73f 7259 dcbd e276 c73f
000000b0: a61f ebb6 3821 c73f 88d1 2c1c 24c4 c63f
000000c0: 9e85 b136 0c64 c63f 5aa4 66c3 be08 c63f
000000d0: b186 565b 3db9 c53f 0fb8 e00b 9f79 c53f
000000e0: 06b1 dddd cc4f c53f 714b 1345 e733 c53f
000000f0: 74ac 5d64 a92a c53f 4447 70ad ed2d c53f
00000100: 3fc3 de7e cd46 c53f f057 b62a 0382 c53f
00000110: 87c7 8574 83ec c53f 6d66 4c26 fb8c c63f
00000120: b38f 2853 376f cd3f 0fb0 445c eebf cc3f
00000130: babc c2e0 6317 cc3f fda7 6cf2 e17c cb3f
00000140: 2ef5 7cd0 bef6 ca3f c424 1d52 8986 ca3f
00000150: 511a 14a8 972a ca3f 14d7 db41 21de c93f
00000160: b5d2 ff0d 449d c93f e0db d39c e366 c93f
00000170: a9ca b4cf 563a c93f 46eb 8582 4416 c93f
00000180: d48a 9dda cef9 c83f b0f4 8744 0be1 c83f
00000190: d613 2ba4 34ca c83f 7b3f 7b3b b5b1 c83f
000001a0: 664e 1692 c594 c83f 7173 e89b 7a73 c83f
000001b0: 766a d1ef 5d4b c83f 319a face e418 c83f
000001c0: 7456 52bf a4db c73f ba85 8359 b591 c73f
000001d0: afc9 d2e1 f13c c73f 41f6 3f4c 9fe1 c63f
000001e0: 451c fa4c e781 c63f 6dbd 7d60 e827 c63f
000001f0: fd07 263f a5d1 c53f bc3b b975 9e82 c53f
00000200: f65a 9b4b fe39 c53f 9f4a 286a e7ed c43f
00000210: 03ff 0895 f09f c43f 0a1d f094 1b4b c43f
00000220: 0869 ea17 60ed c33f dacc b4e4 f988 c33f
00000230: 6585 d96f fe23 c33f 6fb7 f2aa ea81 c23f
00000240: a9f2 49f5 965e cd3f f75e 5ec9 c9ac cc3f
00000250: 5a99 0a25 9f03 cc3f 52db 6905 976a cb3f
00000260: 9bbf 9806 55e7 ca3f 7bff f953 827b ca3f
00000270: 0789 c086 0424 ca3f 45e9 5abd d5dc c93f
00000280: 6e79 9634 6ea1 c93f 51db 397f 1070 c93f
00000290: 78b6 6ac2 5b47 c93f fae2 63f6 6427 c93f
000002a0: 3f8c a0ac 9b0c c93f 4eee ff6a 6df3 c83f
000002b0: 2b58 bc5b 67da c83f cef7 03c5 8fbd c83f
000002c0: 20e8 6faf d89a c83f 88e8 f8e9 0472 c83f
000002d0: 0b97 ea1f 6942 c83f 7254 3c27 290a c83f
000002e0: 262d 8bae 11c8 c73f d587 dbc1 547d c73f
000002f0: 5ae4 603d ef28 c73f abf2 3177 2fc9 c63f
00000300: ef8d 2869 5a66 c63f eeb2 f531 0e07 c63f
00000310: 3646 dcf3 4bb2 c53f a612 9e94 0868 c53f
00000320: 16da 5272 ad2e c53f 42d8 42b7 fd02 c53f
00000330: e0a0 5c68 e3f7 c43f 4c2b ea8d c019 c53f
00000340: 451b 6bd2 3b80 c53f b7ff 0e7c 0929 c63f
00000350: 14fe 4149 f3f9 c63f 4c88 4b3f 3f8b c73f
00000360: c376 25c3 1b69 cd3f b5e5 2a72 85b5 cc3f
00000370: 52fb d3ca 9308 cc3f b93e ac20 306a cb3f
00000380: 9977 780a 0ce1 ca3f 2287 8205 ed6f ca3f
00000390: f52d 9094 7d15 ca3f b916 b286 75ce c93f
000003a0: a9f3 f86a 6e95 c93f 25ba b078 8667 c93f
000003b0: fbbd dc48 0d41 c93f 0300 2dc3 0d1f c93f
000003c0: 732e ede6 63fe c83f 1c9c 6a1c 2edc c83f
000003d0: 77bf aa5c 07b7 c83f f503 e14f 2c8e c83f
000003e0: be3a ed12 0e63 c83f b835 4dca 5335 c83f
000003f0: bfbd 70ed 2605 c83f f866 957e 94d1 c73f
00000400: f578 2495 2196 c73f ac44 7435 d351 c73f
00000410: f378 8c11 4303 c73f 6649 60d5 90a8 c63f
00000420: 4657 0193 2c49 c63f 9ec5 c245 64eb c53f
00000430: dab2 3bab 1099 c53f 7435 9204 5c5d c53f
00000440: 020b a152 f13c c53f eb2a 2bd9 2937 c53f
00000450: 1e19 8c89 6a59 c53f e569 e4a9 639a c53f
00000460: 9d13 be9e 4d13 c63f c23b fa92 1bcf c63f
00000470: bd06 1ce9 38cf c73f b726 c55d d2eb c83f
00000480: 32f5 af22 ed65 cd3f 737d 8c04 a2b4 cc3f
00000490: 6889 55c1 380b cc3f b4eb 4d23 3f71 cb3f
000004a0: 859c b50f f8ec ca3f a0a8 1006 ec7f ca3f
000004b0: 359c c1e3 8e27 ca3f a3b7 91df 99df c93f
000004c0: f6d7 7272 49a3 c93f 9110 a152 ad70 c93f
000004d0: c9f6 612d e245 c93f 99e5 def5 5921 c93f
000004e0: 7336 5f0c aa02 c93f cde1 ce50 a9e5 c83f
000004f0: 6d74 a4e2 8bc9 c83f 2845 281b 61ab c83f
00000500: f120 a10f 5c87 c83f 4e6d f50d d25a c83f
00000510: b823 8ddd 8423 c83f 33b2 316b bbdd c73f
00000520: 1266 9996 6f8a c73f 4a18 5725 0e2d c73f
00000530: 5ce5 a29b f2c6 c63f 710e 956f 1b60 c63f
00000540: face 738c 41fa c53f 188d c397 de9b c53f
00000550: a49a b1aa 3743 c53f ef84 2814 6cf4 c43f
00000560: 8c44 c7f5 7daf c43f ac84 a4e7 c470 c43f
00000570: 2db6 89c4 073a c43f 4842 c274 0603 c43f
00000580: a5f0 cb5b 4fcb c33f a736 faa4 6b94 c33f
00000590: 18c2 6233 9656 c33f b486 ccff 8706 c33f
000005a0: 631d 5f87 6c61 cd3f 7766 6c61 0dac cc3f
000005b0: d6bb a300 9dfe cb3f cae2 2cc8 4e61 cb3f
000005c0: 7ec5 dd3a f1da ca3f 96be 9e8e e96c ca3f
000005d0: d8ef ba67 7615 ca3f 489e db38 d2cf c93f
000005e0: b948 f0fe ab97 c93f 2b6b 609e 516a c93f
000005f0: 5de8 8465 8245 c93f 2658 28b1 5c28 c93f
00000600: 9aed 7818 580f c93f 7865 74e8 8cf7 c83f
00000610: 132a 312c 95de c83f 6808 3a16 70c0 c83f
00000620: cc95 080a 6d9d c83f 279f 0b48 8973 c83f
00000630: f7a6 4a19 6542 c83f 4adc 07e1 5b0a c83f
00000640: d8eb c80b 92ca c73f 52ae d6ad ce82 c73f
00000650: c015 d804 a634 c73f ab7f c740 d1e0 c63f
00000660: c310 b0fc 858a c63f b5ff d3a1 6337 c63f
00000670: 70ec 8e2c 0dea c53f 917c e46b 53a8 c53f
00000680: 535b 2f3a c672 c53f 90d5 ce72 b84b c53f
00000690: 129a 5b75 a539 c53f 521f 5e36 ec36 c53f
000006a0: 71b3 6bc4 c74d c53f 70ee c1c3 6f7f c53f
000006b0: 70b7 301e b0db c53f 8413 e0f4 7c59 c63f
000006c0: 6a73 6e20 6467 cd3f 6e76 62b2 eeb8 cc3f
000006d0: ebb0 a1b4 bf11 cc3f 12a6 5ea4 6e79 cb3f
000006e0: 874e 0aed 43f6 ca3f 2196 278b 6b89 ca3f
000006f0: 25db e490 5031 ca3f 43ba 6c31 29ea c93f
00000700: 1051 8c4e 94af c93f a3bb f0f7 887f c93f
00000710: b53f ac02 445a c93f 34e1 3c7b 863d c93f
00000720: 8e2a 790f ff26 c93f cc08 1e83 6312 c93f
00000730: e36b c0a6 1ffc c83f 4c53 76df 49e0 c83f
00000740: 05b7 f732 53bc c83f cade 6e7d ba8f c83f
00000750: 91fa ecaf 8a57 c83f c1cb 484f b912 c83f
00000760: c27e 5c1b e3c0 c73f 8a1c f485 5864 c73f
00000770: aca0 91a7 58ff c63f ae12 0865 2498 c63f
00000780: 6ccb dbe4 1036 c63f 43c5 3202 8ae1 c53f
00000790: de91 008e 12a6 c53f 8e81 13e7 b986 c53f
000007a0: 31c2 e301 2b88 c53f dd34 a64f 5ca1 c53f
000007b0: f3ed 6a64 93c7 c53f 26ac 884a 3fec c53f
000007c0: f21c 71ab 3906 c63f 0d6b 63a7 7c03 c63f
000007d0: f8c0 c944 c7e0 c53f 5af9 0764 b471 c53f
000007e0: fdd8 f2df a965 cd3f 31da 23a4 86b5 cc3f
000007f0: 74d8 c16f 210d cc3f 91ba 1e08 cf72 cb3f

Maxvals f8 [11]
14.545801757159277 14.246005904076029 14.108565023732835 14.039414119176136 13.971461405024586 13.929214503737393 13.873785460818201 13.831997677235897
13.737431200514582 13.624694531272082 13.46014581749175
00000000: 6532 f253 7317 2d40 4842 617c f47d 2c40
00000010: 0fd8 b4d5 9537 2c40 6cb9 6116 2e14 2c40
00000020: 49d0 a763 63f1 2b40 bd0a e100 c2db 2b40
00000030: 72de d3ce 60bf 2b40 fc26 7c99 fba9 2b40
00000040: 3285 1295 9079 2b40 779b 2bf6 d73f 2b40
00000050: 5809 8b3b 98eb 2a40
