Data/TNG/Model_snap6.npz (npz, 210746 bytes, 5 tensors)

x f8 [29]
00000000: 0000 0000 0000 2640 3333 3333 3333 2640
00000010: 6666 6666 6666 2640 9999 9999 9999 2640
00000020: cccc cccc cccc 2640 ffff ffff ffff 2640
00000030: 3233 3333 3333 2740 6566 6666 6666 2740
00000040: 9899 9999 9999 2740 cbcc cccc cccc 2740
00000050: feff ffff ffff 2740 3133 3333 3333 2840
00000060: 6466 6666 6666 2840 9799 9999 9999 2840
00000070: cacc cccc cccc 2840 fdff ffff ffff 2840
00000080: 3033 3333 3333 2940 6366 6666 6666 2940
00000090: 9699 9999 9999 2940 c9cc cccc cccc 2940
000000a0: fcff ffff ffff 2940 2f33 3333 3333 2a40
000000b0: 6266 6666 6666 2a40 9599 9999 9999 2a40
000000c0: c8cc cccc cccc 2a40 fbff ffff ffff 2a40
000000d0: 2e33 3333 3333 2b40 6166 6666 6666 2b40
000000e0: 9499 9999 9999 2b40
11.0 11.1 11.2 11.299999999999999 11.399999999999999 11.499999999999998 11.599999999999998 11.699999999999998
11.799999999999997 11.899999999999997 11.999999999999996 12.099999999999996 12.199999999999996 12.299999999999995 12.399999999999995 12.499999999999995
12.599999999999994 12.699999999999994 12.799999999999994 12.899999999999993 12.999999999999993 13.099999999999993 13.199999999999992 13.299999999999992
13.399999999999991 13.499999999999991 13.59999999999999 13.69999999999999 13.79999999999999

intercept f8 [100, 29]
00000000: 0007 6b6e f4d7 b33f 107f d1d9 f47e b0bf
00000010: b02f 1804 e915 c6bf a084 53b5 f6c4 cdbf
00000020: 100c c978 2d24 cebf cc74 9786 0cd2 c6bf
00000030: 00da cde0 6bda aebf 08d3 1330 df08 bd3f
00000040: 5362 54e1 ca1e d53f d01c f407 f375 e23f
00000050: 17ae 3e6c 56c3 ea3f ae65 4c45 2d70 f13f
00000060: e455 c8fc 5e3b f53f e2d7 e5d0 fd85 f83f
00000070: 9613 61b8 a544 fb3f 93b3 6610 d989 fd3f
00000080: c132 71f7 0e32 ff3f cee9 28a0 8631 0040
00000090: 3ac9 1d16 d0b9 0040 6f15 0c86 570d 0140
000000a0: 3360 8e13 680f 0140 50b2 66fe f3d5 0040
000000b0: 0c8a 1c58 57aa ff3f 2f8f d8b1 11be fc3f
000000c0: 32a7 414e 5146 f73f 7ec4 b1fc 84f8 ed3f
000000d0: 00e7 2726 96a7 b93f 6793 8fd6 3ff0 eebf
000000e0: 8433 a300 71fc 02c0 2002 5fea 93b5 b43f
000000f0: 109d 5759 f37d aebf 20a4 8868 4f23 c5bf
00000100: 54aa b513 988a ccbf 6404 1bf8 37a3 ccbf
00000110: c0e3 f049 7e55 c5bf d024 5b0a 1699 aabf
00000120: e8ee 53e1 33c4 bc3f e334 8bc4 7632 d43f
00000130: 2e90 5043 df86 e13f f020 f394 465b e93f
00000140: 1dc0 e50a 8f93 f03f 709e 617f e257 f43f
00000150: d40f 5eb8 b9cc f73f e05b d577 d0ed fa3f
00000160: a88e d0a9 0ef1 fd3f 7a84 2550 eb3d 0040
00000170: 3849 9f7a 4c62 0140 0707 4193 b261 0240
00000180: 4ab2 1394 331e 0340 8f59 0a8b 035f 0340
00000190: 9be6 d1c7 ad1b 0340 a03d 2127 83cd 0140
000001a0: d266 bd05 f434 0040 3eb4 a330 cb9b fa3f
000001b0: 1339 9b0a 0261 f13f 68df 7dbb ddae ba3f
000001c0: d582 12a8 0513 f5bf ce00 12f3 7ebb 09c0
000001d0: 007a df2d c472 b23f e80e 9811 93bb b3bf
000001e0: a8f8 20a3 3672 c8bf f4f3 6231 3c39 d0bf
000001f0: 0c30 ff05 cd59 d0bf 0c8b a3cb 25cf c8bf
00000200: 70e6 3e91 acae b1bf 68d9 a89f 8410 bd3f
00000210: 799d 33d4 569c d53f b5c5 ad79 20df e23f
00000220: ca3f d33b a630 eb3f 4bb1 d7be 2185 f13f
00000230: d0e5 4775 c514 f53f d698 5cc9 3aff f73f
00000240: e9f5 e04a d154 fa3f b808 c720 6e41 fc3f
00000250: ea5f 1e80 3c9b fd3f bbe6 dd5b bb92 fe3f
00000260: ef2d 437f 2dae ff3f 0ef3 d56e f421 0040
00000270: 883c 07eb 049d ff3f 3af2 3fcd fb20 fe3f
00000280: 1072 abb9 d727 fa3f 7c77 eea5 c3a1 f43f
00000290: 52ba 84f0 9762 e83f ee83 2b31 2955 c83f
000002a0: 3049 dce2 ef0f e2bf d811 35d1 8418 f5bf
000002b0: 07eb 5df3 1440 03c0 1077 ae9d b14f b43f
000002c0: a0c8 4bfe 2a13 aebf 709d 508e 14fa c4bf
000002d0: 949f c957 1e9f ccbf 1c7b 0d1c a543 cdbf
000002e0: 742a 9cfc be5e c6bf 60c3 fac3 ac7f afbf
000002f0: b0a9 02bc b563 bb3f 0fdc 099d f141 d43f
00000300: 16bd 21cc eac5 e13f aa1e 583e 2fca e93f
00000310: 77f4 31ee e1cd f03f 7ce0 be44 5c8c f43f
00000320: a8eb d0aa 85ce f73f f828 3934 ba97 fa3f
00000330: 6aa0 3007 cfe7 fc3f 1ee4 31c0 9d59 fe3f
00000340: 4314 fb38 affb fe3f 2a8b 7a12 f7e2 fe3f
00000350: 93da 982c afa7 fd3f ae85 3316 03b4 fa3f
00000360: 2afb 8860 0d89 f63f 98ab 37aa 096b f03f
00000370: a34f 6fea c506 e33f 400c 87e2 2130 8e3f
00000380: c7b5 6113 e28d e4bf 640e e096 d9d1 f7bf
00000390: cb82 f259 3ddf 00c0 2afa dd0b ae8a 05c0
000003a0: e0bc c417 cff1 b33f 4039 a7ef a6af aebf
000003b0: 3cc6 6892 362b c5bf 5883 ea60 2db5 ccbf
000003c0: b4d0 e0ce 3939 cdbf ac0c f7df ee49 c6bf
000003d0: 508d ac35 0cfa aebf c0a6 a6f3 06d0 bb3f
000003e0: 9c3f ba9c 4f7c d43f b182 751b 6f02 e23f
000003f0: f1f1 2ed0 7d3c ea3f 0156 f585 572f f13f
00000400: 6ef4 46e7 740f f53f a8f8 b463 a685 f83f
00000410: 379c fa19 ae7e fb3f 2ed2 5272 b205 fe3f
00000420: 4c7e 0db7 20f9 ff3f d508 21f6 cec1 0040
00000430: 6267 814c 9569 0140 9899 b08a 14b0 0140
00000440: 5e22 54f5 4b7f 0140 7ea9 aede 32d4 0040
00000450: 94d8 33e0 c1ba fe3f a32f 4207 57f2 fa3f
00000460: 269a 4a3b c6d8 f53f 9789 630d 2fcb ef3f
00000470: f3e8 4d48 3c81 dd3f b090 a2c4 8a67 b73f
00000480: 40e5 4afa ffbd c3bf c0cf 099a 5fc7 b33f
00000490: c8b6 f1c1 a19d b0bf 40c0 b619 7930 c6bf
000004a0: bcc7 c555 88b9 cdbf a455 d565 84b1 cdbf
000004b0: 00cb f921 95b2 c5bf 70d6 0965 ba8c a6bf
000004c0: e052 342c c75a c13f 2c8d 7203 d7a2 d63f
000004d0: 9370 f8cf 9209 e33f 320d 30b2 1e0e eb3f
000004e0: 75d5 157a 0875 f13f b07d 7d22 2a20 f53f
000004f0: ff99 1e68 fb63 f83f ae8a a4c7 921d fb3f
00000500: 8a39 b041 f264 fd3f 08f3 e9a1 8311 ff3f
00000510: 920e 3532 d91e 0040 2692 c158 06a4 0040
00000520: b23c b8c6 29ef 0040 cacd 2127 5914 0140
00000530: b0cb a8e2 2629 0140 fd48 3026 1b0b 0140
00000540: 41e0 300a a01c 0140 d042 4340 73f3 0040
00000550: 781c ee93 f477 0040 3c7b 9708 d52e fe3f
00000560: ce69 8dc1 60fd f53f aa5c 5abd b32d e43f
00000570: 1863 6b21 aa49 b33f 50da bc8b 8e27 b2bf
00000580: ccd0 5dc1 a47d c7bf 3428 0a12 0878 cfbf
00000590: f286 6938 e801 d0bf e8df 59db 1867 c8bf
000005a0: e073 5142 e3ba b1bf 5823 1352 d8fc bb3f
000005b0: b4bd b2fc 3133 d53f 0928 da34 579b e23f
000005c0: dda5 48cf e8f9 ea3f be41 0195 da93 f13f
000005d0: 2355 8b93 855f f53f 0e89 0441 16c1 f83f
000005e0: f973 b930 6b92 fb3f 049b 5799 c3f1 fd3f
000005f0: b821 318d c8c3 ff3f 5b47 f622 8498 0040
00000600: 7c9d a52d ec53 0140 7f7c f268 14d8 0140
00000610: 6650 8a5c beed 0140 0847 354e fd93 0140
00000620: 72b7 3cd4 5025 0040 d06a aaee a56a fb3f
00000630: 5c23 1174 0b0a f23f 183e b1f9 4a44 b73f
00000640: 149a d44d 0e4c f9bf 8848 ed7d 5281 0bc0
00000650: 090e 5196 0a2f 15c0 80e1 5b7e dea9 b43f
00000660: 80b0 5270 6af9 adbf 34c3 37bb dff3 c4bf
00000670: 54f8 cbf4 5f4c ccbf 3040 7e50 a79b ccbf
00000680: 6c6a 389e 5e87 c5bf 50a7 b2cb 860e acbf
00000690: 38bd b9c6 bcdb bc3f a70e 41c3 c9a0 d43f
000006a0: 39e5 6fa5 9405 e23f 495c 383b 2522 ea3f
000006b0: f390 538d ab09 f13f 4c4c 5534 1be4 f43f
000006c0: 52f8 7832 6b4c f83f 67c4 8fff a55d fb3f
000006d0: 2c79 4b63 6c2b fe3f 90b8 414c 0131 0040
000006e0: be2c 3bfa 2d15 0140 0838 94d7 60eb 0140
000006f0: 3c38 179e da87 0240 2049 b65e d6bb 0240
00000700: 56c7 a901 adbd 0240 47f4 fb30 099f 0140
00000710: b46c 50fb 44db ff3f 9c51 5728 5085 f83f
00000720: 9adb 74a9 3140 f03f fc4d c55f e17d c53f
00000730: 2778 dfe6 8558 e9bf 5645 6117 1da8 febf
00000740: b05a 5d38 1a8f b13f 804c 2769 c5da b2bf
00000750: e4ca 5865 4cf7 c6bf 4091 5e5d 5315 cebf
00000760: 58ae 8244 21e6 cdbf c4ec f927 6811 c6bf
00000770: d0e0 730b 9cf2 a9bf c012 eeaa 72d9 bf3f
00000780: 29bc 5723 f2b6 d53f 4c9a 3759 597e e23f
00000790: e4ad 9554 a741 ea3f 7ea8 f4fd b0d5 f03f
000007a0: 385b dc2c 1748 f43f 220e 81b9 8e51 f73f
000007b0: a9bb 6a87 72e2 f93f 607e c6a8 6a06 fc3f
000007c0: ba70 c42c 2699 fd3f 98cc 3ed9 03c2 fe3f
000007d0: 6055 c9f3 3b9f ff3f ba07 cd71 b407 0040
000007e0: d94c 19fa 6b03 0040 02a1 0271 a90f 0040
000007f0: 471a a262 53cc ff3f cd62 6575 ccff ff3f
0.0775139588904743 -0.06443720166998568 -0.17254364681173007 -0.23257335523434097 -0.23547905347558684 -0.1782851845918344 -0.060260173026950525 0.11341662334218594
0.3300044250950453 0.576898112806612 0.8363449205548389 1.0898869235009943 1.3269948839491628 1.532712760932093 1.704259605628271 1.846154274050808
1.9497213044843849 2.024182559250426 2.090728924545286 2.1315145943105374 2.1325227287125244 2.1044692874041075 1.9790872041563743 1.7964035937411145
1.4546673828976506 0.9365868506848896 0.10021341735400924 -0.9668273153916801 -2.373262410145289 0.08089565727187464 -0.05955467668155212 -0.16514008144557213
-0.2229795547712735 -0.22373103727844346 -0.1666715489425581 -0.0519492042199744 0.11236881495636519 0.31558007425048923 0.5477138819446787 0.7923920544790501
1.036025087898458 1.2714562393029176 1.4874818040707298 1.6830601387971384 1.8713518746743976 2.0302339803170613 2.1729974346027596 2.2977038864345363
2.3897468155394437 2.4213934767278213 2.3885150538379327 2.225347810460974 2.0258560608316225 1.6630355739573726 1.086183587485327 0.10423074557718126
-1.3171440663647236 -3.21655073069278 0.07206369514413069 -0.07708090953388658 -0.19098551717065004 -0.25349335501579096 -0.2554810102999461 -0.19382164424231296
-0.06907156511342705 0.11353329561175018 0.3376671860009633 0.5897371651209854 0.8496886414013656 1.0950028853213378 1.3175711232455463 1.4998119226161655
1.6457074093772184 1.765974166905421 1.8503994946131521 1.910823210577674 1.9800238581836955 2.01657950010702 1.97583476837079 1.8830526368684688
1.6347272160265938 1.2894932252597462 0.7620353410364464 0.19009890461805362 -0.5644454413289051 -1.3184860393677038 -2.406289960197117 0.07934103107114887
-0.05873998979758821 -0.16388184498758163 -0.22360591207984426 -0.22862686033018853 -0.17476641973947304 -0.06152095691994108 0.1069902023324747 0.3165248902873267
0.5554098116826107 0.8059307305965906 1.0502642921922225 1.284267681634474 1.4879204437736266 1.662042812344735 1.8065939217431386 1.896878958474424
1.9364464021503103 1.930411407644622 1.8534385435174598 1.6689482562290823 1.4084600230123194 1.0261322640533077 0.5945767954640256 0.014740242696353545
-0.642319715361446 -1.488732900005652 -2.109003737176271 -2.692714779578883 0.07790846185956779 -0.05993386912779153 -0.16538126133814213 -0.22427909118871514
-0.22830889321779113 -0.17413125930588558 -0.060501462509160775 0.1086429924822836 0.32008734040663867 0.5627971206959811 0.8198842111665369 1.074058078074245
1.3162735971702904 1.5326293844987422 1.7184277548601707 1.8763908830416187 1.9983222151276037 2.0946330288726167 2.176554296206562 2.2109766802925144
2.187156597738336 2.1036126515438687 1.920595050612552 1.6841650279556937 1.36542342339238 0.9935527097225528 0.46101290760965624 0.09142367649707484
-0.1542358371860164 0.07726094732953381 -0.06490527138677316 -0.17335428004798992 -0.23222450435747344 -0.23197989437418898 -0.1695124069115863 -0.04404242022876026
0.13558282526414356 0.3536889585177103 0.5949186384127806 0.8454736213902037 1.0910725373226715 1.3203526828072931 1.5244096820039201 1.6947200583023618
1.8371450963928475 1.9417759251365982 2.0150627062265096 2.080090230376544 2.1167789006209086 2.1349356705847855 2.145093699241862 2.1304228766904303
2.1389771267095345 2.118872167637484 2.058571963981702 1.8864336333860612 1.374359851898237 0.6305788706112214 0.07534278217225354 -0.07091608916821568
-0.18352183763238938 -0.24585057144969513 -0.2501164008045712 -0.19064627371312715 -0.06925793046089224 0.10932685855654023 0.33124971082267085 0.5814624817151081
0.8430065201293321 1.09859712796252 1.3358207477043116 1.5471403636698287 1.7232467559144864 1.8715244283609431 1.9852986827191739 2.074470780506926
2.1659778181235065 2.230507678890319 2.241085741969118 2.1972604856499665 2.0182205754307967 1.7135371516111952 1.1274523290505476 0.09088581653599481
-1.581068328881547 -3.438145622066319 -5.295938824364847 0.08071699700292889 -0.0585435163605732 -0.16369244233603697 -0.22108077481238075 -0.2235001700432817
-0.16819365239719575 -0.05479832874819002 0.11272792674730148 0.3223137289789783 0.5631812316125099 0.8166681439059938 1.064860870415086 1.3056900066628883
1.5186569186767156 1.7103633864283212 1.8856014136031929 2.0239282567554895 2.1353416013058384 2.2399308054073153 2.3163349486194686 2.3417174720172085
2.3426151399552664 2.2026542498483965 1.9910325829467128 1.53254714735258 1.0156723613160694 0.16790406395249124 -0.7920560368763788 -1.9160433686523297
0.0685898196801229 -0.07365068261360541 -0.17942194889618357 -0.2350258069901745 -0.23358550877798012 -0.17240621520963917 -0.05067908897211881 0.12441174195380267
0.33929112864911076 0.5779234640620614 0.8205143596691724 1.052170745863378 1.267600226628657 1.4574115034346353 1.6177850045894309 1.751566561964772
1.8498899220203797 1.9223669515747925 1.9763755343349985 2.0037621393866774 2.0016707934351925 2.007647402661065 1.987384209905615 1.9999508462698714

slopes f8 [100, 29, 7]
00000000: 0baa ac6c 3c32 b13f 48e9 08d2 de0c d13f
00000010: bd7b 5ab7 261e ed3f 66b9 4da2 6ab6 c2bf
00000020: 703d fcf6 f7f6 573f cdcb f7b6 2449 91bf
00000030: 61e3 3658 4c6e 7d3f 7a49 2e9d 4763 b43f
00000040: ae25 8aea 2b2f d03f 0c1c 21d4 ae1a ed3f
00000050: 20a3 5f4e 8c4a c4bf 60a2 585b 44bf 5d3f
00000060: 40a1 e4b4 71de 9ebf 448e e0b5 f454 813f
00000070: 3dd9 9aad 6bc5 b63f fc1e f060 74b8 ce3f
00000080: b851 6c04 991f ed3f 4381 3cd5 f7d2 c5bf
00000090: 801b f960 59b3 613f f49c 4eca 6b0a a9bf
000000a0: 5e09 255b ec7c 833f 7807 df3a 4b09 b83f
000000b0: 9cb5 9169 583a cd3f 4889 1866 822b ed3f
000000c0: 3b0a 1a8e 0e3d c7bf 30ce 76c2 0c78 643f
000000d0: 9060 c8bc 02c5 b2bf eb9e ed0b 06b3 843f
000000e0: 6cf9 30f3 e4fe b73f f8e9 ac58 91ec cb3f
000000f0: beb0 a837 a236 ed3f 755d a1fe f873 c8bf
00000100: e079 5c6e c63d 663f 66aa d813 344a babf
00000110: 0dfc dd8f b4ac 843f aa14 4587 629a b63f
00000120: 8c6d ea2e f8d5 ca3f fc49 1d7e 0936 ed3f
00000130: aa52 7e75 7763 c9bf 5c5d 7c77 de2e 673f
00000140: c625 7f84 d458 c1bf 8f8c a416 c667 833f
00000150: d24c ca06 70dd b33f 00bf 4759 ab00 ca3f
00000160: b651 16a0 4a1a ed3f 51ca bf79 4dfc c9bf
00000170: f07b d97f 0a0b 663f 8c23 ac28 cfb2 c5bf
00000180: 77f4 7de3 0ace 803f 737b 70f9 fed7 af3f
00000190: 88d8 e800 3977 c93f 7326 bebe fcda ec3f
000001a0: 4335 9c76 d837 cabf e045 18ca dd29 633f
000001b0: ad19 38a4 92dd c9bf c1b3 c877 6b30 7b3f
000001c0: bbb8 aee9 d526 a63f 409b e209 af3f c93f
000001d0: 4a8d 707d 6c6d ec3f e673 be10 1819 cabf
000001e0: 00b2 e2da 6db0 5c3f ce47 8747 c189 cdbf
000001f0: 5da7 d23a e1ae 733f a078 70e6 a77d 963f
00000200: ec93 ad59 6762 c93f 2b39 e253 cad4 eb3f
00000210: 4d30 ce03 b4ac c9bf 00eb d9a3 8e6e 4f3f
00000220: e9a5 f089 553d d0bf aa4a a488 e6a6 673f
00000230: 1afe 6fed f6cb 23bf 3802 84c7 01db c93f
00000240: bb6d 11c9 5d20 eb3f 4825 e1de fbfb c8bf
00000250: 0068 0bf4 f408 e9be d5be 4351 a243 d1bf
00000260: b8c4 145f 9758 543f d9ac a93a 4803 96bf
00000270: 240b 7cc1 aeaf ca3f 4210 ec44 d057 ea3f
00000280: 3f8c 7235 cd16 c8bf f095 a467 02bd 53bf
00000290: fc91 476d 53d6 d1bf 0054 8576 3826 f73e
000002a0: 9390 a128 a01b a5bf ec5b 2751 08c8 cb3f
000002b0: eee6 4089 4a7e e93f d3aa 21d7 7406 c7bf
000002c0: 3030 c7cf 25ab 63bf f239 cead 4bf8 d1bf
000002d0: 0032 74f8 0a0e 48bf c8f3 78e5 f4c4 adbf
000002e0: 6882 e043 8808 cd3f 4a62 ca7a 09a4 e83f
000002f0: 6439 3fda 39d7 c5bf 18f0 4218 4f31 6dbf
00000300: ad14 a5bb caba d1bf 808a b1a2 453e 4fbf
00000310: 3510 85fb 4776 b2bf 301e 8e41 e347 ce3f
00000320: 9c7d f2c8 51b8 e73f be52 e10d e59b c4bf
00000330: e01a 7ab3 c5da 72bf 6396 26b5 8434 d1bf
00000340: 002c f376 f502 46bf 9f80 39e7 bb65 b5bf
00000350: 5c33 515f 9a6a cf3f 9e06 06ec bdc2 e63f
00000360: 7fc9 cb72 825d c3bf d05a d74c 5b99 75bf
00000370: a047 97d7 d979 d0bf 0036 db44 6d0f 32bf
00000380: 7363 a5e2 bb8b b7bf b8ce 1a9d 3e0c d03f
00000390: e664 f0f2 71ba e53f d866 b61f bc2b c2bf
000003a0: 00d1 7cb8 7b32 78bf 8aaa 8efc 0f2a cfbf
000003b0: 2059 782e 0970 37bf e9b8 3933 1c1d b9bf
000003c0: 3669 61c6 501e d03f 029b 8af3 9ba9 e43f
000003d0: fe9e a6d2 c60d c1bf e01c bfe0 6627 7bbf
000003e0: ae1a d5cc a022 cdbf c094 1afc 5313 3dbf
000003f0: 9078 f4f6 678e babf 0c9a 8424 e6ac cf3f
00000400: 3030 1e60 f875 e33f 42eb f47b 5501 c0bf
00000410: 00a1 3207 c02d 80bf e264 b761 06f0 cabf
00000420: c08f 83da 37e1 50bf 4efc ab9e 4a84 bbbf
00000430: a05d 95ee 2451 ce3f 5a35 7561 482b e23f
00000440: 2b94 6094 f201 bebf 20b0 e636 fbe3 83bf
00000450: e939 4ce6 11cd c8bf 00a3 dfe3 35b3 58bf
00000460: c854 563b 95b2 bbbf d24c c7b5 2988 cc3f
00000470: 400b 02d5 54b0 e03f cc86 08ee 320d bcbf
00000480: 3026 9f9c 2afa 88bf c4bc 7055 dbc3 c6bf
00000490: 00f8 6df6 db83 2abf 59a8 4090 0353 bbbf
000004a0: 7e3f 7e50 3034 ca3f b6e0 487f 943c de3f
000004b0: 982a 82b0 7962 babf 701c 4582 bed2 8bbf
000004c0: f416 71ef ea1a c5bf c07c 92cb 31e0 733f
000004d0: fb12 f244 7afa b8bf 0f72 694b 908c c83f
000004e0: c90a 33ef 8514 da3f 2c55 0248 addf b8bf
000004f0: 0886 6d7d 1544 8dbf c585 1db1 78de c3bf
00000500: 40d3 381f 2d47 883f debe 1e60 cb80 b5bf
00000510: 25e3 9a11 aa07 c73f 1edb d9f6 caf8 d43f
00000520: 72da 2ae1 ec05 b8bf 3829 a70e 26eb 89bf
00000530: 1563 4d08 3a4f c3bf b0f7 f928 cd34 983f
00000540: f7a6 93d0 c3c7 adbf 85d2 f105 5e68 c63f
00000550: acff 6526 9373 c93f 2a18 15f5 b6af b7bf
00000560: c06f dea0 1fff 82bf b875 2ae3 deae c3bf
00000570: fad6 01e3 2983 a43f ef36 fc02 f864 93bf
00000580: 974a 76fe 6039 c63f b045 96d1 7702 a53f
00000590: 51de 29ac 7ebe b8bf c021 b716 9e1a 59bf
000005a0: b835 be39 3ef4 c4bf 6438 0e99 0515 af3f
000005b0: 2802 3cb7 426d a63f 4768 9c93 e5a9 c43f
000005c0: 9277 5679 5de0 c5bf 16f3 1f17 654b bbbf
000005d0: 30e8 8b18 5a87 803f 2732 5ccc 3487 c6bf
000005e0: 8015 7435 5eb6 b63f 4e43 426d 39ad bf3f
000005f0: 42fa eeca 5a44 c53f 10fa 8253 4e69 e1bf
00000600: 56fd e90c 1fcf bebf e3aa 94fe 98eb 963f
00000610: b137 716c c04d c8bf 6a59 643f 7dc6 c03f
00000620: 8b69 9a53 c41d cd3f a4ba 9ba2 8820 c13f
00000630: daa8 7f5a 5f03 f0bf 9a1d 4999 1493 c2bf
00000640: 4502 ca18 9806 a63f 23ae ff62 6a1e ccbf
00000650: 2750 3802 ce12 c73f 2cb3 dd7a 6922 b13f
00000660: 988a fab8 8020 d13f 4f37 165f 9c0a ed3f
00000670: 5f0e f57b cfc0 c2bf e067 48c2 81f2 533f
00000680: 7775 02df 30b0 90bf 94f2 5949 c0e6 833f
00000690: 09ce a497 ff4a b43f 9a2a 9099 1444 d03f
000006a0: f32c 1215 da0c ed3f f2e9 aed1 b952 c4bf
000006b0: 30ad 1739 4756 553f 12c2 c057 fb24 9ebf
000006c0: 3df7 a4c1 61a8 863f 8d6e 5231 a39f b63f
000006d0: 108c a073 aaea ce3f b5f8 a11d f51e ed3f
000006e0: 08a4 cc26 b0d8 c5bf a041 52a6 2d0c 563f
000006f0: 2668 e2b6 a795 a8bf 30c7 a7ae ff3f 883f
00000700: 0ee6 0d27 edd8 b73f 0445 d4ff ef7b cd3f
00000710: 8cf3 2c3a 713d ed3f e8bd 7aa3 3d40 c7bf
00000720: 00a3 afc3 adc4 563f 5682 f522 8c75 b2bf
00000730: 2057 3963 e359 883f af1c 2fe9 33c5 b73f
00000740: 9422 229c e248 cc3f 7a6c 7ba5 a85c ed3f
00000750: 44eb 89d3 2176 c8bf 00de 56c8 55f5 573f
00000760: 7607 77f3 d0e4 b9bf e038 3f28 f3aa 863f
00000770: c8cc e9eb dd64 b63f 408f fea2 5151 cb3f
00000780: d45f e440 686d ed3f feb3 3818 3665 c9bf
00000790: 006b cb08 f1f2 593f 3a9f 244b bf1b c1bf
000007a0: 6e7e 3f0c e325 833f 96f0 4407 15be b33f
000007b0: 3cb0 dce0 3b9b ca3f 30b7 6866 2f5f ed3f
000007c0: 67cf 3a79 33ff c9bf 8034 45c7 4a18 5b3f
000007d0: 288f b6c3 7670 c5bf 2810 835c b4e0 7b3f
000007e0: 4124 a0ae 5b03 b03f d078 712f c920 ca3f
000007f0: d009 2de9 f922 ed3f ab9a 34b8 5b3b cabf
0.06717279103455824 0.2664105464097202 0.9099305707094271 -0.14619191098195045 0.0014626904994122468 -0.0168805824923302 0.007185266705555944 0.0796398886434754
0.25287912277471036 0.9095071929122027 -0.15852502657733059 0.0018156211421091126 -0.030145432153547036 0.008462821770144242 0.08894989956283879 0.2400041077928491
0.9101071440114117 -0.17050073539668106 0.0021607156448086307 -0.04890763134545209 0.009515615970148768 0.09389181315694184 0.2283430591082095 0.9115612024363964
-0.18155080736694792 0.002498650475638596 -0.07331864460900506 0.010107085455913508 0.09373312890327207 0.21815697507720677 0.9129191481674963 -0.19103920395967192
0.002715003548373604 -0.10269475445299178 0.010095034256435676 0.08829322626577843 0.2096548298912747 0.9128463233158182 -0.1983479808519822 0.002829966073374086
-0.13552338094295474 0.00947527653312921 0.07759761968400206 0.20314542636287314 0.9094594122603243 -0.2030121654966757 0.0026908116404196145 -0.16951932416875726
0.008205494945054277 0.06219479365267135 0.19895088714992348 0.9017318463749703 -0.20482927123559067 0.002339299375997625 -0.20207436579239638 0.006637973591335945
0.04326504209108025 0.1972559736506927 0.8883573961251525 -0.2038908082730863 0.0017510483553834222 -0.23076644890403347 0.004805450252357205 0.021963714065457496
0.19831554297266452 0.8697253836014956 -0.20058298288165802 0.0009592243656720567 -0.253743538577139 0.002887201558345727 -0.00015103711368168253 0.2019960617253831
0.8477009703741979 -0.19518993742739554 -1.1937612386093283e-05 -0.26975305496214946 0.0012418249355728283 -0.021496895390026836 0.20848640868651913 0.8232194276938645
-0.18819584951151744 -0.001204731319896065 -0.2787064139540971 2.2076891953066308e-05 -0.04122639175400979 0.2170420070894744 0.7966664009793172 -0.1798845339247551
-0.002400945521207752 -0.2807797620124851 -0.0007340959136015734 -0.05814328480889902 0.22682288469606537 0.770024051499669 -0.17063067585554414 -0.0035635514087442137
-0.2770258743733603 -0.0009534683243937608 -0.07211732760066598 0.2365688390820977 0.7412499356031961 -0.1610075300001394 -0.00460316874489905 -0.26883046808720773
-0.0006717394407130817 -0.08358358760006233 0.2454407658973662 0.7112722024759994 -0.15129118542933992 -0.005273205415014373 -0.25743719152262123 -0.00027557771396122255
-0.0919759205184059 0.2507473501420736 0.6790094132331006 -0.14195968197309727 -0.005907519611174417 -0.2434711440267459 -0.0003576300063924554 -0.09810043573972717
0.251850312930077 0.6457042462032805 -0.13323293004690834 -0.0066293734234428026 -0.22761926652511505 -0.0004436569252937554 -0.10373544482397024 0.2474639585791042
0.608150661211317 -0.12504070808958018 -0.007899761409433825 -0.21044997950847405 -0.001030258697988437 -0.10748735784362504 0.23685132646162987 0.5677835372422735
-0.1172172176598713 -0.009712183583211298 -0.19375823731429812 -0.0015075708647548924 -0.10819370936072226 0.22290536285308932 0.5215248260795775 -0.10957639991149931
-0.012195904640878913 -0.17785207435506412 -0.00020229396906396024 -0.10673544189254026 0.20471767359094523 0.4724475138678018 -0.10306511458672174 -0.01358555636455902
-0.16488396350376144 0.004852480423465255 -0.09757198508493652 0.19178966219159618 0.407502635567806 -0.09716303833041157 -0.01429001606965398 -0.15522678993424513
0.01185450793773557 -0.08399649712259413 0.17992139682407884 0.3276851092008871 -0.09384041306734917 -0.012655541727231254 -0.15085530667672545 0.02363892138099971
-0.05816471024611574 0.1750600365663965 0.19883956313060247 -0.09252494319397955 -0.00927567205126667 -0.1537741288383765 0.04006319900592632 -0.018939852888300853
0.1736260645380596 0.04103445466456479 -0.09665672019206652 -0.0015322250209114235 -0.1637037069271352 0.06070725911477906 0.043802342288476404 0.16143483836714465
-0.17090958046622667 -0.10661918463297257 0.008070663332080924 -0.17600116709253763 0.08872021489158577 0.12373694341137062 0.16614851864683727 -0.5441047316633689
-0.12034792008670556 0.022383108652472294 -0.1898727921965793 0.1310574111491392 0.2274709137171381 0.13380535068377697 -1.0008233580688768 -0.14511353954933953
0.04301905920602115 -0.21967820962832815 0.18026137455365296 0.06693133592279982 0.26760881485294297 0.9075452668346119 -0.14650910904502987 0.0012174861123015399
-0.016297114955354765 0.009717466581826963 0.07926938488235903 0.2541553020134103 0.9078188334982812 -0.15877459276619238 0.0013023086106567876 -0.02943794940091677
0.011063350412424117 0.08837337450170875 0.24153643270355518 0.910028989673967 -0.1706752957773292 0.0013456769750384914 -0.048016778063541474 0.011840817945060061
0.09315378383134762 0.23034477225932204 0.9137502800218598 -0.1816479728927185 0.00138966530971113 -0.07210613111011219 0.01189019819791387 0.09285282557458417
0.22097427962969063 0.9175608856270536 -0.19110510663071 0.0014623010368789435 -0.10114770835846607 0.011068248430003924 0.08747660646058641 0.21341915568074832
0.9196053759978846 -0.19840122397127397 0.0015838006831276341 -0.13365927857489074 0.009349607287673947 0.07711917331193016 0.20786236266701674 0.9178692817856469
-0.20310061854763292 0.001653740907460205 -0.16749462658219127 0.006806091820354999 0.06255124104804201 0.20412554565968444 0.9105195574014093 -0.20493647093208742

scatter f8 [100, 29]
00000000: 8224 2d85 df5f ca3f 370e d832 5610 ca3f
00000010: b891 2560 d1d2 c93f ad3a 7f5e 3fa7 c93f
00000020: 40cf a059 c48a c93f fbbd c859 ed78 c93f
00000030: 445a 8186 bc6c c93f ce1e b9db 7d62 c93f
00000040: 6494 287f 2057 c93f 7783 9824 1b49 c93f
00000050: 7958 9c1f 3e38 c93f 4fac 7306 5324 c93f
00000060: 14a9 07d8 270e c93f 337e 5ca2 3bf7 c83f
00000070: 41b7 0f8d 6ae0 c83f 58e3 c58f bfc9 c83f
00000080: b326 6b70 74b6 c83f be0b 661a 70a4 c83f
00000090: f5a1 7c20 e096 c83f 7094 83bf c28c c83f
000000a0: d3f7 fb1c 4f8b c83f d93e c9a5 5990 c83f
000000b0: e34e 736f 6ca5 c83f 515e 3c13 ded6 c83f
000000c0: 8e37 1d1e 681e c93f 2b36 c9df e797 c93f
000000d0: 14cf 6e55 1329 ca3f 6393 54ce c3bc ca3f
000000e0: 0dbe 20e6 b31c cb3f b7c5 ae7f c450 ca3f
000000f0: ca87 68a4 ceff c93f aafd cd29 1ec2 c93f
00000100: 91d1 6d4c 7997 c93f 38fc 389a 127d c93f
00000110: f037 475b 416d c93f d80f 50b5 8862 c93f
00000120: 7d7d 0d0a 2959 c93f 6c92 b80e ab4d c93f
00000130: bd5a b137 7b3f c93f f7c3 bcca 682f c93f
00000140: 9e25 f22c 1a1d c93f 29a9 a4a3 400a c93f
00000150: 8b17 f7dd 2ef8 c83f 8c4d 1615 82e8 c83f
00000160: 4715 3a85 a8db c83f 1e66 5cd7 10d6 c83f
00000170: e052 dd70 b3d5 c83f c56c fd6f 36e0 c83f
00000180: 22b9 3e5f 2aee c83f ee09 cac6 c006 c93f
00000190: e927 e2dd bc1f c93f 92c5 5582 0940 c93f
000001a0: ff40 38c8 866b c93f d9c7 5c2c 5399 c93f
000001b0: 1715 4f57 9dfc c93f 9523 76ce 6978 ca3f
000001c0: aee8 9661 a2e9 ca3f 2401 ac30 fdfa ca3f
000001d0: 868c 1028 7559 ca3f ee32 90c9 8809 ca3f
000001e0: 3908 8393 85cb c93f bbf6 db55 939f c93f
000001f0: 17b7 023d 3c83 c93f b976 8632 6a72 c93f
00000200: 6915 22d6 3868 c93f a1f6 0479 8d60 c93f
00000210: b762 6da7 4b57 c93f 4850 866a ab49 c93f
00000220: 7f8a 034d 9936 c93f 9094 897b 2b1d c93f
00000230: a4b7 67f9 cafd c83f ce10 345c 86db c83f
00000240: 76f0 9f20 f9b5 c83f f5d1 2507 198e c83f
00000250: 1405 04ed f169 c83f ee82 3271 ee46 c83f
00000260: 9429 e2bd dd2a c83f a802 5fd0 6916 c83f
00000270: ac96 5d12 ba12 c83f e8ec 257d 6624 c83f
00000280: 7b0a fa2e de5e c83f 7bad 4b1a 3ad9 c83f
00000290: 8f1c a8d9 fb81 c93f 0220 ee0a 4f74 ca3f
000002a0: ef7a 5816 ff88 cb3f cf4f f9f2 8855 cc3f
000002b0: 5161 550f bcb8 cc3f c346 5121 6256 ca3f
000002c0: 8e66 d435 c803 ca3f c93d cc2b 5ac4 c93f
000002d0: 41df e97f 4798 c93f a460 2a5b 687c c93f
000002e0: 88e7 67e6 856b c93f 8318 bf0d 9360 c93f
000002f0: 2f04 23f4 0a56 c93f daf2 bd07 bb48 c93f
00000300: be8b a9f2 3c36 c93f 00cd d3ce ee1e c93f
00000310: 0d77 a38c a403 c93f bcb7 1a1c f7e6 c83f
00000320: 478c 6e22 3ccc c83f d399 1b54 e2b4 c83f
00000330: aaf6 a3bf baa0 c83f 4001 6fff e990 c83f
00000340: b3fc eaa1 7784 c83f 3eed f8c6 0977 c83f
00000350: 238a ecd9 d366 c83f 00a0 9bb9 d45a c83f
00000360: 9451 77c6 bf4e c83f 1f4f 33ce a843 c83f
00000370: b4ca 919d 4b3a c83f 63eb 7d62 d32f c83f
00000380: 7f49 280e c122 c83f 88fe 7a5e 9504 c83f
00000390: ca19 d5a7 e5b0 c73f 69a5 edbe 812a c73f
000003a0: 4e37 3438 f95d ca3f fd5d 781f 2910 ca3f
000003b0: dd02 71a4 3bd5 c93f 8c48 1969 61ad c93f
000003c0: 6e3a c358 d394 c93f 5d54 62f2 8586 c93f
000003d0: 9a37 cc36 0b7c c93f 7368 3990 2671 c93f
000003e0: 4b41 64d6 c962 c93f e766 c101 2050 c93f
000003f0: 1b45 4168 1a3a c93f f3d7 57db 3322 c93f
00000400: 60b5 fda5 5709 c93f 54cd a837 ddef c83f
00000410: 65ec d450 24d5 c83f 5e71 3a3e ecb6 c83f
00000420: f2b3 e81a 9c95 c83f 0a6a 2d8e 296e c83f
00000430: 1686 bc1e 2146 c83f 0090 eda4 0421 c83f
00000440: edce 72ea 090e c83f 7c22 8551 4b0d c83f
00000450: d67c 1f77 4d34 c83f f188 6f4d fa85 c83f
00000460: d7cf fd9a fff4 c83f a435 41f3 7391 c93f
00000470: a1f3 dbc6 383d ca3f a9a1 2862 12c7 ca3f
00000480: 77d3 df3e 5c19 cb3f 17a0 a11b d85c ca3f
00000490: b9f2 a711 400d ca3f 8470 a62d 17d0 c93f
000004a0: 6f9a 76f8 7fa5 c93f 201c 2444 5d8a c93f
000004b0: aba2 ea9f 217a c93f d3ec a731 9e6f c93f
000004c0: eaf3 0039 0c67 c93f 1519 7e38 c25c c93f
000004d0: 4f8d 9c60 644f c93f a0f5 8581 da3e c93f
000004e0: 176e 94b2 562b c93f 987c 1281 f416 c93f
000004f0: 9467 0fdc 2b02 c93f 505e 1f6c 79ef c83f
00000500: 76d0 f990 b9e1 c83f c32c 1d07 25da c83f
00000510: af87 6d8c ced8 c83f fc7a 8406 1cdf c83f
00000520: eaa7 0009 46ec c83f eff6 60db d9fc c83f
00000530: 6e63 be52 d80b c93f ff79 52c5 a81c c93f
00000540: f372 93e0 8a33 c93f 9efe e61c 5a3e c93f
00000550: e7c4 f362 2555 c93f 964f 10ae f381 c93f
00000560: ece3 65c4 ac96 c93f dc7c 64bc 52ae c93f
00000570: f0a8 603b 775f ca3f 8fef d140 860d ca3f
00000580: 2104 7a36 03ce c93f 031e 4812 d7a1 c93f
00000590: 14b8 895c 8b86 c93f d8b3 f1a8 f277 c93f
000005a0: d9a3 9521 de70 c93f b06e 6c4e 386d c93f
000005b0: 5727 556b ff68 c93f d9cd 48b0 6561 c93f
000005c0: 7dc0 02a3 8c55 c93f a8c6 dc88 a244 c93f
000005d0: 5196 965a 5a2f c93f c3ac 7ffb 8f17 c93f
000005e0: bd55 d4da 63ff c83f 1872 7cd0 3de7 c83f
000005f0: 81f9 15d2 f7d3 c83f 8cef eadd 08c7 c83f
00000600: 83c4 f2aa 51c8 c83f a452 401c 40d3 c83f
00000610: cf8b b0e7 d4ee c83f ff96 92f9 8710 c93f
00000620: 6046 992e 743d c93f e958 f184 8f80 c93f
00000630: bdb3 5b52 ddd5 c93f e1d8 2a11 2d55 ca3f
00000640: a641 5a27 36ac ca3f 9d7e ecaf a5d5 ca3f
00000650: 419c 8c01 34fd c93f 91ca b8eb 7c57 ca3f
00000660: 1ec7 384f 1109 ca3f 723e e7a2 4dcd c93f
00000670: 503b 2c1b 34a4 c93f 2b98 28a2 5d8a c93f
00000680: fa50 ab66 427b c93f 22b6 0370 5671 c93f
00000690: 0332 6d48 6c68 c93f 44a8 4d7b 665d c93f
000006a0: 1bed b635 9f4e c93f a364 0071 bc3b c93f
000006b0: 1840 fdb2 e426 c93f d979 ef21 790f c93f
000006c0: 1a4e 46c4 07f9 c83f 9ddf e9db d6e4 c83f
000006d0: 7613 97dd afd4 c83f 2d60 2534 abca c83f
000006e0: 4807 2db8 8ec2 c83f d8c2 3789 63c0 c83f
000006f0: 989f 21df aabb c83f 691e d67a 75ba c83f
00000700: ca70 2fb6 31b5 c83f 8ebe 6f05 bfc2 c83f
00000710: abeb e1cc 7de7 c83f b7de aa4f cb2b c93f
00000720: 54d8 553b c694 c93f 85e9 1f10 2c03 ca3f
00000730: 95fe 9f6e 917c ca3f bee0 ae34 6dcf ca3f
00000740: 185c 4c93 9063 ca3f d6c8 7191 3013 ca3f
00000750: a239 60d2 d4d4 c93f 2de5 d333 dea8 c93f
00000760: 278b b65b a28c c93f 381c 96b2 d67b c93f
00000770: 86c5 05cd 9871 c93f 4b60 667c 6269 c93f
00000780: 0d64 d8e1 1760 c93f 1961 307e 2953 c93f
00000790: d831 4b1a ac42 c93f aa0b 7090 1b2d c93f
000007a0: 781e 8233 bd13 c93f 7141 a6dc d3f7 c83f
000007b0: 16a0 0730 10dc c83f 1f9d fc1f d2c0 c83f
000007c0: 3b59 4d4b 31ab c83f 1bc1 3c77 d897 c83f
000007d0: 31db f80d 7b89 c83f 15a4 6cf4 357c c83f
000007e0: 8e35 0ca2 bf71 c83f 5b21 db4a 0a6a c83f
000007f0: c162 adf7 c26e c83f f884 182b fd7e c83f
0.20605081560850996 0.20362355692496845 0.2017461509195877 0.20041648973570628 0.19954733253836743 0.19900290378562588 0.19863087241783906 0.1983182261339977
0.19797140320693807 0.19754351889516972 0.19702889007084304 0.19642103018790855 0.19574449585281484 0.19504495075033076 0.19434863937152083 0.19365686912694957
0.1930680798453089 0.1925182465457435 0.19210435472747603 0.19179567672032105 0.1917513743900928 0.19190521807694585 0.19254832689204368 0.19405723513840425
0.19624043913284733 0.19994829585123006 0.2043785254623961 0.20888564657902994 0.21181343781198372 0.20558983072764445 0.20311911609411332 0.20123650590174452
0.19993511421092738 0.1991294148483307 0.19864670712416865 0.19831951954995364 0.19803345671514797 0.19768274515913065 0.1972497960984664 0.19675931834493074
0.19620063013671268 0.1956253813780873 0.1950739463629215 0.1945955851520974 0.1942034388086233 0.1940327693526322 0.1940216351601043 0.1943424269510158
0.19476823473582622 0.19551858622078505 0.19628105959083023 0.19726675857559123 0.1985939481387575 0.19999160448202138 0.20302168620234148 0.2067997224915216
0.2102549530516788 0.21078457714612242 0.20585503059655624 0.203415964526719 0.20152349188544053 0.2001823586687602 0.19931748370202548 0.1988041636185949
0.1984931035587281 0.19825905236387079 0.19797654795799755 0.19756071759604965 0.19697872410241143 0.19620269329167117 0.19524514368043555 0.1941993665897201
0.19305337994581223 0.19183647965441222 0.19073318551094387 0.18966465499126833 0.18880817195561106 0.18818400072452346 0.18807149788624622 0.18861085043668102
0.1903951386812713 0.19412924083676927 0.19927929046409473 0.2066744616861343 0.21511829939932833 0.22136031974753087 0.22438765286166043 0.2057612097437894
0.20324041965868783 0.20130469454350777 0.19995969529895244 0.19910911990587465 0.19859384298598237 0.19825971766676184 0.19793831749669397 0.19753206136728957
0.1969677147745567 0.19625649546615165 0.19542366854778273 0.19454850075038432 0.19373275452844238 0.1930201445276923 0.19240507466741025 0.1919224259600103
0.19154258161686286 0.19113275733421092 0.19063804760760758 0.19027194083105314 0.18990323248602847 0.18956480091457537 0.18927903360198217 0.18895952519582257
0.18856061164167312 0.18763987649252933 0.1850859708303701 0.18098470518752244 0.20599284405073565 0.20361818348531804 0.20181985406272576 0.2006036532571368
0.1998542960559066 0.19941782317315218 0.19909801650686348 0.19876558344077785 0.19832728355732807 0.19775772176472303 0.19708566752027754 0.1963562794696255
0.1955976067069214 0.1948200723432857 0.19400457331525725 0.1930823615883907 0.19206572832027252 0.19086188738113236 0.18964017868806654 0.188507633715858
0.18792842815093228 0.1879057071730762 0.18909614864876428 0.19158867627181267 0.1949767596048548 0.1997513711707316 0.2049933405868645 0.2092001895228013
0.21171143598590067 0.20595837926089253 0.203529366131894 0.2016629193211693 0.20036315567013527 0.19953504397582922 0.1990396529047492 0.19871880936248107
0.1984572676027761 0.19814327009607582 0.19773535458908006 0.197230637782849 0.19663509101597818 0.19601303388933355 0.1953787636292047 0.19480817584438848
0.19438857630632683 0.19415724608766113 0.19411641938046162 0.1943087608169306 0.19471049727991324 0.195216400259532 0.195673981096458 0.1961871112334421
0.19688545194266957 0.19721533213850234 0.19791095096255804 0.19927831649021915 0.19991073217150246 0.2006324214826013 0.20603838347717085 0.20353773274461814
0.2015995040892742 0.20025146858846207 0.1994184686513455 0.19897301911569687 0.19875694885129638 0.1986456282546576 0.19851677647448682 0.19828482730518607
0.19792325934895763 0.1974070709489315 0.1967575971913669 0.19603156833850308 0.19529388604193612 0.19455692939745073 0.193968751507736 0.1935740550596815
0.1936132511814642 0.1939468515344248 0.19478856385202767 0.19581699072039524 0.19718792224243753 0.19923585883470388 0.20183912774464643 0.20572436655283524
0.20838047906410145 0.2096449955943073 0.2030396468701117 0.20579492101531519 0.20340172165156728 0.2015778584886792 0.20032359434886837 0.19953508775614756
0.19907407773155922 0.19877129048784165 0.19849923645450937 0.1981628515307553 0.1977118503835776 0.19713550107625108 0.19649943103513645 0.19578470379833737
0.19509980281564837 0.1944836210056992 0.19399069137412156 0.1936849598521361 0.19343742363894934 0.19337124061669075 0.19322715659222633 0.1931902742182843
0.1930296077324612 0.19344318166212243 0.1945645571139186 0.1966489924432062 0.1998527326319982 0.20322180545174376 0.2069265165482547 0.20945515701692402
0.2061634749631771 0.20371062375813292 0.2018075968957876 0.20046594172144108 0.19960431554962918 0.19909175605809692 0.19877920161119905 0.19852858614172172
0.19824503448106193 0.1978504053265702 0.19734717639802457 0.19668907692547793 0.19591488852551087 0.19506309770487065 0.194215796901745 0.1933844238458073
0.19272438217985574 0.19213395902762262 0.1916955774520033 0.19129061159881702 0.19097133076176614 0.19073609023167645 0.19088017552964767 0.19137539486204225

Maxvals f8 [11]
00000000: 3dae eed2 74ca 2b40 f17c a901 58c7 2a40
00000010: 4a76 df54 726a 2a40 acf3 2b2f c657 2a40
00000020: 34e9 1dc4 9c27 2a40 20ed d90a 0016 2a40
00000030: 22b2 4c03 40f9 2940 d963 1686 43e1 2940
00000040: 7545 29f4 a1b7 2940 3e4d d701 0389 2940
00000050: 28a5 22c6 ac42 2940
13.895422546039407 13.389343311252079 13.207903530386051 13.171433900943008 13.077367905284156 13.04296907339318 12.986816504585537 12.939968290551336
12.858657484090807 12.767601068050336 12.630224410752433
