Data/SIMBA/Model_snap27.npz (npz, 268410 bytes, 5 tensors)

x f8 [37]
0	0x4026000000000000	11.0
1	0x4026333333333333	11.1
2	0x4026666666666666	11.2
3	0x4026999999999999	11.299999999999999
4	0x4026cccccccccccc	11.399999999999999
5	0x4026ffffffffffff	11.499999999999998
6	0x4027333333333332	11.599999999999998
7	0x4027666666666665	11.699999999999998
8	0x4027999999999998	11.799999999999997
9	0x4027cccccccccccb	11.899999999999997
10	0x4027fffffffffffe	11.999999999999996
11	0x4028333333333331	12.099999999999996
12	0x4028666666666664	12.199999999999996
13	0x4028999999999997	12.299999999999995
14	0x4028ccccccccccca	12.399999999999995
15	0x4028fffffffffffd	12.499999999999995
16	0x4029333333333330	12.599999999999994
17	0x4029666666666663	12.699999999999994
18	0x4029999999999996	12.799999999999994
19	0x4029ccccccccccc9	12.899999999999993
20	0x4029fffffffffffc	12.999999999999993
21	0x402a33333333332f	13.099999999999993
22	0x402a666666666662	13.199999999999992
23	0x402a999999999995	13.299999999999992
24	0x402accccccccccc8	13.399999999999991
25	0x402afffffffffffb	13.499999999999991
26	0x402b33333333332e	13.59999999999999
27	0x402b666666666661	13.69999999999999
28	0x402b999999999994	13.79999999999999
29	0x402bccccccccccc7	13.89999999999999
30	0x402bfffffffffffa	13.99999999999999
31	0x402c33333333332d	14.099999999999989
32	0x402c666666666660	14.199999999999989
33	0x402c999999999993	14.299999999999988
34	0x402cccccccccccc6	14.399999999999988
35	0x402cfffffffffff9	14.499999999999988
36	0x402d33333333332c	14.599999999999987

intercept f8 [100, 37]
0	0x3ff0bd6cb3ea13b0	1.0462462451844026
1	0x3ffc0b6bfaa8d8a6	1.7527885238064669
2	0x400229cacd9ca06d	2.2704063476012863
3	0x40055f79e671dd38	2.67161922488199
4	0x40081b64d4a5ae83	3.0133759129583395
5	0x400a99b6b828cc9b	3.325055540795416
6	0x400cffc8daf0d710	3.6248948197125017
7	0x400f558d837bc48c	3.9167738220354007
8	0x4010c6af04baebf0	4.1940270175064
9	0x4011c5d331a2cbdb	4.443188453255938
10	0x401296b309164633	4.647167341217528
11	0x40132dff28a501d5	4.794918665953863
12	0x40137bebd3da742d	4.871016798218119
13	0x401381b7b0bf9f61	4.876677285857881
14	0x40133ed5e1da78d5	4.811362770995591
15	0x4012bc5e84222886	4.683954300484521
16	0x40120850040c343a	4.508117736096262
17	0x40113367e3080a73	4.3002009843499875
18	0x401045a426881e1c	4.068008997018776
19	0x400e83d2060a2b3c	3.8143654319623277
20	0x400c58e8dfdac4f8	3.5434129227293134
21	0x4009f98a32117bd5	3.246845618399201
22	0x40079fa63e38f766	2.9529538022169843
23	0x400553fbc09d75c5	2.6660075233510008
24	0x40034cd16b2a11c1	2.412508809300761
25	0x4001ac126370cd08	2.209019448165808
26	0x40006f24fc3a6404	2.0542697625464843
27	0x3fff5cfc8d33146e	1.9602017894369754
28	0x3ffea3c28ef50175	1.9149804672489072
29	0x3ffda16d67319f33	1.8519109755524823
30	0x3ffc6641555bef82	1.7749646505680805
31	0x3ffb0f49cf297352	1.6912324993383732
32	0x3ff93894a6a9a2ec	1.5763136396655524
33	0x3ff637ee8d81df44	1.388655236018125
34	0x3ff3c55c9b2ea71c	1.2356840192609928
35	0x3ff0522340666062	1.0200531497594274
36	0x3feb68aa4df5fc2b	0.8565265200303477
37	0x3ff0986454d42a0e	1.0372050584434223
38	0x3ffbdfec89e0563a	1.7421689401429732
39	0x4002136177a66c7a	2.259463248030042
40	0x40054cc10a7facaa	2.662477571507755
41	0x40080f83ec3f5f3f	3.007575841602289
42	0x400a91fa42d6740c	3.3212781163879352
43	0x400cf82f33227cb0	3.621183776369058
44	0x400f4a4d303b5979	3.911280037699893
45	0x4010be7a0fc0d88b	4.186012502808931
46	0x4011bbecf5ceca65	4.433521118875977
47	0x40128e2104568f4e	4.638797824652853
48	0x40132839248a97fb	4.789280482253157
49	0x401379600b0901a4	4.868530437874515
50	0x40137e1da0612faa	4.873159891063475
51	0x4013331365c795b7	4.799878683382693
52	0x4012a63f6444ec0a	4.662351195055644
53	0x4011e966d47c54fa	4.477931327904338
54	0x40110f9bb1f39408	4.265242367259823
55	0x40101daefb5c7f26	4.028987815399693
56	0x400e36bdfd5c54b4	3.7767295640756746
57	0x400c1b5ae201a656	3.513356939006182
58	0x4009c95f232a9c36	3.223325991380558
59	0x400775546c6f290b	2.932289931433052
60	0x4005503c50c12217	2.6641775425853313
61	0x40037e6c9cf22627	2.4367306004903813
62	0x40023780886ad53e	2.27710062576321
63	0x40015d0eee60b5a3	2.170438635183659
64	0x4000f0497828d100	2.1173276317077807
65	0x4000e745d76fdd03	2.1129261809361437
66	0x4000b6ffdd3258f5	2.089355209444984
67	0x40004d1c744c5e1d	2.0376519285016585
68	0x3fff925c1f3ee537	1.9732323856863567
69	0x3ffe5e13e0748f13	1.8979681747231936
70	0x3ffba8248b5af688	1.7285504764144282
71	0x3ff966238f98064c	1.587436257279836
72	0x3ff6c1836d96ed13	1.4222444802133551
73	0x3ff50fdc7f7e84c1	1.3163723926775648
74	0x3ff09db74288e882	1.038504848386339
75	0x3ffbdd10d38a6068	1.7414711249639598
76	0x400208b15ea2941e	2.2542445557942434
77	0x400535bc36dd24e5	2.651237896560462
78	0x4007ef9724b6a12e	2.9919875019296773
79	0x400a77a1e7de204e	3.3084142794287237
80	0x400cef8a1d81ecab	3.6169626527094656
81	0x400f5594c8df2237	3.9167876904578196
82	0x4010cc9acaf2501e	4.199809237517938
83	0x4011cedc75a88b3d	4.452012861644843
84	0x4012a08f964b51be	4.656797741267324
85	0x401338204e62fc48	4.804810738364786
86	0x401384571c70c836	4.8792385524594035
87	0x401389dbe378a5b7	4.884627870787361
88	0x401348befef1eb9a	4.821041091457028
89	0x4012c88e25e2c8e5	4.695854751555292
90	0x401218889b2c61ed	4.523958611091513
91	0x40114238418ea0e1	4.31466772492442
92	0x40104c981b44002c	4.074798990273887
93	0x400e687dd5bdfda5	3.8010212610822287
94	0x400c0cedc09bca0e	3.506312851671516
95	0x40097963506f9aa9	3.184271458059204
96	0x40070832c7186ab0	2.8790031008078003
97	0x4004d25977dedd43	2.6027097096336163
98	0x4002f63cc893641e	2.370233122823733
99	0x40017b5e2bb46d5d	2.1852382101475727
100	0x4000619ba855de6f	2.0476601744847396
101	0x3ffefe2f0a0adc61	1.9370565788538203
102	0x3ffd9d6724a6b924	1.8509284431161825
103	0x3ffb2db2e91d93ba	1.6986569505763627
104	0x3ff7cc72408f707e	1.4874136468779677
105	0x3ff45a0b425235e6	1.271983393732961
106	0x3ff082cc3df8a777	1.0319330616716493
107	0x3fe955df53015828	0.7917324658581082
108	0x3fe32cc2f74c6336	0.5992140607878358
109	0x3fd92a26d5943cad	0.39319773537949737
110	0x3fd3fdf37f207d2a	0.31237494864213267
111	0x3ff1046e8992c199	1.06358197917516
112	0x3ffc4ca0741fd5d4	1.7687077079875637
113	0x400243c3210101e0	2.283087022631875
114	0x40056ac23418da3a	2.677128226288258
115	0x4008166b3d0263ec	3.010946728358695
116	0x400a8353e7463afd	3.3141248768146157
117	0x400cdcd405d81724	3.6078262764521174
118	0x400f2b244807f8fd	3.8960652949746177
119	0x4010aed2b984639c	4.170725725846662
120	0x4011ab5e8c18bee4	4.417352856645923
121	0x401277173e8226be	4.616299606984908
122	0x40130b4a6b812bed	4.76102607704068
123	0x4013580e8b175edb	4.8359929783834685
124	0x4013628063346860	4.846192884515489
125	0x4013290cd05dc386	4.790087943766485
126	0x4012b39b84b66515	4.675397943146227
127	0x40120ce8a76a5d25	4.512606254450735
128	0x4011421436230262	4.314530225645827
129	0x401059a912eff97f	4.087559028527152
130	0x400eae7108b1f4c0	3.8351765326793554
131	0x400c92a1f8814b64	3.571597997136836
132	0x400a3e9b73390774	3.2805699350146202
133	0x4007e33061d70c15	2.98593212544939
134	0x40058bd99b862f84	2.693286147148628
135	0x400361870891b535	2.4226208371607307
136	0x4001b15c6eda58d9	2.2116020832428203
137	0x400061beb8148ecb	2.0477270489953745
138	0x3ffee67b58ed603f	1.931269976970739
139	0x3ffd8aa2563c4ac8	1.8463462227415892
140	0x3ffc31d5e4918657	1.7621668747382466
141	0x3ffa6aead068a8c2	1.651102842423413
142	0x3ff8a9e3a62d4e14	1.5414768687522882
143	0x3ff698065e79f43a	1.412115448997851
144	0x3ff38d044c082ba9	1.2219279260632254
145	0x3ff15da8828aa694	1.0853657817155282
146	0x3feb892f56659404	0.860496205085497
147	0x3fe586318aaf4063	0.6726310452159051
148	0x3ff093484aff746f	1.0359576158146202
149	0x3ffbd6b7476d43c0	1.7399208822355234
150	0x400211cba14758ae	2.2586891746423907
151	0x4005514dad2c13d4	2.6646989373279926
152	0x40081ad609824a98	3.0131035559546255
153	0x400aa4e78e6890e3	3.3305197835598945
154	0x400d12a211892a40	3.634098183630414
155	0x400f6a158ec511b0	3.9267989305391993
156	0x4010d1b64e227374	4.204797001698228
157	0x4011ce34ac69b143	4.451372808409647
158	0x401299e523516300	4.6502881544518
159	0x40132690676f353c	4.787660232699007
160	0x401367a33a017768	4.851208597507004
161	0x40135bba49c9ebb0	4.839577820729502
162	0x40130bc0027411f1	4.7614746459334905
163	0x401284377d6a6b00	4.6291179271891
164	0x4011d7cb66222706	4.460736842951297
165	0x401119acf62389d3	4.275073858183947
166	0x40104d088d5047e6	4.075227935814814
167	0x400ecf5c4d9c704c	3.851250273071889
168	0x400cd1ebce1a47b2	3.6025005437631643
169	0x400a7f27159f4c4b	3.3120862664450548
170	0x4007f3e566377c45	2.9940898881609734
171	0x400555304b34b8f6	2.6665960193123466
172	0x4002e569f5dfd2c5	2.3620185097628075
173	0x4000b8ac7bdbe38a	2.0901727367858642
174	0x3ffdd3f4211baa5a	1.864246491745368
175	0x3ffb47506235a72a	1.7049106441795154
176	0x3ff9eb4edb9a8cd8	1.619948251559256
177	0x3ff8ad626d574a84	1.5423301955349027
178	0x3ff80082bf080aba	1.5001246893086049
179	0x3ff7b2f0b6852809	1.4811865930264523
180	0x3ff6e8d7054e82dd	1.431845684746967
181	0x3ff3cfddaeeedd49	1.2382485230753721
182	0x3ff0ba20000a3d9a	1.0454406739771458
183	0x3fe2462123b4b503	0.571060724008618
184	0x3fb8e5b8472644e8	0.09725524651573247
185	0x3ff0d278917c0519	1.0513845141397893
186	0x3ffc29e5a216eba8	1.760228760874023
187	0x40023b3c35ba5e2a	2.278923434972758
188	0x4005751484a90822	2.682168041618767
189	0x400835e300735ad8	3.0263118777469167
190	0x400abb4205427128	3.341434517946386
191	0x400d25e355c4910e	3.6435000134098408
192	0x400f8094dd9a2ca3	3.9377839386630327
193	0x4010df76ed1fac94	4.218227105196224
194	0x4011df43664a4639	4.468030546458572
195	0x4012afee45de9d24	4.6718073765871715
196	0x401340095410a815	4.812535584942471
197	0x401384dd9b8c1259	4.8797516159289325
198	0x40137b976f08cea2	4.870694861328646
199	0x4013249ac627351a	4.785746666090995
200	0x40128f7edc336e3c	4.6401323706045865
201	0x4011cbcbec02e3a6	4.44902008788714
202	0x4010eec78a16f434	4.233183057452198
203	0x4010000a6511a486	4.000039653016875
204	0x400dfab7df6389c4	3.747421021676219
205	0x400bdb7a362bf945	3.4821666938943587
206	0x4009823652e71831	3.188580176999516
207	0x4007421d4f6c84dc	2.9072824673645368
208	0x40051c61559c497c	2.6388575256652853
209	0x40035561b6600db0	2.4166902778685753
210	0x4001f2f3eca7c5e6	2.2436293114376324
211	0x4000f2a041a244ca	2.1184697272916297
212	0x40003ca48eaf1a57	2.029610743254391
213	0x3fffba081e50160a	1.9829178985686462
214	0x3ffe1f4ec3274546	1.8826434729747503
215	0x3ffc9dcabccc1054	1.788523423661009
216	0x3ffb72e642980285	1.7155516244239675
217	0x3ffaff2e4429169b	1.6872999823112085
218	0x3ff9f8d3906389a2	1.6232486381710278
219	0x3ff9dce53f4fd10f	1.6164295647732307
220	0x3ffb4f40bf0a4bd0	1.7068488562115256
221	0x3ff8ebb1688fda2c	1.5575422367525205
222	0x3ff078b7bfb2ab43	1.0294721115303254
223	0x3ffbd6bc99f2934a	1.739925958020836
224	0x4002206aea6d3626	2.2658289255694113
225	0x40056c7db1280438	2.6779741134965
226	0x40083e79263b9c5d	3.0305045115415354
227	0x400accece911a472	3.350061245776083
228	0x400d38c8f679d7dc	3.652727056115493
229	0x400f8a62acdce70e	3.942571020594989
230	0x4010dc4e92b2a069	4.21514348235369
231	0x4011d1eb5f8aeaaf	4.454999440053753
232	0x4012956ad7bf3944	4.645915385290497
233	0x40131d6f8d4a3986	4.778745849280659
234	0x40135e414861aa4b	4.842045908890735
235	0x40135e1621343f41	4.841881293119344
236	0x40131f6c109077e0	4.780685671632426
237	0x4012a6f82c2b1f8c	4.66305607808307
238	0x401201ff029f2db5	4.501949349370467
239	0x401145bc423ef592	4.3181009627272875
240	0x4010726c39057483	4.1117409619884056
241	0x400f1782962c3c6a	3.886479542946792
242	0x400d135638e089bc	3.634441799499852
243	0x400ac7dff592ea62	3.347595137163169
244	0x400852fce098ed84	3.040521387736307
245	0x4005bec6937c6458	2.7181521913849274
246	0x40033c0a2466d146	2.404316219699612
247	0x4000fab581716e51	2.1224165070287104
248	0x3ffe66db14269a5a	1.9001112734928456
249	0x3ffbe4261783b037	1.7432003897220179
250	0x3ffa96eb56e2aad4	1.6618455308877644
251	0x3ff9e4758d7c5727	1.6182761694703431
252	0x3ffa14562f09ae1c	1.6299650037207192
253	0x3ffba027cf779bfd	1.7266004661739764
254	0x3ffd4f0e9fbffcf9	1.8318010559303828
255	0x3fff4648fa96b1e4	1.954659441816255

slopes f8 [100, 37, 7]
0	0x3faa5675bf68fc1c	0.05144088708447489
1	0x3fe39c504f3b2e18	0.6128312633022146
2	0x3ff9f6e3e024aa29	1.6227759128183925
3	0x3f8a62ec7cde42b2	0.012883994637179572
4	0xbf7935b2e3969848	-0.00615472677728774
5	0xbfb1d4a64a9ef340	-0.0696510250263147
6	0xbf7b153beba9a6f8	-0.0066120472571158315
7	0xbf8805de1b463353	-0.011729941565840873
8	0x3fe4f62e17934540	0.6550512752966497
9	0x3ff9810fa29ca12c	1.5940090515160348
10	0x3f8821e36fabd164	0.011783387036736932
11	0xbf7b4b822ec82b60	-0.006663807417235684
12	0xbfb75ef2dc06b274	-0.09129255172474321
13	0xbf78b3fa88876d4c	-0.006031016011969936
14	0xbfad94a1af260c9c	-0.05777459395451354
15	0x3fe5ec84f43808af	0.6851219911479997
16	0x3ff8e61db8382ccd	1.5561806865760446
17	0x3f8a922865a968d4	0.012974086382361007
18	0xbf80b6ef03257e60	-0.008161418231508566
19	0xbfbca89dde64b490	-0.11194788627172358
20	0xbf796ca70e69c8d8	-0.006207134784391687
21	0xbfb7f03c6e1507ce	-0.09350946128418444
22	0x3fe682ba393ca45d	0.7034579389484282
23	0x3ff82b06d8f85114	1.5105045771970866
24	0x3f916aa5c8270472	0.01700839075215694
25	0xbf85dc4ada51d750	-0.010674080646122214
26	0xbfc0a193262ef7b2	-0.12993087162425138
27	0xbf7d09a8f6e80a30	-0.007089290635578879
28	0xbfbfc6c2179a35a9	-0.12412655903081905
29	0x3fe6c4ec4a99c010	0.7115384537737572
30	0x3ff75494fbac7d23	1.4581498938567357
31	0x3f984bb349a8c68f	0.023726273890309953
32	0xbf8c95cecaae97d0	-0.013957610664714709
33	0xbfc25e508058b6f8	-0.14350324885292998
34	0xbf81591da3a0f29c	-0.008470756107379622
35	0xbfc37ce5dd3d11f6	-0.1522490816370376
36	0x3fe6bd89b283d4e4	0.7106369482632116
37	0x3ff668f45ca1921e	1.4006236666110747
38	0x3fa08cb644a7a2f8	0.03232354724952374
39	0xbf91f752d49cb1b0	-0.017545026995479496
40	0xbfc3697ecdb5ca94	-0.15165696186484878
41	0xbf84d2e695568bce	-0.01016788619273781
42	0xbfc6f758cba77ad3	-0.17942342704824074
43	0x3fe67b450417f82a	0.7025475578263969
44	0x3ff56fcede2f0b88	1.3397968939832214
45	0x3fa5518701ddb458	0.04163762948778843
46	0xbf954a825d625a00	-0.02079204268428647
47	0xbfc3b060b380d008	-0.1538201214294761
48	0xbf88be043742bbf0	-0.01208117765085423
49	0xbfca5bc1e269525e	-0.20592521243328837
50	0x3fe60b235e574c62	0.6888596384618604
51	0x3ff46cb517fa1b07	1.2765398918724615
52	0x3fa9cad83c337fba	0.050375707005286555
53	0xbf97ac06793a4ad0	-0.023117161893035754
54	0xbfc335b7758def32	-0.1500768016811605
55	0xbf8d451b7bd43a08	-0.014291968075238706
56	0xbfcd956199aa92b6	-0.23112125399815903
57	0x3fe579760c18ae04	0.6710767971284786
58	0x3ff3625bf321698c	1.2115134713445483
59	0x3fad75185e0fdea4	0.057533990366150506
60	0xbf98c16048097be0	-0.024175171276848206
61	0xbfc20f9ecbc37bf0	-0.1411016936244489
62	0xbf90f90a9ef4f26a	-0.01657501788325747
63	0xbfd03ebe7f15e14e	-0.2538295975750956
64	0x3fe4cf8da3e040ef	0.650336093969626
65	0x3ff25428589036cf	1.1455462893967938
66	0x3fb00f1d3d5438e4	0.06273062464990492
67	0xbf989d4782bd4250	-0.02403747306317633
68	0xbfc0557990dff30c	-0.1276084859272476
69	0xbf934e8a85efd74c	-0.018854298043115933
70	0xbfd172314252eeac	-0.2725947520918719
71	0x3fe4158496a82db6	0.6276266996878153
72	0x3ff146bfd5436b6d	1.079772790012352
73	0x3fb0dd88542e0ace	0.06588031821415116
74	0xbf97c272f4bde5b8	-0.023202701747754267
75	0xbfbc72434c19c190	-0.11111851318287891
76	0xbf95824483e39924	-0.021004744100445852
77	0xbfd255bf49eb5d05	-0.28648359507265325
78	0x3fe354300c79df04	0.6040268176720649
79	0x3ff04493614d8cda	1.0167421151061746
80	0x3fb141c6ac580549	0.06740991313565305
81	0xbf96d3fdb9388230	-0.022293056898094743
82	0xbfb7bc29bf5727b0	-0.09271489068410577
83	0xbf978faa1ae030a3	-0.023008973970761414
84	0xbfd2d4a66e893a3f	-0.2942291335538449
85	0x3fe2947f2495926e	0.5806270327125966
86	0x3feeab5f32c2f66e	0.9584194175183265
87	0x3fb1535ea55e966b	0.06767837083187948
88	0xbf967b322f90e1b8	-0.021954330590433918
89	0xbfb2e2c3794fa918	-0.0737726374788149
90	0xbf99a68a03f65182	-0.0250493588369678
91	0xbfd2f1018d09ace4	-0.29595984242651086
92	0x3fe1e158b1c908a2	0.5587581131333261
93	0x3fed0212e6ad2f50	0.9065031533623173
94	0x3fb1376683fda0f5	0.0672515938036929
95	0xbf97223c3b61c02a	-0.022591534733180797
96	0xbfac3b8094e847f8	-0.05514146630970623
97	0xbf9bee60c3f5ffd5	-0.027276527367121012
98	0xbfd2aacb6e521b84	-0.2916744782782461
99	0x3fe142e65e77d7df	0.5394164891320051
100	0x3feb9e50aa363cb5	0.8630755733919587
101	0x3fb0fb46a8b439f0	0.06633416765928479
102	0xbf98afc0c337456c	-0.024107944407494683
103	0xbfa33b3e71621a80	-0.03756137022087547
104	0xbf9e8b9efe91d628	-0.029829487121295767
105	0xbfd20f23a82ce248	-0.2821740286194978
106	0x3fe0bd1fda5d09ac	0.5230864777479858
107	0x3fea82c36fba79ac	0.8284623319812474
108	0x3fb09e5f85371b67	0.06491658212972383
109	0xbf9ae590e8ec1b60	-0.026266349998901872
110	0xbf960b0c58395114	-0.021526520619162673
111	0xbfa0ac5818a1e09a	-0.03256488133132614
112	0xbfd1313884db74bd	-0.26862919782963585
113	0x3fe055ff300201ea	0.5104976594594153
114	0x3fe9ab132663c0ac	0.8021331548498174
115	0x3fb02b13f226c414	0.0631573167982114
116	0xbf9d92a0203be230	-0.028879644362833357
117	0xbf7ecfbdc1a163a0	-0.007522336231056054
118	0xbfa24670101aa3b9	-0.03569364735205433
119	0xbfd0276d0579f47d	-0.25240636381915477
120	0x3fe00e849eb77b29	0.5017722225128171
121	0x3fe91d23eb7f50b6	0.7848071670109877
122	0x3faf0e9b24980258	0.06065831014348494
123	0xbfa01a958d8cff28	-0.03145282128252652
124	0x3f701d04f0711acc	0.003933924955225886
125	0xbfa3de1a7aa148e7	-0.03880388972233267
126	0xbfcdfb2ff819efa5	-0.23422813047716065
127	0x3fdfbf0e53a413b0	0.4960361306005394
128	0x3fe8bf571a7ca2ea	0.7733569638558866
129	0x3fad443e7f443abc	0.05716128638788606
130	0xbfa14148b6037a2a	-0.033701202600912986
131	0x3f89eda8c5b4fe19	0.012660330327547918
132	0xbfa577241f427618	-0.041924599471922785
133	0xbfcb709c9645b0f5	-0.21437413537513064
134	0x3fdf8b4ef29b1a30	0.49287770931224184
135	0x3fe8864d225685ee	0.7663942022956556
136	0x3faad29879eed8c1	0.05238796699943427
137	0xbfa23aa46998265a	-0.0356036547564826
138	0x3f9391060d758510	0.019107908793903283
139	0xbfa7402dd5952f78	-0.04541152221881267
140	0xbfc8bdb64a1a2d2a	-0.19328955286287314
141	0x3fdf629e6c621b94	0.49039421638774994
142	0x3fe84f07ea62c026	0.7596473291250774
143	0x3fa7e213b3b29f1a	0.04664670532775812
144	0xbfa2f91329b7f10b	-0.037056540339081755
145	0x3f97e4b603a71d00	0.023333400700519924
146	0xbfa91b586ebd4cec	-0.04903675414848316
147	0xbfc5d044aaaafe13	-0.1704183419551418
148	0x3fdf2500953ac48a	0.4866334397621094
149	0x3fe81bae94ea01da	0.7533791454771361
150	0x3fa4c4db1a7d3c0c	0.040564391120476356
151	0xbfa3c5388163e053	-0.038614049715704944
152	0x3f9ab384ff231e48	0.02607543761476297
153	0xbfab0cc84263e704	-0.052831895927694134
154	0xbfc2f33ecb8dc2a3	-0.14804825724742895
155	0x3fdea6e0d064684c	0.4789354357795943
156	0x3fe7e90dcedcb056	0.7471989670061798
157	0x3fa1d91814b11d80	0.034859421277867675
158	0xbfa48a8758e80bc8	-0.04011939010890547
159	0x3f9c28fa436b01d0	0.027500067105167336
160	0xbfad5dc19a3fc4ea	-0.05735592849658551
161	0xbfc030e0518a5a3d	-0.12649158460108537
162	0x3fdde64d2758ad48	0.46718148081227584
163	0x3fe7cbfdb4847ff6	0.7436512494787155
164	0x3f9eb390864d4328	0.02998185939515277
165	0xbfa56c3a88b58843	-0.041841344059108575
166	0x3f9d76096251af90	0.028770586610718463
167	0xbfb00681b0825478	-0.06259928283027871
168	0xbfbb96f3434a4633	-0.10777206795526055
169	0x3fdcd31543feccae	0.4503834880844789
170	0x3fe7cf8c05b7aab1	0.7440853225392258
171	0x3f9ac8ec502aecd8	0.026157085793539675
172	0xbfa64e4975deb3ed	-0.04356603206483798
173	0x3f9e8a273c5fcad8	0.029823887882183125
174	0xbfb1ac1b495a4d96	-0.06903238812292609
175	0xbfb7d2b0525e58b7	-0.09305860529852593
176	0x3fdb7d2b31ea0cf4	0.42951469301642864
177	0x3fe803100e171a8a	0.7503738665771646
178	0x3f9815c68ba3f66d	0.023520567200640153
179	0xbfa71bd9f04cc20a	-0.0451343637308846
180	0x3fa01af4176c4fb5	0.0314556387512818
181	0xbfb39ed11726190f	-0.07664210143238769
182	0xbfb50928efba2e42	-0.0821710191032077
183	0x3fd9fe9f2913e5be	0.40616587649818914
184	0x3fe84e35ae7701b7	0.7595470817105284
185	0x3f95e00eaa4e599c	0.021362523216873805
186	0xbfa7fd447bd7ddbc	-0.04685415279157776
187	0x3fa0b75b1b431b8e	0.03264889438428674
188	0xbfb5e1355a125842	-0.08546765755667798
189	0xbfb36d15fca45ddc	-0.07588326852816557
190	0x3fd870714796874e	0.3818629454709609
191	0x3fe8b2a4d9c56299	0.7718071225491087
192	0x3f9465385ea492b0	0.019917374397794674
193	0xbfa8ef3e7b5eea50	-0.048700287399203845
194	0x3fa13d31b6c1f676	0.03366999965599586
195	0xbfb7e595ad538063	-0.09334693414302957
196	0xbfb2bc73505a6dbd	-0.07318802558659505
197	0x3fd6fe7dcb31c368	0.3592829212494082
198	0x3fe90c54e57f383b	0.782755325542673
199	0x3f934bb2ae68ea5c	0.018843452353602394
200	0xbfaa08cb509b606c	-0.05084834441157757
201	0x3fa1a81e576d01e0	0.03448576752862542
202	0xbfb9a4fd14080106	-0.10017377604527064
203	0xbfb1b306b95a489d	-0.06913797402583773
204	0x3fd5bdf67d2c2634	0.3397194120776448
205	0x3fe935a7a2a018c3	0.7877996612812911
206	0x3f924b3354b4d629	0.017864992184703752
207	0xbfab50797c97aee4	-0.053348347147986336
208	0x3fa1b81770a04acc	0.034607632158573404
209	0xbfbb12ab57674060	-0.10575362094755425
210	0xbfb06011dcc6796a	-0.06396590843221409
211	0x3fd4d2b3ec6c4334	0.3253602799241435
212	0x3fe928c7f9c072a1	0.7862281682933664
213	0x3f913b325a66a700	0.01682737995876149
214	0xbfad33056579a95c	-0.057029884945978465
215	0x3fa1a2d73645d9a2	0.034445500731567394
216	0xbfbc0593d55a1347	-0.10946010550294459
217	0xbfadbe90cd28ca1a	-0.0580945253790512
218	0x3fd46b4e0de3f7d2	0.3190493713044563
219	0x3fe8f306ca84d5dd	0.7796663241812741
220	0x3f90279975259848	0.01577605988986644
221	0xbfaefba4ec97dddc	-0.060513643151292235
222	0x3fa11330a27c198d	0.033349532923284554
223	0xbfbc280d465c6abb	-0.10998614280507983
224	0xbfa97d867a5d6b5f	-0.0497858070727577
225	0x3fd47446412e9b24	0.31959682813105617
226	0x3fe8c7d90930fc9c	0.774395482971062
227	0x3f8ec3b4bd2f49c0	0.015021717093905873
228	0xbfb07b8c6b322eb5	-0.0643852006634756
229	0x3fa14702fea0acc0	0.03374490125892171
230	0xbfbb9cf275bec15b	-0.10786357283246188
231	0xbfa28546577a1d6a	-0.036173055818887814
232	0x3fd4c3d8293c683c	0.3244533922858215
233	0x3fe8b45f07ea3e19	0.7720179705228843
234	0x3f8d843a4dfdfee0	0.014412360673076774
235	0xbfb19f04dcc7a27c	-0.06883268728382491
236	0x3fa233471c6a7b28	0.035547468394034276
237	0xbfba2a94c9f4c276	-0.1022122376496187
238	0xbf99a91368187dd5	-0.025059035519118773
239	0x3fd50e77fef02732	0.32900810142801895
240	0x3fe8f668ffe5e999	0.7800793645867997
241	0x3f905cc5e5ce5a7c	0.01597890105366638
242	0xbfb2e74e266759b7	-0.07384193837729112
243	0x3fa7341e810639cc	0.0453195126057043
244	0xbfb7c77a69f1aacd	-0.09288754545711271
245	0xbf8336456e273130	-0.009380857872110043
246	0x3fd58f03a89c4dc4	0.33685389963030965
247	0x3fe9eaebbbd2ab69	0.8099268597046435
248	0x3f9093bb303a27f5	0.01618854982238101
249	0xbfb4bcd699430af2	-0.08100644342179544
250	0x3faf86dc74926828	0.06157578394886826
251	0xbfb46fde469972da	-0.07983197425478342
252	0x3f67908020ee931e	0.0028765203964716953
253	0x3fd698958d956afa	0.3530629999783482
254	0x3feba4de25789c9e	0.8638754588945579
255	0x3f8dd431bf9600f0	0.014564884814490558

scatter f8 [100, 37]
0	0x3fd6ad667bdeadc1	0.3543335160890955
1	0x3fd637dc7a1441fd	0.3471594993762038
2	0x3fd5b3541921a553	0.3390703435348616
3	0x3fd52013610bb1e8	0.33008274533383863
4	0x3fd47f68b14ff221	0.32027642551091345
5	0x3fd3d6cde32f4f27	0.3099856108285501
6	0x3fd32ce25162eed4	0.29961450527092137
7	0x3fd286edd21bdbe9	0.2894854118198383
8	0x3fd1e84f03199d41	0.27980399420490093
9	0x3fd15374a968119f	0.2707187322960411
10	0x3fd0c923182dc776	0.2622764335748039
11	0x3fd04a14245b53d1	0.2545214037939419
12	0x3fcfada18813753e	0.2474862970765716
13	0x3fcedefe13c57cda	0.2411801907100884
14	0x3fce25a4773d90e1	0.2355237562397923
15	0x3fcd7ce529ca53ab	0.23037399807495026
16	0x3fcce22f2b7c84aa	0.22565259574279156
17	0x3fcc517d2b95fc76	0.22123684528557747
18	0x3fcbc80f60fba770	0.2170428489255829
19	0x3fcb459fdfad2281	0.21306227132506098
20	0x3fcac67f44b9d384	0.20918265205150643
21	0x3fca47702d7c4b3d	0.2053051206681519
22	0x3fc9c60908b2534a	0.20135605740201817
23	0x3fc942c981291f49	0.19735068136855663
24	0x3fc8be51336c189a	0.19330801974155493
25	0x3fc83861d8e68141	0.18922064867821045
26	0x3fc7b68e7914761a	0.18525868332010093
27	0x3fc73c5024ad7d5d	0.18152810851004633
28	0x3fc6cc0bf2bf54e8	0.17810201027774686
29	0x3fc66a20d0a86009	0.17511377514233598
30	0x3fc612b76b044425	0.1724461815397557
31	0x3fc5c023f82ca750	0.1699261628903579
32	0x3fc56ecd11271659	0.16744387948544917
33	0x3fc516fb5dce9270	0.16476385193267928
34	0x3fc4b0fdd9a9f043	0.16165135505787206
35	0x3fc441ef8fbe3d7c	0.15826220053393658
36	0x3fc396363db4a5f5	0.15302160275432156
37	0x3fd6a93e88af2e07	0.3540798506553248
38	0x3fd634c790208d7e	0.346971407651118
39	0x3fd5b1cb624fc14a	0.33897671318756706
40	0x3fd52031aa02cab8	0.3300899658453704
41	0x3fd480baa7a6ec67	0.3203570019938468
42	0x3fd3d8e69c1c00e0	0.31011357541139084
43	0x3fd32f4764af3f84	0.2997606738326726
44	0x3fd2894c5229c9c1	0.28963001273873706
45	0x3fd1ea679df330b1	0.27993193077851247
46	0x3fd15588fed06046	0.2708456505220095
47	0x3fd0cba6a16e701c	0.2624298645475862
48	0x3fd04d1d585d5a73	0.2547067034660479
49	0x3fcfb595b78ec37c	0.24772902930046914
50	0x3fcee75baa4559ea	0.2414354878807921
51	0x3fce2bba62d244db	0.23570947480451462
52	0x3fcd7c611c24b4e8	0.2303582560938715
53	0x3fccd84cb7002c6e	0.22535094199733713
54	0x3fcc3e05b2ec6e2d	0.22064276920797124
55	0x3fcbacaad0040bdb	0.2162068858816316
56	0x3fcb259f4d688e88	0.21208564071377034
57	0x3fcaa49ac4955cd2	0.20814833258439208
58	0x3fca244851b460a8	0.2042322539280168
59	0x3fc99cbae2de5a92	0.20009552075926657
60	0x3fc90cf99f6fd26f	0.19570846829414587
61	0x3fc878423081f1f0	0.19116999977622084
62	0x3fc7de7f7ea9dacf	0.1864776009058091
63	0x3fc74efa92e2539b	0.1820977418143713
64	0x3fc6cf09614bd596	0.17819325686256765
65	0x3fc65bdcb7f0783b	0.1746784113065035
66	0x3fc5fc4353ce64c8	0.17176095573521466
67	0x3fc5a5078942cd66	0.16909879877276096
68	0x3fc5482bbc65c035	0.16626497935385634
69	0x3fc4e3fde2e29368	0.16320775583622127
70	0x3fc474d1ed4dd054	0.15981506430728365
71	0x3fc3e7400354db8e	0.15549469149274525
72	0x3fc34ba4225c1afb	0.15074588468288383
73	0x3fc276f49161fb97	0.14425522898451668
74	0x3fd6b25384bf5f45	0.3546341701853531
75	0x3fd63c60f015fa1c	0.3474352211559635
76	0x3fd5b633022207be	0.33924555977148063
77	0x3fd52077487619ba	0.33010656429578555
78	0x3fd47cda0b68833a	0.3201203452500071
79	0x3fd3d13e224f8c73	0.30964616156251806
80	0x3fd324af49c4644e	0.29911405757736
81	0x3fd27ce18dc581ce	0.28887213559030733
82	0x3fd1dd7bc5b4c301	0.27914327914463405
83	0x3fd149000ff4f46f	0.27008058126722906
84	0x3fd0c06c2687f34f	0.26174453509138557
85	0x3fd044bdc26f6b58	0.25419563281837076
86	0x3fcfac5c2abc3fb1	0.2474475105923353
87	0x3fcee91ce5b518a0	0.24148904052907927
88	0x3fce3cc287cfa833	0.23622924453167257
89	0x3fcda3acfda9c686	0.23155748735330323
90	0x3fcd18bbe8a422be	0.22731732234412577
91	0x3fcc97accc7f3837	0.22337875352099143
92	0x3fcc1ad38ce67de9	0.21956867580318765
93	0x3fcb9d6aedff778f	0.2157415067767343
94	0x3fcb1a6e67d8a542	0.21174411841028912
95	0x3fca8d17f06208f2	0.20743083226631814
96	0x3fc9f50dde357c3c	0.20279095983548412
97	0x3fc9588b55f22d11	0.19801465698797263
98	0x3fc8bb4dbd9658c8	0.19321605450813295
99	0x3fc8259c63bbd780	0.1886477934819446
100	0x3fc7a0535f568588	0.1845802512662369
101	0x3fc72ef54f8d1463	0.181120551913554
102	0x3fc6d0d37174b6d1	0.17824786224212244
103	0x3fc68485f9dfa0fe	0.17591929150444935
104	0x3fc6383cb4dd6579	0.17359122115412243
105	0x3fc5dcedfa1ea34e	0.1708047362601754
106	0x3fc561509b0ce82c	0.16703231402226615
107	0x3fc4c5d164b28101	0.16228692452296659
108	0x3fc3f99bf93fa9f1	0.15605497045846975
109	0x3fc306f2b3364731	0.148649537568923
110	0x3fc1c559a07000ba	0.13883514722693296
111	0x3fd6b0236a7e7732	0.35450063133054066
112	0x3fd639d1c8e62c15	0.3472790204911587
113	0x3fd5b500427c687c	0.3391724252011341
114	0x3fd521fa637c092f	0.33019885745320016
115	0x3fd481948fca4180	0.32040895502088773
116	0x3fd3d8c5107df6a8	0.31010557756949675
117	0x3fd32e6e2854d0f7	0.29970888079266395
118	0x3fd2876c22417ba6	0.2895155272034863
119	0x3fd1e72b2165ee27	0.27973440419711654
120	0x3fd1502a7a629733	0.27051794006034696
121	0x3fd0c30035c1572b	0.2619019055322151
122	0x3fd04085c7bf7f63	0.2539381457008771
123	0x3fcf9307f392d2ab	0.246674531872164
124	0x3fcebcc6a61c2d68	0.24013598547785908
125	0x3fcdfa1458cff49b	0.23419432007350313
126	0x3fcd47a93a19fb1d	0.22874942147242275
127	0x3fcca473b8bc4663	0.22376867790494534
128	0x3fcc0cb804f86566	0.21913814776125234
129	0x3fcb7da99406ea97	0.2147724125660104
130	0x3fcaf97af7368d94	0.21073853560401956
131	0x3fca7c3edf99dfa0	0.20691667478581355
132	0x3fca05f5af78eed9	0.20330687587726606
133	0x3fc99265858b5582	0.19978016873089294
134	0x3fc91fa739d2d70b	0.1962784797994391
135	0x3fc8abe5b5863e97	0.19274588931556444
136	0x3fc8326e9a56f9ce	0.1890390637981469
137	0x3fc7b43c84507101	0.18518787823348506
138	0x3fc73228365c7275	0.18121817259170184
139	0x3fc6b5f89cccb540	0.1774283185599561
140	0x3fc63ad208e54de4	0.17367005762444798
141	0x3fc5c701e86dcdee	0.17013572548931627
142	0x3fc54ede8754c371	0.16646939857448786
143	0x3fc4cb8bb3cdaccb	0.16246172217811358
144	0x3fc44727e97ffe52	0.15842150594106613
145	0x3fc3a8e9218f4311	0.15359224451687983
146	0x3fc30e6302493f5c	0.14887654887797452
147	0x3fc22c0bfb6e7c70	0.1419692018216412
148	0x3fd6ac03d8c0afac	0.3542489639974018
149	0x3fd6354bd6fe8ca2	0.3470029449037587
150	0x3fd5afa9184c19da	0.3388464677122137
151	0x3fd51bc5e393655b	0.3298201296252807
152	0x3fd47b0bb1fbd6bd	0.3200101125834001
153	0x3fd3d3536c098d51	0.3097733073284035
154	0x3fd32adc7305e745	0.29949103577347486
155	0x3fd286f667238074	0.28948745796333886
156	0x3fd1eaa809200ea4	0.2799472893823156
157	0x3fd1580fe3fca155	0.2709998823579743
158	0x3fd0cff89d594db6	0.26269355169389585
159	0x3fd052f6a6dfc347	0.2550636891965507
160	0x3fcfc1efe59c16e6	0.24810599051868748
161	0x3fcef28daab5fe3e	0.24177714190953908
162	0x3fce3506f190097f	0.2359932593827345
163	0x3fcd8354884b7ab1	0.23057037978192832
164	0x3fccdd98a85ff9fc	0.22551258298331323
165	0x3fcc40b70d6d69df	0.22072494655260663
166	0x3fcbaeb0a7216097	0.21626861725485888
167	0x3fcb285f7d9673eb	0.2121695864888403
168	0x3fcaa8bf6d981cbe	0.20827477313307513
169	0x3fca2ce65d7dac51	0.20449523510919446
170	0x3fc9b4d4b642611d	0.2008310213029824
171	0x3fc93c46b4f1d21c	0.19715198359666963
172	0x3fc8c09cdb9c3f40	0.1933780739132036
173	0x3fc83c2b3fba578a	0.18933621036256582
174	0x3fc7b24a97bc119c	0.18512852105062627
175	0x3fc725ef95aa0709	0.18084521110363763
176	0x3fc69a147c33581d	0.17657714905243518
177	0x3fc618bafbff441a	0.17262971214816575
178	0x3fc5a38961ab8bb6	0.16905324238822822
179	0x3fc5356b28995869	0.165692705939992
180	0x3fc4c655c457fdc6	0.16230270468802938
181	0x3fc45d2344a962c5	0.15909233906383782
182	0x3fc3e6143f783191	0.15545895670983303
183	0x3fc3737e659c1ca8	0.15196208917061438
184	0x3fc2c3138df075de	0.14657825880651293
185	0x3fd6aeac52ba2c10	0.3544112022288468
186	0x3fd639d4cf2f55d9	0.34727974160099745
187	0x3fd5b5ccb9f50d15	0.33922117385755374
188	0x3fd5226bfc80da83	0.3302259412625192
189	0x3fd481526631bf46	0.32039318065561806
190	0x3fd3d7e0c472d020	0.3100511473123806
191	0x3fd32cdc4848660b	0.2996130662810123
192	0x3fd285c5593b3810	0.2894147273444796
193	0x3fd1e62644a02ee8	0.2796722097561841
194	0x3fd150ab81a6219b	0.27054870282202054
195	0x3fd0c5ee0be99ca9	0.26208068049749983
196	0x3fd0468f3cc01b63	0.2543066113725471
197	0x3fcfa4bdc2b4a2d4	0.2472150040350899
198	0x3fced28d248bbf1d	0.24080051693408047
199	0x3fce1466e6ecdc3d	0.23499761844297665
200	0x3fcd63e83a075db1	0.2296114238113041
201	0x3fccc30486b4d950	0.2247014672991079
202	0x3fcc2e45a84ea13e	0.22016211240885214
203	0x3fcba608cc814b00	0.21600446687315156
204	0x3fcb2a71ca3d5075	0.2122328031060793
205	0x3fcab353ffcdf08b	0.20859765997363797
206	0x3fca3a8e86f83e3e	0.20491201010053034
207	0x3fc9baf94db5509b	0.20101848883007709
208	0x3fc934384003df92	0.19690611959208276
209	0x3fc8a8c1e44fac96	0.19265006683358327
210	0x3fc81de9fa184683	0.18841290198956892
211	0x3fc79bd5f3f32361	0.18444322978600794
212	0x3fc7201345953507	0.1806663598785365
213	0x3fc6b004cbc53217	0.17724666547509635
214	0x3fc6479e96362f01	0.17406065306237653
215	0x3fc5df88e6c5f2d4	0.1708842398474163
216	0x3fc5711b7db8bbb4	0.16751426352263155
217	0x3fc4f982f2181f82	0.16386448689467775
218	0x3fc47ed0f7ca3b4b	0.1601201257621717
219	0x3fc3f8e7f8bdea3c	0.15603351255033882
220	0x3fc36860281b26e1	0.15162279089263733
221	0x3fc28746cd6463d3	0.1447533133403157
222	0x3fd6a88500772bbc	0.3540356163545615
223	0x3fd62fd853811f9d	0.34667022852635815
224	0x3fd5a901bb710bdc	0.3384403543934107
225	0x3fd514d9c060989d	0.3293976191220141
226	0x3fd4755576f072db	0.31966148963128455
227	0x3fd3cfd55fba18af	0.30956014965375805
228	0x3fd32ad87435dcb8	0.29949008320495407
229	0x3fd28a5c7f65152d	0.2896949047174811
230	0x3fd1f004371996da	0.2802744424901512
231	0x3fd15d88e6848142	0.27133390914425004
232	0x3fd0d2bc68f3e0a2	0.26286230325013993
233	0x3fd0500ed2b25bae	0.25488634658671117
234	0x3fcfad585358b52e	0.24747757024435074
235	0x3fced05bd346c118	0.24073360267858201
236	0x3fce098118414883	0.23466504749609748
237	0x3fcd5818b69375a1	0.22925099291653075
238	0x3fccbbacd7579d4d	0.22447739138372427
239	0x3fcc315d4ef86981	0.22025648456549266
240	0x3fcbb3ec69981fc1	0.21642832904785617
241	0x3fcb40eeddd2aa78	0.2129191001052566
242	0x3fcad07a86f7e8ed	0.20948726263288311
243	0x3fca5ee79ef4084b	0.20602126370801196
244	0x3fc9e729648a4b33	0.20236699494543017
245	0x3fc96ba29bc8f99b	0.1985972653073532
246	0x3fc8e9721983f011	0.19462419744365936
247	0x3fc85e513bf20ecc	0.19037833621052014
248	0x3fc7cf546c7b92fc	0.18601470276839638
249	0x3fc73d47ee957c0b	0.18155764722448028
250	0x3fc6ad80e5b01589	0.17716990676141744
251	0x3fc62be10cfb1fcd	0.17321408399425167
252	0x3fc5b0749e387f75	0.16944749570484033
253	0x3fc53daede23d32e	0.16594491812397777
254	0x3fc4da5117e9f7be	0.16291249911949807
255	0x3fc48707864f8ca7	0.1603707700552139

Maxvals f8 [11]
0	0x402d62bcd4d6dc30	14.69284691927723
1	0x402cbd835cfddd9a	14.370142847051103
2	0x402c64b9a08bb3a6	14.196728722623288
3	0x402c36056e51f6c3	14.105510184769974
4	0x402c0f0b63f861bf	14.02938377768521
5	0x402c015485c4748e	14.002597980719909
6	0x402bdcdab69e605c	13.931356150467927
7	0x402bc1a7f2c25bc7	13.878234468675045
8	0x402b98bb784d0453	13.798305282021976
9	0x402b596348b87ca9	13.674585602302914
10	0x402af98f45e454d0	13.487421211359475
