Data/SIMBA/Model_snap23.npz (npz, 261202 bytes, 5 tensors)

x f8 [36]
00000000: 0000 0000 0000 2640 3333 3333 3333 2640
00000010: 6666 6666 6666 2640 9999 9999 9999 2640
00000020: cccc cccc cccc 2640 ffff ffff ffff 2640
00000030: 3233 3333 3333 2740 6566 6666 6666 2740
00000040: 9899 9999 9999 2740 cbcc cccc cccc 2740
00000050: feff ffff ffff 2740 3133 3333 3333 2840
00000060: 6466 6666 6666 2840 9799 9999 9999 2840
00000070: cacc cccc cccc 2840 fdff ffff ffff 2840
00000080: 3033 3333 3333 2940 6366 6666 6666 2940
00000090: 9699 9999 9999 2940 c9cc cccc cccc 2940
000000a0: fcff ffff ffff 2940 2f33 3333 3333 2a40
000000b0: 6266 6666 6666 2a40 9599 9999 9999 2a40
000000c0: c8cc cccc cccc 2a40 fbff ffff ffff 2a40
000000d0: 2e33 3333 3333 2b40 6166 6666 6666 2b40
000000e0: 9499 9999 9999 2b40 c7cc cccc cccc 2b40
000000f0: faff ffff ffff 2b40 2d33 3333 3333 2c40
00000100: 6066 6666 6666 2c40 9399 9999 9999 2c40
00000110: c6cc cccc cccc 2c40 f9ff ffff ffff 2c40
11.0 11.1 11.2 11.299999999999999 11.399999999999999 11.499999999999998 11.599999999999998 11.699999999999998
11.799999999999997 11.899999999999997 11.999999999999996 12.099999999999996 12.199999999999996 12.299999999999995 12.399999999999995 12.499999999999995
12.599999999999994 12.699999999999994 12.799999999999994 12.899999999999993 12.999999999999993 13.099999999999993 13.199999999999992 13.299999999999992
13.399999999999991 13.499999999999991 13.59999999999999 13.69999999999999 13.79999999999999 13.89999999999999 13.99999999999999 14.099999999999989
14.199999999999989 14.299999999999988 14.399999999999988 14.499999999999988

intercept f8 [100, 36]
00000000: da9c ffc0 2a5f ec3f 1030 085e 56e7 f53f
00000010: 92ea 209a 3671 fb3f 7420 5130 5dde ff3f
00000020: c7da 9c12 f7ee 0140 f22c c7aa 55eb 0340
00000030: b3de d1d3 c8fc 0540 d680 f249 3a28 0840
00000040: d67a 45bf d761 0a40 2995 525f a68d 0c40
00000050: 5e8c ac5c 5e88 0e40 36cc 1f9c 3914 1040
00000060: 2dea 3a53 98a8 1040 5a22 db8b baf7 1040
00000070: 2032 a232 4b03 1140 b62f 0e71 6bcc 1040
00000080: 3805 5953 2f62 1040 d22a 727d 6f8f 0f40
00000090: 0ae4 a90a 400b 0e40 4eb5 44f8 2548 0c40
000000a0: cc46 0f18 1659 0a40 688c 028c 2c4c 0840
000000b0: 38d7 c01e 164c 0640 67cd eb8d aa71 0440
000000c0: ca40 947d 06d4 0240 12f6 a95d 5169 0140
000000d0: 006f 7dd1 db04 0040 067a a93c 3787 fd3f
000000e0: fabd 9a89 599a fa3f 3bbc 1963 c961 f73f
000000f0: fe88 bf4e 7e79 f33f f0bf 8c18 83ca ed3f
00000100: 893c 4aa8 5295 e33f 14a2 f2ca d3b2 c93f
00000110: 00ed 56f8 4c2e bdbf c119 ffc4 cc3c e3bf
00000120: e332 4193 f3d2 eb3f 7522 29e5 b6a6 f53f
00000130: 056d 505e aa44 fb3f d016 a6f8 39ce ff3f
00000140: bfad 73a4 aef3 0140 1aba 91a7 08fa 0340
00000150: 8604 dfed 6e0b 0640 f80f 3f6a ed27 0840
00000160: 5cb5 c2f2 814f 0a40 caa6 154a 3565 0c40
00000170: 1c96 df3a 204f 0e40 5545 11c2 b3ec 0f40
00000180: 8c90 7c57 ca8f 1040 f93d 739e 1bed 1040
00000190: 5604 ccf8 4f0c 1140 9a69 ae7b 6be7 1040
000001a0: 3a82 0aec 0e91 1040 4655 db68 070c 1040
000001b0: feda fbc4 34b9 0e40 df1a c3ec 9311 0d40
000001c0: 0a47 acfa cb1f 0b40 66f9 b22c 53e9 0840
000001d0: 1f4d 1fc6 ea95 0640 34ad 3b16 563f 0440
000001e0: dbdf 6f3d b30b 0240 26cc f158 4fba ff3f
000001f0: 22c3 3de7 ee72 fb3f 62bd 8924 3d76 f73f
00000200: 2a83 36bc 8379 f33f 88ef fb0b f6ba ef3f
00000210: ac51 79dc 3736 e83f 9903 8362 aa79 e13f
00000220: aa65 ea9e e7cb d43f e0f6 8102 19cd a1bf
00000230: e0b7 8397 8551 d4bf 9c60 be8f cf05 eebf
00000240: 884d 2c8c 8eed eb3f b4c0 f308 cabe f53f
00000250: 9587 2539 495f fb3f 8254 ef37 9be5 ff3f
00000260: bbeb 8c5c 53ff 0140 3dc0 b113 4805 0440
00000270: 25c0 7c38 5719 0640 117f 4b78 cd3f 0840
00000280: d05f 7faf 106c 0a40 c248 436a e689 0c40
00000290: f27e 14df 8377 0e40 25d1 bb8d c406 1040
000002a0: 76ce b400 8d99 1040 d329 1325 65eb 1040
000002b0: bc96 b30a fbfe 1040 ae86 3571 2bd3 1040
000002c0: b924 533f 4475 1040 5766 00a3 42c3 0f40
000002d0: 7550 49d9 534d 0e40 64fd 2fe1 8593 0c40
000002e0: 3c6e 70b5 a3ad 0a40 9dec 0d0a 2fa6 0840
000002f0: a990 93ca 25bc 0640 e403 ebe4 a50e 0540
00000300: 5d8c 276a 419c 0340 4425 7564 bd66 0240
00000310: a8d9 4d66 f548 0140 860e 580a 093b 0040
00000320: 8ca2 a625 a9e8 fd3f 46a9 e23a 18b0 fa3f
00000330: 4c04 6327 c6dc f53f 2630 87c5 10c1 ef3f
00000340: 16fa f31e 9948 db3f 869d 2f8b 6442 d3bf
00000350: b05f 2e5e 598a f1bf 66e8 c467 bfa0 01c0
00000360: 421d 409d 7f71 ec3f d611 bf8b 8dfa f53f
00000370: f815 036a 347e fb3f 8286 3b28 12d9 ff3f
00000380: 34e3 214b bcdc 0140 3c38 75ed c7c7 0340
00000390: 1614 f9c8 04cc 0540 3fd1 12e9 8cef 0740
000003a0: 0155 01d5 de29 0a40 b8bf 0c1e 8364 0c40
000003b0: c005 005e 8777 0e40 b00f 4a1e 241e 1040
000003c0: c6f1 ae21 b7c7 1040 8bb6 0e1e e32c 1140
000003d0: 2c00 25f8 4c4d 1140 5fac 46e1 b622 1140
000003e0: 29f7 582c 35b8 1040 bc9e 5dab 8610 1040
000003f0: b646 287c af6d 0e40 f49d 7fa6 7f6a 0c40
00000400: 336b b0c7 991d 0a40 1e87 aa4b 0ba9 0740
00000410: 3aae 58b6 4653 0540 39ac a247 bf49 0340
00000420: 45af 6b79 30a0 0140 2def a2a5 724e 0040
00000430: 1a3c 6369 ff88 fe3f 95e3 a006 a72e fd3f
00000440: e676 916f 2d11 fc3f 5ec5 db9b 0181 fb3f
00000450: 62ee 0d71 367f fa3f d542 ee3e bd19 f93f
00000460: d902 c9e0 eae7 f83f 624a e211 6252 f63f
00000470: fe51 7c0e 99c7 f33f 18b7 0099 d5ed e83f
00000480: 7be3 861c c6e7 eb3f fa7d 0804 ec8f f53f
00000490: aacd 0485 df0b fb3f 448b 3b87 4b7b ff3f
000004a0: c47d b47a 76c8 0140 5ff4 dee4 13d7 0340
000004b0: dd5a ba02 4afe 0540 8508 72e6 8040 0840
000004c0: 076a 5de2 7a8b 0a40 98fc 8352 d8c8 0c40
000004d0: 9ec0 1015 31c6 0e40 7e2f e45f 202d 1040
000004e0: daa9 415b c7b4 1040 e15c 0b32 6bee 1040
000004f0: c990 a458 89dc 1040 eb23 6091 1c85 1040
00000500: 6ab2 78af bbf9 0f40 ac1f 9c2c 1794 0e40
00000510: 0fcd 29dc 0502 0d40 b090 77c8 e666 0b40
00000520: e893 c3a8 1be3 0940 fdca 7d2a fe74 0840
00000530: 5a26 c316 961a 0740 7a53 253c dbe9 0540
00000540: 8472 6a9c 86dd 0440 f844 1471 ffd5 0340
00000550: 877c 5aaf 32d8 0240 ef02 de3b 83e6 0140
00000560: 5e2a 18ca a689 0040 140e 66d3 0fac fc3f
00000570: e6ac 7028 61d4 f63f e0f4 3bfc 6bb6 ed3f
00000580: 76ac 0c2b ddce d53f c0e1 09bc 15a5 d6bf
00000590: d401 67c1 32ad e9bf b0fd d20a bae4 f5bf
000005a0: 2d5b 98d1 825b ec3f 0ebc b9fa 57f5 f53f
000005b0: 5a72 eedc 1d94 fb3f 20fd bf63 150b 0040
000005c0: e259 9fdf e70d 0240 00e4 513d 2004 0440
000005d0: cdf9 e721 a604 0640 32dd 76f0 941b 0840
000005e0: 8ebf 6704 b147 0a40 0266 ca2b 1a70 0c40
000005f0: 70f0 6283 7774 0e40 a333 7c75 2d11 1040
00000600: 0e1c 00f9 51b0 1040 b570 ed83 1708 1140
00000610: 4d48 37c9 a913 1140 c36a fa78 38d4 1040
00000620: 0a49 9ed5 255b 1040 62e0 b2f6 1068 0f40
00000630: 7211 a2c9 b3dd 0d40 7886 3dca b33b 0c40
00000640: 4f9e 26dd a47e 0a40 dcbe 21f0 7ab2 0840
00000650: 8a3a f64b fbfa 0640 8da1 198d 325a 0540
00000660: 9692 80c1 08e4 0340 d0f7 3736 aa7e 0240
00000670: fd3c 7b7f 39ed 0040 46c2 1826 1447 fe3f
00000680: 8a95 c43c 16da f93f 1677 11d5 d9f2 f43f
00000690: 5300 e050 ada5 ed3f 73ef 1cd0 fd62 e13f
000006a0: a8f6 5512 18a4 cc3f b051 cb37 109e a7bf
000006b0: 50cc 96bb b924 bcbf b6b6 6a03 9de4 d8bf
000006c0: 78ce 1b6e da86 ec3f 2d9d 0430 83e2 f53f
000006d0: cc4a 95f7 d55c fb3f a32d c271 0cc8 ff3f
000006e0: 60b8 8e23 fee6 0140 323d 7b27 70ea 0340
000006f0: d7d4 cc36 7602 0640 1eb6 57b4 e531 0840
00000700: 94fe 6e26 7b6b 0a40 d62b 8742 f594 0c40
00000710: c394 c491 1088 0e40 0aef c757 d10d 1040
00000720: 2d99 c072 a89d 1040 5479 1ad9 c5e8 1040
00000730: d826 eb23 a7f8 1040 8f06 9a61 49cb 1040
00000740: 8c38 ce72 6f6e 1040 2631 85a3 3eb7 0f40
00000750: 4fa2 50f0 4829 0e40 1693 9b80 0047 0c40
00000760: 10d1 b958 e924 0a40 55aa 02cc 84e2 0740
00000770: 5c93 efcb 35c8 0540 9a75 578e 49f9 0340
00000780: 8a5f 2789 8ec1 0240 c00f 0790 af10 0240
00000790: 5230 c839 6f81 0140 4f51 2a50 a73a 0140
000007a0: 2455 9311 4ac5 0040 5f3a 4578 483d 0040
000007b0: 3347 a011 dca0 fe3f 9dcb 79ad cfec fa3f
000007c0: da84 8fae 1046 f73f c8ed 63f3 75d6 f23f
000007d0: 1b04 69ea b86e ec3f b583 ef57 e53f e53f
000007e0: 71eb c9a6 50e9 eb3f 0820 ad94 10a9 f53f
000007f0: d2f8 216f 4e37 fb3f 5aff 4301 bcb2 ff3f
0.8866170663358404 1.3689788506626464 1.715139963211787 1.99178809045591 2.241682191287825 2.4899094907792625 2.748429922907087 3.0196424271708606
3.297774786289078 3.5691649863316752 3.816586231246716 4.0197510141761565 4.164643574210044 4.241922555208101 4.25321654429402 4.199628607264392
4.095883657749532 3.9450368690935216 3.7554932435127784 3.5352286716430745 3.2934991721784623 3.0371943414952973 2.7871515657997428 2.555501087912194
2.353528004729104 2.1764247243397756 2.0023723951725287 1.8455116624460302 1.662683045880725 1.4613736983408347 1.2171614719487134 0.9309707145202974
0.6119778906739991 0.20076987657127232 -0.1139877420709361 -0.6011718604648238 0.8695009113376638 1.3532017661656515 1.7042640384814274 1.9878482544749438
2.2439854476740204 2.497086819777235 2.7555826743778793 3.0194958019728766 3.2888220754308986 3.5494180477006454 3.7886356925471443 3.9905772363205565
4.140420309999296 4.2315506704176125 4.262023818447309 4.225995953102393 4.141658485547447 4.01174701536849 3.840432681022661 3.633582925514346
3.390525778181545 3.113928174220905 2.8232017019560227 2.530925916382012 2.2557129668966645 1.9829858278651584 1.7155598671781225 1.466366903998129
1.2171666481082846 0.9915724023880879 0.7566184335833461 0.5461017536218719 0.324945359412221 -0.03476789622889753 -0.3174756984361675 -0.9382093245976821
0.8727486360316314 1.3590793943113058 1.7107631904877725 1.9935562310177208 2.249670718241274 2.502578882085827 2.7623733914442874 3.0311536214866313
3.3027662001368085 3.5673340131553184 3.80835699349688 4.006609167660177 4.149951945338776 4.229878024382248 4.249004523478728 4.206220406429265
4.114518155526803 3.9703419432160376 3.7877575850962395 3.5720326988954856 3.3347849059043977 3.0811444077967978 2.8418689562114037 2.6321523555966326
2.451296643573683 2.300165924859046 2.1606243126399995 2.0288258369562895 1.8693019362200713 1.667991857548786 1.366399911741854 0.9923175676317484
0.42630603811986256 -0.3009272917974716 -1.0962766341162755 -2.20349007672944 0.8888547965333731 1.3736701449243944 1.7183117047401293 1.9904958316405161
2.23278101632277 2.4725493003270724 2.724618501759788 2.9919679840915303 3.270444549658919 3.549078211559358 3.8083636611706595 4.029434655447332
4.195034529021035 4.293835134170545 4.325488927133886 4.283900756777341 4.1798903397846425 4.016138722981562 3.8035573673049283 3.55200128628689
3.2644534683908204 2.957541075841518 2.66566221674091 2.4110093685644896 2.203217457388663 2.038304609331951 1.908446704550221 1.8238897570538246
1.7541937215932477 1.7189956749174011 1.656057778948615 1.568783994505954 1.5566204815551627 1.395113057955904 1.2362299505085725 0.7790325153671089
0.8720427090803321 1.3476371915384093 1.6903987117810666 1.9676013262294 2.222882231362492 2.4800184135952317 2.7491646016236317 3.0314958575773425
3.318105476833128 3.598068852093615 3.8467733045327597 4.044068811704959 4.176541734583646 4.232830793326884 4.215367684406552 4.129991790287913
3.9969400128086834 3.822309826387899 3.625987739587465 3.425244871281471 3.235892599552688 3.0571254081381753 2.887981584387302 2.7391876887217537
2.608166906355395 2.479491122656892 2.355565423916747 2.2375549962165375 2.067212656843636 1.7920072801360947 1.426850469559946 0.9285182882737466
0.3407509727864587 -0.35382598269600507 -0.8023923661603996 -1.3683414862460772 0.8861707776694395 1.372398356815896 1.7236612920888974 2.0054118912663768
2.2567899199013803 2.5020146170249973 2.7522699974935905 3.0134676729463985 3.285005602279802 3.5547374173299895 3.806868578392873 4.016774974542304
4.172187700874032 4.257902203910068 4.269202369689151 4.207246675762408 4.08901151445958 3.925813605626943 3.7332530739387773 3.529151515963175
3.3118378903780363 3.087148548154671 2.872549622966578 2.6690417312094668 2.486344825493073 2.311848090727814 2.115832324932511 1.8923531997826486
1.6157438634630545 1.3092897723176455 0.9264742450323048 0.5433339180667488 0.2237577523737191 -0.04612780266839722 -0.10993538694201388 -0.3889534505241089
0.8914615774687737 1.3678008914665256 1.7101649924485853 1.9863399928752663 2.23778941897676 2.4894717297062465 2.7512020379314026 3.024363907744159
3.302480983984262 3.572733421087359 3.8164378536335746 4.013493892267215 4.1539628915837 4.227317230454293 4.2428250896716335 4.1985221147784975
4.107847017132496 3.9644749426862687 3.7701586508376645 3.534668926952132 3.268023198290514 2.985604852515545 2.7227588589179685 2.496722328228043
2.344510146631312 2.2581473590998655 2.1882004274575957 2.153639436999732 2.0963326809966407 2.0299233814360345 1.914272374011898 1.6828152443310735
1.45460575282805 1.177358580344718 0.8885159090351665 0.6640497891895537 0.8722308404534102 1.3537755782763288 1.7010025349732598 1.981136326736268

slopes f8 [100, 36, 7]
00000000: d4ab 2eff a7e1 a73f d8d4 32a5 3b72 dd3f
00000010: f5d7 2ca5 a8c5 f73f 267e 5daf 0f1a 663f
00000020: 9830 4e61 d099 6ebf 2cca 9576 47ec b0bf
00000030: 884f 70ab 85ea 82bf 9b91 ec17 35c8 703f
00000040: 517b 4bf3 a0fb df3f c10b 4dc1 4da7 f73f
00000050: 40c6 9c54 53c3 4a3f cd79 21aa ca7c 71bf
00000060: 1427 46bb d764 b6bf 43b3 a458 c50f 83bf
00000070: 824a 02a6 67cc 9abf 20b5 dbd1 a0fa e03f
00000080: 579b 9938 ec5c f73f 6008 a9d2 0a97 503f
00000090: 26c6 38d6 ba27 77bf 042f 6e19 93fd bbbf
000000a0: 918f 2142 8731 84bf 5ed5 e3a7 a3d0 a9bf
000000b0: ea92 ca86 e6aa e13f 8482 efac 54e3 f63f
000000c0: f093 f570 06d1 6d3f ff96 63ed 72f9 7fbf
000000d0: 7bcf 37c7 fea7 c0bf 27f4 12c0 b498 85bf
000000e0: acd2 22c9 3293 b2bf 26dc 96f3 6f11 e23f
000000f0: ea62 2a12 9b3b f63f c012 4952 3ddc 813f
00000100: 886e 3c00 a25f 85bf a462 188e a9f7 c2bf
00000110: d1f6 b624 4bf8 86bf fc01 e8a0 5344 b8bf
00000120: 1497 9ee2 2935 e23f 88d5 0d25 546b f53f
00000130: a0fa dc10 5c2c 903f c0d1 15f5 e2ce 8abf
00000140: 841a 54e9 c1b7 c4bf dccc 9ca0 a940 88bf
00000150: 5343 8981 f43b bebf df31 c632 d41f e23f
00000160: 5f10 30a6 5e78 f43f c0aa 42b1 83bb 983f
00000170: 004e 2149 7942 8fbf c995 e425 c4c1 c5bf
00000180: 1240 2c99 9494 89bf 5149 8b8b a440 c2bf
00000190: ebfb c132 ecdd e13f 3975 2fc8 e468 f33f
000001a0: 460e 5124 e4e6 a03f 9085 00a4 8507 91bf
000001b0: 2404 fd14 bd01 c6bf 62b8 a374 8fa7 8bbf
000001c0: bd51 57a6 d276 c5bf ffe5 a97e 7a7a e13f
000001d0: b42f f7b9 4444 f23f d03f 42c2 a951 a53f
000001e0: d08d 91e9 a271 91bf 50f2 5db5 bf6e c5bf
000001f0: 634e 3077 24b9 8ebf f3af c31a df97 c8bf
00000200: 9b73 4648 c6fe e03f 97bb 8bf8 6913 f13f
00000210: 7243 5376 c862 a93f 9075 bbe8 863d 91bf
00000220: 654e 9bf7 621e c4bf d10a 82de 5bb3 91bf
00000230: c65a 64db fc71 cbbf e97b 364d bd74 e03f
00000240: ab5c 965d 0bc2 ef3f 2013 dd2e 7fea ac3f
00000250: e075 71c4 d5f4 90bf 0ca8 1e38 7330 c2bf
00000260: f256 0624 b99f 94bf 5bc4 3bf3 57cc cdbf
00000270: 1e1a 8634 a1c9 df3f a4b6 a81d ad70 ed3f
00000280: 4408 a99b 1fd8 af3f d40e bd15 e92d 91bf
00000290: a22b d38e 15a1 bfbf 64df 7d81 b932 98bf
000002a0: ba65 2ec0 1b80 cfbf d036 cdbb 52b3 de3f
000002b0: b11d 8d6b 274a eb3f 8898 528b 6106 b13f
000002c0: 3cc0 2adf 0a5f 92bf e093 ccc7 b55d babf
000002d0: bac2 28ee 270c 9cbf c0f4 c4b9 1a3a d0bf
000002e0: 20d2 54f4 7cbd dd3f 6323 386b 2c60 e93f
000002f0: b42c 92f4 62cc b13f 2af1 2d54 b4c2 94bf
00000300: 7e28 7871 d1f6 b4bf 2bb7 9fea 2ec7 9fbf
00000310: e0a9 ecab 4a57 d0bf 4e4c b90d bdf5 dc3f
00000320: 3e87 907d 4cc0 e73f f184 582a 2147 b23f
00000330: d06a ce3e 061c 98bf f491 7902 0f5a afbf
00000340: 5a1c 86d5 56b9 a1bf ec52 adae 0c1a d0bf
00000350: a0e5 89de 936c dc3f 1c67 6768 d469 e63f
00000360: b2fe 323a df75 b23f f055 af1d 4b23 9cbf
00000370: e0de 6fe2 2a74 a5bf 7595 19a8 f96c a3bf
00000380: 6ab7 7043 152e cfbf c6be 19d1 7927 dc3f
00000390: a7b3 1a8e 9e63 e53f 111a 6b3c c867 b23f
000003a0: a8be 595d f442 a0bf ec7d 6907 ec39 99bf
000003b0: 6456 abea e042 a5bf d624 441d 0ea8 cdbf
000003c0: ce15 f4c5 741a dc3f 56a6 c6f4 02a6 e43f
000003d0: 08eb 4726 4e1c b23f c820 590a d68d a2bf
000003e0: 78fc 7568 150f 83bf 66d5 0784 0883 a7bf
000003f0: 5225 e525 85bb cbbf a8b9 8987 e633 dc3f
00000400: bcab 5be0 7728 e43f 1405 26ea ef89 b13f
00000410: 60f2 b7c4 e5b2 a4bf f097 e8fe 0d0e 703f
00000420: b0a3 d59f a478 aabf d1b3 95f3 3581 c9bf
00000430: b2be 8bd0 d959 dc3f 2d0c 9646 b5d1 e33f
00000440: 5bbb 12bb 1ab9 b03f a4ee 029c f7a5 a6bf
00000450: 0bf9 4644 460e 903f 4ab1 4f04 3c70 aebf
00000460: 9e74 d57a 0515 c7bf 6266 5741 5f6d dc3f
00000470: 7c53 aeb8 2884 e33f 7819 e545 6359 af3f
00000480: 2291 04e6 004a a8bf 3001 27f2 e5d9 9a3f
00000490: dc09 014e 24a5 b1bf 5ef5 8c96 ec8c c4bf
000004a0: 1a5e 700c a84b dc3f 8235 22ba 6413 e33f
000004b0: f028 52f8 50d8 ac3f 677f e061 85a5 a9bf
000004c0: d8c9 4d4a c541 a23f 32d0 9116 8f5d b4bf
000004d0: a757 b065 cf1f c2bf e45a 4d1a 64e3 db3f
000004e0: 0d73 3946 fa64 e23f 7c7d 2d70 fb1d aa3f
000004f0: 8a0b 756a db9d aabf 8c91 aec7 a8aa a63f
00000500: 9633 9a42 7d20 b7bf a2b2 b0f7 9fd7 bfbf
00000510: 9cd9 a8a0 1834 db3f be6e a921 1f74 e13f
00000520: 2c9c 25ab fe7f a73f f283 3878 7119 abbf
00000530: 3fcf 8394 1cca aa3f e8f0 5914 6c9c b9bf
00000540: 39dc d200 c115 bcbf 8299 cd16 994f da3f
00000550: a0eb 26a3 5b3d e03f 0be0 b3dd 861f a53f
00000560: 1ee4 c70b ca61 abbf 1a46 166b 8f60 ae3f
00000570: 8293 40b1 fd65 bbbf c10c b653 46dc b8bf
00000580: 241e 37c9 b140 d93f b6a9 5967 e4c5 dd3f
00000590: 30c0 e16f 3d0f a33f 5f81 1359 747d abbf
000005a0: 71a5 fa3b 48e9 b03f 492d 89fb e592 bcbf
000005b0: fe48 98ef 2eb4 b5bf 443a 733e e049 d83f
000005c0: ca69 5716 80fd da3f a481 6a36 8946 a13f
000005d0: dc89 52ce 9a58 abbf faba c220 9665 b23f
000005e0: 9630 8fc4 ca25 bdbf f209 9883 c6d9 b2bf
000005f0: b4a8 a7cb 008e d73f 6df0 d961 5ea6 d83f
00000600: d847 a39a 45b7 9e3f 505b 325b 8124 abbf
00000610: 50d6 b6dc 6bb0 b33f 7534 6a73 1765 bdbf
00000620: 13ba 230e c8f0 aebf 5360 f1cb 0f25 d73f
00000630: 666b 9cba 3db4 d63f 3861 00b4 a5d3 9a3f
00000640: c8a3 eb59 b2cc aabf c4d8 d982 11f1 b43f
00000650: 882d 29f5 0096 bdbf 74eb 7230 fa61 a7bf
00000660: ba72 3dd1 0723 d73f bd77 bcac a391 d53f
00000670: d051 7303 c57e 963f b87c 653c 484e aabf
00000680: 37d9 529f cb9a b63f 240a 1a6a a0ef bdbf
00000690: dea7 a937 944e 9cbf 20e8 f34e f87e d73f
000006a0: b536 3d6d 8aca d43f f84c 3319 7137 913f
000006b0: 0011 8932 9ff9 a9bf ed02 d101 d9e7 b83f
000006c0: a213 ff69 a03b bebf 5dc9 baf9 948d 79bf
000006d0: f904 c965 caa2 d83f 2c43 04e6 e2f0 d43f
000006e0: d8d2 8923 e79f 833f e851 4505 28d7 a9bf
000006f0: ca64 bd33 76f3 bb3f 069a b894 7166 bebf
00000700: 223c 9c21 cac1 913f cba4 619d e984 d93f
00000710: 2c2e 07a8 daa2 d53f 806b abf4 6917 5c3f
00000720: 2031 d3cc f144 aabf 7447 ae22 34c8 be3f
00000730: 85e7 c288 6b81 bebf f3c7 72d7 da42 a83f
00000740: 27e4 d5ee 4a48 da3f 8203 edcb 31b6 d63f
00000750: 0086 1878 5ac0 83bf 8c38 8975 e207 abbf
00000760: 07b9 8df7 b086 c13f 7d9b 1256 3e2a bebf
00000770: 548a 662d 7e1b b23f 0f96 56eb dd88 db3f
00000780: 02b8 064b ab41 da3f d05f 3f33 8e78 97bf
00000790: 4497 6da5 670a afbf 8a33 899e b6cd c33f
000007a0: 7665 db59 2b6f bfbf e2dc d2a2 d71e bb3f
000007b0: 661e 5a89 52dd db3f 3279 a75e da69 e03f
000007c0: c07d 41bb 2cc9 a4bf a44d fca6 db35 b1bf
000007d0: b8e0 51ad 1a10 c43f 122c b128 d01a c0bf
000007e0: b234 8615 e3ae a83f b908 d0c7 0e69 dd3f
000007f0: c615 3f6f 95c6 f73f c841 68a6 2a64 643f
0.04664349546450067 0.46009722836181544 1.4857565357356155 0.0026979738567403265 -0.003735453598386295 -0.06610533375877797 -0.009236377996820769 0.0040971826518084965
0.4997331977773927 1.4783456373995565 0.000816741646508308 -0.004269401224603131 -0.08747623750801053 -0.009307424323731111 -0.0261703677247831 0.5305942629617313
1.4601862154902017 0.001012573785047731 -0.005653123694672446 -0.10933799143657202 -0.00986009283605663 -0.050419916386014604 0.5521118767397557 1.4305006747528362
0.0036397100263223445 -0.007806252417344116 -0.13012680747453573 -0.010545169936785182 -0.07255856905505692 0.5646285779574824 1.3895521840660714 0.008720854829456726
-0.010436311371044185 -0.1481830543350685 -0.011215769823020779 -0.09479258230567916 0.5689896989976853 1.338703293554632 0.015794218568084717 -0.013089917282493313
-0.16185783284182176 -0.011842084135059876 -0.11810234224800568 0.5663853637393536 1.2793871394833543 0.02415281075870257 -0.01526350740838378 -0.16997577524413846
-0.012490425991501328 -0.14259774030376574 0.5583401671755132 1.2131088084928037 0.03301155989950337 -0.016630256781473174 -0.17192805790730958 -0.013503189799362218
-0.16768868562816222 0.5462009881877633 1.1416671051292555 0.041638665164213884 -0.01703505087460916 -0.16744228702363495 -0.015001568686819405 -0.19213475043159142
0.5311004077553777 1.0672397335835961 0.04958177990341185 -0.016836269335603726 -0.15717732515496433 -0.017285762267884423 -0.21441612923145764 0.5142504222930003
0.9924370601537665 0.05647656867089368 -0.016558971514646248 -0.14210357895109416 -0.020140545676972495 -0.2327985704100993 0.49668150071411954 0.9200044230726303
0.06219576621198589 -0.016776697112858965 -0.12355169999061258 -0.02363099911551049 -0.24609705814218136 0.47969501819612237 0.8528020001039548 0.06650361682349815
-0.01794068324187513 -0.10299240234287721 -0.027390121375165256 -0.2535464109567549 0.4646904359863431 0.7929899305464513 0.06952494116756008 -0.02027398837843567
-0.08189114589927901 -0.031033261366182046 -0.25532786168574084 0.4524986871740041 0.7422239735062488 0.07139785083610996 -0.023544404586213485 -0.06123396783076265
-0.03461715084545665 -0.2515899377661259 0.44412705166140576 0.7004186667574888 0.07211108370665434 -0.0274783837192753 -0.04190191282390088 -0.037940789957057776
-0.24359384339316686 0.4399094144818999 0.6684105658983882 0.07189609026963974 -0.031760822673161215 -0.024635017349622076 -0.04152586807837791 -0.23169113568318406
0.4391147549761997 0.6452650814801 0.07074440416901606 -0.03623837353058118 -0.009306113481896569 -0.045921579472557636 -0.21666015959116663 0.44066775547153236
0.6299399740213327 0.06851100412861327 -0.04042737985944167 0.003919653578611446 -0.051701683531809706 -0.1992556990984711 0.44298405996139956 0.6193491343150349
0.06532446925369355 -0.04423497943340962 0.015679452817260613 -0.05945003082874452 -0.18032902238602316 0.4441755426501911 0.609882698731425 0.06122884968003722
-0.04743960197291332 0.026221840767676585 -0.06892611412425914 -0.16055066443542904 0.44211770262470085 0.5961173663542214 0.05633786231290283 -0.05009095020090975
0.035658040352149534 -0.07955259610190593 -0.14159576859736697 0.4357538468224631 0.5748263713427108 0.05100999588352814 -0.051985604043259206 0.04427077710650726
-0.09033949733766486 -0.12438392445683147 0.42505469979678323 0.5454250009019785 0.045898397819478326 -0.05292849152124991 0.05232323944974703 -0.10004306313379951
-0.10970693845853043 0.4111082766234163 0.5074899851382391 0.04125615555125258 -0.053480447710122045 0.05933044607366984 -0.10702500894019631 -0.09711112540940105
0.39457363748485563 0.4652033814697022 0.03722564688439467 -0.053691516755636874 0.06605960335095575 -0.11161649123203178 -0.08478062962993602 0.37950903032916394
0.42172243291647915 0.0337412718702155 -0.05341037529548817 0.07186258601971565 -0.11385791109859364 -0.07363548958532087 0.3680421818559225 0.38515433841508334
0.02999600178083725 -0.05301288831940687 0.076910725961022 -0.11482378547425916 -0.060430766798038736 0.3616370669965409 0.354751045453375 0.026197995292109172
-0.052342961765880214 0.08180341190913781 -0.11557012544033374 -0.04566938249032307 0.3615130942687689 0.337014120757768 0.021967962585067558 -0.05137849557171975
0.08829949035393701 -0.11693766203283268 -0.027643504998572037 0.36712463102560555 0.3248621050632708 0.016813056147680222 -0.05073258869063757 0.09728771490427919
-0.11809732997706004 -0.006238538680621933 0.38493595066036296 0.3272025343185756 0.009582334301037873 -0.05046963753071393 0.1091836811368864 -0.1187506664360641
0.017340811063203294 0.39873733872680067 0.33806482705105867 0.001714566681292523 -0.05130725503258504 0.12024236532877614 -0.1191622933282855 0.04738506202683359
0.410662396657758 0.35487027086860945 -0.00964422873500137 -0.05279452976957186 0.1369229515798411 -0.11783208466895974 0.07073200806056806 0.4302286909317851
0.41025812460691224 -0.022920820119764873 -0.0606262578428827 0.1547153734303744 -0.12279005950712993 0.1059393665808446 0.43538344777377913 0.5129215096201618
-0.040597341402413445 -0.06722805811687366 0.1567414613998659 -0.12581827151220232 0.048209282281371016 0.4595372153563733 1.485982355648376 0.002489169407688705

scatter f8 [100, 36]
00000000: 3e3a 8f55 d7e5 d43f 4bf9 322e 39a0 d43f
00000010: ad57 5101 cc4b d43f 1c73 581b dbe5 d33f
00000020: c54d 138b b66f d33f 9b20 c4d6 4dee d23f
00000030: 7f08 18c3 1167 d23f 1a55 83f0 86de d13f
00000040: 5438 d05e b858 d13f 9d40 145a 6fd8 d03f
00000050: e29e a689 e35f d03f 32c9 6874 a6e1 cf3f
00000060: 7491 ca50 ad18 cf3f bcbb 3f38 cb65 ce3f
00000070: 1aba 31f8 37c5 cd3f 7bd2 bfec 8f34 cd3f
00000080: e200 26eb 90b0 cc3f 0e1f 83cc 5834 cc3f
00000090: a262 2d44 85bc cb3f ad78 d71a 6c47 cb3f
000000a0: b098 a1d5 61ce ca3f 91ae 6ca3 554e ca3f
000000b0: 6170 c14f f2c6 c93f b792 df13 473b c93f
000000c0: 75b1 9ba5 6ab2 c83f 5976 45b2 5d2f c83f
000000d0: e2c8 433c 67be c73f 039a 18de f45e c73f
000000e0: 3084 bd63 a80e c73f fc45 ae0a 42d1 c63f
000000f0: 9213 3350 c6a7 c63f 1e3c f488 7886 c63f
00000100: aabe 26ee 2767 c63f 3d22 c521 6640 c63f
00000110: 108f d730 bef9 c53f e726 6165 ae89 c53f
00000120: eb8d 5d28 cee3 d43f 4f5e 1c90 ec9c d43f
00000130: aff6 68d2 3e47 d43f 3285 7313 56e0 d33f
00000140: 04ea 3c7c bd69 d33f 496f 0356 6be8 d23f
00000150: d113 ebe9 9261 d23f 87af df2a 0dda d13f
00000160: 0707 6f80 7155 d13f 151f 6e02 6bd6 d03f
00000170: 3b30 43b4 665f d03f 648a 42f3 55e2 cf3f
00000180: 4017 7bd1 1d1a cf3f 90fe ebab 6f64 ce3f
00000190: b9f4 90e4 42be cd3f 671e a84a a425 cd3f
000001a0: c177 8d8e 9b98 cc3f 57c0 5e03 9f13 cc3f
000001b0: 808d dadd 7097 cb3f 445c 6d36 ad21 cb3f
000001c0: c5a2 7bec e2ab ca3f 22ab 9b6f 2331 ca3f
000001d0: e3a9 e6d2 bcab c93f 0122 5fcd f01d c93f
000001e0: e779 f25f 4e8b c83f 69d7 d710 0efa c73f
000001f0: 5c87 3c49 b575 c73f 6756 9cbf 8f05 c73f
00000200: 0228 c933 0eac c63f 52d0 2cbc 0175 c63f
00000210: 860b 028b fe66 c63f 6f13 d277 647c c63f
00000220: 3184 3bdf 5ba5 c63f b038 3612 4ddc c63f
00000230: 9ba5 5654 0df5 c63f a5cf 10f4 33fb c63f
00000240: 93c0 1baa 29e8 d43f 6a72 953c 5da2 d43f
00000250: 2416 bf41 8e4d d43f 0aca 5fc8 eae6 d33f
00000260: 4c15 58de 1770 d33f 2013 24c8 2eee d23f
00000270: f26d de93 7066 d23f 6a86 d6b4 e3dc d13f
00000280: d73c 6af9 2356 d13f 392e 2be6 6dd4 d03f
00000290: 01a8 d3e8 f259 d03f 1861 1bfe dbd1 cf3f
000002a0: 20ea da41 9605 cf3f 907b ec6c 8f4f ce3f
000002b0: f2d4 36b9 e6ab cd3f ab85 435c df19 cd3f
000002c0: 6928 25b1 2f98 cc3f 2840 0311 3520 cc3f
000002d0: 2f4a d8aa 00b0 cb3f 33cb 1b96 e746 cb3f
000002e0: 6624 e2dc f9dd ca3f e34e 688d be71 ca3f
000002f0: 1a19 8656 6600 ca3f 67f0 f961 348c c93f
00000300: 5e61 9489 1418 c93f e6e2 e515 5faa c83f
00000310: d828 f558 0248 c83f ffac d8f3 88f3 c73f
00000320: 79e4 61f5 caac c73f 4212 a606 af7e c73f
00000330: f36a 3523 ef6e c73f 27af c50a 8b78 c73f
00000340: 83b8 3b0d 9f95 c73f 24e9 b481 17a6 c73f
00000350: 3e5a 72fc 0b9a c73f 3d67 bc28 af63 c73f
00000360: da2f d801 8aeb d43f 52dc ddc8 6ea5 d43f
00000370: 8fc9 4712 1950 d43f 4887 ddf3 f6e8 d33f
00000380: c831 04ea 4a71 d33f 789b bf25 63ee d23f
00000390: 3d8a d87e af65 d23f 07b4 f117 6ddc d13f
000003a0: f28c 3fe3 5a56 d13f 17ca 494c 0bd6 d03f
000003b0: a47d f9e7 865d d03f 373e 8098 ccdc cf3f
000003c0: 11c9 34c7 9711 cf3f c123 36f1 975b ce3f
000003d0: d24b dd0f f4b6 cd3f 2926 ab46 4321 cd3f
000003e0: 95e1 44b4 e599 cc3f 1c8a b044 f31b cc3f
000003f0: ca82 2b2f 74a6 cb3f 6c15 543b 9636 cb3f
00000400: d57b dbc2 4dc5 ca3f 61b2 6cd7 7e4b ca3f
00000410: a11a 3712 adc6 c93f b410 ea4d 2038 c93f
00000420: 6099 b632 e1a4 c83f 5fcd 3de7 9f0e c83f
00000430: 5e8a fe17 a981 c73f 8496 4b04 3a02 c73f
00000440: a83d ad17 f18d c63f 8b79 375a 1f26 c63f
00000450: da34 2312 ffd4 c53f 838d 0e13 1487 c53f
00000460: 9fea 4ad8 8634 c53f 1575 a54a 2ede c43f
00000470: 22b9 4bf9 c66a c43f f40c 0a2f bcda c33f
00000480: 5f30 f445 ccea d43f fe6c 478d 86a4 d43f
00000490: 1748 d8b7 c64e d43f ae39 744e 41e7 d33f
000004a0: 3d81 7396 af6f d33f 8107 8c4c 7bed d23f
000004b0: 37fe e71a 4566 d23f c103 7716 3ade d13f
000004c0: 6c2b 0584 a059 d13f 94c6 84ba 8eda d03f
000004d0: 2ae4 d95a 4d63 d03f b72b 1526 b5ea cf3f
000004e0: 234b 82e6 1f23 cf3f e50a 8be1 586f ce3f
000004f0: d15a 9983 77ca cd3f 2e42 8c19 6631 cd3f
00000500: 0499 65a7 389f cc3f e698 5882 f311 cc3f
00000510: beba a718 1386 cb3f f668 4c0a 1efe ca3f
00000520: 17c2 9ab7 0676 ca3f 79ab d641 9aee c93f
00000530: daa4 45f8 6f6a c93f d822 5a70 c7e8 c83f
00000540: 1c69 6812 2d71 c83f 3158 f5c4 d201 c83f
00000550: fa58 86f4 28a3 c73f 3a22 0849 7c56 c73f
00000560: 3515 2f95 e616 c73f 0569 40ba 48f9 c63f
00000570: d4f2 76fc bced c63f 1199 43c7 d7ee c63f
00000580: efe5 f446 82ea c63f 1fb9 7142 eabd c63f
00000590: f424 f9e8 2763 c63f 7ceb 97f9 7fe4 c53f
000005a0: 34c4 2750 87e6 d43f 8635 18df ba9f d43f
000005b0: 67ae 3066 e149 d43f ca6e 42f7 3ee2 d33f
000005c0: ce5e 7358 8e6a d33f 824b 402a bee7 d23f
000005d0: 6479 011f 845f d23f 3be6 35d5 45d6 d13f
000005e0: 5535 f31a 744f d13f 2bf7 c0be 91cd d03f
000005f0: 58b1 c5d3 fe52 d03f c2ed 34d7 dcc5 cf3f
00000600: 7435 0cbd 14fc ce3f 9606 a955 8e4b ce3f
00000610: 4183 5989 57b0 cd3f d9fc 8f0a df24 cd3f
00000620: 39f0 2eff 8da3 cc3f e319 d833 4526 cc3f
00000630: 0408 f022 78a9 cb3f 9b37 e714 f72a cb3f
00000640: 1f72 8398 b2a6 ca3f d082 b80f 641a ca3f
00000650: 8471 c31f 6287 c93f ba23 3309 b2f2 c83f
00000660: 912d 71b3 bb63 c83f 2d16 9aec 4bdf c73f
00000670: 7b98 7c49 476c c73f 5e59 a4bd d50d c73f
00000680: 697e 62c8 86b5 c63f 6556 8f8f e663 c63f
00000690: 365d f84a e715 c63f 5eae 6ef0 51bd c53f
000006a0: e47d 4b8d b442 c53f e5a3 a778 d4b3 c43f
000006b0: 6064 9778 02ea c33f 7050 4fd8 891a c33f
000006c0: f0f1 0537 7ae9 d43f 89e3 851f 1da3 d43f
000006d0: 975d ac38 0c4e d43f 3b56 039e bfe7 d33f
000006e0: cb3e b358 4571 d33f 665d 4986 82ef d23f
000006f0: 8053 7d9f 3568 d23f f45a 5549 a6df d13f
00000700: 260f 37d9 ae5a d13f 4fe1 90e3 6adb d03f
00000710: be91 9a28 0164 d03f 46aa 742d 0cec cf3f
00000720: 3376 5812 5d23 cf3f 7a14 531b fe6e ce3f
00000730: 1167 8501 c1cb cd3f c2c6 4eb3 a438 cd3f
00000740: cf28 cc06 d0b5 cc3f a16b 090f d73e cc3f
00000750: d820 6b75 20cf cb3f 9cda a059 7662 cb3f
00000760: a590 34b2 1fec ca3f e62d 09db ff65 ca3f
00000770: e985 4b9f 4bcd c93f ea86 7cad aa27 c93f
00000780: 37c2 792d 697e c83f 65c9 3091 84d6 c73f
00000790: 9189 9a1f 8b3d c73f 8a21 16ea c4b8 c63f
000007a0: 7b8e 4994 0845 c63f ee95 cbd4 21f1 c53f
000007b0: b4f9 aac4 acb9 c53f 055c ae48 ce9a c53f
000007c0: cd67 dca9 8482 c53f bb60 846b 7073 c53f
000007d0: 66b0 33f4 8d74 c53f c35c 27b2 e06b c53f
000007e0: 2e75 39df 48e7 d43f 79d2 2790 96a2 d43f
000007f0: 817b d799 694f d43f 7e25 02d2 ecea d33f
0.3265283904592343 0.32227925788528883 0.3171262753361315 0.3109042899175607 0.3036934240492111 0.295794925434629 0.287540855904929 0.2792069767723021
0.27104005107037676 0.2632101421049898 0.2558525890585611 0.24907379802750423 0.24294058270346464 0.23748150106936616 0.23258113497600236 0.2281665712358921
0.2241383693872257 0.22034749971339135 0.21669069127053314 0.21311713514928013 0.20942328387463283 0.20551557998384287 0.20138386625592644 0.19712151022317467
0.19294484220825905 0.18894549564986354 0.18549814646355062 0.18258534283195624 0.18013481969959022 0.17826104661484965 0.17699507633201655 0.17597872435769174
0.1750230706070302 0.17384030007294085 0.17168404946198068 0.16826419782801524 0.3264041322892967 0.3220778853733223 0.31684847400525035 0.31056739711319203
0.30332886822330374 0.2954357471442007 0.28720543712216534 0.2789338034333401 0.27084004919389354 0.2630870364887284 0.25582282642131177 0.24909471872259126
0.24298451164775692 0.23744007010099155 0.2323688140913072 0.22771123547885283 0.22340721569611158 0.2193487898307491 0.2155591090459943 0.21196522862985223
0.20837055727976952 0.2046245856248215 0.20055351541425556 0.1962262156287267 0.19175128636284386 0.1873185713044976 0.18327966762540882 0.1798572240447129
0.1771257164821805 0.1754457634757523 0.1750181368589347 0.17567115641227413 0.17692135238670084 0.1785980547833268 0.17935339563454708 0.17954110543507543
0.3266700898375429 0.3224099246633957 0.31723362370061836 0.3109690624980038 0.3037166282013757 0.2957875208378926 0.28750242653197156 0.2791070238109571
0.27088260037358 0.2629656551114042 0.2554900430392309 0.2485918989903062 0.24235799995024454 0.23680298632185925 0.23180851024304833 0.22735206608835531
0.22339435720124648 0.2197328885145009 0.21630867330584766 0.21310133771438586 0.20989917073555658 0.20659620194111658 0.20313719963832783 0.19959120544433803
0.19604737012628964 0.19269932336080514 0.189697545467715 0.18711959749757764 0.18496071797907002 0.18355357956547108 0.18307294100926405 0.18336618448244588
0.18425357957989172 0.1847562201817904 0.18438863588808546 0.18272962082920144 0.326876165200472 0.32259721389659035 0.3173887899894447 0.3110940343377604
0.3037898335758453 0.2958000057828296 0.2874563921670051 0.2790787442998525 0.2708956927510392 0.2630642170908301 0.25570843366400653 0.24892575689635674
0.24272439219345945 0.23717021253494688 0.2321457936728551 0.22757760000813335 0.22344657232475798 0.21960297445282684 0.21601726821156425 0.2126033582391459
0.2091462327434487 0.20542893904475348 0.20137561215797908 0.19702533535394695 0.19253172851785916 0.18794630805096355 0.18364442512127516 0.17975545129518278
0.1762067189797396 0.17303840546714996 0.17056263337727878 0.16818476610670183 0.16566548882641016 0.16303042073096977 0.15950858280798125 0.15511276528204798
0.3268309291022486 0.322541845290928 0.31730812028502114 0.31098969136737764 0.3036917657136831 0.29574472880641883 0.28749206187783066 0.27918865388715736
0.27109539883229306 0.26333969320976647 0.25606092331105634 0.249350207896297 0.24325941806144966 0.23777304661606205 0.23274129796728585 0.2280700325723201
0.22360904859233 0.21929782738261067 0.21502913192622047 0.21088004591803838 0.20672687497200634 0.20259407248280661 0.198560711123071 0.1946038530916414
0.1909538593179797 0.18755564324482202 0.18466674747168793 0.18232682767872338 0.18038637432452168 0.17948254675213363 0.1791301949250711 0.17916390638055948
0.1790316435306489 0.177670748179886 0.17490099788327707 0.1710357636182741 0.32657034709615407 0.32224914347246914 0.31700930575855185 0.31068395754276124
0.3033786643768338 0.2953944599732311 0.28707983997255426 0.27870317288725105 0.27047445899809947 0.2625469553785133 0.25506563835985707 0.24822578914777976
0.242067901905482 0.23668078596715664 0.23194402891660995 0.22768772140259477 0.22374129257321032 0.2199179175515403 0.21610929208696927 0.21224869270957644
0.2082122082419042 0.20393038528074792 0.1994440703482604 0.19490647744376394 0.190543615930761 0.18650197079493705 0.1829918965169702 0.18010970840323187
0.17741474899684143 0.17492372522126512 0.17254344139721817 0.16984009017811535 0.16609818362392936 0.16173797503805 0.15557890785456419 0.14924738943102822
0.32675032971727 0.3224556739656284 0.31726365599157574 0.31101980620346453 0.3037885061466851 0.2958685218231579 0.2876104409709157 0.2792754856249495
0.27115985119256647 0.26339218352543 0.25610379185880194 0.24939110011594517 0.24326671024111732 0.23776222547727227 0.2327805764605775 0.2282911181951502
0.2242984803381831 0.22066772684305838 0.21725850804637648 0.21394233108886318 0.21033092690880043 0.2062377757559794 0.20157761838986168 0.19652303191201465
0.19135775299538846 0.18623406495459985 0.1815656570734743 0.17751370840074926 0.17398173561661054 0.17142126932519325 0.1697288475315425 0.16878679798966814
0.16804559988014348 0.16758542299135634 0.1676194612877026 0.16735466669954321 0.32661649512540947 0.32242359235468815 0.3173469545708301 0.3112136889327174

Maxvals f8 [11]
00000000: ca43 7be1 e430 2d40 35e0 9ceb 806c 2c40
00000010: 34e9 1dc4 9c27 2c40 95ce 2bed 8df1 2b40
00000020: 4c33 50db 3aca 2b40 0285 30b7 b1b7 2b40
00000030: c41d 5cef 0696 2b40 6887 8029 3d79 2b40
00000040: 90d9 3b4e 4f4b 2b40 0f87 76d4 7414 2b40
00000050: 7a7b 61dc 09bd 2a40
14.595496221825574 14.211921084308509 14.077367905284156 13.971785937879114 13.894980290927968 13.858777737305449 13.793021659845984 13.736794754924361
13.647089428716555 13.539953841656397 13.369215857410143
