Data/SIMBA/Model_snap21.npz (npz, 261202 bytes, 5 tensors)

x f8 [36]
000000 00 00 00 00 00 00 26 40 33 33 33 33 33 33 26 40
       11.0 11.1
000010 66 66 66 66 66 66 26 40 99 99 99 99 99 99 26 40
       11.2 11.299999999999999
000020 cc cc cc cc cc cc 26 40 ff ff ff ff ff ff 26 40
       11.399999999999999 11.499999999999998
000030 32 33 33 33 33 33 27 40 65 66 66 66 66 66 27 40
       11.599999999999998 11.699999999999998
000040 98 99 99 99 99 99 27 40 cb cc cc cc cc cc 27 40
       11.799999999999997 11.899999999999997
000050 fe ff ff ff ff ff 27 40 31 33 33 33 33 33 28 40
       11.999999999999996 12.099999999999996
000060 64 66 66 66 66 66 28 40 97 99 99 99 99 99 28 40
       12.199999999999996 12.299999999999995
000070 ca cc cc cc cc cc 28 40 fd ff ff ff ff ff 28 40
       12.399999999999995 12.499999999999995
000080 30 33 33 33 33 33 29 40 63 66 66 66 66 66 29 40
       12.599999999999994 12.699999999999994
000090 96 99 99 99 99 99 29 40 c9 cc cc cc cc cc 29 40
       12.799999999999994 12.899999999999993
0000a0 fc ff ff ff ff ff 29 40 2f 33 33 33 33 33 2a 40
       12.999999999999993 13.099999999999993
0000b0 62 66 66 66 66 66 2a 40 95 99 99 99 99 99 2a 40
       13.199999999999992 13.299999999999992
0000c0 c8 cc cc cc cc cc 2a 40 fb ff ff ff ff ff 2a 40
       13.399999999999991 13.499999999999991
0000d0 2e 33 33 33 33 33 2b 40 61 66 66 66 66 66 2b 40
       13.59999999999999 13.69999999999999
0000e0 94 99 99 99 99 99 2b 40 c7 cc cc cc cc cc 2b 40
       13.79999999999999 13.89999999999999
0000f0 fa ff ff ff ff ff 2b 40 2d 33 33 33 33 33 2c 40
       13.99999999999999 14.099999999999989
000100 60 66 66 66 66 66 2c 40 93 99 99 99 99 99 2c 40
       14.199999999999989 14.299999999999988
000110 c6 cc cc cc cc cc 2c 40 f9 ff ff ff ff ff 2c 40
       14.399999999999988 14.499999999999988

intercept f8 [100, 36]
000000 2b c8 5a 1b ca 11 ec 3f 01 1c 26 b7 34 f4 f3 3f
       0.8771715673704014 1.2471205858471424
000010 4a 75 50 69 fd 0c f8 3f 27 56 eb be 47 42 fb 3f
       1.5031713594283524 1.7036817033562188
000020 a8 d3 a0 e9 90 47 fe 3f bd c1 0a db 55 c0 00 40
       1.8924721838095397 2.0939137566240036
000030 30 43 bd 0b 52 95 02 40 34 37 6e 00 9a a0 04 40
       2.3229103963025395 2.5784187348971503
000040 4c d8 b4 36 2f d1 06 40 fe 77 74 98 38 09 09 40
       2.852140834230374 3.129502478651374
000050 6d 59 fb 4c 27 1b 0b 40 3f 2f 69 b8 c7 df 0c 40
       3.388258553906033 3.609267655096033
000060 b1 7a 55 7b b5 38 0e 40 ce 52 b2 08 36 05 0f 40
       3.7776898990117265 3.8775444678707123
000070 7c 21 cf a7 d7 47 0f 40 25 9a 25 2d 70 02 0f 40
       3.910079298981314 3.876190521917368
000080 4c a1 2a 1f b0 57 0e 40 90 2e 72 3d 9a 53 0d 40
       3.7928163943180717 3.6658215332479998
000090 43 d9 52 4b ed f6 0b 40 09 90 cb 14 85 58 0a 40
       3.4955697903307352 3.2932225823042285
0000a0 ad 3e fa a0 50 74 08 40 66 59 94 05 d3 53 06 40
       3.0567944122666035 2.7909298358819568
0000b0 14 f4 74 57 3c 32 04 40 94 a9 fc f5 c9 14 02 40
       2.5245291550222735 2.2601508348208856
0000c0 4f 9f c0 02 ee 1d 00 40 6c a5 25 fc 72 ad fc 3f
       2.0146141257318173 1.7923459863180495
0000d0 b8 8e 46 f1 4b 50 f9 3f 80 17 f7 4c f2 ff f5 3f
       1.582103674395439 1.3749869352772919
0000e0 13 1c 08 c4 a8 66 f2 3f eb 15 35 f3 0f 25 ed 3f
       1.150063291310066 0.910774207128893
0000f0 85 b9 8c c3 dc ae e7 3f 2a 87 d6 81 3e a6 e1 3f
       0.7400955027895156 0.5515434776209294
000100 26 1e a9 2d 42 98 db 3f a7 dd 06 31 b0 c0 d3 3f
       0.4311681219009834 0.3086357573297058
000110 e8 57 18 ff 77 3b d4 3f 0e 67 1b e5 b9 a0 d8 3f
       0.3161296836054803 0.3848099458096933
000120 0e 17 91 82 5e b3 eb 3f 29 a8 c1 4f ea af f3 3f
       0.8656456518299096 1.230448066281051
000130 ed 0d ad 84 f6 b7 f7 3f fe 58 7d 53 df ea fa 3f
       1.4824128325134283 1.6823418866457014
000140 10 dd cf 70 14 04 fe 3f cc ba 2d 36 fd b2 00 40
       1.875996056243654 2.0873970253663625
000150 fb 61 f0 85 51 a2 02 40 b2 a8 fc d7 99 cd 04 40
       2.3292570556625356 2.6003910898189924
000160 8c a5 04 e1 b8 19 07 40 7d c2 ad 75 6d 62 09 40
       2.8875596599143076 3.17306034027598
000170 74 f4 35 c4 61 76 0b 40 5e ba 2f ae 9f 2e 0d 40
       3.432803662201474 3.6477655037227086
000180 03 c4 87 45 2f 67 0e 40 e4 b5 c6 ea 2d 0e 0f 40
       3.8003831321771044 3.8819235174075732
000190 7c fa 90 ff 21 2b 0f 40 fb 68 11 7f 7f c2 0e 40
       3.8960609403723634 3.844969742506803
0001a0 80 71 44 87 e8 05 0e 40 6c cd 5f 04 c3 01 0d 40
       3.752884918953157 3.6258602468239385
0001b0 8f 4a 5b f8 65 b2 0b 40 9e a2 45 8a 18 29 0a 40
       3.462108555112827 3.2700663378239616
0001c0 15 a6 88 65 17 53 08 40 0a 99 aa 04 0a 4c 06 40
       3.0405719692541973 2.7871284832537
0001d0 1a 15 3a 80 28 5e 04 40 da 72 4f d4 cf 81 02 40
       2.54597568681005 2.3133846842523385
0001e0 1a 7f 7d 73 91 f6 00 40 fc cd 80 5f 7f 77 ff 3f
       2.120394613520955 1.966674206790116
0001f0 ce b5 5f dd da 6c fd 3f a9 73 cc be 53 f3 fa 3f
       1.8390759131828989 1.6844060376235837
000200 6b 84 bc 64 cd 36 f8 3f c8 a7 17 ad fb 45 f4 3f
       1.5133794722571803 1.267085720197871
000210 88 f3 60 a9 06 be f0 3f 0f 22 b6 8a fb b4 e8 3f
       1.0463930717807859 0.7720926007469319
000220 f4 27 51 c8 d8 ff dd 3f e0 55 e4 63 8a 36 c3 3f
       0.4687406498165949 0.1501019466165152
000230 58 a2 8d 5f 3f af c2 bf aa bd a0 9e da 15 da bf
       -0.14597313085257002 -0.4075838612652328
000240 69 84 cd 7f 8c 4e ec 3f c1 7a 33 61 7e 0e f4 3f
       0.884588479628417 1.2535384938161516
000250 8a c0 e2 f6 bb 1b f8 3f 4e c4 f2 d0 2b 3c fb 3f
       1.5067710536932588 1.7021902238887097
000260 9e a9 6d 8c 29 21 fe 3f 17 ae 00 b4 67 9e 00 40
       1.8830962644084148 2.077346235533479
000270 92 14 05 d1 fb 6d 02 40 1e ea 51 c0 bf 80 04 40
       2.3037029580760384 2.562865736484368
000280 0c 13 22 cb 23 c4 06 40 25 8b 42 2b 64 1b 09 40
       2.8457713956617052 3.1383746509249186
000290 c8 37 c8 87 72 4c 0b 40 e7 35 cd 44 e1 25 0d 40
       3.412327824399629 3.6434960723042766
0002a0 14 0d 92 07 df 7e 0e 40 14 35 cf 80 1a 34 0f 40
       3.8119488326498274 3.9004411757692967
0002b0 5b b7 c1 86 af 55 0f 40 67 d4 ef a7 5b ed 0e 40
       3.9168386962764266 3.8658974762025085
0002c0 82 cf d6 85 00 31 0e 40 bc 19 39 33 dd 38 0d 40
       3.77392677842903 3.652765655689306
0002d0 26 54 53 6e b5 fd 0b 40 ba 40 20 dc 89 88 0a 40
       3.498881208341589 3.3166691968291078
0002e0 9e 8d 14 ae 25 be 08 40 12 c7 c4 72 a5 a6 06 40
       3.0928453063986145 2.8313702551175846
0002f0 cf 69 c3 b7 c9 79 04 40 3d 90 24 52 22 40 02 40
       2.5594667774687205 2.2813154618652605
000300 94 7f d9 d4 cb fd ff 3f 78 f1 73 32 0d b2 fb 3f
       1.9994619669377913 1.7309696169678244
000310 e7 7b 66 2d 0c c5 f7 3f ae c3 f7 6b 9c fc f3 3f
       1.4856073163461987 1.2491726129048675
000320 80 40 53 3a 8f 55 f0 3f 0c 14 53 43 f3 27 eb 3f
       1.0208885458305588 0.8486267390186426
000330 3c de 05 34 8d bf e9 3f 95 ae b7 2c b3 45 e9 3f
       0.8046327606270505 0.7897582887066671
000340 16 1a 69 b5 cb 1f ed 3f 48 bc 48 8d 17 42 f0 3f
       0.9101313155341042 1.0161357420836499
000350 b8 1e a7 42 5b a6 f3 3f ef d6 54 3d 5d 7f f3 3f
       1.2281143764138687 1.2185947795637124
000360 19 38 f8 9c 0b 52 ec 3f a2 11 79 2e 7b 00 f4 3f
       0.8850153032124154 1.2501174750660557
000370 10 df 9d 1b 9e 07 f8 3f a4 79 68 df 9a 31 fb 3f
       1.5018597677971606 1.6996105887297768
000380 2f 60 b5 2d 02 2d fe 3f 41 8c 38 7c ac b4 00 40
       1.8859884057510603 2.0882196144825973
000390 e2 62 53 60 ac 8d 02 40 e4 eb 23 ae e4 9b 04 40
       2.3191764378974407 2.576119766684757
0003a0 ee 18 c8 22 1d cd 06 40 ae 43 02 f3 db ff 08 40
       2.850153228503692 3.124931238657573
0003b0 9c 77 c4 64 8a 03 0b 40 c4 42 1c af e9 b2 0c 40
       3.3767288086373366 3.5873597794055474
0003c0 9e 3d 86 6c 5e f5 0d 40 87 50 6b 87 72 ae 0e 40
       3.744809005591107 3.835179384195786
0003d0 ac 1a 01 d1 b1 e6 0e 40 e0 55 46 9f 10 a1 0e 40
       3.8626438454114886 3.828644985517471
0003e0 8b 3b 7b 77 4b fd 0d 40 7f e6 b0 7b a3 02 0d 40
       3.7486790976030924 3.6262883818970404
0003f0 26 11 74 9c c6 bd 0b 40 e2 cc 4d ca 07 39 0a 40
       3.467663976947864 3.2778468899719977
000400 9c 10 48 19 e0 66 08 40 2e 18 18 46 4b 41 06 40
       3.050232121955629 2.7818818546393436
000410 20 fa e4 97 91 0d 04 40 d7 a0 65 c4 12 ce 01 40
       2.506625353503537 2.22562173304696
000420 a0 e9 35 6f 2a 48 ff 3f 77 42 83 da bd f8 fa 3f
       1.9551185936130437 1.6857279334691648
000430 45 bb 8f ba 43 fc f6 3f 62 8f 93 5f 21 64 f2 3f
       1.4365880286747637 1.1494458898023017
000440 cc e0 72 9e 99 d7 e9 3f 6d 6e f7 ca 51 05 da 3f
       0.8075683684064869 0.4065746767134673
000450 d0 ea 64 23 ff e3 a4 3f 52 89 ef 23 6e 93 d9 bf
       0.04080197627123072 -0.39962342748016966
000460 4f 1a 30 de ef b8 e8 bf 52 78 97 32 0f c5 f0 bf
       -0.7725753154380274 -1.0481101967084396
000470 fe eb 9c fc 41 42 f2 bf 4f 3b 52 a7 21 09 f0 bf
       -1.141176211137235 -1.0022293601975496
000480 e0 58 0e dc 22 d5 eb 3f e3 0c a3 90 63 d5 f3 3f
       0.8697675989122011 1.239596905696822
000490 3b c1 12 0d 87 fb f7 3f 1e 76 7e 5b cc 43 fb 3f
       1.498908091609407 1.7040523122772195
0004a0 6c 6f d2 e1 b1 5b fe 3f 75 49 04 ce 63 d3 00 40
       1.8973864384815569 2.103217706209018
0004b0 da 26 f3 47 12 ae 02 40 39 8f 50 be b9 bc 04 40
       2.3349958058432607 2.5921511524519727
0004c0 63 8d 78 79 a2 ea 06 40 e5 7e 39 d9 30 1b 09 40
       2.8645677080073013 3.138276764933709
0004d0 de 34 4f 80 db 22 0b 40 1e e9 12 50 6b de 0c 40
       3.3920202278301153 3.60860312040053
0004e0 6c 5a 1c d2 83 33 0e 40 81 cf 73 bc 47 05 0f 40
       3.775153771868011 3.877578232082613
0004f0 33 92 97 fb c0 52 0f 40 28 3d a3 bf d6 1f 0f 40
       3.915407147944529 3.890546319169193
000500 59 dc 9a 3b 5e 88 0e 40 a8 fd d4 53 80 8b 0d 40
       3.81658598486278 3.693115858972039
000510 09 fe b7 d0 d1 29 0c 40 d3 95 57 7d 5d 76 0a 40
       3.5204197221899034 3.3077955047944925
000520 5d a9 ce 6e e7 56 08 40 e5 46 63 36 7c 02 06 40
       3.042433610612689 2.75121347895116
000530 ee 00 63 c9 77 bb 03 40 88 c4 bf 1d c7 8c 01 40
       2.4665370686853896 2.1937391590259416
000540 88 d7 d4 70 d5 64 ff 3f 14 b0 da c9 1a 8b fc 3f
       1.9621176154591655 1.783961094372903
000550 ac 34 39 86 43 ea f9 3f a0 8a c4 c5 18 5e f7 3f
       1.6196933024505524 1.4604728436758379
000560 90 7b 51 dc ef 99 f3 3f 12 a3 09 de f0 54 ec 3f
       1.2250822645362156 0.8853687607453102
000570 2b 60 4f 81 0c 95 de 3f 20 70 a9 69 75 9f ae bf
       0.4778472197335783 -0.05981032290284838
000580 00 bc bd 35 18 a2 e7 bf ea 7f e6 bb 59 09 f8 bf
       -0.738536934817489 -1.5022828426226575
000590 a8 62 b9 0b f1 6b 01 c0 a4 4e df 15 31 38 04 c0
       -2.177705852122319 -2.527437373044295
0005a0 de 8e c5 8c 43 ff eb 3f ff 4a a9 db 0e ec f3 3f
       0.8749101399848447 1.2451313572425418
0005b0 f7 1d 43 15 77 08 f8 3f 4d e1 b7 a1 e2 44 fb 3f
       1.5020666914514302 1.7043176953430532
0005c0 86 74 ab 1f df 57 fe 3f 92 3f bd 02 32 d1 00 40
       1.896453021726559 2.102146169090653
0005d0 7e 40 41 c4 e6 a4 02 40 2d b4 e5 1e 28 a5 04 40
       2.3305182773984248 2.580642930397991
0005e0 af b3 e0 5f c4 bd 06 40 9e 73 74 56 a0 d3 08 40
       2.8426597109268736 3.10333316367037
0005f0 15 2d 23 bb 1a ca 0a 40 f6 a5 0e 93 31 78 0c 40
       3.348683797846784 3.5586883057446768
000600 3c b5 59 ef b4 c4 0d 40 a8 1c 22 a1 6b 93 0e 40
       3.721048231053514 3.821982630589975
000610 14 95 92 ab df da 0e 40 dc da 32 54 49 9a 0e 40
       3.8568719295605067 3.8253351762790384
000620 51 a9 ae 38 d6 ff 0d 40 7e e7 e9 a3 0d 21 0d 40
       3.749920313673251 3.641139298034374
000630 65 46 fc 0b 12 04 0c 40 2a 6b f1 61 cc c8 0a 40
       3.5019875465739454 3.348046078853618
000640 80 2d 6d 1c 49 66 09 40 96 32 d6 e0 0c cc 07 40
       3.1749441357439423 2.974633938347618
000650 39 81 cd f6 9e 39 06 40 55 0b ac 87 c7 a1 04 40
       2.7781352311577874 2.5789938544634574
000660 55 f8 9b c7 f9 d9 02 40 b3 a3 bb 1e 80 19 01 40
       2.356433448264435 2.1374514008534446
000670 fe dd 1f d0 6c 8e fe 3f 23 98 d1 c0 16 94 fa 3f
       1.9097717409002821 1.6611545116406965
000680 18 f7 a7 29 5b 8d f5 3f 02 4a 9a 42 af 84 f0 3f
       1.3470107676689107 1.0323937036197326
000690 c1 d6 60 b6 34 e5 e8 3f 38 41 f0 ae e1 6a df 3f
       0.7779792368007393 0.49089853366696756
0006a0 e4 eb 73 c2 9d 6c cc 3f 00 49 e7 3f d2 eb 94 3f
       0.2220647048451091 0.020430836820943377
0006b0 48 79 a2 c7 00 d6 b5 bf 34 97 a6 5a 56 08 cd bf
       -0.0852966773404421 -0.22681693483644383
0006c0 cb 11 aa ce ed 60 ec 3f fe 44 81 30 54 1b f4 3f
       0.8868321453488134 1.2566720862126313
0006d0 b8 25 d6 1c 1f 30 f8 3f ac c5 fc f9 9f 5c fb 3f
       1.5117484213281909 1.710113502991912
0006e0 c6 8d 60 9f d2 51 fe 3f 3d b0 8a 2c 1c bc 00 40
       1.8949762559576455 2.0918506126236296
0006f0 15 14 4a c2 ea 86 02 40 52 16 be da 10 8d 04 40
       2.3158774546486804 2.5688798035869604
000700 56 f3 fa d1 4c c2 06 40 69 a2 d7 06 fa 02 09 40
       2.84487308547106 3.126453450637474
000710 ac 7f b0 d4 37 1c 0b 40 f5 0a 56 20 19 e5 0c 40
       3.38877836383468 3.6118643308885745
000720 8c 8e 96 1d 86 33 0e 40 24 4a 5a 03 a7 f3 0e 40
       3.7751581489154145 3.868970895951195
000730 96 5a e0 91 ad 3c 0f 40 74 81 ed 07 41 0d 0f 40
       3.9046279331772196 3.881471692977522
000740 11 75 3b ae b9 86 0e 40 20 01 0d a1 5c a4 0d 40
       3.815783845128529 3.7052548009961725
000750 b0 36 f2 df a0 52 0c 40 82 f0 3d 53 b9 99 0a 40
       3.5403459068100673 3.325060510947936
000760 7d da 49 0b 55 95 08 40 7b 00 9d e0 56 65 06 40
       3.0729161149895945 2.7994821117318316
000770 8e 0c a6 3f 37 57 04 40 cb 12 ba ce 14 88 02 40
       2.5425858471440455 2.316445937207708
000780 27 0e ed da b8 05 01 40 e4 2d f2 fc 2e 7f ff 3f
       2.1277939895242244 1.968550670690882
000790 5a 8c c4 cb e9 fc fc 3f df ef ab a7 79 0c fa 3f
       1.8117464027098067 1.6280457067177776
0007a0 ab e2 1b 19 07 b4 f5 3f 36 8f 12 4b 49 30 f0 3f
       1.3564520817582586 1.0117886478919451
0007b0 83 0f d5 ae 9e 3a e5 3f 9e 15 e8 7d 3d 85 d1 3f
       0.6634057440464719 0.2737573365742153
0007c0 28 bf 96 26 61 34 b8 bf 08 7e 82 28 f3 87 db bf
       -0.094549247666461 -0.4301727195361029
0007d0 0c 7f 3a 82 64 f3 da bf d8 c6 0f f6 6b 29 d1 bf
       -0.42110550611140307 -0.26815318135696264
0007e0 69 b3 73 5c 22 3a ec 3f f5 22 04 76 57 19 f4 3f
       0.8820964627935669 1.2561869249349773
0007f0 56 30 44 08 b6 3c f8 3f ca 71 94 f0 06 7c fb 3f
       1.5148220370201861 1.7177800557757217

slopes f8 [100, 36, 7]
000000 31 17 91 96 01 ad a3 3f ae c4 c4 fb 80 49 d9 3f
       0.038429307584506474 0.39511131846218006
000010 f4 86 18 fe a7 6a f6 3f 0a e7 d5 2a 63 cf 65 bf
       1.4010391164414928 -0.002662366567787515
000020 64 bb fa 6d 6f 9e 70 bf d4 ec c7 9f ca f3 af bf
       -0.0040573456496265405 -0.06240685654116765
000030 73 6b 9f cc 25 65 82 bf fc b3 6a 4d 19 08 79 3f
       -0.008981986338701486 0.006111239278351551
000040 2c dc e9 d3 eb a0 db 3f 9f 1a c7 04 d5 67 f6 3f
       0.43169685072593 1.4003496348029
000050 a8 86 c3 84 cf 49 73 bf 20 79 e4 e6 32 42 70 bf
       -0.004709063167156614 -0.003969382129325433
000060 64 69 6d de 3c 4c b5 bf 5e fd a1 c7 7f 3a 82 bf
       -0.08319454603534876 -0.008900640754517294
000070 35 35 44 c0 c3 5b 90 bf f2 7f 2f 5e 08 7f dd 3f
       -0.015975054368984238 0.46087845990950804
000080 e5 12 9c 54 7c 3d f6 3f 94 08 00 aa e2 ea 73 bf
       1.3900111489357923 -0.0048626760544740084
000090 c0 8d 5c 1d 44 f7 71 bf 74 85 9a 1d c5 f1 ba bf
       -0.00438620192815925 -0.10525161717170822
0000a0 5b f1 57 5e c3 42 83 bf 7c b3 87 d8 4d 0e a1 bf
       -0.009404684368740026 -0.03331225650968059
0000b0 5f 7a 73 82 2f dc de 3f ea c6 4d 6b c7 e3 f5 3f
       0.48218906154025903 1.3681101028018312
0000c0 16 8d f3 24 02 74 67 bf a6 8e ba d3 ab a1 75 bf
       -0.002862934291998474 -0.005281134795641107
0000d0 3c 8a 74 ea d3 41 c0 bf f9 1a 4d 1e 56 e4 84 bf
       -0.12700890491494643 -0.010201142120093364
0000e0 2d 5d 9d b3 0d 8b a9 bf 14 dd 6f 8d 01 bc df 3f
       -0.049889019179938245 0.4958499795170195
0000f0 3b b9 b5 47 77 59 f5 3f 00 62 fb 09 fa 69 54 3f
       1.3343422700086893 0.0012459699427634918
000100 79 c1 c2 0c 3a cb 7a bf 10 8f b5 7a 9b cb c2 bf
       -0.006541468388761345 -0.14683860294018602
000110 3c 0d bf ec b1 66 86 bf 28 06 08 87 94 5d b1 bf
       -0.010938062703536582 -0.06783417030967398
000120 96 5e 01 d4 2c 15 e0 3f 39 54 ac 42 3d a2 f4 3f
       0.5025848522881968 1.2896092037601774
000130 80 ab d4 95 b4 54 7d 3f 70 79 c6 f6 cd 13 80 bf
       0.007160859500156103 -0.007850274175152022
000140 14 c8 4b 0b f8 dc c4 bf 58 ab af 0b ab a5 87 bf
       -0.1629934363514286 -0.01154645566380956
000150 f4 6a 96 6e 8d 9f b6 bf 4c 22 40 15 2c 1c e0 3f
       -0.08837207746402581 0.5034389891671451
000160 3c 4c 6a a9 f2 c1 f3 3f d0 f0 8d bb c1 9e 8d 3f
       1.2348505609304672 0.014462960754592663
000170 20 0c 3d 49 50 6a 82 bf a0 65 7a f6 e8 44 c6 bf
       -0.008991839633045784 -0.17397796664299126
000180 10 b3 50 f1 f1 88 88 bf 3b 95 5e c7 91 7e bc bf
       -0.011979952027183965 -0.1113062965146882
000190 ee f1 94 90 54 f8 df 3f a3 09 4c 31 5e be f2 3f
       0.49953188056295417 1.1714765477814602
0001a0 70 3e fa 71 34 32 97 3f 20 8a ab b8 18 ea 83 bf
       0.022652453858027888 -0.009723847518619044
0001b0 7e 7c 48 24 f7 e4 c6 bf 1f 5c e6 1d 83 d5 89 bf
       -0.1788624694026772 -0.012614273405047225
0001c0 00 4a 63 b2 ab 62 c1 bf 64 7c 9b 48 2c 7a df 3f
       -0.13582369051307808 0.49183184710086025
0001d0 8c a4 43 b8 5f 9f f1 3f 8e 82 8b 36 85 04 a0 3f
       1.1014096448728052 0.031284487636871736
0001e0 20 40 22 f4 02 77 84 bf b6 7e 5c 5d bc b3 c6 bf
       -0.009992621493694342 -0.17736010130555763
0001f0 8f 20 a9 0e 74 8c 8c bf a5 87 99 49 9c 8e c4 bf
       -0.013939768502624154 -0.1606021270154631
000200 3e 5c 75 67 ad ca de 3f 6a 31 9a 3e af 6d f0 3f
       0.4811204443298641 1.0267784543421734
000210 b0 9e 62 52 93 7b a4 3f 60 44 1c 1f 8e 91 84 bf
       0.04000530605963826 -0.010043249439634916
000220 0f 4c 06 ed 72 bc c5 bf fc 35 b5 d7 68 e2 90 bf
       -0.16981350491968825 -0.01648868385864509
000230 fd d9 74 d4 4b 83 c7 bf a6 b7 5d 52 57 f7 dd 3f
       -0.1836943423638359 0.4682215027195248
000240 4c 42 da 93 e1 6c ee 3f e2 02 6e 02 57 c5 a8 3f
       0.9507911575074757 0.04838058380756195
000250 90 4f 88 03 14 e8 84 bf 02 9f 8f 8b 75 1f c4 bf
       -0.010208278997232673 -0.15721005739691668
000260 21 a4 89 9f 9e db 94 bf 25 f7 4c 5d cf 0a ca bf
       -0.020369032370954557 -0.203454895550686
000270 a7 e7 be e8 7a 0f dd 3f cc e9 de 4f f8 0b ec 3f
       0.45406983117174565 0.8764611778236087
000280 c4 a2 96 24 3b b7 ac 3f f8 6b 9e ec 82 80 86 bf
       0.05608544179569244 -0.010987303586992056
000290 29 4d 99 3c 21 02 c2 bf a0 cf 67 37 a3 71 9a bf
       -0.14068999728133605 -0.02582411790531547
0002a0 9b c8 69 54 54 fc cb bf 1e 1c dc b3 81 21 dc 3f
       -0.21863798257578967 0.43954508366044986
0002b0 c9 ec 9a 8f ba cf e9 3f e0 83 f1 00 a8 0c b0 3f
       0.8066075138844094 0.062693119268729
0002c0 83 f8 c8 25 ef f7 89 bf 0e 3e df 28 39 27 bf bf
       -0.012679928150756808 -0.12169224975445322
0002d0 c9 1b b9 ee 33 96 a0 bf 6b 69 b6 4d f4 2c cd bf
       -0.032395956889153484 -0.22793439669187462
0002e0 06 e6 74 15 a1 3d db 3f e3 dd 72 3b 62 cd e7 3f
       0.4256365499055338 0.7438212548358333
0002f0 10 9f 21 a1 4d 62 b1 3f bc 1c f6 f0 e1 d4 8f bf
       0.06790623840208476 -0.01554276005368959
000300 22 dc f2 b9 20 fd b9 bf 44 da 4e 7c e9 4d a4 bf
       -0.10151867427599418 -0.0396569217913805
000310 a8 80 7d d1 83 a1 cd bf 92 82 52 a2 07 75 da 3f
       -0.23149154404655303 0.4133929333857306
000320 ac 72 cd 9d e3 0b e6 3f 0b 01 3e 36 a4 4d b2 3f
       0.688951309402531 0.0714972145488028
000330 20 36 82 4d 0a e6 93 bf 7e b1 2b 8e 11 c6 b4 bf
       -0.01943222139430223 -0.08114728661502643
000340 ee eb 74 9f 25 11 a8 bf fa 5e 87 b4 0c 5e cd bf
       -0.04700582095616555 -0.22943266692049474
000350 40 33 54 4e ca d7 d9 3f 90 8a cc 41 6f 94 e4 3f
       0.40379579209620786 0.6431194577347288
000360 f0 24 58 36 bb c7 b2 3f 98 93 92 f5 8d ce 98 bf
       0.07336015774503202 -0.024225442994651653
000370 1c cc cb fd 03 50 af bf d7 e6 67 99 0f 94 ab bf
       -0.06115734551521987 -0.053863990284254086
000380 08 a8 52 1f 81 92 cc bf fc dd f2 ff 19 68 d9 3f
       -0.22322095899045302 0.3969788550852795
000390 72 08 ab da 6d 5b e3 3f 80 6b 65 1c 25 d7 b2 3f
       0.6049107809888155 0.0735953516317931
0003a0 a0 2a 8f 5a b1 6d 9e bf 50 8f d4 f2 57 a9 a5 bf
       -0.029715319778726212 -0.042307613746997874
0003b0 4a 02 fc 55 0e b6 ae bf 5a ac ca 58 37 51 cb bf
       -0.05998272704710368 -0.21341602168590407
0003c0 d0 39 3b 72 7d 23 d9 3f 23 d2 9a 6d 62 50 e2 3f
       0.3927911391773735 0.5723125591962951
0003d0 73 e6 74 72 60 85 b2 3f 9c 0b 70 f4 d8 47 a2 bf
       0.07234766764022442 -0.035704402769645344
0003e0 54 40 39 cb c9 42 99 bf a4 e6 f7 1f 61 c2 b0 bf
       -0.024668839482103813 -0.06546599417188276
0003f0 43 80 51 c0 e2 9e c9 bf 94 d0 8a 36 1b f7 d8 3f
       -0.20016130819840514 0.3900821716918099
000400 1a 10 46 3c b1 64 e1 3f bc c1 07 4b 35 da b1 3f
       0.5435415436954856 0.06973584253115112
000410 04 cc 84 64 64 76 a5 bf a4 ec 19 f6 c6 73 81 bf
       -0.04191888548884751 -0.008521608720221181
000420 82 ba d9 9b 00 0c b2 bf 30 e1 10 57 10 9c c7 bf
       -0.07049564175552273 -0.1844501900793687
000430 b4 5a 0b 47 82 c9 d8 3f 62 bb 77 a7 5b 8e e0 3f
       0.38729912698674274 0.5173776884893011
000440 88 79 11 04 3d 04 b1 3f f4 6c 1a 40 09 8a a8 bf
       0.06647092198679705 -0.04792813212881156
000450 3a 2d 43 ff 74 66 79 3f 75 40 6f 4a f4 5e b3 bf
       0.006201226253504994 -0.07566763703585073
000460 34 df 87 d3 52 47 c5 bf bc 58 8a 7d 76 7d d8 3f
       -0.1662391217102993 0.3826576448422079
000470 28 46 14 fa 88 77 df 3f e6 87 2d 74 b2 16 b0 3f
       0.491670841424908 0.06284633003590975
000480 e8 69 1c 03 55 63 ab bf 54 88 af 73 2d d5 93 3f
       -0.05349221861816372 0.01936789530362433
000490 a8 d3 59 72 92 a9 b4 bf eb 07 b9 2e df ae c2 bf
       -0.08071246425409007 -0.14596166402230834
0004a0 3c 8e 5f 9e 93 05 d8 3f 6a a8 77 3c 60 cd dd 3f
       0.375340370808974 0.465660151529511
0004b0 4b 52 c3 87 25 76 ae 3f 17 81 70 b3 b6 97 ad bf
       0.059495137045506206 -0.05779810848639693
0004c0 fb e2 0e 3a 64 16 a0 3f a8 ff fb cc 3c 32 b6 bf
       0.0314208336707846 -0.08670406345845427
0004d0 6b 43 c6 f9 4e 1c c0 bf 02 13 cb 8e 3d 5f d7 3f
       -0.12586390682238444 0.3651880163636606
0004e0 96 6a bd e6 ba 3f dc 3f 3e 9c 1b e4 25 0b ad 3f
       0.4413897755927477 0.05672567758102119
0004f0 0b f4 ee 7c d3 bd ae bf 2f c0 72 2f b3 73 a5 3f
       -0.06004200840059334 0.04189834551050386
000500 f7 a2 95 1d b0 df b7 bf d8 4b 01 65 3e 2e bb bf
       -0.09325695726660031 -0.10617437330192503
000510 74 31 7e d8 ea 7d d6 3f 6e 15 6b 68 bc c5 da 3f
       0.351435386103524 0.4183188457212371
000520 88 be de 00 87 03 ac 3f 78 a6 24 46 4f 96 ae bf
       0.05471441159840845 -0.05974052172889527
000530 74 f5 26 c1 47 5a aa 3f ea 9e 57 58 ca a1 b9 bf
       0.05147003395857555 -0.10012497574609439
000540 7d 1e 2e 50 c9 91 b6 bf 6f c3 60 fa 51 6b d5 3f
       -0.08816202361605892 0.3346753068063241
000550 b8 6e 37 84 80 32 d9 3f 8c 02 0d 54 42 62 ab 3f
       0.3937073985268671 0.05348403240214336
000560 b5 b3 d1 87 c7 11 ad bf 2f 3b 74 26 26 43 ae 3f
       -0.05677627118061627 0.059106056398482536
000570 51 48 b7 84 fb 41 bb bf 17 d2 ef d6 06 75 b2 bf
       -0.10647556295524054 -0.07209818599205452
000580 ed 3b c1 47 1e 31 d4 3f ee cc 3c f4 53 b0 d7 3f
       0.31549794204050735 0.3701372037059646
000590 1c e5 89 95 f0 0a ab 3f e4 c6 71 8b d0 3c aa bf
       0.052817838911275866 -0.051245228788401126
0005a0 8d 4e 63 e0 8f 6e b0 3f 22 52 ec 86 40 bc bc bf
       0.0641870425054611 -0.11224749845525442
0005b0 37 e0 9b e9 fc 38 ad bf 02 18 bd 10 8e e5 d2 3f
       -0.05707540847464581 0.2952609218085628
0005c0 02 18 3c 70 c9 12 d6 3f c0 96 89 64 1a 88 aa 3f
       0.34489665947364767 0.051819634220732436
0005d0 e7 b6 83 ae 0f e4 a6 bf 2a ab 6b b1 a7 f0 b0 3f
       -0.044708719304123616 0.06617210465962545
0005e0 c6 f1 20 b3 0a cb bd bf 70 36 65 58 47 b2 a5 bf
       -0.11637942193278325 -0.04237578348202653
0005f0 68 ac 69 d0 aa 9b d1 3f 62 07 07 fb 6c 41 d4 3f
       0.2751261744767306 0.31649326815032996
000600 dc fc ea 34 9f d3 a9 3f b4 24 f1 57 fa 94 a3 bf
       0.05044267197581018 -0.03824598620901423
000610 68 9c bd 47 5e b5 b0 3f fc 73 c7 35 de 69 be bf
       0.06526746036034725 -0.11880291760412826
000620 d4 34 7d de bf 0f 9b bf bb 4b af 94 6d 62 d0 3f
       -0.026427267031341753 0.2560075714110856
000630 9c 80 49 a1 9b 0d d2 3f 8a f3 0c c7 9f 23 a9 3f
       0.28208056212134536 0.04909991555039202
000640 fc ca d9 5d 46 d2 a0 bf 6b e2 84 b8 10 c2 af 3f
       -0.032854269939795316 0.06202747585706877
000650 11 36 17 fb 3a ec be bf d5 83 51 0c 31 73 83 bf
       -0.12079208974974899 -0.009497054279735831
000660 7c 63 ab 4b df 62 ce 3f 37 f0 7d ac 38 69 cf 3f
       0.23739234156417044 0.24539860174616177
000670 b3 81 0a c9 d8 af a7 3f 88 6e f2 c6 3d d4 9e bf
       0.046263479748862045 -0.030106511371384787
000680 16 b8 bb b8 17 b4 ad 3f 3e 70 db b8 3c 08 bf bf
       0.05801462297482389 -0.12121943963160306
000690 16 cd 15 de 5f be 64 3f c3 25 96 1f ae e7 cc 3f
       0.002532183877229986 0.22582031767187347
0006a0 29 e7 70 5d 1d 72 ca 3f 60 41 66 c0 fd ab a5 3f
       0.206607504487516 0.04232781385064999
0006b0 90 48 55 ea 39 bd 9f bf 6c 6a aa 65 06 7c ac 3f
       -0.03099527828937504 0.055633735571252924
0006c0 c7 7d ad 7a c8 3f bf bf 10 64 b6 a8 e8 64 90 3f
       -0.12206700320302054 0.01600993661631739
0006d0 bb 79 4b e2 c6 21 cc 3f da b6 94 fc e5 6c c7 3f
       0.21978078889419614 0.1830108149819612
0006e0 aa 34 be b9 d9 13 a1 3f dc 8b c1 4b 35 8e a2 bf
       0.033354572223381965 -0.036241212365687864
0006f0 9e f1 ef 6b de ce ad 3f 32 23 25 ac 6b 4d bf bf
       0.05821890895456082 -0.12227509453545052
000700 de ef 3a f0 6e 67 99 3f 80 73 b3 1d 4b ae cc 3f
       0.024808629429330036 0.22406901312106342
000710 9a 5f 5c ee 07 c6 c5 3f a0 6e 6c 84 92 4f 95 3f
       0.17010592592918955 0.02081135686158453
000720 9e b5 bb 06 19 c4 a7 bf c5 c5 b1 df c8 48 b0 3f
       -0.046417982170036995 0.0636106058243718
000730 ea 0b 63 65 39 a3 bf bf 84 d5 76 a3 5e 96 a1 3f
       -0.12358435368791701 0.03435035462772887
000740 36 a3 6f 46 f0 9a cf 3f b6 53 b8 57 89 c8 c8 3f
       0.2469158500600998 0.1936198881454893
000750 10 73 a8 9a 58 4c 76 3f c8 7c 55 4a 09 db af bf
       0.005443903074163328 -0.062217989276854235
000760 3e 53 d4 cf 3c 98 b4 3f 26 88 2f ba 15 5e bf bf
       0.08044796060523837 -0.12252937121914495
000770 cb c7 31 16 ff ec a1 3f 06 18 1e 28 2e 14 d2 3f
       0.035011264285358466 0.2824817077420224
000780 d5 12 ef 0d 86 9d d0 3f cc 37 bd d3 e4 c2 8c bf
       0.25961448059778763 -0.014043605529561541
000790 8a 53 30 d8 c9 7f b5 bf 40 b6 fd c5 cf d0 bb 3f
       -0.08398114707990892 0.10865496238485495
0007a0 b4 08 b6 09 51 48 c0 bf eb 0a 8f 48 d4 70 a0 3f
       -0.1272069260995231 0.03211081872679763
0007b0 36 b7 af de d7 ab d5 3f f4 dd 26 90 1f aa da 3f
       0.3386134791061183 0.41663350179030023
0007c0 00 b3 08 4c fe a6 9f bf cc e5 c0 91 39 3a bc bf
       -0.03091046656679719 -0.11026344116625991
0007d0 9d ea e0 46 da 5c c1 3f 8a 7e f1 6c ec b1 c0 bf
       0.13564613781803284 -0.13042979545115357
0007e0 49 75 e5 35 d9 39 a4 3f 63 1f e5 a4 c7 49 d9 3f
       0.03950384886659692 0.3951281652739366
0007f0 c9 5c e4 8b 41 6f f6 3f f4 49 8d 00 9c b0 69 bf
       1.4021621193440288 -0.0031359717290027015

scatter f8 [100, 36]
000000 56 22 c0 d8 45 df d3 3f 81 f7 f3 d5 6a a9 d3 3f
       0.310502492590364 0.30721541303488925
000010 2d a1 f2 f0 5c 64 d3 3f 39 c0 80 49 b0 0c d3 3f
       0.30300067453437657 0.29764945199986276
000020 aa 85 f9 79 f1 a3 d2 3f 8c 19 73 ee 16 2f d2 3f
       0.2912563029441012 0.2841241196259936
000030 dd 8d da 74 ac b3 d1 3f 6b b2 b7 70 53 37 d1 3f
       0.2765914097928695 0.2690018273122294
000040 9f 4c 0b 29 fe bd d0 3f d6 0e a8 40 44 4a d0 3f
       0.261596241075674 0.25453287424191495
000050 b5 c4 f0 d9 bf bc cf 3f a9 ae 2b 76 f6 f5 ce 3f
       0.2479476751482587 0.24188118715334397
000060 d1 8c 54 05 5e 40 ce 3f 5a db a4 4c 02 9d cd 3f
       0.23633933315531988 0.23135403387433479
000070 89 74 6c a0 6c 09 cd 3f 8e 4b f4 5a 0b 83 cc 3f
       0.22685010750948134 0.22274915639044618
000080 d9 66 ab 9c 02 08 cc 3f cb 8e 92 db 92 94 cb 3f
       0.2189944519985179 0.2154716083651834
000090 06 fd f5 23 5a 2b cb 3f f3 c9 30 aa 69 c7 ca 3f
       0.21226050144102987 0.2092105942734431
0000a0 9a 05 01 2f c5 67 ca 3f c1 f5 c3 b0 1c 08 ca 3f
       0.2062918166648558 0.2033725607979431
0000b0 e3 85 97 57 b7 a5 c9 3f b8 8f de aa 2f 3c c9 3f
       0.2003697564787635 0.19714923709136456
0000c0 b5 6d 4d e2 78 ce c8 3f ac 02 57 25 6b 5a c8 3f
       0.19380103158878872 0.19025935481297063
0000d0 77 ce 5c 9f b0 de c7 3f 90 b3 87 7a c7 5f c7 3f
       0.18648345738766967 0.1826104496280121
0000e0 3a e2 5d 01 f3 e1 c6 3f 15 a3 55 12 4d 65 c6 3f
       0.17877042357192058 0.17496646304359645
0000f0 9d ad 84 b3 16 f2 c5 3f 3e 1b 94 20 07 8f c5 3f
       0.17145046010533074 0.16842736330746705
000100 21 99 3d c1 4a 3d c5 3f 34 6d 21 79 32 13 c5 3f
       0.1659329837377266 0.1646483508546709
000110 e4 f4 32 96 1b da c4 3f a7 a3 4f 00 e0 74 c4 3f
       0.1629061206239505 0.15981674208822236
000120 b8 59 6d 6d 7c dc d3 3f 76 58 07 96 bf a6 d3 3f
       0.3103324001907839 0.30705251361121755
000130 88 fe ba f6 ca 61 d3 3f e6 27 58 28 09 0a d3 3f
       0.30284380049486304 0.297487534903324
000140 8a 60 9d 77 ea a0 d2 3f ee e3 f4 4f ae 2b d2 3f
       0.2910715263474307 0.28391607101690297
000150 7d ff 78 2b d2 af d1 3f 07 b8 45 f2 4f 33 d1 3f
       0.2763562607324202 0.2687568536701978
000160 54 8f a2 42 2a ba d0 3f 15 05 3c b8 17 47 d0 3f
       0.26136261470150157 0.254339151302774
000170 09 ea 7f 6f 97 b8 cf 3f b5 ec a5 85 b6 f4 ce 3f
       0.24782078689879963 0.2418430473879646
000180 27 3d 7e 18 fb 43 ce 3f ee 7d 4c 10 24 a6 cd 3f
       0.23644961067155032 0.2316327170928924
000190 89 d8 e0 3c b8 18 cd 3f d1 95 99 b3 06 97 cc 3f
       0.22731688473294678 0.22335895318535262
0001a0 9b 39 58 78 4c 1f cc 3f 7a 1a 8a 7e 98 ad cb 3f
       0.21970516086771572 0.21623521975216758
0001b0 1f 31 3d 3c 0a 45 cb 3f f3 87 b0 d4 a5 df ca 3f
       0.21304443303450513 0.2099501884959519
0001c0 ec a1 36 46 97 79 ca 3f 31 c8 dd db 09 0f ca 3f
       0.20683566025151323 0.20358393893872198
0001d0 ad c2 b3 ff d1 9b c9 3f 40 a6 ce 14 69 1c c9 3f
       0.20006775842150173 0.19617951885202167
0001e0 e3 da e8 3b 53 9a c8 3f b1 39 5b f5 a2 0f c8 3f
       0.1922096292998595 0.18797718982973557
0001f0 75 a3 53 f2 16 82 c7 3f aa 17 52 bd 48 f1 c6 3f
       0.1836575206027892 0.17923840755628123
000200 a3 88 00 24 ca 5c c6 3f 05 28 b6 0d 06 c7 c5 3f
       0.17470671422876646 0.17013621968754947
000210 46 5c e1 29 9f 1f c5 3f b5 b4 fb 25 73 71 c4 3f
       0.1650275187009546 0.1597122130837413
000220 74 e6 87 51 7f bb c3 3f fb 22 4b 94 a2 fc c2 3f
       0.15415946465491326 0.1483348106469505
000230 91 cb 1e 0c 40 18 c2 3f 52 04 b1 f8 fe 1d c1 3f
       0.1413650569134828 0.13372790473116197
000240 76 d9 ff 5f b2 e1 d3 3f 55 0a bb 0f 43 ac d3 3f
       0.31065043806974957 0.3073890355700873
000250 b8 30 8c 55 fa 66 d3 3f 0e d8 8d e8 59 0e d3 3f
       0.3031602702547036 0.2977509280239027
000260 f4 0a 1e 1c ec a3 d2 3f 73 c4 2e 6e e1 2c d2 3f
       0.2912550234397451 0.2839892936709198
000270 0b b1 6b d3 6b af d1 3f fc a9 9d cc 00 32 d1 3f
       0.2763318600325568 0.2686769483758835
000280 21 e3 8e 49 24 b8 d0 3f 70 5f f1 b3 5f 45 d0 3f
       0.2612391203252163 0.25423424313111465
000290 a1 c0 83 0c b6 b5 cf 3f 11 6b f5 18 f4 f2 ce 3f
       0.247732883558915 0.24178935259518444
0002a0 fd 2d c0 8b 53 41 ce 3f 0f c3 5e d7 e7 9f cd 3f
       0.23636860202564938 0.23144243255730898
0002b0 a1 25 ea 01 bc 0d cd 3f ed 17 13 14 2f 85 cc 3f
       0.22698164075363272 0.22281445007519043
0002c0 c2 1e cd af cf 04 cc 3f 6f 6b 79 37 12 87 cb 3f
       0.21889682849927367 0.2150595446463188
0002d0 f2 76 53 f2 9e 12 cb 3f 08 46 8e 0c c8 a4 ca 3f
       0.21150576431585183 0.2081537305171397
0002e0 63 f9 41 fb 68 3d ca 3f 20 c2 85 66 83 d8 c9 3f
       0.2049990870327277 0.2019199610326874
0002f0 85 4a c1 96 7b 70 c9 3f a6 86 ef 0a 3d 02 c9 3f
       0.1987452016934023 0.19538081201522067
000300 67 67 c4 ed 3d 90 c8 3f 6c 5a 17 3e f2 17 c8 3f
       0.19190191373564433 0.18823078185842534
000310 fa 40 a7 5e 84 9a c7 3f 6f dc d5 47 b4 1d c7 3f
       0.18440298673386463 0.18059400088870656
000320 a1 21 6e be 06 a2 c6 3f 4d 46 77 01 f3 1c c6 3f
       0.17681965158795968 0.17275846072748138
000330 91 e1 50 92 ad 9c c5 3f a5 5d 54 ab 41 36 c5 3f
       0.16884393352826213 0.16571827760411142
000340 bb 6d 24 c5 88 c9 c4 3f d0 12 be fc bd 6e c4 3f
       0.1624003374680408 0.15962958184186116
000350 46 bf 3d 22 d9 f5 c3 3f fa 21 d8 3c 19 2b c3 3f
       0.15594019100125872 0.14975276442443414
000360 f4 11 ec 03 96 de d3 3f 0b 7c ae 9c 27 a8 d3 3f
       0.3104605711271511 0.30713835049567767
000370 67 fb cb e5 51 63 d3 3f 66 d0 4a 5f db 0c d3 3f
       0.30293700638860915 0.2976597242916398
000380 53 61 c7 86 53 a6 d2 3f d1 37 de b8 6a 34 d2 3f
       0.29140175020213127 0.284449272666163
000390 6e 52 20 ee f6 bb d1 3f 43 b2 b5 12 0d 42 d1 3f
       0.27709744696156846 0.2696564371788421
0003a0 6d de 18 6f 1f ca d0 3f 0c eb 09 36 14 56 d0 3f
       0.2623365960057303 0.2552538421365831
0003b0 e9 4f d2 75 d9 cf cf 3f 19 21 04 c2 84 00 cf 3f
       0.2485305619526337 0.24220332597202157
0003c0 7c 7b 29 2d e2 3d ce 3f a5 9b 67 d3 e7 89 cd 3f
       0.23626353459527738 0.23077104399200468
0003d0 18 4e b8 bd f3 e2 cc 3f fb 84 b3 c1 16 49 cc 3f
       0.22567602885884308 0.22098049600666755
0003e0 81 93 99 0f 6c be cb 3f b6 7d f2 3d 89 41 cb 3f
       0.21674872171129425 0.21293750309722065
0003f0 54 92 46 0b 3c d8 ca 3f d5 7e 3b 76 a7 7c ca 3f
       0.2097239546830162 0.20692914269510845
000400 16 f9 47 7e cd 2c ca 3f 7b 08 5d 8e 55 e2 c9 3f
       0.20449227014609822 0.20221967173899089
000410 10 92 94 48 ff 92 c9 3f a6 58 4f be 94 3a c9 3f
       0.1997984985729464 0.19710025112607815
000420 34 26 70 81 e2 d6 c8 3f c5 e0 a6 c0 96 65 c8 3f
       0.1940577632924928 0.1906002464945741
000430 00 9e 7d e5 9b e9 c7 3f f8 57 1f bc 73 65 c7 3f
       0.1868166800079365 0.18278357206025908
000440 1a a8 18 7f 3e db c6 3f f5 ba 50 8e 7d 48 c6 3f
       0.17856579976916082 0.1740872330569442
000450 f0 9b 7e 2c b8 a9 c5 3f 40 5a 78 fa 61 ef c4 3f
       0.16924192593179965 0.16355538110720325
000460 68 5f 5a 72 bf 16 c4 3f 29 d4 eb d8 94 22 c3 3f
       0.1569442089428279 0.14949284164291157
000470 42 cc 75 44 23 15 c2 3f 1e a0 c7 8e 77 d5 c0 3f
       0.1412700733449999 0.13151449653310093
000480 fe e1 2c 05 e2 de d3 3f 71 56 9e e9 5c a8 d3 3f
       0.31047869210627244 0.3071510583334663
000490 6a 3a d9 45 d2 62 d3 3f d5 40 ef 36 3b 0b d3 3f
       0.3029065782656405 0.2975605045767343
0004a0 b4 e4 93 8c 76 a3 d2 3f 40 bc 73 7d ae 30 d2 3f
       0.2912269947842774 0.28422128916912826
0004b0 1a f1 01 e1 f4 b7 d1 3f ac 2a 30 56 06 3f d1 3f
       0.2768528172816943 0.2694717256241954
0004c0 8c 84 cc d7 ab c8 d0 3f 32 23 1f 6c 41 57 d0 3f
       0.2622480018054112 0.25532565649750716
0004d0 51 6b 34 30 60 d8 cf 3f b1 ae fa 1f db 0f cf 3f
       0.24879076341388864 0.24267138539777514
0004e0 9b 65 5d f3 c4 55 ce 3f 3c fe bd 66 7e ab cd 3f
       0.23699247248695773 0.23179607407290514
0004f0 60 ba 5e 2c 71 10 cd 3f 93 d8 c8 46 32 84 cc 3f
       0.22706427256112516 0.22278431373860438
000500 31 67 84 77 34 07 cc 3f 8d 7c fc e6 f7 94 cb 3f
       0.21896987758446465 0.21548365381838544
000510 87 cb 44 69 24 30 cb 3f 68 75 12 fe 96 cf ca 3f
       0.21240668430399642 0.20946013837685062
000520 72 2c 3c 5a ac 6d ca 3f 9b f6 fe b7 62 02 ca 3f
       0.20647196203239876 0.2031978033464171
000530 85 bb 9c 07 5f 8b c9 3f 23 20 d7 8f 47 04 c9 3f
       0.1995657717866061 0.19544310115293326
000540 72 6e c5 50 72 77 c8 3f 1f 45 e9 ca 44 e4 c7 3f
       0.19114521926791245 0.18665370853208516
000550 3c 77 86 c3 80 4f c7 3f db 09 a4 d5 b2 bf c6 3f
       0.18211373850948032 0.17772517615965353
000560 e2 5f 0b 7a 48 32 c6 3f 91 1b 98 e7 05 a5 c5 3f
       0.17340951880646488 0.16909860428151238
000570 7d 31 0d c1 04 0f c5 3f c3 49 a6 50 ba 7f c4 3f
       0.16452083040566015 0.16014794290511078
000580 6e b3 d2 44 06 e3 c3 3f d5 5b 9f 2d 03 4e c3 3f
       0.15536573753834254 0.1508182499662484
000590 b4 8d 67 aa 24 a0 c2 3f 12 12 a8 71 d8 c0 c1 3f
       0.14551218338520544 0.13869767713198705
0005a0 cf ef 0b 10 a7 db d3 3f 9d cd b9 ae 37 a4 d3 3f
       0.3102815300660468 0.3068980413729266
0005b0 f4 d7 b5 0c c0 5d d3 3f 30 a8 6f 37 1a 05 d3 3f
       0.30259705773585144 0.297186426293254
0005c0 81 a4 43 3b e1 9b d2 3f dd 7d 90 ae d4 26 d2 3f
       0.2907641485931621 0.2836200432520551
0005d0 ec 29 b9 0d 40 ab d1 3f 22 cd 70 7e 6e 2e d1 3f
       0.2760772832886278 0.2684589609882143
0005e0 5a d4 a6 fb 9f b4 d0 3f bc c2 07 93 e6 40 d0 3f
       0.26102447104796556 0.253961223205845
0005f0 4f 2f a9 30 dc ab cf 3f ed 92 44 b4 f7 e8 ce 3f
       0.24743225456256332 0.241484606763286
000600 47 a8 46 f1 29 3a ce 3f 14 22 a9 ff df 9e cd 3f
       0.23615001946501676 0.23141098006659944
000610 38 be 55 da 72 14 cd 3f d1 34 5b f8 d0 95 cc 3f
       0.2271865430916351 0.22332203032275413
000620 00 bc b0 fe da 1d cc 3f c1 6d 98 6b f8 a8 cb 3f
       0.219661115990192 0.21609406713183257
000630 67 a8 94 b9 9d 39 cb 3f a3 da a5 e1 f6 cd ca 3f
       0.21269580422932963 0.2094105340763309
000640 d0 43 63 02 a9 66 ca 3f 33 0d 6b 34 9a 00 ca 3f
       0.20625794045056844 0.2031433826397034
000650 ab fd fe 10 1e 9b c9 3f 3b e5 f5 7f c1 30 c9 3f
       0.20004630880246785 0.19680041072914797
000660 a6 d7 16 0a 15 c6 c8 3f 5f d2 34 57 f6 53 c8 3f
       0.19354498856199348 0.1900623250782187
000670 14 c0 03 2c 0c da c7 3f f6 04 dd 9c c8 5e c7 3f
       0.18634178303864302 0.18258006724685288
000680 a9 29 0d f2 a6 e8 c6 3f fa c1 32 18 c2 6f c6 3f
       0.17897497958103983 0.1752855890422465
000690 82 e3 e0 07 66 ff c5 3f 1a 1b 2d 7c f2 96 c5 3f
       0.17185664543810836 0.168669043190868
0006a0 fb ee a9 eb b4 35 c5 3f f2 7d b6 25 2e ec c4 3f
       0.16570149905225393 0.16345764962623793
0006b0 05 50 f0 0d bb 8e c4 3f a1 1b 71 23 26 f7 c3 3f
       0.16060579472161876 0.1559798882537651
0006c0 52 80 5c 2e 1e de d3 3f 24 84 79 90 d2 a8 d3 3f
       0.31043200042222907 0.30717910870413534
0006d0 45 26 00 0b 8d 64 d3 3f 15 ce a6 21 9a 0d d3 3f
       0.3030121428897455 0.2977052048329097
0006e0 6e 9b 6c 11 dd a5 d2 3f d3 b3 6f a9 01 32 d2 3f
       0.2913735075148257 0.2843021540309653
0006f0 52 78 1f 62 5b b7 d1 3f 3d 4d a0 81 84 3b d1 3f
       0.27681622106854775 0.26925766619497776
000700 35 16 b9 0a a0 c2 d0 3f af 2d 6c 32 f3 4e d0 3f
       0.26187897727172366 0.2548187248619013
000710 56 e3 ef 64 11 c6 cf 3f f8 0b 34 9e 8a fe ce 3f
       0.24823205402915488 0.2421429893948639
000720 b2 ed 1c 2c b6 47 ce 3f fd 88 7b d9 af a3 cd 3f
       0.2365634646792905 0.2315578281332548
000730 ae 80 e3 0d 79 10 cd 3f f7 3e bf d8 13 8d cc 3f
       0.2270652120414573 0.2230553444228389
000740 56 df ac f4 b0 1a cc 3f f8 9e e6 a0 fa b2 cb 3f
       0.21956455180201812 0.21639950615394077
000750 2e bc 83 5a 01 59 cb 3f e4 b3 3d eb 40 01 cb 3f
       0.21365372581155512 0.21097575651529532
000760 75 7b de 2e 5e a6 ca 3f f8 76 4b 74 d9 40 ca 3f
       0.20820214546707985 0.20510404756981138
000770 a6 0b 32 8e d9 cc c9 3f 0c b7 95 85 ec 48 c9 3f
       0.20156402056826755 0.19753796122261524
000780 02 32 67 75 c5 c2 c8 3f 61 31 c0 03 0c 3e c8 3f
       0.19344394905637335 0.1893935221018053
000790 63 ad a4 88 b9 b9 c7 3f fe 9e 6b 06 2f 41 c7 3f
       0.18535536930117322 0.18167674840446318
0007a0 98 28 65 9a fb d4 c6 3f 39 da b4 ca 39 68 c6 3f
       0.17837471999002186 0.1750557174470531
0007b0 5d 41 e1 c9 7d 0b c6 3f fe 79 21 ee b3 b0 c5 3f
       0.17222568852822465 0.16945504310110943
0007c0 38 b1 3e 40 ee 67 c5 3f c2 ea 38 f0 a7 20 c5 3f
       0.16723421227414703 0.1650590823135954
0007d0 c6 cf 1c 3e 75 b2 c4 3f e2 7e 98 b8 56 0f c4 3f
       0.16169610531653528 0.15671810162984118
0007e0 2c ef e3 f7 53 df d3 3f 6d 63 4c 50 7f a7 d3 3f
       0.3105058594517114 0.3070982250370012
0007f0 bb 3b 4e 24 9b 5f d3 3f 43 18 f7 77 81 04 d3 3f
       0.3027103285357346 0.297150008348016

Maxvals f8 [11]
000000 3b 3c d0 3a 5a 15 2d 40 61 62 bf 44 d3 39 2c 40
       14.541704023284288 14.11293997608408
000010 26 5f e6 4d 05 f9 2b 40 90 3b c3 db 28 ce 2b 40
       13.986368593570273 13.902655475217927
000020 7a 5f 48 cc b3 a8 2b 40 e2 98 50 ec 43 94 2b 40
       13.829496749720182 13.789580712164426
000030 f6 52 f2 f4 5c 6a 2b 40 0b 44 2a 63 69 52 2b 40
       13.707740454273772 13.660960291776084
000040 ef 24 90 17 4c 24 2b 40 7c ef b0 c9 e6 f1 2a 40
       13.570893036218392 13.472463896606989
000050 e4 7a ab 02 38 9d 2a 40
       13.307067950661299
