Data/SIMBA/Model_snap25.npz (npz, 268410 bytes, 5 tensors)

x f8 [37]
00000000: 0000 0000 0000 2640 3333 3333 3333 2640
00000010: 6666 6666 6666 2640 9999 9999 9999 2640
00000020: cccc cccc cccc 2640 ffff ffff ffff 2640
00000030: 3233 3333 3333 2740 6566 6666 6666 2740
00000040: 9899 9999 9999 2740 cbcc cccc cccc 2740
00000050: feff ffff ffff 2740 3133 3333 3333 2840
00000060: 6466 6666 6666 2840 9799 9999 9999 2840
00000070: cacc cccc cccc 2840 fdff ffff ffff 2840
00000080: 3033 3333 3333 2940 6366 6666 6666 2940
00000090: 9699 9999 9999 2940 c9cc cccc cccc 2940
000000a0: fcff ffff ffff 2940 2f33 3333 3333 2a40
000000b0: 6266 6666 6666 2a40 9599 9999 9999 2a40
000000c0: c8cc cccc cccc 2a40 fbff ffff ffff 2a40
000000d0: 2e33 3333 3333 2b40 6166 6666 6666 2b40
000000e0: 9499 9999 9999 2b40 c7cc cccc cccc 2b40
000000f0: faff ffff ffff 2b40 2d33 3333 3333 2c40
00000100: 6066 6666 6666 2c40 9399 9999 9999 2c40
00000110: c6cc cccc cccc 2c40 f9ff ffff ffff 2c40
00000120: 2c33 3333 3333 2d40
11.0 11.1 11.2 11.299999999999999 11.399999999999999 11.499999999999998 11.599999999999998 11.699999999999998
11.799999999999997 11.899999999999997 11.999999999999996 12.099999999999996 12.199999999999996 12.299999999999995 12.399999999999995 12.499999999999995
12.599999999999994 12.699999999999994 12.799999999999994 12.899999999999993 12.999999999999993 13.099999999999993 13.199999999999992 13.299999999999992
13.399999999999991 13.499999999999991 13.59999999999999 13.69999999999999 13.79999999999999 13.89999999999999 13.99999999999999 14.099999999999989
14.199999999999989 14.299999999999988 14.399999999999988 14.499999999999988 14.599999999999987

intercept f8 [100, 37]
00000000: b152 ae22 acb9 ed3f 3d6a 662c 1b73 f83f
00000010: 0024 a02c f17a ff3f 1471 61bd c285 0240
00000020: 88ec 77bd ddf7 0440 7ce0 c73a 2643 0740
00000030: f54d 3001 c983 0940 862c f726 a6bf 0b40
00000040: 9e73 08c4 8af2 0d40 c25e 0a37 bd01 1040
00000050: e2bc 2494 78ee 1040 45f3 0b18 12ac 1140
00000060: 4e82 d806 c02b 1240 0c08 d50a 9265 1240
00000070: 892e 0f04 8a4d 1240 3c9c 2c9c 7cea 1140
00000080: 41d9 38db 6a45 1140 51e6 9f90 be76 1040
00000090: b963 90d4 330f 0f40 46ed f632 0016 0d40
000000a0: 0b1e 11ec 6d08 0b40 d298 c5c2 52fe 0840
000000b0: 905e 1416 7217 0740 5e43 c480 5c5a 0540
000000c0: 07fb 9a82 75d5 0340 cfe6 961d 186c 0240
000000d0: 20b5 3864 e805 0140 2605 e1c5 2248 ff3f
000000e0: 70ad 80f4 36de fb3f c26c 5a34 7f79 f83f
000000f0: 84a8 d824 82a3 f53f 4d41 8744 fab9 f33f
00000100: ad66 65ee f942 f43f fab6 87c6 c209 f73f
00000110: b718 c878 bc21 fd3f 881b 0cb2 bc22 0240
00000120: fab5 062c 2e3c 0540 b423 2948 7af4 ed3f
00000130: a593 e83c 1d8a f83f ba90 473b f682 ff3f
00000140: 4072 05ee 2b83 0240 ce60 aa0a e3e9 0440
00000150: de17 1da3 e729 0740 6a1a c07e ff5b 0940
00000160: f442 d7b1 3c8e 0b40 f956 c56a 60bc 0d40
00000170: fec6 b03f 04d6 0f40 85ba a6f9 d7e3 1040
00000180: 135a b613 31b1 1140 44c4 cafb 6b43 1240
00000190: fdb2 d60b 2b8d 1240 10ce da8f a982 1240
000001a0: 57c4 f8ed 8c2a 1240 84a1 70bd f584 1140
000001b0: 8bd6 e9d5 53aa 1040 68bd cadc 4148 0f40
000001c0: 1a70 c365 5c1a 0d40 1731 bb49 51e6 0a40
000001d0: 52b0 8dd7 27e0 0840 08a2 020a ef35 0740
000001e0: a317 89cc d2eb 0540 2395 e845 d7df 0440
000001f0: d41d b184 eed4 0340 fd9b d542 395d 0240
00000200: 2eef 2523 5479 0040 6ef4 2d55 8759 fb3f
00000210: e213 3da3 dbd0 f43f fede 6fc2 0229 ed3f
00000220: 588c 0e6e e5da e43f 1b01 84e8 ce92 e43f
00000230: ec2f ba49 b7d3 ee3f c5df 1afe 6952 fc3f
00000240: 803e b495 983f 0740 af02 d5a9 16fd 1040
00000250: 435e 233e cd6d ed3f 1adc 6dfa 1149 f83f
00000260: 5cd2 0642 8156 ff3f d092 6e66 e578 0240
00000270: 28c9 949e caee 0440 9c3b 194b 313b 0740
00000280: c0dd 0848 b078 0940 fcd8 a2b9 c5b0 0b40
00000290: 4072 895a 3cd8 0d40 de86 8ccd 0dd7 0f40
000002a0: 5a2f 0fd6 36d0 1040 8d27 ae84 4c87 1140
000002b0: 2e5d 821f 9305 1240 a14d 06b6 ab41 1240
000002c0: 4fd5 1f45 2f35 1240 b1e5 8c1d 60e4 1140
000002d0: 2492 2a04 e354 1140 60bb cb90 7e9a 1040
000002e0: f5d8 e309 8872 0f40 2c12 5b24 a294 0d40
000002f0: d21e d591 9a83 0b40 21b7 875e ac62 0940
00000300: 11a3 3cd0 0d3d 0740 79f4 10f8 8c2e 0540
00000310: e94b 325e 022d 0340 564e 8d45 8d35 0140
00000320: 94b5 ed70 1a33 fe3f 8e94 8fb1 8841 fa3f
00000330: ec4e f274 211b f63f ec7f 079e 7cab f23f
00000340: c4e9 3118 7d1c f13f 642f 683e e55d f13f
00000350: 8136 ccb0 4030 f53f a158 cc2e be0c fd3f
00000360: b0f2 52d6 fce1 0440 2112 e48e 30ef 0c40
00000370: 8107 79e5 16b1 1240 776f 839f 27c2 ed3f
00000380: 66a7 749d 4e7c f83f 53ca a31b 068f ff3f
00000390: ea78 d9e8 ab96 0240 1b17 e832 400b 0540
000003a0: 1653 3b08 d251 0740 b6cd 967a 4886 0940
000003b0: 98cf 6b11 f7b0 0b40 3a03 cb41 6ad0 0d40
000003c0: 0a23 5cc7 36d5 0f40 3816 8d0e 10d7 1040
000003d0: 16fe f5d1 759d 1140 24a6 5e90 eb29 1240
000003e0: be5c ed3d 7677 1240 38aa ee9f 9472 1240
000003f0: b784 4db0 0620 1240 b679 86b8 b884 1140
00000400: 840d 16cd 25ba 1040 24b3 4c7d 297f 0f40
00000410: 9489 d987 115e 0d40 2877 3945 fa29 0b40
00000420: 7fe0 c35f 0a06 0940 ab01 b393 bd42 0740
00000430: 028a 4210 b1dd 0540 546b e4f1 c5e5 0440
00000440: 8ed4 763d ec11 0440 a725 6d72 1707 0340
00000450: 6750 ddbb daba 0140 c87b e6f6 6017 ff3f
00000460: debb 1e71 4a8a f93f 8c03 5834 c149 f43f
00000470: 0a66 3b33 5c4c ee3f 76f4 2693 449e ea3f
00000480: d915 9c3c bc93 ec3f be77 20a8 e6a6 f23f
00000490: 3e4c 7f63 7952 fa3f 8f1c 6a92 efc2 0240
000004a0: 777d 6c9d 2959 ed3f 7e82 7bfe 3740 f83f
000004b0: ae70 b93c 084e ff3f cf87 cd7a cc76 0240
000004c0: c3a9 4cec 09f1 0440 968f b202 e93d 0740
000004d0: 2189 6262 ae77 0940 d74d b002 12a3 0b40
000004e0: d1e5 d625 adc3 0d40 cc4f f247 cdc9 0f40
000004f0: 29c8 64da 5ed5 1040 a0ac 8a07 839c 1140
00000500: c848 1610 7529 1240 cc30 00ba 146f 1240
00000510: ad92 c649 c05a 1240 c0fe 4640 ebf6 1140
00000520: 3f0e 6254 e649 1140 cf6f dbf1 d772 1040
00000530: ae3d 8c8e d8fe 0e40 b55d 474d b415 0d40
00000540: e949 608e 8a1f 0b40 63f6 9186 fb30 0940
00000550: 6ef6 dab9 3156 0740 d6fb 41ff e599 0540
00000560: 449b 7848 65f9 0340 1ec1 7864 0b80 0240
00000570: f6d9 0470 4ef6 0040 7a52 e7f0 81d5 fe3f
00000580: 4676 9877 fae2 fa3f d89e 19f0 5173 f63f
00000590: faee 58a1 288e f23f 2068 5b5f 323f ef3f
000005a0: 0641 275d 46c8 f03f dcc5 0db7 cc1e f63f
000005b0: 06ec 6eea 6bf3 0040 a5be 835e 7c46 0a40
000005c0: 4881 9160 a9d3 1240 850d becc d0bf ed3f
000005d0: e23e 7d16 f773 f83f 77ea 48fd 6a73 ff3f
000005e0: e25b 35da bf7c 0240 103d b106 3ae8 0440
000005f0: e4f3 cc5d 852e 0740 28b2 bb63 ff66 0940
00000600: ba44 f011 269f 0b40 1ad4 465a fbcc 0d40
00000610: 8b57 cc97 27da 0f40 c41f e2a4 72d8 1040
00000620: 3c92 2e21 8c95 1140 20c3 8283 0113 1240
00000630: 5e1e 2c21 0d4a 1240 0173 ea16 362e 1240
00000640: 14e2 fe53 b1c8 1140 3776 79a6 0c23 1140
00000650: 79e4 d144 ff5f 1040 d857 eb1d 4f0c 0f40
00000660: 8a4d 3c6f 2a50 0d40 63b6 ac00 1e7c 0b40
00000670: 229c ae64 1385 0940 c43a 4d0e 97a1 0740
00000680: 54e8 2d0f b7c7 0540 8107 0b20 421b 0440
00000690: e0ad c240 c58f 0240 0c91 7efb 3316 0140
000006a0: 8e7a d10f 3537 ff3f da15 04e8 52cb fb3f
000006b0: 00f2 5ee3 619e f83f 3601 3904 0b52 f53f
000006c0: 867c e474 8351 f23f 3022 3965 7817 f23f
000006d0: dafd 2b13 27a3 f33f d83b 241e 60eb f63f
000006e0: 9fbc bdc4 2ff8 fc3f 41c8 a49e ad6c 0040
000006f0: 0e9d 3173 23d5 ed3f 43d0 9126 086c f83f
00000700: af3d 4b00 266d ff3f 38dd b1c7 327f 0240
00000710: ac99 8017 37f9 0440 bfb6 ad9f a14b 0740
00000720: 3877 b775 748b 0940 ac83 0f16 e5be 0b40
00000730: 4cf0 2f3c 09e6 0d40 05ae f5b7 eee9 0f40
00000740: 4d2f 5307 f2dd 1040 799e 7288 c499 1140
00000750: 2e0c fd9a 981a 1240 e231 4536 8f56 1240
00000760: 6d0d 331f e546 1240 01a5 00a7 c2ec 1140
00000770: f285 f75f 0e53 1140 3fc1 a977 8d8d 1040
00000780: 6b89 7511 bc52 0f40 0a2a a729 df66 0d40
00000790: 5e92 0289 cf5c 0b40 dd41 5686 772c 0940
000007a0: b54e fe74 e2f4 0640 05e0 7676 369f 0440
000007b0: abd8 772e 7785 0240 5c4a a984 f386 0040
000007c0: f1ad 1c82 ec85 fd3f 2fac f2f3 27ef fa3f
000007d0: ad8e c8a7 0468 f83f 5bde ba66 4207 f73f
000007e0: caa8 7884 b691 f73f d815 09fb 21e8 f93f
000007f0: 5637 8cb6 a37c ff3f c2b1 32dc 4bee 0240
0.9289150884020129 1.5281020864846504 1.9675151580033798 2.3153128428804255 2.6210284044478307 2.9077877609489047 3.1893482296816225 3.4685786289388174
3.7434287371711 4.001698360450691 4.2328818461821545 4.418037772874247 4.54272471138445 4.599189919712455 4.575721801210997 4.478990974638744
4.3177904370734845 4.115961322555067 3.8824230772556487 3.635742567215547 3.379115909836178 3.1241812912513547 2.886448070999741 2.6691217479605447
2.479228039126045 2.3027803718258393 2.1278846578412782 1.9551112870834202 1.7417516280064227 1.5296623272941337 1.3524190367993763 1.2329046894920623
1.266351634249456 1.4398830180247715 1.8207363813431081 2.266961470598691 2.654384941057967 0.9360934647930805 1.5337192897070306 1.9694731059653763
2.314048633137901 2.614202578854111 2.8954613440755415 3.169920912015461 3.4444517034356696 3.7169807759736355 3.979500291426006 4.222503567506128
4.423038776402353 4.565841612101455 4.637859520892332 4.627599952440065 4.541553228672533 4.379843673705526 4.166335432431548 3.910281872689371
3.6378715467708505 3.3624597320796386 3.1094509925951934 2.9013348371556766 2.7401481608712444 2.6092973195651594 2.4789705626060172 2.2955193730772394
2.0592425104095105 1.7093575789761206 1.3009907127864087 0.9112561986539445 0.6517207288310471 0.6429209271737223 0.9633442344652372 1.770120613668028
2.9060527511244914 4.2471567665349275 0.9196535314212685 1.5178394110096236 1.9586193637052451 2.309031296014247 2.616597403445798 2.903902613360925
3.1839299800592187 3.4613146307775633 3.730583865470436 3.980006795741118 4.203334183384721 4.382127831582591 4.505444042522226 4.564131588110656
4.551938133304545 4.473022901272473 4.332897248361892 4.15087343448144 3.9309235356005225 3.6975748863499316 3.4392596619762594 3.1731803307692563
2.904811503267759 2.6477298145460364 2.3969771727656632 2.1511483606098336 1.8874763880988654 1.6409995017977823 1.3816237037871657 1.1668668911952365
1.0694552369228498 1.0854237020275486 1.3242804437790314 1.8156110599570996 2.610345529943821 3.616791836104554 4.67293890525059 0.9299505343910671
1.5303484106647942 1.9724179343871995 2.323570078980187 2.6304935433462453 2.914951385794107 3.1905679299613565 3.4614087449098854 3.7267651691512613
3.9791083884232465 4.210022189484839 4.403769760741417 4.54093766763393 4.616661994564479 4.611895083372069 4.53127551530013 4.379610903938035
4.1817848248205145 3.937090853598777 3.6709318745863104 3.395496884170729 3.127949474492254 2.9075881518367246 2.73324787810384 2.612193956168463
2.508751373471177 2.378462690311341 2.216237514201612 1.943207706884765 1.5962623995544543 1.268006519763932 0.9468213081956389 0.8318198083940291
0.8930340942176215 1.1657473151640114 1.6451352964984518 2.345183509696262 0.9171341013606441 1.5156784001084413 1.9565508243604586 2.3080072015736515
2.617694707955907 2.905229588579412 3.183438080436773 3.4546241960576753 3.7205450969893055 3.9735360737631478 4.208369648362386 4.402843587721833
4.540485621795774 4.60847750307239 4.588624146218234 4.491131786664198 4.322167700276224 4.112151888864857 3.8744364868686807 3.6355978047756374
3.3904009936461432 3.1489172471327023 2.917087032313069 2.7001457159053457 2.4967752134138284 2.312521729407435 2.120266795299581 1.9271258745476687
1.6804146453572613 1.4031543139371276 1.159706716788547 0.9764644491617709 1.048895229225367 1.3825194502390934 2.1188581767178247 3.2844169029193204
4.706700810318871 0.9296649931788329 1.5283118132101028 1.9656782049120503 2.310912804368386 2.6133919260825067 2.897715313737068 3.1752918044715166
3.4527093316506496 3.725088792120471 3.9815208300814837 4.211374832440871 4.396042364566309 4.518560461860744 4.572315710370814 4.5451282101246315
4.445988953048545 4.284227944529952 4.093747210799045 3.8810102784582163 3.6641434374120694 3.435604100485578 3.1899783960139 2.953901397449359
2.7225171266445987 2.51330971749934 2.3202004489337327 2.135841336059576 1.9509783380414407 1.7371396124957443 1.5386675721812253 1.3325300373981697
1.1449007574190389 1.1307300523786914 1.2273321865940177 1.4324647118953546 1.8105924306108034 2.0530655283010053 0.932267880428215 1.5263749605774286
1.9641475688439234 2.312108574023707 2.621687110530919 2.911929366577936 3.1930932232488907 3.468210384701214 3.7373223020677298 3.989224850831081
4.2167435783884 4.400163776393691 4.525972768492506 4.5845306853993595 4.5692334055814685 4.481211289800968 4.33110952327978 4.138234967933669
3.9153977741236097 3.6752303365840406 3.4203177169713816 3.146712350375522 2.8695725574596858 2.5777405982044024 2.3151687269520003 2.0658941616214133
1.8451962549687517 1.6833877114502334 1.5253950647392387 1.439272309578789 1.4730744528447297 1.6191730314325152 1.9679295664568222 2.3663556292505925

slopes f8 [100, 37, 7]
00000000: 53f2 b04f f5d6 aa3f ceb1 1f66 2b1b e13f
00000010: b743 4727 b002 f93f 4740 d806 6905 813f
00000020: 189b aa68 9931 79bf 44bc c099 0bb7 b1bf
00000030: 024c 5e05 3a32 84bf 3ab1 5287 83e9 4bbf
00000040: 1694 c1de e86c e23f 7c5c b46f 4ebc f83f
00000050: dc98 3539 c3af 7c3f d814 8679 8286 7abf
00000060: 4cc1 dc25 8130 b7bf 50e9 1c25 fe7f 84bf
00000070: 028a 8574 8351 a4bf 342b 6157 5d67 e33f
00000080: 777e b6f7 454b f83f 0c71 b1e7 e242 803f
00000090: 1067 282f a952 7fbf a4cb 977c b7a4 bcbf
000000a0: 850f c39d c9a8 85bf d022 a2fb 000b b2bf
000000b0: 6ae9 c5cd ae09 e43f 3855 dac9 4cb1 f73f
000000c0: a8e1 5315 34b5 873f 900b c511 e9d0 83bf
000000d0: 9af8 de25 f9ce c0bf 0467 94b4 b933 87bf
000000e0: 3199 7196 b206 b9bf a215 c0c5 2f5b e43f
000000f0: ba85 c81b f0f0 f63f 985d 7703 b452 923f
00000100: 34e2 7565 7b30 89bf 1b53 9540 50d9 c2bf
00000110: 2ec1 e7f5 a6cb 88bf 8ddd 3f46 c4a1 bfbf
00000120: f4b9 2aa6 9365 e43f 3c36 7c4b 1f11 f63f
00000130: e6b6 b497 67e7 9a3f 722b fa98 f5f9 8ebf
00000140: cc83 6b6c d842 c4bf 14f9 b842 b97d 8abf
00000150: 816a 6d3e ca13 c3bf 3897 5d5b cc34 e43f
00000160: c11d 0231 8019 f53f 7362 8ad2 be44 a23f
00000170: 80ee 8d4e 4f0d 92bf fa2a 11e7 44ec c4bf
00000180: 147b 357d 304d 8cbf b49a 0359 cf51 c6bf
00000190: c631 5f24 54d6 e33f 6f10 6016 d60d f43f
000001a0: da2e 9b21 7d10 a73f 004f f2e1 3be5 93bf
000001b0: 4483 1b54 d4cf c4bf b844 a1d8 c0cf 8ebf
000001c0: 3e93 b111 c982 c9bf 572e 4855 7156 e33f
000001d0: 30c1 be6c 0df3 f23f 3290 a854 565d ab3f
000001e0: 8025 b3a0 f8d4 94bf 5a50 81b0 57f2 c3bf
000001f0: 47f2 6c03 c049 91bf 9cc5 87fa b382 ccbf
00000200: 7e90 98c1 1dc1 e23f c9ba 5b1a 4bcc f13f
00000210: a972 d506 44ec ae3f 786c a6c8 a207 95bf
00000220: ac45 50ab 3f6e c2bf 425a b010 0b0b 94bf
00000230: 2638 70f8 0333 cfbf e3a7 e7b8 c01f e23f
00000240: 4a10 2aa6 69a2 f03f ae9c 15b9 4fcb b03f
00000250: 50b6 d47a 73e8 94bf 969d 9a6b 636b c0bf
00000260: 82ae 2248 299c 97bf 68cc 09bd 23af d0bf
00000270: 1736 9da0 1b7f e13f ea6d b824 19fc ee3f
00000280: 6669 d1c3 19ad b13f 38a5 522b 2ef6 94bf
00000290: b00e f1a9 8e20 bcbf 73f3 0dba 2204 9cbf
000002a0: 8d97 5e19 916e d1bf 51b2 9974 0fe6 e03f
000002b0: 17e0 2ac6 2dd8 ec3f 3e7b 7f20 bb24 b23f
000002c0: a89a ad0f ab84 95bf 3c1b 5115 e61e b7bf
000002d0: 34d4 dae6 787b a0bf 4e17 762f 8dcd d1bf
000002e0: b8cf 0332 c15d e03f 40b2 a1a0 e6ea ea3f
000002f0: f436 a851 c943 b23f e8ff e4b4 adbc 96bf
00000300: e63d 4eaa 5b17 b2bf 7eec 4422 b710 a3bf
00000310: 441e 9102 83bd d1bf 947b c9be 7ad1 df3f
00000320: f833 46e7 3642 e93f 38f7 c9f6 df18 b23f
00000330: 10be a94f 545f 98bf b8ba 01bd b98a aabf
00000340: 0c6c 10cf c0b6 a5bf 8993 2a71 fa48 d1bf
00000350: 0efa 8df1 a412 df3f 5c6d 8644 dfdb e73f
00000360: 4df2 483f fdb1 b13f 306d e484 2c30 9abf
00000370: 0009 b1b1 8eac a1bf badc 36ed 267d a8bf
00000380: 4f53 8c4e 567d d0bf 2a4a ca6d 7e81 de3f
00000390: 51af 14cb e7af e63f 3e31 8c76 b80c b13f
000003a0: 70f4 0d21 d80f 9cbf ac58 27a0 5fa9 93bf
000003b0: 18da a8b4 9e61 abbf dc58 bd3f def6 cebf
000003c0: 8679 1bff f21b de3f 0a13 3f06 efb8 e53f
000003d0: 2183 971e f22b b03f a8de c751 c1e4 9dbf
000003e0: 8022 1815 76fe 79bf f380 b3fb 0356 aebf
000003f0: 6b35 f9c0 4aa0 ccbf 70f4 f277 a9da dd3f
00000400: 7dae 8abf c1f6 e43f a047 ffb1 57f4 ad3f
00000410: 6adb da28 d9a4 9fbf 881d 0d6f 830d 723f
00000420: ca92 60c6 2ab9 b0bf 9e2e 06c7 e428 cabf
00000430: 5662 77ee f5b6 dd3f 2247 0c9a 0e61 e43f
00000440: ece5 e170 a70a ab3f be11 77df c7a9 a0bf
00000450: 3461 dc12 a854 8b3f 9d2a f4c8 9757 b2bf
00000460: 3fd3 c300 6f9b c7bf fcbf 76c2 8897 dd3f
00000470: 78c0 28a5 a8f2 e33f 68c8 1b00 73db a73f
00000480: 80e9 bc34 aa71 a1bf 9061 fbc4 368f 953f
00000490: 7e5f 7610 4a17 b4bf 1aa1 09d3 db17 c5bf
000004a0: 42ec 7d59 4462 dd3f 923d 9414 58a2 e33f
000004b0: 44ed 5b51 4caf a43f 747f 6dfa e63d a2bf
000004c0: 80cb 5f3c cba7 9c3f 2a94 fde8 58f1 b5bf
000004d0: 01d3 2f57 a8c7 c2bf 24b7 f15a 60f3 dc3f
000004e0: b203 5d27 d669 e33f 7413 e448 e4e6 a13f
000004f0: 10f0 d073 0112 a3bf 78fe 5e83 e694 a13f
00000500: 84ea 840f 3fee b7bf b810 db70 2cb2 c0bf
00000510: 5258 f3aa 1147 dc3f 9213 4f87 7d53 e33f
00000520: 185e 2da9 1750 9f3f d8c3 951b 81d8 a3bf
00000530: 1833 2f73 3bbc a43f 18ec 98e7 dbc0 b9bf
00000540: ba16 02cc 6ed3 bdbf 9833 365c 9449 db3f
00000550: 8a6d 6f9a ae4e e33f d4e8 a372 f338 9c3f
00000560: f0b6 8d78 0096 a4bf 08b2 bc3e 5f55 a73f
00000570: 65dd cd8f 177c bbbf 3b67 81e0 0f94 babf
00000580: 46ef c0a1 fefd d93f a364 f21c 276a e33f
00000590: 6cb9 158a ae6f 9a3f 4948 6fc4 a969 a5bf
000005a0: 83d1 6e6e 2148 a93f 7b9c 37b3 3cd1 bcbf
000005b0: 24fd 4462 7064 b7bf 6c67 de4d 1693 d83f
000005c0: ec95 aed9 e19f e33f 9c27 1a96 bb6c 993f
000005d0: fc1b 8f4b 7d4e a6bf dc71 1030 bda3 aa3f
000005e0: f084 53a4 f290 bdbf 3d1c 665d 4b41 b4bf
000005f0: a49e b2f2 892a d73f b8e7 3194 6dfb e33f
00000600: 1443 8596 69ee 983f ac93 c6d1 5487 a7bf
00000610: a627 a360 023e ab3f 56cd 7128 277d bdbf
00000620: 2bf6 b952 845b b0bf 3eef eae3 b6ce d53f
00000630: 446e cc86 446a e43f 48e4 1de8 800b 983f
00000640: ac5a eda9 720a a9bf 1e0d 24ec 118d aa3f
00000650: 1a87 9ed9 2edb bcbf 4793 0416 aff8 a8bf
00000660: d2ae 0459 2a98 d43f 29f1 0c26 efdf e43f
00000670: 14f0 c32a 3a49 963f 7806 0253 bee5 aabf
00000680: ac18 e753 b354 a93f 4279 4d7c 1389 bbbf
00000690: 82e5 32fb bf81 a2bf 88bd a7b7 ffab d33f
000006a0: 7ec0 f34f e256 e53f 0205 c376 2801 933f
000006b0: 68d3 0511 a860 adbf 5ebb eb69 c96c a83f
000006c0: 4a3c 58eb 7b7c b9bf aa02 c35d 794c 9cbf
000006d0: 162a 9020 2e29 d33f 98d5 828f 3aba e53f
000006e0: 18ba d716 78c8 893f d69c c50b 3c3d b0bf
000006f0: 7c2c 81f7 dfc1 a73f 40ee c89f f203 b7bf
00000700: 1d5a a421 7ee1 9ebf 52da c181 c6d1 d23f
00000710: 1239 062a 8f44 e63f 90c0 b735 f88f 743f
00000720: bed6 838a c12a b2bf 80ed ba19 c4f8 a93f
00000730: cea6 2747 704f b4bf 4d61 0df7 38d4 a5bf
00000740: 783c a741 48b6 d23f f0ef d1a6 b408 e73f
00000750: 9048 bb9b d9fb 74bf 2ea4 b487 b9a3 b4bf
00000760: 4061 99e0 5129 ae3f e223 0886 a65a b1bf
00000770: 23bc d7ba 87cb b1bf 7a56 c30b 8636 d33f
00000780: 31e9 50b5 8e6f e83f 2acd d8d0 3c0e 92bf
00000790: d623 333c 2ab7 b7bf d834 11c6 405f b33f
000007a0: c034 3338 1d83 adbf fc3f 016a 15b0 b9bf
000007b0: 2aad 68c0 2dc1 d43f 50c8 f3ea 378b ea3f
000007c0: 8873 7fae b7f9 9fbf a8c4 fc25 f72c bcbf
000007d0: 4cb2 bd26 c8e8 bb3f d894 68be 7c77 a8bf
000007e0: e4c5 7e4b 6d30 c0bf 1896 b828 ddb0 d63f
000007f0: cfdb f1d4 a319 ee3f 1885 3ebb a7ef a7bf
0.0524212512759489 0.5345665926557162 1.5631562742530443 0.008311100503334624 -0.006150817159016574 -0.06919929984791034 -0.009861424721554716 -0.0008518116216201029
0.5757946348863949 1.5459732402285047 0.007003557769485105 -0.0064759346645406266 -0.0905838696896854 -0.010009751803967376 -0.03968439862616792 0.6063677508003367
1.518377273205173 0.007940075584138138 -0.0076471909292423895 -0.11188837806530089 -0.010575842978489689 -0.07048040526764088 0.6261819857602806 1.4807861218335585
0.011576086903446761 -0.009675808768070643 -0.13131632184189784 -0.01132912714324475 -0.09775844738905871 0.6361311781226286 1.43382273533676 0.01789361258655972
-0.012299503358677112 -0.14725688127023137 -0.012107185725625937 -0.1235621139056688 0.637399506134726 1.3791802357331013 0.026273363718408847 -0.015125197154039791
-0.15828995984978034 -0.012935111378393795 -0.14904144333089067 0.631445101211944 1.3187257685075198 0.03568073577952626 -0.01762889782865651 -0.163460362268175
-0.013819102116654082 -0.17437164160147278 0.619913168944145 1.2533779977830155 0.04504767451507315 -0.019429145494156863 -0.1625924502068533 -0.015044695483228274
-0.19930375446269893 0.6043020883239006 1.1843389747483108 0.05344648154667232 -0.020343670662247515 -0.15583320730604805 -0.01688289662273437 -0.22273874028136909
0.586073759190654 1.11237631126612 0.06039631446285416 -0.02053694104834533 -0.14398952355308603 -0.019573376554115514 -0.24374436980036868 0.5663760768341003
1.0396515360635186 0.06560228603994986 -0.02041798054886207 -0.12827723268604235 -0.023056645419883733 -0.26068967304963175 0.546766103457858 0.9682737080760806
0.06904755621636624 -0.02047035350247947 -0.10987178467717729 -0.027359526258340105 -0.27237346150865777 0.5280835416174999 0.9013890142878179 0.07087297004134727
-0.02101390155021457 -0.09031522770338268 -0.032192018681066165 -0.278170868252677 0.5114446617940223 0.8411744248711059 0.07134683841305983 -0.02220412651627149
-0.07066891582348198 -0.037236903126960805 -0.2771918797556945 0.49716061240717946 0.7893328206133665 0.07069206023330998 -0.02380115257477483 -0.051839641878236475
-0.04240992095602544 -0.27007924128911803 0.48551295842472164 0.745589860761736 0.06912215037386567 -0.025574393855191946 -0.034519633475172284 -0.0478298344200367
-0.2576499716827145 0.4766536781473031 0.7089728323385122 0.06660035032490882 -0.027404191033828018 -0.019200796270376116 -0.0534791560680114 -0.24190881836211175
0.4704558841021015 0.6788249132156079 0.06317055937644202 -0.029192944160938566 -0.006346188792584528 -0.05924999663852928 -0.22364172384770184 0.4664710685136191
0.6551216832207981 0.0585048107892725 -0.03090228378161034 0.004407418645150492 -0.0653254255599435 -0.20437297552085892 0.46429203307846956 0.636847782969401
0.05281565907439387 -0.03254532435269962 0.013345063281619753 -0.07164906173799541 -0.18443095719671906 0.46237391462909705 0.6233714319005363 0.046596139682052506
-0.034070319116341174 0.021054130337547827 -0.07848036672510081 -0.16479060940333384 0.4591227411216928 0.6135673906264165 0.04039991849091476 -0.03562852675417974
0.027983832893322624 -0.0857139176201406 -0.1467180658070433 0.45235451585073094 0.6066694992842854 0.03496468915731202 -0.03724674738666078 0.03433914521837961
-0.09347910050284197 -0.13043742666753189 0.44183770841971637 0.6039416926147274 0.03057896585536754 -0.038761171929656946 0.04049859791812177 -0.10059904484016646
-0.11650745850246383 0.42636593823481794 0.6033547416986249 0.02756100070198715 -0.04020692321397046 0.04557321205934178 -0.10736224423259484 -0.10382174712267737
0.4061276034951685 0.6067081036918761 0.025816657236128845 -0.04182177088627321 0.04937843773896857 -0.11256770492001238 -0.0913763275066129 0.3839774856984295
0.6132668735123707 0.024828845058926782 -0.04356757685996368 0.052030479542938685 -0.11549297820922155 -0.0791213133835393 0.3619713659377146 0.624441899722334
0.024346971332593517 -0.04595437107790387 0.05320746831564742 -0.11519093263068689 -0.06389643687904172 0.3407418466338078 0.6379721291336371 0.02348138252952861
-0.048907836192190274 0.051857528758797 -0.11271946728677698 -0.04877230781338553 0.32178744023506767 0.6523357146429919 0.021763714657012725 -0.05253405345230261
0.04947433852389457 -0.10756036553127493 -0.036146163381498134 0.3073729794986879 0.6668559609952494 0.01855910515655968 -0.057378055646870874 0.04770497720698218
-0.09955572601050836 -0.027635475490344653 0.2993884389876781 0.6789830019903773 0.012589395711043713 -0.06343436515236375 0.046401022875749626 -0.08990398789404086
-0.03015706138929818 0.29405367538075666 0.6958690472399971 0.0050201125809367225 -0.0709649050876022 0.050726059094325926 -0.07933713662319095 -0.04263475433134776
0.29237562571956444 0.7198127039150659 -0.005122995407605427 -0.08062324107290017 0.05890899531067584 -0.0677894665933674 -0.06951187430944165 0.3002028574822827
0.7636178532914412 -0.017632436987878787 -0.09263862580986823 0.07567219577431972 -0.05764094649348683 -0.10034307325372532 0.3242906931870545 0.829494437113917
-0.031226034188751167 -0.11006111791063466 0.10902071901154747 -0.047786615603664095 -0.12647787271775635 0.3545449159304055 0.9406298789098119 -0.046750299078903435

scatter f8 [100, 37]
00000000: dae3 ccae 34ca d53f d945 5b26 5270 d53f
00000010: bc30 132f 6307 d53f 2062 c679 0c8e d43f
00000020: 05d5 56de 0f05 d43f 0607 2be2 6771 d33f
00000030: 6d63 4010 05d9 d23f 2e6f 7404 7740 d23f
00000040: 77a5 d8ee f4ab d13f 5134 a167 c91e d13f
00000050: 9269 7f0b 269a d03f 40fe 3369 b520 d03f
00000060: c2d4 a982 0867 cf3f 281d 1642 09a6 ce3f
00000070: 3355 d071 03fc cd3f f286 57bb 9a63 cd3f
00000080: 8d23 c29e 73d7 cc3f 2d05 39c8 8250 cc3f
00000090: d7cd 871b 7fca cb3f ec50 5c17 2245 cb3f
000000a0: 6b2b 6843 15bc ca3f 7d04 d5ec cb31 ca3f
000000b0: 6cb8 2fd3 11a8 c93f 9e53 a6de a823 c93f
000000c0: 31d2 8965 b6ae c83f 9ede 207a 224a c83f
000000d0: 3089 ccde 80f4 c73f cea4 2bbe 3dad c73f
000000e0: 2ad8 02d9 ee76 c73f 95fd 3642 2143 c73f
000000f0: 9161 bfaa 4a17 c73f 7b9a 5b32 faf6 c63f
00000100: bb85 0760 99d5 c63f 3950 3e5a 25cb c63f
00000110: 5b29 276d 0bc8 c63f f195 bdac 20ca c63f
00000120: 975c 8cd2 b0d7 c63f 0a88 faf4 c3c5 d53f
00000130: a3ab 6938 666d d53f 1dcd e111 9c06 d53f
00000140: 631e 34cd 138f d43f 56a9 5c8d 2e07 d43f
00000150: 43e1 1d79 1873 d33f d24e 8d5d ecd8 d23f
00000160: 66fd c248 903d d23f 080d a128 d8a5 d13f
00000170: e5d0 9ddd c215 d13f bf54 2030 aa8e d03f
00000180: 6fd5 f93c dd13 d03f 1283 5f87 3a4c cf3f
00000190: b362 da46 b38c ce3f fce8 53ca 10e7 cd3f
000001a0: f944 67de 3755 cd3f 8625 4543 80d2 cc3f
000001b0: c013 ad89 9f54 cc3f f945 e1b8 8fd5 cb3f
000001c0: 875d 9485 a351 cb3f 7e42 7fa8 83c1 ca3f
000001d0: c175 407b 1d2a ca3f 29b8 f2eb 458f c93f
000001e0: 175b 59a1 39fb c83f ef2f 7d51 647b c83f
000001f0: af69 fe96 b513 c83f 32b4 cef3 c6c2 c73f
00000200: 4b33 7e7b 7187 c73f aa5e 8654 c45b c73f
00000210: d8c1 f433 6033 c73f 4d3e 3324 8f0a c73f
00000220: aee0 6ef7 7add c63f 085f bda3 e3ac c63f
00000230: 3cee 1389 7796 c63f 3e91 c64c 217b c63f
00000240: bb9b 59f0 c858 c63f fef7 8d3f 9826 c63f
00000250: 7cc2 b700 f7cc d53f 6ccb 1730 3b71 d53f
00000260: fcd2 7841 6006 d53f 18aa 1fac c78b d43f
00000270: 7781 7475 2a02 d43f e0dd 641a 956e d33f
00000280: 4902 071d b9d6 d23f ea2c 459a 823e d23f
00000290: 411e 1c3d aca9 d13f 923c 9837 281b d13f
000002a0: 7c4b f7b9 8b93 d03f 3c36 ee63 2116 d03f
000002b0: 94ec 6463 494a cf3f 8928 ad94 8a82 ce3f
000002c0: 04b9 c524 80d4 cd3f b0fb 982d ca3c cd3f
000002d0: 8745 626d 36b5 cc3f 333d e088 4538 cc3f
000002e0: 1555 a788 69bf cb3f 0e4a f90b 7148 cb3f
000002f0: 76d4 1f57 13cc ca3f 1566 a202 d04d ca3f
00000300: d077 fc05 4fca c93f 2b8b ce2b 4d47 c93f
00000310: ee0e 03cb 90ce c83f e3bc 05c3 ea62 c83f
00000320: ad36 b263 8600 c83f 0578 237c c4ac c73f
00000330: d438 6f3d 7762 c73f 645c 0c04 261f c73f
00000340: 38a5 04fe 82ed c63f ebfb 9dde a9d9 c63f
00000350: 49d0 f156 bed5 c63f ea8b 92ae 85fd c63f
00000360: 0a56 c14b 8726 c73f 8a1d 99b9 0751 c73f
00000370: 1d0f cd86 627d c73f 6079 1355 92c9 d53f
00000380: 516b 4e83 9f6d d53f dc97 2a8a 6602 d53f
00000390: 78c1 8be0 c186 d43f 5806 ecf0 d8fb d33f
000003a0: 58bc 6526 c166 d33f 5715 1170 e2cd d23f
000003b0: bb90 adc6 7835 d23f 0688 20f5 75a1 d13f
000003c0: 6342 3421 0415 d13f af83 9ac8 4791 d03f
000003d0: 426f 206e bc18 d03f 7583 09c1 0b5b cf3f
000003e0: 14f6 b409 52a1 ce3f 8c41 7be1 1403 ce3f
000003f0: f25a 50cb 927d cd3f 1be4 9e45 df06 cd3f
00000400: 1547 d890 e596 cc3f 03c7 f159 7f23 cc3f
00000410: 3c7d 443a 6daa cb3f 29d3 05e3 e723 cb3f
00000420: a15a ac58 a995 ca3f 589d a7b6 d302 ca3f
00000430: 436f 7d58 e576 c93f 4c47 72a5 a401 c93f
00000440: 512e c78b 04a3 c83f 0088 69bc d458 c83f
00000450: 9019 ed92 7419 c83f cfb1 440d dce3 c73f
00000460: 8cc5 e96a 099b c73f dadf cab3 7e35 c73f
00000470: e985 42f4 d9b5 c63f 7521 bb1a 4808 c63f
00000480: 9159 5ae9 0c43 c53f ec7c 684a 8f5a c43f
00000490: 63b2 459b cd3e c33f d90d 4894 411e c23f
000004a0: 0610 6f7a b9c6 d53f 95e1 1655 d06c d53f
000004b0: c92e 8076 1204 d53f 5e11 9a9e b58a d43f
000004c0: a073 1e71 2901 d43f 6250 e54f a26c d33f
000004d0: 4378 1fdd 3ad3 d23f 74a8 23df f939 d23f
000004e0: 55de b51b bca5 d13f 23c4 d2a1 ba19 d13f
000004f0: ad29 ddc3 b696 d03f 1118 5916 031f d03f
00000500: 967b 4d1f 1166 cf3f a5e9 e08a a9a5 ce3f
00000510: 1808 e398 78f9 cd3f 8a72 67ad 825b cd3f
00000520: 4393 0390 22c6 cc3f 6a54 c895 7d34 cc3f
00000530: 771a fee6 55a4 cb3f 4f07 b465 6a14 cb3f
00000540: 256e db86 6283 ca3f 5d34 526f 95f2 c93f
00000550: ea0f dd41 2661 c93f 10ee a6c4 40d4 c83f
00000560: 11df 99e5 9053 c83f dfbb c2e6 53e4 c73f
00000570: a221 665b 0d88 c73f 2911 184b b33d c73f
00000580: 5f96 dc86 dc18 c73f c457 8aab f5ff c63f
00000590: d03a a70c 75fb c63f eb7c 3018 aa0e c73f
000005a0: 6aa9 5789 931f c73f 3581 2740 8350 c73f
000005b0: 2a9c 9193 df75 c73f 061c 3dae eb6e c73f
000005c0: 898d 5318 aa20 c73f e26f 23bb fdc6 d53f
000005d0: b248 cc69 416d d53f c5a4 e8b3 6c04 d53f
000005e0: 8755 46bc 5d8a d43f 2050 9198 c5ff d33f
000005f0: 6be5 c337 8869 d33f 52c2 c7f3 30ce d23f
00000600: 2006 a106 8b32 d23f ff5e 92ac de9a d13f
00000610: 5caf 8af3 5c0a d13f af66 f8c9 9682 d03f
00000620: 2000 52fd ab05 d03f e7c1 ee10 a029 cf3f
00000630: cd98 9f3b d761 ce3f 72c4 32c7 23b1 cd3f
00000640: eaad a9f0 ac14 cd3f 69f8 2131 8387 cc3f
00000650: d9c7 9d03 5503 cc3f 6c18 461d e585 cb3f
00000660: 2ca7 220c 2c0f cb3f 0a06 0a62 159a ca3f
00000670: 5865 55e7 542a ca3f 8b18 7dbd 3fbe c93f
00000680: 5ec7 86d8 f758 c93f 8bcc fa94 80fe c83f
00000690: c0c1 358c 73b0 c83f 3d90 fa25 d565 c83f
000006a0: 0a22 0271 7e1f c83f 3c02 3e6b 6edd c73f
000006b0: d748 2a62 f08c c73f d05a d345 fd37 c73f
000006c0: 0650 33f8 c2d8 c63f d1c3 8d51 2e5b c63f
000006d0: 5bc5 ab13 53e4 c53f 6203 309b 2465 c53f
000006e0: d402 fdb3 5bb8 c43f 4860 1b7e e331 c43f
000006f0: a5cd dedf 47ce d53f 38b1 20d8 ff73 d53f
00000700: 6a1b 60f6 5b0a d53f 815c 0d6e f28f d43f
00000710: 830a f2b3 9305 d43f 182b 15a5 4970 d33f
00000720: f018 f3e4 a6d5 d23f 80bd 8908 ca3a d23f
00000730: 30fb 6bab b2a3 d13f f58e f091 be14 d13f
00000740: 7e27 e91a 8d8e d03f 2007 2dc3 1a14 d03f
00000750: cc76 4e5f 0e4c cf3f b937 0fd7 018c ce3f
00000760: 7854 bd5e 19e4 cd3f 8ecd bb0d c94e cd3f
00000770: 901e 83b6 e9c6 cc3f 811e 5a83 5042 cc3f
00000780: 875c 44db 69bc cb3f 0617 ad82 2c34 cb3f
00000790: c068 ba85 daa6 ca3f d970 fa86 ad17 ca3f
000007a0: 4075 1345 5086 c93f dd34 a8f5 d4f7 c83f
000007b0: f595 dc80 3c7a c83f e5cb 9788 990a c83f
000007c0: 55d6 46bb 65ae c73f 1b7e 9b89 3b63 c73f
000007d0: b9a6 4b37 2b36 c73f bfa4 1e95 b516 c73f
000007e0: c642 f55e bc0c c73f 0af3 80e5 1717 c73f
000007f0: 2414 9217 2a1e c73f 08c6 077b 1135 c73f
0.3404666621241269 0.33498052354579283 0.3285758933750562 0.321169966622195 0.31280895912944146 0.3037967404053322 0.29449583613455027 0.2851846259597889
0.27612040829497836 0.26750407333458265 0.25940848467657773 0.25199637674083775 0.2453318250660797 0.23944202162622585 0.2342533403140493 0.22960218570283747
0.22532506229279328 0.22120699669361824 0.21711720318090386 0.21304727688460134 0.20886483947137022 0.20464467109744425 0.20044157802425688 0.1964007460743717
0.1928318019669333 0.18976241076756123 0.1871491516004169 0.18497440133731974 0.18331704708333635 0.18173614247460237 0.18039830529484083 0.17941214999082775
0.178393527879093 0.1780745211259516 0.1779798777554998 0.17804344591711144 0.17845735817602268 0.34019564555831094 0.3348022032648094 0.3285284208897837
0.32123274840748745 0.31293834500197215 0.3038998778133825 0.2944899476617425 0.2850075445712349 0.2757473370331387 0.26695319788201594 0.2587075681670505
0.2512124152629757 0.24451381311430304 0.2386688323938607 0.23361406211171942 0.22916315421620206 0.22517398152039564 0.22133249494996043 0.21745487716047743
0.21342891714514797 0.20903058745763653 0.20441025274423733 0.1996848489847605 0.19516678217288394 0.19126562098460861 0.18810148117775102 0.18563162712726605
0.1838209012024897 0.1824880039900923 0.18125536477010828 0.18000973956667324 0.17863404351897344 0.1771511601934821 0.17646688645605646 0.17563263176737992
0.1745845006546157 0.17305281737566242 0.340635061932552 0.3350360841424649 0.3285141600966168 0.32103149231866857 0.31263219328140884 0.303624416137124
0.2943556579084868 0.2850653177781185 0.27598100631482586 0.2672825377384892 0.2590054813455749 0.2513507343181549 0.24445454934343458 0.23835880527105172
0.23304750247502437 0.22841765619702192 0.22428016987809604 0.22046727355380255 0.21677893803158868 0.21314824185044795 0.20935289148443176 0.20549965027457576
0.2014864711026676 0.19748844756130643 0.19380388176624969 0.19051870844439298 0.18751602046943586 0.184959946264769 0.18269243716935668 0.18063807676000743
0.17912328150968349 0.17851756448723619 0.17839793439236676 0.17961188339276585 0.1808632964991122 0.18216034471900527 0.1835139425476137 0.3404279547520641
0.33481586287387183 0.3282715176850368 0.3207249348479517 0.312246547007907 0.3031466364836368 0.2938161940004042 0.28451365854403904 0.275479783422384
0.2669077228793297 0.2588672122020012 0.2515097690063507 0.24496600080149347 0.23929810975998633 0.2344690419181571 0.2303946964973061 0.22677222155996976
0.22335500309468928 0.21983329669779303 0.21613850922674682 0.21203325829596878 0.2076923068022625 0.20321127337158873 0.19894091435241465 0.19536264494359512
0.19247490716076013 0.190210906980667 0.18827683614854296 0.1866412224566276 0.1844188472783056 0.18132003573350525 0.1774246637988164 0.17212773614142987
0.166108716909275 0.15901366360865354 0.15035410005238523 0.14154834499650695 0.34025418240003125 0.3347664671851132 0.3283735425218138 0.3209661530347797
0.3125709156682266 0.3035054950935373 0.29414245218311325 0.28478857794710355 0.2757406492814643 0.2671953754716602 0.2591988480313841 0.25189282591270606
0.24530233410311258 0.2394306114309305 0.23417575326135487 0.22935517756458906 0.22479660064632342 0.22035188497162334 0.21595262316641925 0.21156053510645242
0.20713454804250478 0.20271556792832515 0.19827726570122134 0.19397744753028734 0.19005023203839547 0.18665550963984764 0.1838394829067172 0.1815704456968288
0.1804462107185598 0.17968626857753922 0.179548865488377 0.18013502293704362 0.18065113264249116 0.1821445525411122 0.18328470902926713 0.1830725289130159
0.18068433940707632 0.34027045512425336 0.3347934277709427 0.3283950573846364 0.3209451998348744 0.3124860753935099 0.3033161682684155 0.29383491331740175
0.2843349041687322 0.27507750370703826 0.26625751288769606 0.2579705211988807 0.2503461812812038 0.24345780207433096 0.2373608628396994 0.23196837641220075
0.22719346762765663 0.22288551234300094 0.21885168720797202 0.21502365044961225 0.21140051453158415 0.20782725607936953 0.20441685958466382 0.20111843826652306
0.19802759239751827 0.19526679300688374 0.19288486810866168 0.19060768465453917 0.1884611179159637 0.18644504772602655 0.18398861687871346 0.1813961592622122
0.17849003905450916 0.17465762121312747 0.17103041134354666 0.1671491391898839 0.16187616623394396 0.15777248055997206 0.34071537840210403 0.33520504099103077
0.32875727710818714 0.32128582713398407 0.31284039089965904 0.3037284958015092 0.2942902789913111 0.28483820756715517 0.27561632862482366 0.26689113857194907
0.25870063426975054 0.251227083779769 0.24450854924810128 0.2386476802916471 0.23352353216128896 0.22896683855615801 0.2248203412220744 0.2207737580649685
0.21668742376707348 0.21252972012205634 0.2082169678658996 0.20384759035812897 0.1994114243779368 0.195063228559241 0.191230357094511 0.1878234784086025
0.18500968593950753 0.18271583766089425 0.18134060096718033 0.18038053303943077 0.1800761665022234 0.180392252981527 0.1806080451098363 0.18130701548902572

Maxvals f8 [11]
00000000: 350c a33a 0748 2d40 fa47 f646 c496 2c40
00000010: 7c1d f4a2 d04d 2c40 5e85 ebea 9113 2c40
00000020: 9090 4f48 57f0 2b40 6191 4ca8 85e0 2b40
00000030: 406a ac68 d7bb 2b40 4015 0572 149f 2b40
00000040: 890b 200b 2571 2b40 1db9 5049 5b32 2b40
00000050: 852d 8bdc 05dd 2a40
14.640680153277666 14.294466226161592 14.151982395457473 14.038222638368719 13.96941591235398 13.938519725176493 13.8668778143375 13.810702860947117
13.720985744153738 13.598352709869284 13.431685344686011
