Data/SIMBA/Model_snap1.npz (npz, 145874 bytes, 5 tensors)

x f8 [20]
00000000: 0000 0000 0000 2640 3333 3333 3333 2640
00000010: 6666 6666 6666 2640 9999 9999 9999 2640
00000020: cccc cccc cccc 2640 ffff ffff ffff 2640
00000030: 3233 3333 3333 2740 6566 6666 6666 2740
00000040: 9899 9999 9999 2740 cbcc cccc cccc 2740
00000050: feff ffff ffff 2740 3133 3333 3333 2840
00000060: 6466 6666 6666 2840 9799 9999 9999 2840
00000070: cacc cccc cccc 2840 fdff ffff ffff 2840
00000080: 3033 3333 3333 2940 6366 6666 6666 2940
00000090: 9699 9999 9999 2940 c9cc cccc cccc 2940
11.0 11.1 11.2 11.299999999999999 11.399999999999999 11.499999999999998 11.599999999999998 11.699999999999998
11.799999999999997 11.899999999999997 11.999999999999996 12.099999999999996 12.199999999999996 12.299999999999995 12.399999999999995 12.499999999999995
12.599999999999994 12.699999999999994 12.799999999999994 12.899999999999993

intercept f8 [100, 20]
00000000: 00d3 8d80 e2ac 7c3f 38a9 e05f 0708 b0bf
00000010: f4de 4b49 4394 c1bf b0eb fb38 55c8 cabf
00000020: 6c45 4dd5 498f d1bf 3a72 5ad8 8056 d5bf
00000030: 2e43 de30 0cbd d8bf 6624 0c25 2a2b dcbf
00000040: f89e 30a0 b174 debf 2862 4164 7ca0 dfbf
00000050: 62c5 2207 674b debf ba3b 838f abc9 dabf
00000060: 4424 1703 b1be d4bf 80a4 cbf7 261c c9bf
00000070: 3059 86ad 1941 b7bf 8097 c7cd 8d6f 9fbf
00000080: e00d c7f9 a1fe 9ebf f0fb 13fc 3f46 c3bf
00000090: 3eb0 c56d bda6 d6bf f9cf 558b 8a0e e0bf
000000a0: 381b f701 20d9 a03f a0ae 2a6c 36d6 a5bf
000000b0: 0060 0f1b 0bb9 c0bf 94cc 1606 8587 ccbf
000000c0: 0828 1c73 6c03 d4bf 8059 fd24 08c5 d9bf
000000d0: 863c 4ea9 0016 dfbf c2b9 0219 9437 e2bf
000000e0: 792e 581b b74d e4bf e28f 7da1 8884 e5bf
000000f0: 48ce d96d 551f e5bf 990e 4840 4e2f e3bf
00000100: 261f cf7a 9433 debf 0e8e a812 a663 d2bf
00000110: 9858 514b 1d10 b4bf 082b 5c24 1628 c03f
00000120: 726b a2cc 3997 d03f 4a27 58e1 543a d33f
00000130: 422e 146f 6a2c cc3f f048 4133 5e12 bd3f
00000140: 00e8 6b1a 154b 3ebf a010 fc66 ea5e b2bf
00000150: a090 463c a59c c2bf 648e 4f4d 8f2a cbbf
00000160: 5c83 07b2 2c11 d1bf bc4d ddfd cf44 d4bf
00000170: 3e55 176f 7074 d7bf 0618 2f5f 923c dbbf
00000180: 4c40 3f48 c300 debf 18b5 3b74 13ff debf
00000190: 5eb2 60c0 a008 ddbf 726f 0eb2 7780 d7bf
000001a0: 7066 dcc5 4299 ccbf 4003 fb9c c89b b3bf
000001b0: 4074 c674 c913 ac3f 4034 0b73 9af9 bf3f
000001c0: 00f2 a790 4eb0 b93f e09c 7544 7255 b8bf
000001d0: f6d6 d66d ede2 dfbf abac d400 1f5e e7bf
000001e0: 00e1 1036 562a 773f f0f8 ac97 89df afbf
000001f0: 2cb5 d514 f7fc c0bf 8882 0ee9 c19b c9bf
00000200: 806b 7276 c177 d0bf c62b f7be 89c3 d3bf
00000210: 6ca7 c393 2a23 d7bf 3017 fc78 93d7 dabf
00000220: de43 8391 1f87 ddbf 9ed3 7409 c3bf dfbf
00000230: 32f6 4758 99f6 dfbf fe37 0374 7e19 debf
00000240: 2e4e 8ce3 d5e7 dabf 8666 db5e 37ef d5bf
00000250: 282e b1e8 2b17 d5bf d456 acbf c3da d6bf
00000260: 42dd 2765 8a6e e0bf badb add9 1088 e8bf
00000270: 14a9 5fa3 6047 f2bf 78a1 d0e7 b95a fabf
00000280: c085 b844 90a5 853f 20d5 6d3e fb6c acbf
00000290: b00d 9c39 6583 c0bf 000c 24cf 6f96 cabf
000002a0: 202b 7231 8433 d2bf 5afd f710 f516 d7bf
000002b0: b2d5 a21f f297 dbbf 0eeb 670f 76cd dfbf
000002c0: c130 a6d5 d16c e1bf 99f3 06af c427 e2bf
000002d0: cdbd 4071 8d00 e2bf c6e5 3f54 5945 e1bf
000002e0: 55cf b4f1 39eb e0bf abce 950d 2c87 e0bf
000002f0: 8a3e 1e09 68fb e1bf a0bc dbf5 cd62 e5bf
00000300: 22c2 1cb2 7e2f ebbf 31dd a58f dc8b f0bf
00000310: 130a afb8 a6bc f3bf ef49 a771 e398 f5bf
00000320: 80dc 76f5 bdd5 85bf 5013 c9dc 45eb b4bf
00000330: 142e d3bc 32c0 c3bf d419 190e 3936 ccbf
00000340: f458 9d3f 48ec d1bf f4dd 2cca 516d d5bf
00000350: e63e af56 40af d8bf 22e9 9611 f720 dcbf
00000360: a6f9 6ada ef28 debf 2a51 fab2 18a1 debf
00000370: 626e e4ea 2fae dbbf b62e 2bb3 7918 d5bf
00000380: e025 a8a7 dd03 c8bf a0f8 897c 98f0 91bf
00000390: e001 5474 2cd7 bf3f 4c06 1b3a ea09 cb3f
000003a0: c0f0 6ffe 5ed7 cc3f 4a22 664d b1b6 cc3f
000003b0: 90d6 4727 c86a c73f 72e7 2a29 57dc ce3f
000003c0: 00cf 89c0 cdd6 83bf 803f 1725 4659 b1bf
000003d0: 148a 4d0d 9388 c0bf d834 34fd 604a c8bf
000003e0: 6c04 07c9 3cef cfbf 5866 c3f6 1e39 d4bf
000003f0: 6ce5 cf94 d764 d8bf 404c bcd4 07b6 dcbf
00000400: 3ea4 3cda c2ca dfbf d076 eb05 d7ff e0bf
00000410: b504 cdcf 57df e0bf aada 1737 d6e1 debf
00000420: 46a4 1774 c6d3 d8bf dc5d 0b8b a62f d0bf
00000430: 687b 39e5 0735 c0bf d0ec 902d 323c bebf
00000440: a02a fdea 159a c8bf 4011 a467 3778 e2bf
00000450: 6807 5008 504c f4bf 671e c445 8399 00c0
00000460: 4070 0339 0d54 97bf 68a3 efff e8b6 b6bf
00000470: b80b 484b 26ca c2bf 8c36 ed1a 0391 c8bf
00000480: 48cf 95e6 cd05 cdbf 2a88 d2f1 da8e d0bf
00000490: 0681 6e94 69fc d2bf 284d 64d4 3c35 d6bf
000004a0: 8c3d 017e d24c d9bf f431 b56e 2ec8 dbbf
000004b0: 3486 fc9c f611 dbbf d033 3e0f 59c6 d6bf
000004c0: 2c8a 93a3 03de c8bf c8a8 055e 2215 b03f
000004d0: 4294 2d1c aa90 d33f 9f66 1882 5f53 e03f
000004e0: 67d0 3d25 5935 e33f 5c8f 2231 3eff e03f
000004f0: 66b3 2e3f 277d cb3f f65c dffb e591 d3bf
00000500: e04b ba55 9fe2 983f 2007 de93 727c acbf
00000510: bc8d c019 b992 c2bf 8843 7a08 2eff cdbf
00000520: 5c50 4713 566e d4bf 7a34 9576 f8b1 d9bf
00000530: 621f 4520 8aa2 debf cc4e 1b8d 10d9 e1bf
00000540: bf3e 317c 3ec4 e3bf 5009 a3a9 7062 e5bf
00000550: bcfe 2d73 cae2 e5bf 61e6 9de2 ce65 e5bf
00000560: 2286 61ff 5edb e2bf 2889 0049 8a29 ddbf
00000570: 4c5f c5c4 ad29 d3bf 543c 9ed0 16e6 c4bf
00000580: d072 ba93 d0bf b5bf 6835 0d41 d18b c6bf
00000590: 0d48 766f 593b e0bf 97e4 7458 11b6 ebbf
000005a0: 80db 8066 1061 7b3f 78c2 9ce7 017f b0bf
000005b0: 8048 316e e664 c2bf 687f a97e 4b30 ccbf
000005c0: ea4e 5bde 3c8e d2bf 9a68 6441 38a8 d6bf
000005d0: d226 098b 3313 dabf 92f8 3450 bef9 dcbf
000005e0: a2fd 4bb8 56f2 ddbf 0ad2 97ab 199d dcbf
000005f0: 9ed0 a852 f679 d8bf e6ce 1493 fdbc d1bf
00000600: 74bc 6d65 c1f5 c1bf 4056 ecbd ec2b 88bf
00000610: 40ef 9291 a9d7 813f f8a8 a8c5 c719 c2bf
00000620: 56a4 a303 d20b debf c062 6b47 11ee f0bf
00000630: 5bbd b31e 6bee fdbf 4c78 11fe 2cb9 06c0
00000640: 00d4 7abc a30c 48bf 48a2 b851 77c6 b4bf
00000650: d4e5 e672 7b17 c5bf 78b1 da6b eec2 cebf
00000660: a27b fd0b 7f52 d3bf 5c3d 8c77 e999 d6bf
00000670: 9e53 53bf 1fc8 d8bf e6e1 5a56 fe5b dabf
00000680: 70ba b090 6103 dabf e87b ba1c 16ec d7bf
00000690: b64a 3ed0 0c06 d3bf a0f7 8ce6 0406 c5bf
000006a0: 00f7 4438 246f 75bf 74d9 1305 5210 c43f
000006b0: 802f c9f2 4982 c93f 48bd 72e2 fe81 c03f
000006c0: d0d4 dad3 1750 b2bf ea40 2e02 173d e2bf
000006d0: 7802 6e78 f514 f3bf 820b f135 37d6 febf
000006e0: 805d c663 cfa7 93bf 58f1 0c8c 56dc b2bf
000006f0: 002c b812 cedd bfbf a471 164a 69f4 c5bf
00000700: 8c84 9ece 6f5f cbbf e853 9ede 05cf d0bf
00000710: 1661 ba01 0367 d4bf a83b 9c84 bd04 d9bf
00000720: 9263 c807 402f ddbf ee39 312e 122d e0bf
00000730: bdc7 79f1 5184 e0bf 6e41 f9cc 6153 dfbf
00000740: 4822 ea3b 5f1d dabf e212 d465 df80 d1bf
00000750: 188d 02af 2a87 c5bf 98cd ee8b ba21 bbbf
00000760: 7005 759c 058d a6bf 4049 0462 3f57 b6bf
00000770: 34d3 5efb f122 d3bf 74a0 2eb8 f7f5 dabf
00000780: 8003 97c1 751d 92bf 4031 6895 f9d9 b7bf
00000790: e05a b397 ea76 c5bf a431 ebc9 d436 cebf
000007a0: 6e3c cbea 86d1 d2bf 4c74 b272 2ae0 d5bf
000007b0: fa84 d4fc 0d4e d8bf c8f5 8ebb 024a dabf
000007c0: 0e27 7188 1ff8 d9bf e26c d102 9ba0 d8bf
000007d0: 4023 973e aa29 d3bf 0885 1edc 1cb4 c4bf
000007e0: 20b6 f2e3 5371 9e3f ee14 cd32 1084 d03f
000007f0: 0604 4c31 2e6a dc3f 09f4 8210 464b e23f
0.00700081326873625 -0.06262250986825257 -0.13733712271618226 -0.2092386749498849 -0.2743706305528437 -0.33340474251034247 -0.3865385510662688 -0.4401345598021805
-0.475872427401995 -0.49417028227392956 -0.47335220047815174 -0.4185589696398285 -0.3241388826541576 -0.1961716375292646 -0.09083710180707238 -0.030698981938165115
-0.030268221731388212 -0.15058135803698702 -0.3539269992822972 -0.5017750474348751 0.032906532516383924 -0.04264993734736078 -0.13064707585613178 -0.22288573071782436
-0.31270896187982133 -0.402650867579176 -0.48571793111563755 -0.5692844856728743 -0.6344867261954753 -0.6724284319029687 -0.6600749154590142 -0.5995246177194132
-0.4718981932933154 -0.28733207532988636 -0.07837088669598058 0.12622334266082924 0.25923008903344347 0.3004352760914243 0.22010546134730374 0.113561522973473
-0.0004622389337068933 -0.07176079763672982 -0.14540543978831 -0.2122363212102868 -0.26667325387648133 -0.3166999797005834 -0.36648188446755003 -0.4255720071345198
-0.46879655890825656 -0.48431860304738583 -0.4536516073883713 -0.3672160376388468 -0.22342714940241448 -0.0765958197835177 0.054838462357317486 0.124902394377572
0.10034647971765054 -0.09505380793926888 -0.49822555281148995 -0.7302393928743148 0.005655609858017607 -0.062252330556008206 -0.13271988408397684 -0.20006584052773158
-0.25730930869183766 -0.3088096966645789 -0.3615213816652758 -0.41940771880068706 -0.46137227258901514 -0.4960792152735908 -0.49942620869828425 -0.4703060276923451
-0.4204001161717511 -0.3427256037080969 -0.32953927730406685 -0.3571023341950028 -0.513493726320043 -0.7666095973535143 -1.1424261457237366 -1.647149949576571
0.010569693658058266 -0.05551896225999031 -0.1290098696991726 -0.2077159654073455 -0.28439431027134 -0.3607762017927222 -0.43114903535328175 -0.49691535477147475
-0.5445336506686759 -0.5673545282839881 -0.5625674449892643 -0.5397154469966885 -0.5287141533685636 -0.5165004983268394 -0.5619392564858157 -0.668311100189289
-0.8495477179295146 -1.0341458903547613 -1.2335574354370962 -1.3498262824620004 -0.010661586812473312 -0.08171497955579565 -0.15430292339293372 -0.22040475071317067
-0.2800465222584443 -0.3347973322265425 -0.38569649186409405 -0.4395120307705317 -0.4712485917079 -0.47858254888821483 -0.43250654162122804 -0.32961885926190904
-0.18761797605866004 -0.017519362069372435 0.1243770393375665 0.211240080234392 0.2253226034516782 0.22432533530470017 0.18294622343062317 0.24109925756584577
-0.009687049330046715 -0.06776846318757457 -0.129167920585204 -0.1897698627803155 -0.24948844733993114 -0.31598638627983666 -0.3811549142115698 -0.4486102654929631
-0.4967505580157797 -0.5312304607029663 -0.5272635515795147 -0.48253398304170025 -0.38792573296683874 -0.2529083593230703 -0.1266183728466459 -0.1181060181851763
-0.19220231985157898 -0.5771748565898989 -1.268631012412209 -2.0749574137187667 -0.02278156910402651 -0.08872848747672679 -0.14679411578989998 -0.1919254189946752
-0.22673963316958123 -0.2587191926523952 -0.2966560315635579 -0.34699936620127625 -0.39531385712776834 -0.4340931016093059 -0.4229713948317084 -0.35585619438716964
-0.1942753361427817 0.06282248301946247 0.30570461990129527 0.5101773777889383 0.6002622344372072 0.531157585112378 0.2147568758495268 -0.3057799300854208
0.024301995856671144 -0.055636959600646074 -0.14510263211660213 -0.23434996999688118 -0.3192343891398701 -0.40148746090273557 -0.4786706271302049 -0.5577471500386877
-0.6177055764801124 -0.6682666123599947 -0.6839344262698073 -0.6686777521237667 -0.5892786968144643 -0.45566041115866307 -0.29941887107769527 -0.16327176271849686
-0.08495811087272931 -0.17614188839290112 -0.5072447945588024 -0.8659750678699706 0.006684364379956231 -0.06443797974203302 -0.1437042272614839 -0.220223843428353
-0.28993150438803517 -0.3540173185916814 -0.40742195680341553 -0.45274312813479256 -0.4679161834501092 -0.44708863980420743 -0.38244398185930517 -0.27716006625563094
-0.1403123612649072 -0.011802529855724164 0.00871212459093551 -0.14141175414381002 -0.46947145800965495 -1.0581219472716583 -1.8707076262761209 -2.8404178475457567
-0.0007339286321071947 -0.08115335221430897 -0.1647791205448771 -0.2403238321907215 -0.3019101731387598 -0.35314404177275605 -0.3872146004117044 -0.4118648379622115
-0.4064563668243073 -0.3737845688391972 -0.29724426590216113 -0.16424618966442228 -0.005232945903399289 0.1567480587761555 0.1992886004903731 0.12896715218583155
-0.07153462335812155 -0.569957260378968 -1.1926169113432064 -1.9272987467854539 -0.019194832291387964 -0.07367459220126216 -0.12447822529809116 -0.17152134053766332
-0.21384999836758245 -0.2626356767662501 -0.3187873379588536 -0.3909143252394025 -0.45600891838108126 -0.5055018331711929 -0.5161523548433632 -0.4894642354675146
-0.40804272509607076 -0.27349076217823953 -0.16818746133240192 -0.10598340908364035 -0.04404466185452349 -0.08726879256235964 -0.2990078882970011 -0.421262674203269
-0.017690505924977895 -0.0931697835696399 -0.16769153983360408 -0.23604831561386874 -0.2940385144147005 -0.3418069954003087 -0.37976407709545834 -0.4107672530770654
-0.4057692367974689 -0.3848025825042908 -0.2994180308565326 -0.16174660442360556 0.02972918585571993 0.25806050263447744 0.4439807397284884 0.571688682793707

slopes f8 [100, 20, 7]
00000000: f409 2c24 23ca a83f 6685 f531 e26e b1bf
00000010: 4b80 d086 e017 de3f 4e5c 0651 e034 adbf
00000020: 2210 ebed 1c97 663f e21f f337 8c76 693f
00000030: f01b a31e 576e 393f 1859 8361 e5a4 ac3f
00000040: 18e3 3470 8e3e a5bf 70d7 8e8f a1fb de3f
00000050: 36ca 86c4 bec2 aebf 789a 59b4 37d3 663f
00000060: a007 89bd 14d9 40bf c43d f31d cbab 613f
00000070: 2cae a7fd 2852 b03f 98f1 c978 8551 92bf
00000080: c0b2 ed55 b7e5 df3f bdaf a5b9 faf6 afbf
00000090: 1041 dbfa 5e4d 6a3f a42c db93 7f6c 78bf
000000a0: 8c2a 1167 0a43 713f 5935 aeb5 7534 b23f
000000b0: 802c 1d8f aece 673f 4715 92ea 8959 e03f
000000c0: d120 1c45 325b b0bf 2443 5dc7 f5b6 703f
000000d0: 7e70 6456 a3bd 8abf 480a 3adb 506a 783f
000000e0: c26d d46a fadd b33f b0e5 edc5 5898 933f
000000f0: 54e4 358a d2a3 e03f 3cd1 edb7 1976 b0bf
00000100: 30ee 65e3 fe03 763f 3cb6 6367 3f66 96bf
00000110: 183e 5439 0066 7c3f d3a9 8485 8e54 b53f
00000120: 306b 27b5 c7e4 9f3f a5e2 3321 91cc e03f
00000130: 78d5 8303 e63d b0bf 0831 8012 1919 7c3f
00000140: 8a12 c3c3 408c a0bf b86b f4b6 8f00 7d3f
00000150: a387 36ad f69a b63f c0b1 c924 2bfa a33f
00000160: 3cc4 2704 74d9 e03f 588a 0c45 456c afbf
00000170: 2ad7 c715 1e8b 803f 92e3 c114 9821 a6bf
00000180: 206f 6298 6e08 7a3f 80af c1fb 8fd8 b73f
00000190: 18d1 e6e8 2665 a63f c447 03cf f3c8 e03f
000001a0: 5a1e bbe6 f399 adbf 50b5 ed12 d970 813f
000001b0: 167f aae6 36bd abbf e8b2 438b 6eff 743f
000001c0: e9e0 ca13 52a5 b83f 8067 3264 7ed3 a63f
000001d0: 12b3 f0eb 6cc3 e03f e98b e119 1701 abbf
000001e0: 3896 2cb0 010d 7f3f d47b a66f 992e b0bf
000001f0: e0d5 2ddf 7311 6d3f 9b70 5c82 ec0b b93f
00000200: 40b0 d629 35fa a63f 6e73 84d9 f2bc e03f
00000210: bf2b 8cd3 5da8 a7bf b0b0 5687 70e5 743f
00000220: 50e5 796b 7ea5 b1bf 30e6 8a5d 6920 613f
00000230: 1abe 5ef1 4395 b83f a01f 4cd7 4a1b a73f
00000240: a647 401b 7ba7 e03f 3ed9 b98c be79 a3bf
00000250: 8040 4e3b cf50 373f 469d e300 9710 b2bf
00000260: 40f2 8b83 2999 423f febe e6e1 b765 b73f
00000270: 0815 ac6f 7965 a83f 81c4 aeb9 787f e03f
00000280: 781a 04d2 0e5a 9dbf 8657 9360 224e 79bf
00000290: 16f4 b4b1 dc42 b1bf 60e2 1012 23e4 61bf
000002a0: 8e1d 7a15 8d55 b53f 0051 525a 3c6e a83f
000002b0: 8885 b673 c503 e03f 501f a923 cbb2 92bf
000002c0: 28ed 6a79 bcc9 8cbf 9fa6 c00a 059d aebf
000002d0: f8ee 4e6a 2af5 76bf 1575 5586 5591 b23f
000002e0: a436 3a51 bbac a83f 27d2 36f8 8fb4 de3f
000002f0: d071 921b 8099 80bf a814 f25b eb53 98bf
00000300: 4a77 d1f2 9565 a8bf 2089 bebb b2de 89bf
00000310: d5a6 396f 7e43 b03f 86d5 2620 191f a73f
00000320: ba5c 3af2 0464 dc3f 80f8 7e90 f584 543f
00000330: e83a 3a6c e5c1 a1bf b87c a6cb 6e59 a1bf
00000340: 9203 3ab5 a26a 95bf a921 518a cdc8 ad3f
00000350: dab4 37bf 9f27 a23f 68ea 972a 8fe6 da3f
00000360: 3826 8036 0ccb 833f 6e45 a777 868e a7bf
00000370: 5281 3c30 86ba 92bf a189 ff6d d3b9 9dbf
00000380: 5dad d178 6f51 ad3f f8bf f7de 5274 823f
00000390: baea f6ac c738 d93f 6281 c443 45c6 903f
000003a0: 0ae0 49f9 bce3 acbf 948a a0cb bcbc 6dbf
000003b0: 5d2e 41fd f6bd a0bf c6c3 4ddd c0e2 b03f
000003c0: 9e28 2a11 7c8d 9ebf 2f69 b442 1bbd da3f
000003d0: 1600 b982 f839 963f fd20 bff7 91c2 b0bf
000003e0: 7083 0e1e 7291 833f ad4a e53b 95c8 9abf
000003f0: 1ea9 d699 dda3 b43f 2ac9 1ee6 2056 b8bf
00000400: 2712 9e36 5599 de3f 1a7f f032 e3a7 9b3f
00000410: cbbe 4f8b f8b2 b1bf 00ba 0752 43bc 923f
00000420: 9a37 a3eb f5cc 7dbf e566 2e60 7e52 b73f
00000430: 5aed eddc 63a1 c4bf f8d9 9e60 87a3 e53f
00000440: f468 7006 deea a13f b4a3 013b 3287 b1bf
00000450: 202b e3c5 9283 903f f22c 2982 4ccf 9f3f
00000460: 513e 1bf7 39a0 a73f 8f39 eac2 dc64 b0bf
00000470: b4d7 15f6 ed4e de3f 2cbd 0d5e d812 acbf
00000480: 5c01 f181 0cb0 6a3f bb3d eb92 a5cb 823f
00000490: 4c30 2c45 dcf0 5c3f 6c6e 13a8 20c1 ab3f
000004a0: 1ccc 6203 7e69 a3bf fca7 d2de 7a3c df3f
000004b0: 7a09 03f1 43b7 adbf 30d4 391d cb79 6d3f
000004c0: 6c12 5a28 65c1 723f 2863 0990 16c9 6a3f
000004d0: 5911 b794 e52d b03f e0b5 3f10 ec90 8ebf
000004e0: 1c70 ea51 f400 e03f 8f94 adba e82a afbf
000004f0: bcd9 84fb d62f 713f 7878 1bd8 70b5 63bf
00000500: 887a bd8c de4e 743f 1370 2b25 3a86 b23f
00000510: 40ba 28d5 c96f 753f 60b9 d78a 713f e03f
00000520: 35aa 2613 6a30 b0bf 9c1d 3071 4108 743f
00000530: 906e 6024 32a0 87bf 98b7 a80d b8a2 783f
00000540: 41fc fbaf d0bd b43f 70e5 a204 de7a 953f
00000550: 04dc 1a6a e943 e03f aec7 4893 0f8f b0bf
00000560: 6a06 60e3 5255 773f 0431 e5cc 7f09 97bf
00000570: 08fd c74b b188 7a3f 8838 6819 80e6 b63f
00000580: 50de c477 e101 a13f 618b 35fc 5314 e03f
00000590: 1cd0 9237 8790 b0bf fec0 b844 6e67 7b3f
000005a0: 943d f576 23ff a1bf 78da 1b9e 201b 793f
000005b0: 2118 e8e9 2fd9 b83f 48d9 2737 2d9c a53f
000005c0: c288 9c8a 9062 df3f 9917 d3fe 691f b0bf
000005d0: f0e6 15ff 4105 7f3f 22ac 70bd ce87 a8bf
000005e0: b837 c220 265f 733f ed6e 5b46 c5c2 ba3f
000005f0: d8e5 2956 0cea a83f 70c6 416a 9d45 de3f
00000600: 862b fd0b ee3a aebf c4a5 f71b 0866 803f
00000610: 7ad5 340a e0d6 aebf e00c 585c d4c9 613f
00000620: 98d0 5d44 c437 bc3f f00b 5a3d 6e56 aa3f
00000630: 9ef8 b217 754a dd3f 41c4 79a2 1b02 abbf
00000640: 90c8 679a 83e5 7d3f 8bad a8c2 e00e b2bf
00000650: 00ae cebe 3382 5abf 5097 7f21 4b0f bd3f
00000660: c8e2 e811 75ab ab3f c0e3 d904 fc78 dc3f
00000670: 319a fe84 dac0 a6bf d049 00e6 59f0 743f
00000680: 6830 6ece 4bee b3bf 3076 5112 7b33 78bf
00000690: 7e21 f105 89c6 bc3f c8d8 5e90 08f9 ab3f
000006a0: 3205 fcb7 f0c1 db3f 1f81 3e0d f445 a1bf
000006b0: 80b1 98ee ac97 443f 6761 d1e2 01d4 b4bf
000006c0: 60ca a8b4 fb99 86bf 60d8 7c49 416e bb3f
000006d0: c4a4 ce46 7915 ab3f 9e84 eab3 f5b6 db3f
000006e0: 2270 3d41 c6c2 95bf d06b 5da6 d5d5 74bf
000006f0: 99b5 967f 000f b5bf 80d4 1107 f507 92bf
00000700: 7804 62ef ae94 b83f b033 60ea f526 a63f
00000710: d546 aaa5 c1b4 db3f 2051 039a 4d24 7ebf
00000720: 62fa 8e47 6930 88bf c679 e907 f084 b4bf
00000730: ee49 2699 1114 9abf 6934 17a5 fd80 b43f
00000740: 4018 eb43 dffb 9c3f 4be5 ae5d 9dfe dc3f
00000750: 306d c45e 2ec3 783f ee82 5bae 6acd 93bf
00000760: 2d51 186f f102 b3bf a20e 9a6a 058c a2bf
00000770: 919d 915b 40b5 af3f 0031 2adc e599 6a3f
00000780: 5573 f0ba c326 de3f ce59 2edc 06d3 933f
00000790: 220e 1d2f 78d0 9bbf ef01 1e40 519a b1bf
000007a0: 1d25 3a01 150a a8bf 8dcd 3494 376a a63f
000007b0: 73c6 9a80 7240 a4bf 33da 8138 3c54 e03f
000007c0: ec32 0c08 9c93 9f3f e9d4 2a37 61b8 a1bf
000007d0: 22e3 48ca 9b42 aebf 70e6 6112 a842 acbf
000007e0: 31e2 c015 90a1 9f3f ac7c 0ddc 7f6a bbbf
000007f0: 59a4 ee5d 9fa4 e13f 6a8e 801c d71c a53f
0.04841718498757422 -0.0680981990785959 0.4702073399112165 -0.05704403866837336 0.0027576031710356977 0.003108285774576545 0.00038804652161811195 0.055945556786968165
-0.04149289245328286 0.48410834330876806 -0.060079537859014584 0.0027862632730831192 -0.0005141593238209181 0.002157112801434132 0.06375366394757326 -0.017889104363790403
0.4983957614083856 -0.06243117824746445 0.0032107215000466496 -0.005962847089629939 0.004214325556925257 0.07111297307547683 0.002906170783636919 0.5109300214250333
-0.06389154612782312 0.004080734322841537 -0.01305701835058692 0.005960765690931576 0.07760586841725739 0.019135844307560823 0.5199978541778685 -0.06430207004979577
0.0053749043057638585 -0.021874418912309887 0.00693321311452124 0.08332148322794035 0.031146164352189476 0.5249715469827448 -0.06344449601950497 0.006859872759388937
-0.032320045372704234 0.007080613503854964 0.08830205658753569 0.03901800941534672 0.5265445786627718 -0.06137291400797967 0.008077845611278518 -0.0432250523890111
0.006355697643950525 0.09314823051835042 0.04374047844922496 0.5245303195208568 -0.05781519118823715 0.00851602162375778 -0.054177966744872005 0.0051264112591808755
0.09627259238448328 0.044582319003168 0.5238556488235153 -0.0527426928608959 0.007580763430075126 -0.06321104980314313 0.0035483611222228845 0.09783819372791173
0.04487768302655626 0.5230650184999897 -0.0462064095246073 0.005101623120406781 -0.06893148540429661 0.0020906503599149792 0.09602760927986545 0.04513009908811161
0.5204444439170757 -0.03803821056219413 0.0003557687699009618 -0.07056564113337513 0.0005675747589460392 0.09139584794206354 0.04764918792901979 0.5155604960074386
-0.02866385609470476 -0.006178030286909114 -0.06742648447557573 -0.0021839795085976527 0.0833366563257327 0.047716032052592894 0.5004603633898776 -0.018260168124725695
-0.014056656318067143 -0.05979171520477888 -0.005604901966701929 0.07253012208589767 0.048192838349774975 0.47977065314924733 -0.008105278817588962 -0.023757626997867348
-0.047650037661453995 -0.012631794313908318 0.06352987494906455 0.045159135031478434 0.44360469489169996 0.0012524030771454975 -0.034682435475692774 -0.03388544307676383
-0.020914594947047123 0.05817262948454822 0.035458557216637224 0.42032221946252557 0.009664626515603833 -0.04600925646412689 -0.01828965825473123 -0.029029182041890093
0.057261928080005055 0.00901093237823146 0.3940905751330025 0.016381342183309562 -0.0564250044162123 -0.0036300361071124974 -0.03269931642043098 0.06595998194622074
-0.029836596057557167 0.4177921439565066 0.021705515841176824 -0.0654689054346171 0.009554759542710761 -0.026155788212529774 0.08062539106200403 -0.09506421678705537
0.4781086953519513 0.027007627472015995 -0.06913712884101668 0.0182962912385225 -0.0072755438106479 0.0911025032823108 -0.1611752346760607 0.6762120139235881
0.03499502018549264 -0.06846918049417533 0.016126912429892504 0.031064219898593266 0.046144305624349465 -0.0640390373102717 0.4735674765755633 -0.054831277352486246
0.003257774762033856 0.009177487894162497 0.0017664099765992867 0.05420782138545807 -0.03791421691257588 0.4880664039616247 -0.05803882901229236 0.003598114688254238
0.004578967234583158 0.0032697144199968116 0.06320032959690049 -0.0149248545130502 0.5001165008466191 -0.06087424544129149 0.004196014190077365 -0.002405853651779085
0.004958028159164692 0.07236064345801223 0.005233562859344121 0.5077445709010071 -0.06323874442629392 0.0048906856855021295 -0.011536018118980779 0.006014555891438088
0.08102134987346778 0.020976513894060245 0.5082900116311753 -0.06468293519790677 0.005696605474442154 -0.022497174149337176 0.0064780164361757445 0.08945465679446063
0.033217473860017166 0.5024814535102956 -0.06470532519125566 0.006690436111554952 -0.03514967753528278 0.006129386341618408 0.09706401310549541 0.04220715807234626
0.49039090667987406 -0.06297934027960962 0.007573373602434805 -0.04791112959386391 0.004729412972791218 0.10453446357444891 0.048660645978951755 0.47299895645765044
-0.059043349231237705 0.008007109979149336 -0.060233117338081635 0.0021714351339611054 0.11022593182662133 0.051440663327433245 0.4576695186077674 -0.05275045736642215
0.007298959803380481 -0.07053951980986121 -0.0016179566693875769 0.11351460998375029 0.05404249042152781 0.4448843047499018 -0.044440106138882725 0.005112029233730955
-0.07785486020856214 -0.0059084708674084635 0.11240440745416966 0.054634349463798026 0.43371217696411 -0.03373682653114173 0.0006284326929680145 -0.08135997569605068
-0.011035887194428884 0.10715110820896845 0.052898206609208326 0.4330419785492924 -0.02125081799691498 -0.005086741037156409 -0.08226016154249861 -0.017608479076859584
0.09601872772511111 0.043265995846105354 0.4329074971984544 -0.007358840113927095 -0.011811087127964363 -0.08015346711315549 -0.025467181179530778 0.08009324341328895
0.028304565925985736 0.45304044865368515 0.006045514234098534 -0.019338290111479965 -0.07426365816383358 -0.03622452665606814 0.06192971341880161 0.003247212357854079
0.47111600166117756 0.01935969084623839 -0.027162435412959714 -0.06876094642030471 -0.046951919936939236 0.04377912220152345 -0.039554193686297 0.5102826217324207
0.030836523047628114 -0.0346098308413419 -0.05910193294807288 -0.05519604896921926 0.030889750793195062 -0.10709380266551943 0.5513455233205021 0.041235658864278005

scatter f8 [100, 20]
00000000: 250d 1e83 32ec cc3f 90d8 cd51 06bd cc3f
00000010: 570e 36d0 948a cc3f 06d6 4bdd e057 cc3f
00000020: 6a1f 0511 6e28 cc3f b36a 1b49 fa00 cc3f
00000030: 0206 7ae8 a2e4 cb3f 1052 0f92 21d4 cb3f
00000040: 7e7b ec3b 2dd0 cb3f 4fbe 7dc1 69da cb3f
00000050: 0210 a158 31f1 cb3f cfc1 403f 5213 cc3f
00000060: 576e 439d fd3e cc3f a51e 4b2c af75 cc3f
00000070: 03cd cbfe 86b8 cc3f c9ce 2f54 a7fe cc3f
00000080: 41d9 0715 f748 cd3f 1508 1fbf 4b91 cd3f
00000090: d58f f04b aac7 cd3f 933a 4dd0 d8ef cd3f
000000a0: 7111 568b 1ef6 cc3f 098c 55cc 94c6 cc3f
000000b0: 155b 8355 c993 cc3f 6b2e 5c31 c760 cc3f
000000c0: f605 ccde ee31 cc3f efff 85cd 1a0c cc3f
000000d0: 6200 5340 fdf2 cb3f 6de8 d31a 95e6 cb3f
000000e0: c4a6 e61c 5fe5 cb3f 5f6c 6295 aff1 cb3f
000000f0: d8dc 7145 9e08 cc3f 3c7a c538 6a2a cc3f
00000100: d499 26d7 e652 cc3f 0a47 23a4 b287 cc3f
00000110: 4e53 0c2e a0be cc3f b58a f644 8ef1 cc3f
00000120: e2b5 ec27 5b22 cd3f 732d c7a0 5543 cd3f
00000130: 7651 663a 1648 cd3f 8887 460a 372a cd3f
00000140: 2744 4f27 27f2 cc3f cbef db55 e1c6 cc3f
00000150: 8dd0 f209 dc97 cc3f d5ab 8ea5 f966 cc3f
00000160: 1959 33e1 6337 cc3f 033c 821f 130e cc3f
00000170: 4293 c9b2 f4ed cb3f f161 d8ab c4db cb3f
00000180: 8100 b4e5 b2d6 cb3f 1693 0987 42e5 cb3f
00000190: d8ff 3b58 a306 cc3f 5b31 dda2 6436 cc3f
000001a0: 9478 71a7 0970 cc3f 8488 9a6a d7a9 cc3f
000001b0: 701f f4d3 29db cc3f e9a5 050a 71f3 cc3f
000001c0: 1a9d 7ae5 c3e9 cc3f cae3 8229 b1c0 cc3f
000001d0: 0ba5 3285 9275 cc3f ca73 0b70 b3f2 cb3f
000001e0: cf72 88f0 1efe cc3f 1a3c 44fc c1cf cc3f
000001f0: 4c52 62bf 229e cc3f 5968 6b9b 316c cc3f
00000200: 460a 6132 f53e cc3f e619 394b 3f1b cc3f
00000210: 8e24 68b9 0803 cc3f 4a01 4029 75f6 cb3f
00000220: 81cb c578 76f6 cb3f 387f f721 8e04 cc3f
00000230: cc56 7852 b01c cc3f 2a6e b131 f939 cc3f
00000240: dc76 4549 1b55 cc3f 6869 1186 586d cc3f
00000250: 03e9 4aef 0d79 cc3f b841 3cac 0872 cc3f
00000260: d347 9743 0147 cc3f eb21 80c0 3dfa cb3f
00000270: 3592 8d79 aa83 cb3f b16e 999c eee7 ca3f
00000280: 55b3 425b 2def cc3f 457b 80db c1bf cc3f
00000290: bb66 3eb4 368e cc3f d222 2316 2e60 cc3f
000002a0: aace a17b 0b39 cc3f f990 df5c 0f1d cc3f
000002b0: b3a1 d8fe 490f cc3f 0e7e 0e77 730e cc3f
000002c0: 8fd0 f042 da1c cc3f 2bbf abbe a038 cc3f
000002d0: 4efb 70af 0561 cc3f cd0b e4b7 7594 cc3f
000002e0: 9373 9f6c b1cd cc3f 5262 3a22 3508 cd3f
000002f0: ad78 4a7f 653e cd3f 2a5f a65f 975c cd3f
00000300: 7402 2a65 e157 cd3f e70f b805 da14 cd3f
00000310: 8c2b 4cd8 e781 cc3f e700 7e9b 78b0 cb3f
00000320: 655b c12d 62f9 cc3f 5669 94aa 99cb cc3f
00000330: 524a 9b15 9799 cc3f 0799 7495 6265 cc3f
00000340: 8665 8b72 ef31 cc3f 8be7 531a 1805 cc3f
00000350: 6ea0 afb7 4be3 cb3f 002e 4656 e9ce cb3f
00000360: 88f4 a87a c6c9 cb3f 3d08 f1bc 2cd8 cb3f
00000370: fe8f 1ea1 87f8 cb3f 5e7a 9da4 b526 cc3f
00000380: 9db7 1fc6 f95f cc3f 3a16 f2bd 809f cc3f
00000390: bc62 95fd 48e5 cc3f c952 a92e b924 cd3f
000003a0: dbe5 3549 2d58 cd3f 3439 a75b 7580 cd3f
000003b0: b505 8dc3 5b87 cd3f 8ab2 e932 0e67 cd3f
000003c0: afb8 34b8 1ed7 cc3f f885 105d 18a6 cc3f
000003d0: cfdb e0e0 4b73 cc3f 1cf6 cfe5 bc40 cc3f
000003e0: c242 198b d711 cc3f bfca 5837 5beb cb3f
000003f0: 31a2 1fc9 85d1 cb3f 813a 757c 75c3 cb3f
00000400: 30aa acc5 1ac0 cb3f f969 e7f4 6bce cb3f
00000410: 7b02 b47e e4e8 cb3f 7056 2173 ba11 cc3f
00000420: 83de 01f3 3745 cc3f 19f5 0ef5 8186 cc3f
00000430: fd1d 6033 d5d2 cc3f 6b6d b005 0521 cd3f
00000440: 705d 621d b173 cd3f 4fc2 a2d0 51c8 cd3f
00000450: bde6 946a 2220 ce3f 8fd4 afd4 a562 ce3f
00000460: af0f debf 75e2 cc3f 0875 b34e eaac cc3f
00000470: 8363 901a 5a72 cc3f ade3 efb8 4237 cc3f
00000480: cb70 edd6 1300 cc3f b76f a171 a3d3 cb3f
00000490: f346 4a8b c6b6 cb3f d5c0 87e7 39aa cb3f
000004a0: 0e93 477e f3ad cb3f 4ce6 3248 79c0 cb3f
000004b0: 6b78 7f2c f0dd cb3f 887d f593 d606 cc3f
000004c0: 406e 77ef ba33 cc3f d46e eced 7068 cc3f
000004d0: 01f0 004a c9a8 cc3f 9f39 9b09 68f8 cc3f
000004e0: 90b7 4110 f757 cd3f d94d b5f9 0ab8 cd3f
000004f0: a6b2 ba94 07e3 cd3f 24ba 3ea6 69ec cd3f
00000500: 687f 6982 00e7 cc3f 6982 6b7c c5b3 cc3f
00000510: 28c2 f959 777d cc3f 2697 cf8c 2447 cc3f
00000520: ab92 e200 d715 cc3f 0785 c515 88ec cb3f
00000530: d624 8692 bace cb3f 09b7 3557 10bd cb3f
00000540: efa6 30aa e4b6 cb3f 7209 9bc8 62bd cb3f
00000550: 22ca 649a 54cd cb3f 5a94 9ea8 25e5 cb3f
00000560: 0471 bb84 a2ff cb3f ddb5 d81d 371c cc3f
00000570: b429 ba78 a43b cc3f abe2 cd03 5356 cc3f
00000580: 2488 d21b 8976 cc3f 2941 d026 dea9 cc3f
00000590: 891f 78c9 2ec9 cc3f 779c 723e acdf cc3f
000005a0: 8180 9346 2bf4 cc3f 3576 0471 8fc6 cc3f
000005b0: 001f f035 ca95 cc3f 4fb7 1c30 6865 cc3f
000005c0: 0596 ea93 0a39 cc3f 3644 ecd9 4015 cc3f
000005d0: 6127 7872 c4fb cb3f 7a68 9590 38ec cb3f
000005e0: 31eb 7e89 31e7 cb3f 5297 8f0a ecec cb3f
000005f0: 4478 39eb edfe cb3f e3f6 0859 731a cc3f
00000600: cf96 f1df bc3c cc3f 7c2d 6b77 3264 cc3f
00000610: 854a 0db6 a195 cc3f 7154 07e8 e9b6 cc3f
00000620: 4be5 23b8 afc4 cc3f 291d 9d9d 3e9a cc3f
00000630: b90e 37ea 603b cc3f 7e0a 2ba5 f27c cb3f
00000640: d12b ea80 6ae3 cc3f c1b6 a92d 15b3 cc3f
00000650: 931f d02d ac7e cc3f ffe4 6a8e 3049 cc3f
00000660: 907b aea6 4c15 cc3f 5779 56c9 5be8 cb3f
00000670: 3ee1 2c27 8ec6 cb3f 6583 2b88 5bb1 cb3f
00000680: 21d5 26d4 65ab cb3f 8e44 4f96 dab7 cb3f
00000690: c386 4974 d5d3 cb3f bb9b 9b92 56fc cb3f
000006a0: 6261 b4cb 8328 cc3f 51bf 58e5 a159 cc3f
000006b0: 6117 77a2 e48c cc3f 56de 1906 2bba cc3f
000006c0: b224 30bf f4d1 cc3f ae0a 232b 74c0 cc3f
000006d0: f10e fe89 117b cc3f ca18 8487 f90f cc3f
000006e0: 75aa bea0 23e3 cc3f 5d75 8155 06b2 cc3f
000006f0: 51fd e46c 0e7d cc3f 1ef6 1985 f746 cc3f
00000700: 2997 82fa 6313 cc3f 58c7 106d cee7 cb3f
00000710: 99ce 5503 8fc5 cb3f 8b03 7730 82af cb3f
00000720: 1980 1cbf b3a8 cb3f d502 ae6c 4fb6 cb3f
00000730: b43f b6b8 c5d7 cb3f 36ce 386a 2510 cc3f
00000740: d7cb d6f5 2e5d cc3f be9c 0581 9bb8 cc3f
00000750: ccb0 58ff b419 cd3f a529 603c 3d6f cd3f
00000760: 5588 303e 98b3 cd3f f3f9 635b bcd4 cd3f
00000770: dda1 8646 fcd4 cd3f 1a24 bcc5 d9a7 cd3f
00000780: 5931 93a1 6def cc3f 6451 0904 0fc2 cc3f
00000790: c7a7 a00d 8092 cc3f 15ad 9140 0064 cc3f
000007a0: 9ba3 dc03 9d38 cc3f 940a c4e8 5815 cc3f
000007b0: fe42 a1b4 8efc cb3f 9204 abdb 7aee cb3f
000007c0: 22ba 66d8 42ed cb3f 350a 07ed d9f8 cb3f
000007d0: bb35 8c8f 9c0f cc3f 955c 9db5 6d33 cc3f
000007e0: 4bea 1426 3c64 cc3f d6d7 57af d5a8 cc3f
000007f0: ddf7 ba8b c60c cd3f 2b07 89c3 5b86 cd3f
0.22595816995826926 0.22451857561435817 0.2229791657119786 0.2214318352268238 0.21998382407241063 0.21877983636553253 0.21791492797278528 0.21741122848347105
0.2172905485722047 0.21760293910800718 0.2182981188544773 0.21933963860057168 0.22067232302548476 0.22234143889203498 0.22438132706847833 0.2265214119976149
0.22878922011268268 0.23099657852259328 0.23265579898827463 0.2338820473764441 0.22626096538091248 0.22481021859411524 0.22326008487171892 0.22170343313370053
0.22027383688696006 0.21911940608333633 0.21835294380980758 0.21797431764554479 0.21793736373120087 0.21831316751635918 0.21901300803049284 0.2200444009021839
0.22127995973023806 0.22289116873303555 0.22456743477291713 0.2261216961606657 0.22761096429296318 0.2286173853920946 0.22876241542384051 0.22785079957708043
0.2261399213735171 0.22481934254017086 0.22338438497320504 0.22189255317547799 0.2204403733837317 0.2191795257426464 0.21819933633664773 0.2176442946518047
0.2174895879361465 0.21793395608542515 0.21895257767027831 0.22040994598718097 0.2221691196054435 0.22393315034156924 0.225438335888835 0.22617924680098092
0.22588394837405518 0.22463049437445043 0.2223380232219728 0.21834414454397538 0.2265051531293438 0.22509026353552103 0.22357591957974632 0.22205181206556082
0.22067131957926928 0.21958151982307966 0.2188425927454642 0.2184587909141647 0.21845894715405836 0.21888901384863302 0.21962551142558195 0.2205192082063701
0.22134724691107166 0.22208696886338974 0.2224442881031977 0.22223003778391415 0.22091689873064854 0.2185742559379514 0.21495562491613077 0.2102030052800408
0.22604910808640946 0.22460196702828675 0.22309001732792474 0.2216851814357797 0.22049087082597413 0.21963684115247142 0.21921658462202984 0.21919101060210305
0.2196305109843064 0.22047814664937823 0.22171088282081047 0.22328063468020645 0.22502725414133504 0.22681297465602995 0.22846668925644079 0.22938816233067288
0.22924439849522893 0.22719884185073555 0.2227144056454019 0.2163229712714447 0.22636058076997326 0.224963386813054 0.22343720011720564 0.22184402749662288
0.22027390568727528 0.21890546117338902 0.21787401646656995 0.21725193703274215 0.21709519376046083 0.21753463006649723 0.21852202765614942 0.21993132150506062
0.22167894529360135 0.22361764216127417 0.22574722654350932 0.22768320825948354 0.22925344538434342 0.23048274016623227 0.2306933121526932 0.2297075031850862
0.2253149413531381 0.22381882232825467 0.22226856689823513 0.22072564336114986 0.21929449359824643 0.2181200046776066 0.2173316223190951 0.21690243317648952
0.21680006649087735 0.21723699053002557 0.2180448168437755 0.2192910253676703 0.22086238256064314 0.22285484758132482 0.22518410690848603 0.2275701787737988
0.2300931352117277 0.2326757687310583 0.2353556652467911 0.23738549122905225 0.2256610094883604 0.22402695505926595 0.2222397451121446 0.22043642072801842
0.21875236505991888 0.21739619301194832 0.21651536752010933 0.21613239102544549 0.21624606767650117 0.21681133294423416 0.2177105157160811 0.21895868515546746
0.22032868092252222 0.22193729035722376 0.2239009486528403 0.22633076161441765 0.22924698156151324 0.23217904274734627 0.23349089395687378 0.23377724282677648
0.2257996212747415 0.22423618865197462 0.22257892506924404 0.22092110515148383 0.21941649955001216 0.21815587103905207 0.2172463622521607 0.2167072702244968
0.21651895818768405 0.2167170981902689 0.2172036889911207 0.21793051465388907 0.2187388561350262 0.21961106259679655 0.22057014365084415 0.22138440786126998
0.22236741884722833 0.22393395323934698 0.22488961064686588 0.2255759529991541 0.2262014479265453 0.2248095800249971 0.2233212245339402 0.22184469556071426
0.22049076292493922 0.21939860001342176 0.21862083043407224 0.218146391484712 0.21799296582852315 0.21816778674763754 0.218717326980313 0.21955720755970906
0.22060357031585062 0.22180777388562578 0.22331639661077332 0.2243320830299669 0.2247523926851421 0.2234571714018128 0.22056209026606213 0.2147506052479748
0.225690186449667 0.22421517114292125 0.2226157401748848 0.22098357156736623 0.21940000666378667 0.21802851992556313 0.2169969264302924 0.21635002278255935
0.2161681447884485 0.21654827441537744 0.2174021547135024 0.2186382499559992 0.21998641439928251 0.22148536394660792 0.22304971630927198 0.22443139837172293
0.2251573499236535 0.22462322336476376 0.2225057529250232 0.21923750988952967 0.2256817374121344 0.22418288397868028 0.22256641690362725 0.22091573714344376
0.21934175235690503 0.21801166844812303 0.2169665113720967 0.2162935959477433 0.21608588058097736 0.21650116736056782 0.21752234954010208 0.21924274145713846
0.22159373287067183 0.2243837718953951 0.2273470160301997 0.22995725105313372 0.23204329525566672 0.23305468046596864 0.2330623001446516 0.23168489604020764
0.22605677022364537 0.22467220017518763 0.22322083154113967 0.22180178787980567 0.2204777020317835 0.2194014679481212 0.21864494151898123 0.21821532941797678
0.21817813459843288 0.21853183816536306 0.2192264271656493 0.2203194748678682 0.2218089281030465 0.22390242635418528 0.2269523794438432 0.23066279456730263

Maxvals f8 [11]
00000000: 377d 19ca 77e1 2940 a078 f49e e057 2940
00000010: d650 46ac d20c 2940 2e26 a175 69e8 2840
00000020: 190d 00ea 96bf 2840 d629 8302 d4aa 2840
00000030: a072 a233 9687 2840 0070 07ad 2870 2840
00000040: 30b5 56fd 4248 2840 c2b9 6e12 6716 2840
00000050: e245 2757 c5ce 2740
12.940367045985665 12.67163559660213 12.525044807036846 12.45392959205773 12.374198257929082 12.333648756514702 12.264817823009537 12.219060332448862
12.141136090120739 12.04375512696868 11.90384933809668
