Data/SIMBA/Model_snap32.npz (npz, 282826 bytes, 5 tensors)

x f8 [39]
00000000: 0000 0000 0000 2640 3333 3333 3333 2640
00000010: 6666 6666 6666 2640 9999 9999 9999 2640
00000020: cccc cccc cccc 2640 ffff ffff ffff 2640
00000030: 3233 3333 3333 2740 6566 6666 6666 2740
00000040: 9899 9999 9999 2740 cbcc cccc cccc 2740
00000050: feff ffff ffff 2740 3133 3333 3333 2840
00000060: 6466 6666 6666 2840 9799 9999 9999 2840
00000070: cacc cccc cccc 2840 fdff ffff ffff 2840
00000080: 3033 3333 3333 2940 6366 6666 6666 2940
00000090: 9699 9999 9999 2940 c9cc cccc cccc 2940
000000a0: fcff ffff ffff 2940 2f33 3333 3333 2a40
000000b0: 6266 6666 6666 2a40 9599 9999 9999 2a40
000000c0: c8cc cccc cccc 2a40 fbff ffff ffff 2a40
000000d0: 2e33 3333 3333 2b40 6166 6666 6666 2b40
000000e0: 9499 9999 9999 2b40 c7cc cccc cccc 2b40
000000f0: faff ffff ffff 2b40 2d33 3333 3333 2c40
00000100: 6066 6666 6666 2c40 9399 9999 9999 2c40
00000110: c6cc cccc cccc 2c40 f9ff ffff ffff 2c40
00000120: 2c33 3333 3333 2d40 5f66 6666 6666 2d40
00000130: 9299 9999 9999 2d40
11.0 11.1 11.2 11.299999999999999 11.399999999999999 11.499999999999998 11.599999999999998 11.699999999999998
11.799999999999997 11.899999999999997 11.999999999999996 12.099999999999996 12.199999999999996 12.299999999999995 12.399999999999995 12.499999999999995
12.599999999999994 12.699999999999994 12.799999999999994 12.899999999999993 12.999999999999993 13.099999999999993 13.199999999999992 13.299999999999992
13.399999999999991 13.499999999999991 13.59999999999999 13.69999999999999 13.79999999999999 13.89999999999999 13.99999999999999 14.099999999999989
14.199999999999989 14.299999999999988 14.399999999999988 14.499999999999988 14.599999999999987 14.699999999999987 14.799999999999986

intercept f8 [100, 39]
00000000: 4213 8cbe 2d0f fb3f e0ec eb76 8ced 0440
00000010: 5888 92c6 6c55 0a40 54e9 f587 7456 0e40
00000020: b408 3ec3 50c3 1040 114a b5f3 fb18 1240
00000030: 6cde 5f71 d53f 1340 d3fa b368 c83e 1440
00000040: afee 61ee a219 1540 f044 f30c d6c9 1540
00000050: f9f3 e0c9 c148 1640 677a b390 d989 1640
00000060: ead1 c389 b37d 1640 b931 d923 e118 1640
00000070: 8a91 2536 075b 1540 2424 edc9 2747 1440
00000080: 7719 ec56 e4f3 1240 1b5f 1dbc 4485 1140
00000090: 1cce 0371 1d1b 1040 9c49 7248 33aa 0d40
000000a0: e03e 389e 1d8f 0b40 6e08 ea40 f4bb 0940
000000b0: f84c f91b 2331 0840 d81f c99a cbc5 0640
000000c0: ab9f a467 bb5f 0540 3465 e47c f6f3 0340
000000d0: 930c 97c2 7286 0240 04db e1f4 911e 0140
000000e0: c2b1 3167 4ee1 ff3f 427d 6901 b368 fd3f
000000f0: 70e0 e718 7635 fb3f 5deb 2f7e 18b6 f83f
00000100: 62e9 999e 8777 f63f 0656 145c a935 f43f
00000110: a165 9c9a 23aa f23f 5641 88ca cdba f23f
00000120: 78e9 9305 f2e1 f53f 3a01 ecf1 b2a3 fb3f
00000130: 885f 9031 5423 0340 3790 415b 85fb fa3f
00000140: b7b4 3b00 73ec 0440 4d61 fdd3 6459 0a40
00000150: 3269 ebdb 8a5e 0e40 5e92 25be 56c9 1040
00000160: ca4f ff37 f620 1240 2b94 08e5 0a4a 1340
00000170: c8d8 4899 4a4a 1440 f501 6bd2 4525 1540
00000180: f3b2 40a0 17d3 1540 e820 6dda bc4c 1640
00000190: 6e9a 0783 4a88 1640 7046 608a 0f76 1640
000001a0: 88e8 80b3 690b 1640 a894 b1fe e749 1540
000001b0: 5cfb 8a26 c731 1440 1555 578e 5ce1 1240
000001c0: cfe6 87af 8d7a 1140 1456 2a03 1c21 1040
000001d0: 14c9 a1bb 85dc 0d40 521c e09c b8e3 0b40
000001e0: 5c4f cacb 5241 0a40 6e57 1c43 18d4 0840
000001f0: becd 0551 0471 0740 b7bc b4e4 96e5 0540
00000200: 5b4f 00b7 e429 0440 3fed 0045 cd58 0240
00000210: 518d cde8 e58e 0040 be04 6af4 f422 fe3f
00000220: 537e e8a4 f142 fb3f 6ddf 0054 b7d9 f83f
00000230: 74c7 9557 6687 f53f 95be cc2b 2bfd f13f
00000240: 0a1b a645 a67f e83f 0013 a4d6 5638 d43f
00000250: b442 3809 f85c d0bf 0509 b28e f8da eabf
00000260: d9fb 3f16 d98b f6bf 3605 3298 1724 febf
00000270: 63b2 77b6 a439 fb3f 8623 9d9d 8601 0540
00000280: 7adf 35c0 c264 0a40 d2f4 af4e 545c 0e40
00000290: 4e77 8740 95be 1040 8155 97fd 240f 1240
000002a0: e758 1e31 2531 1340 b8d1 e346 272c 1440
000002b0: ece9 12c4 bb03 1540 7cc8 d398 0bb2 1540
000002c0: 4611 6b48 9d30 1640 4932 8353 386f 1640
000002d0: 50d1 def0 4d61 1640 1b7f d091 77f9 1540
000002e0: a974 31c3 dd40 1540 7d4b cf2b 4734 1440
000002f0: 4c40 1c83 21f2 1240 d11a 0d6b ec96 1140
00000300: 135f 56b6 4a3e 1040 345c 02f2 1014 0e40
00000310: 813c c1d7 d410 0c40 906a bf4b 394d 0a40
00000320: 0cdd d142 e7c7 0840 8f1f 8b1f 9f63 0740
00000330: c211 dbdd f608 0640 d260 1789 2ca5 0440
00000340: ef3f 536d d11e 0340 8bc5 0a7a 6d7a 0140
00000350: 4d88 f812 4bbe ff3f 296a eccf 9bf6 fb3f
00000360: 426b db55 474e f83f c966 a969 2160 f43f
00000370: 8bfc 9d95 118c f03f 74eb 93fe 241e e73f
00000380: a037 7d3b a9f9 e03f 16d5 420d 6deb dd3f
00000390: 7407 9935 b9f1 e73f 3c96 33fd 1be0 fa3f
000003a0: 9449 2d35 8bac 0c40 dd18 dd0a 6c28 fb3f
000003b0: 9c28 2dd3 33f3 0440 bc9a 1bf5 5a53 0a40
000003c0: 6a98 23ab 0b52 0e40 36a4 53be e3c0 1040
000003d0: 5663 4b68 fe16 1240 c64d 58de f042 1340
000003e0: 022f 8c89 5746 1440 ce11 ce3a 9125 1540
000003f0: e6ef 7ca0 f7d8 1540 085a c2da fa55 1640
00000400: c54d 1f24 5994 1640 a302 0fbb b486 1640
00000410: e37d b8dc 2525 1640 cc0f c8ad 1e6d 1540
00000420: 01e5 594f 7962 1440 9ba3 0260 7b18 1340
00000430: e363 24d9 37b4 1140 7c8a 7a5c e847 1040
00000440: 29ee 3f6b 6cfb 0d40 ae4d 7ed2 53cb 0b40
00000450: 34b4 6d73 2fd9 0940 2275 1ea9 491d 0840
00000460: eed1 8640 5b87 0640 fa88 c0db 2006 0540
00000470: 7e49 1d0c 9598 0340 84b1 9a98 8952 0240
00000480: 6410 53f8 9745 0140 46d8 e6ae 8e6c 0040
00000490: bade 3143 b589 fe3f 6c3b 87b2 f075 fb3f
000004a0: 7a4a a051 02ba f63f b58d 4cd1 cabb f03f
000004b0: 14be 15c3 486b e43f 4062 aea4 59d7 d03f
000004c0: 50b9 2b9e 1f9d a53f 5cfa 690d 774d d33f
000004d0: e68f 38a9 17d2 f03f f9af 293a 4fd9 0540
000004e0: 455a e177 be17 fb3f 1591 4beb 07ed 0440
000004f0: be84 4755 b352 0a40 1816 0e82 d256 0e40
00000500: 9cdf 347b 7dc6 1040 b2be c7ce 3020 1240
00000510: 2034 5a0c 6a4a 1340 2658 e7b5 d64f 1440
00000520: f07c a775 cc33 1540 bfa1 608e 29ed 1540
00000530: be76 7ec5 eb6e 1640 f51f f04e 21ab 1640
00000540: 4a69 2605 9690 1640 5844 fda8 8514 1640
00000550: f802 d032 f63a 1540 f4c3 e451 7c09 1440
00000560: ecd3 4618 d69f 1240 26d1 3f78 1025 1140
00000570: 83e8 d624 4b7d 0f40 f6bc 5a72 af14 0d40
00000580: 4b6b 1fc4 aa3e 0b40 ba16 c958 5ac1 0940
00000590: 6d65 fa09 907d 0840 5976 8581 bc47 0740
000005a0: 5ffa d95d beea 0540 8752 3278 6f82 0440
000005b0: 4ee4 0ab2 9dfc 0240 f483 2736 4a6f 0140
000005c0: d20e cd7f 1b29 0040 3684 67e1 4291 fd3f
000005d0: 6019 8b01 a92e fb3f 7f7b f392 5d6d f83f
000005e0: 4971 5200 1a1f f63f cb1f 4179 afcc f33f
000005f0: 9a39 30f6 f3ee f33f 24fc 5eac 1fdd f73f
00000600: 5b10 4c21 62c0 0040 3ad5 30ec eb20 0a40
00000610: d2ed b130 ab48 1440 66a2 7979 2b0f fb3f
00000620: 6014 2087 c8ef 0440 5f35 540c a159 0a40
00000630: 12ad 809c f459 0e40 f421 2395 fbc3 1040
00000640: d70b f922 6c19 1240 5dc1 4b81 9441 1340
00000650: 99ac 0d69 8340 1440 c0c2 6ed8 e11a 1540
00000660: c539 7e4e b1c5 1540 24e1 9f9c 313a 1640
00000670: bbf7 1b81 d76f 1640 fa94 9099 de59 1640
00000680: c793 9e3d 07f2 1540 6991 78d1 df38 1540
00000690: 9c42 2838 192c 1440 e076 c345 c2e0 1240
000006a0: bd3c 40e6 687f 1140 57fe 5bad 7c2d 1040
000006b0: 7223 b276 d406 0e40 325e e918 562a 0c40
000006c0: ff8d a4bc 8c7f 0a40 c8d4 8f59 01ff 0840
000006d0: 84f2 05ad 3873 0740 4bd2 5deb 5ae6 0540
000006e0: f51e 3006 1356 0440 844a d8ff 2db3 0240
000006f0: c461 a3c3 5d13 0140 78c0 5ded e435 ff3f
00000700: 7c7f d72d c9eb fb3f bcca f0b9 4189 f83f
00000710: 602f c801 df98 f43f 1a67 5cdb fc53 f03f
00000720: 8a06 601d 8af5 e83f 6685 fab3 e934 e53f
00000730: a607 4393 ab9e e83f e2bf 7e4c ff75 f33f
00000740: 080e 16a6 04c9 fd3f 89ba 4632 cd8b 0540
00000750: 59c8 07e3 eb67 fb3f ac9f 967d 602b 0540
00000760: c8d2 ab1a 3e99 0a40 a7a5 aece e393 0e40
00000770: 8991 aefa 31d7 1040 02d1 895f 4d1e 1240
00000780: 2008 3e13 7834 1340 b19f 00f6 8224 1440
00000790: 8645 695d cff5 1440 f560 a585 d59f 1540
000007a0: fdc9 eb10 d21d 1640 515c 9f50 b260 1640
000007b0: 2edb 3805 2b59 1640 db9d fc95 21fe 1540
000007c0: bc89 d5e8 494f 1540 baeb b696 c54f 1440
000007d0: fcaa c748 0d13 1340 2875 9036 d8b8 1140
000007e0: aaea d84d 5d5a 1040 4333 985a 8321 0e40
000007f0: 987d 2f6f 45e2 0b40 8dcb 4556 0bc8 0940
1.6912057345627578 2.615990571093434 3.2917113793819617 3.7922144529267516 4.190737772618537 4.524398620548269 4.812337657429094 5.061311374650091
5.275035595633809 5.447105600688914 5.571051744799655 5.634619008020855 5.622755196167853 5.5242963410677755 5.338894697230339 5.069487719630192
4.738175733719223 4.380145015042014 4.026479497773405 3.7081056270482815 3.4448807106890484 3.216774470464819 3.0239927468734287 2.846579751265363
2.6717441651453178 2.4941224820328447 2.3156485750528844 2.1399268275666845 1.9925064116497286 1.8380613379629982 1.7005520794755533 1.5444569520174902
1.4041820712432913 1.2631009671071083 1.166537860821656 1.170606413976278 1.3676624505884245 1.727465577132604 2.3922504303154177 1.6864064755145713
2.6154537218304443 3.293649345560118 3.7961632901398383 4.196619959872434 4.532189249952305 4.82230718483792 5.072550196715561 5.2863991620838435
5.456144813488879 5.574939167891195 5.6330967400923395 5.61529365742318 5.511145405524196 5.322174052799859 5.0486112615897945 4.720079635696739
4.369681112928176 4.032333421191215 3.7326769503353123 3.4861919647114883 3.2818962021937477 3.1035619013809344 2.930184014310469 2.737104212537442
2.520455770203552 2.2933602705867595 2.0697744548539636 1.8835343882968085 1.7038437310910879 1.5531533509619877 1.3455565854351024 1.1243087492875123
0.7655822143868545 0.31593867264773223 -0.2556743707691951 -0.8392298495312224 -1.4091425770891333 -1.8838115639812947 1.701573097957543 2.6257450402812905
3.2991995827141496 3.795082678551446 4.1861162264520555 4.514789545404143 4.7979934382221705 5.0431185795354665 5.253645957617191 5.423872363973825
5.547474986586456 5.608613304979891 5.5950238834378325 5.493620184279076 5.313345956700837 5.051052746321941 4.736455963706316 4.397386238741732
4.06083187963647 3.7597979456873194 3.5082184654089024 3.2877069394865615 3.0976090641303298 2.923643347199636 2.7543771107177415 2.580651350999781
2.390047887900429 2.1847791227853057 1.9839583149955786 1.7477071878444213 1.5191109994691065 1.273469364873039 1.0341964573306395 0.722429749700821
0.5304762040993758 0.4674942616942003 0.7482572600203938 1.679714192455676 3.58424989265877 1.6973686622964614 2.6187511919170685 3.290700831322594
3.7900613184202046 4.188368772368497 4.522454862214394 4.815371965541493 5.068693303280954 5.286686819865691 5.461882121682697 5.5839647465823035
5.644871296320564 5.63154880789867 5.536277245293124 5.356562342963979 5.096165885793426 4.773908138428761 4.425994294019776 4.070222325305277
3.7477653864750846 3.4742809719843626 3.231047536645315 3.0143006527347476 2.8160920182365237 2.6279923599369086 2.4495030352056224 2.290301506253117
2.158981266055024 2.0530065216253517 1.908620130996424 1.716294000030497 1.420412367679687 1.045847718786587 0.6380962190868922 0.2631439312185968
0.042214382226904434 0.30160309133490215 1.0512920961564247 2.7311081451389296 1.6932968790839749 2.615737760776151 3.290381113286087 3.7923936996983336
4.193838048078671 4.5314361867346395 4.822670166974632 5.077967493291032 5.300584638927134 5.481603836677492 5.608321271747341 5.6671192487774436
5.641197281331481 5.5200411228734865 5.307579797693272 5.0092633052708955 4.656090144465434 4.286195639510231 3.9361784818730157 3.6351002630177573
3.4055991479957917 3.2194106041304993 3.0613098887958388 2.9100275153021298 2.739620907988225 2.5636891737324876 2.3733476552556914 2.179340766030231
2.020071981854792 1.8479641728265626 1.6988916454589216 1.5267005672719447 1.3825931561069231 1.237472032213179 1.2458381287320663 1.4914852841609525
2.093937168248926 3.2660749866869567 5.070965538844989 1.6912035699007446 2.617081695238582 3.2937642062376393 3.7939235903519455 4.191389398831678
4.524826570940568 4.814043064354647 5.063001290759666 5.276252156982707 5.443059183553889 5.556829879053371 5.609220521289838 5.587763213586408
5.486355746082103 5.305541298850906 5.043064954240119 4.7194910908271765 4.3744235970218 4.044420918216551 3.753334929763178 3.5206720300882575
3.3122801530569173 3.124514293386344 2.9312604443969708 2.737478102493957 2.5420284732280103 2.3374900806314276 2.134456184791107 1.95065777512721
1.7450649061865695 1.5335099471382554 1.287322051010925 1.0205048149859466 0.7799730848057191 0.6627090945441239 0.7693689228255962 1.2163079250421949
1.8615766990413949 2.693262474807231 1.712871443593505 2.6461801349250518 3.324825485581048 3.8222118517921504 4.210151593117538 4.529592030321739
4.80123930040466 5.035655826366495 5.240048846769588 5.406087959498326 5.5291216510690875 5.594430217482185 5.5870781722976925 5.498174994987006
5.3274303798993365 5.0779021786828995 4.768605363070261 4.430512287680621 4.088246551861326 3.766363818902762 3.4854839979522687 3.2226778736161976

slopes f8 [100, 39, 7]
00000000: 4a0f c9fc 19b9 923f c58e a492 8b25 eb3f
00000010: b2ce 9350 d2c4 fb3f 247f 4ffd edf2 963f
00000020: aede 4ae3 6617 7cbf c007 e621 4d3b b0bf
00000030: f8bf 0859 01ba 86bf c9cd a9a3 9fbd b0bf
00000040: ec4e 3baf 785e ec3f ae18 66a0 ecc3 fa3f
00000050: 32c7 5115 b130 963f b8f2 5ddf 78fa 80bf
00000060: 588e b46e d0f8 b4bf 0887 a7b1 887f 88bf
00000070: 176d 01b6 f430 c0bf 31a6 6767 ca05 ed3f
00000080: 849b 6fdd f2af f93f 84f6 bdec 6496 973f
00000090: e0f5 b71f 8bb3 86bf d0e2 52f2 bd2d b9bf
000000a0: 20fe d556 5c38 8bbf 7ef9 ab7b 2802 c6bf
000000b0: beda 6691 9931 ed3f 9713 b279 5a96 f83f
000000c0: 18d5 41e1 7dab 9b3f 00ad 1204 f0da 8ebf
000000d0: 004a eee0 f668 bcbf 6ef2 acb0 b136 8ebf
000000e0: c5fb 680c 4eac cabf febe 664b 02ff ec3f
000000f0: f338 9f5e 6b7c f73f e8c6 0234 302a a13f
00000100: 1045 86c9 1852 94bf dc4c 0a70 c558 bebf
00000110: 5ed7 780d e3aa 90bf f5f4 1dcb d69b cebf
00000120: c35f b396 9185 ec3f 85cb 269a de67 f63f
00000130: 1852 2b6e b65c a53f 6047 c80f e84d 99bf
00000140: bce4 ea20 56e5 bebf 862d 5b0e 7e1b 92bf
00000150: 5e9e 7bc9 a303 d1bf 8c6f 37b5 6fd8 eb3f
00000160: 32ea 4435 335f f53f b08a a4a2 fcc3 a93f
00000170: 58b6 5b79 448a 9dbf b8ff 01c1 4527 bebf
00000180: 6d9b fe84 c595 93bf 6fba 30c0 bc80 d2bf
00000190: 2461 4369 7407 eb3f 51af 0529 5161 f43f
000001a0: 3a1d eb6c d1b1 ad3f f470 2196 2325 a0bf
000001b0: 60c5 fc84 8a54 bcbf 91b2 92f1 2250 95bf
000001c0: 01b1 1df3 75ca d3bf 6bd1 77f2 ef1d ea3f
000001d0: e8d2 3a46 296c f33f 84aa 899b a655 b03f
000001e0: b0e2 255a df88 a0bf f4de 2de2 b4a4 b9bf
000001f0: 8b0c 47c1 0d55 97bf 1e70 6d92 24d8 d4bf
00000200: d301 c94e bc24 e93f dd50 3065 047b f23f
00000210: 2a35 a9a5 9b39 b13f 90d4 9efe fee8 9fbf
00000220: 508f b07f 454d b6bf ea6e 7409 9d99 99bf
00000230: 2661 e17d 43a1 d5bf 507e 3625 c122 e83f
00000240: b869 435a 278d f13f 6a6a 6629 458d b13f
00000250: a05f cb21 db66 9dbf 8401 f10a 307d b2bf
00000260: b4cb e2c6 f1fc 9bbf bb8e 08f8 a315 d6bf
00000270: 6057 04da a61b e73f f731 d140 a4a5 f03f
00000280: d4c4 83d4 bd6c b13f 1015 e6f9 1f67 9abf
00000290: d8ed d1e2 4ac8 acbf 204f 4eb7 434d 9ebf
000002a0: bf3c 1936 8b21 d6bf 7b0e 4e84 3a13 e63f
000002b0: e225 bcd7 ce94 ef3f 6ded f721 fff7 b03f
000002c0: 6821 d083 a9e1 97bf e85e d61c 8387 a4bf
000002d0: dc7d 624e 623d a0bf d396 7a47 b2b6 d5bf
000002e0: ab19 5ec7 170f e53f 3646 84aa 7409 ee3f
000002f0: cd76 31ac ee52 b03f 820b 9930 3277 96bf
00000300: 90aa 962d 8a2f 99bf 240d e082 3a3a a1bf
00000310: 45cd 2cc0 b1d5 d4bf 3843 17a1 b914 e43f
00000320: 8f80 b521 f9bd ec3f 1662 9026 4134 af3f
00000330: 9024 25ce 8e4f 96bf 382a 8c80 6bb0 85bf
00000340: 3296 128a d816 a2bf 4060 66e8 1f84 d3bf
00000350: af04 ceaa cf25 e33f 600f 946f 48bc eb3f
00000360: 5ec9 902e 31b0 ad3f 8838 2fc5 561b 97bf
00000370: bab5 da85 4a6f 513f 44de ca56 5bcb a2bf
00000380: fc8e 3e09 14e0 d1bf eba4 7c17 994f e23f
00000390: ccc9 88d7 910a eb3f 1cc6 6d5c 2631 ac3f
000003a0: 10e5 8895 8b53 98bf 4c13 537c 53fe 843f
000003b0: 4305 a2e6 c068 a3bf ed2f d7d2 6418 d0bf
000003c0: 2255 e73c 8e9c e13f 34f9 7ed3 afab ea3f
000003d0: e6fd 27b0 a6a5 aa3f 381d 48f7 4a91 99bf
000003e0: 8c3b 79b6 6d13 913f 5267 7771 debf a3bf
000003f0: ccef 890e 5cab ccbf 0805 e003 2f18 e13f
00000400: b479 b505 2091 ea3f 0874 452e 07e7 a83f
00000410: 5814 be2e 1766 9abf 940f f526 fcba 943f
00000420: b13f 8127 88c9 a3bf fa4c e71f f87e c9bf
00000430: cb6a fc16 ccc9 e03f 57d3 5550 43b2 ea3f
00000440: f441 f106 c0db a63f b0ae 4a8d 54d5 9abf
00000450: d48a ba27 9024 963f dc72 363c cdc1 a3bf
00000460: 28cd a905 d9dc c6bf 33fd ba7a 1db4 e03f
00000470: 26d3 937c 4e04 eb3f 5dda bab6 1a73 a43f
00000480: fcb9 c588 248d 9abf 00f6 ec4a f6a9 953f
00000490: 2cb7 b5ce fb8e a3bf 9e10 bd6b 9593 c4bf
000004a0: bb3b daed 93c6 e03f d2ae 2e5c 6861 eb3f
000004b0: 905f b90c 79a6 a13f 089a ed69 85fa 99bf
000004c0: 5c73 13eb 4d61 943f 1893 eeb9 cd72 a3bf
000004d0: 9529 4092 69a4 c2bf f149 c726 50ee e03f
000004e0: 4851 f2b9 69d2 eb3f 60ed d0ca e98b 9d3f
000004f0: 68b1 e013 bbd6 98bf 9818 de37 272a 933f
00000500: a0e7 2300 306a a3bf ab6c d572 eddf c0bf
00000510: f9ab d41c 7a14 e13f a01c a67e b637 ec3f
00000520: 8026 dd95 0566 983f 0077 3ee9 8894 97bf
00000530: 307f 6752 b200 933f cebb babc a2d3 a3bf
00000540: 6a7f ef64 0d51 bebf 3b20 9d32 2023 e13f
00000550: 56da 15b7 a491 ec3f a048 bed7 1e20 943f
00000560: b074 cf12 8124 96bf 08d9 b7dc 7416 943f
00000570: 7872 791d 72d4 a4bf a96c 5c2f 05ea babf
00000580: 9048 16c4 69ff e03f c404 c3f7 17c5 ec3f
00000590: 8073 4ec0 494d 913f a021 9964 7818 95bf
000005a0: 9002 d471 8135 963f 706a 839e 6068 a6bf
000005b0: 3aed 7940 0096 b7bf e9b2 459e b8a4 e03f
000005c0: 8a39 5a91 89c8 ec3f a0ba 3f7a 5cec 8f3f
000005d0: 4862 606c f203 95bf f00f 362c 6ec3 983f
000005e0: 50c3 c8e0 c2d3 a8bf 0220 1d42 ef6c b4bf
000005f0: 5493 03ac f1fa df3f 700b 9ac2 2181 ec3f
00000600: 20ce 2648 b89a 8e3f 5871 ebc2 b7ba 95bf
00000610: 780c 05d3 731e 9b3f 604e 195a 17c9 abbf
00000620: 8aa6 65f4 a5e4 b1bf 38a8 2e9c 0025 de3f
00000630: ad0d c92d 5513 ec3f c06e 0a27 5295 8d3f
00000640: f6d1 8bd9 ed1f 98bf 3883 e4dc 1651 9c3f
00000650: 714a fbdc 4cd9 afbf fba6 80ff bf9d aebf
00000660: f445 7b6f f9e2 db3f e7a0 59f9 936f eb3f
00000670: d0f3 a511 772b 8b3f 0ca1 a027 6b49 9cbf
00000680: e8b3 a038 13d3 9b3f 6634 3184 f18b b2bf
00000690: 0d6e 58b4 332a aabf a23b c15f 7a59 d93f
000006a0: de10 1a03 8dd2 ea3f 20aa d47f 2c82 853f
000006b0: 16ff 621d 04c9 a0bf d07b 091a 643b 993f
000006c0: b46f 1f76 88e1 b5bf 8f1e acf7 b904 a5bf
000006d0: 628e 31fe 71df d63f f449 c2b6 aa53 ea3f
000006e0: 9000 0403 9989 763f e2df bcc7 fee8 a3bf
000006f0: 508e 94cd 2c10 953f 02fb 7872 f60b babf
00000700: e655 1ffb 1769 a0bf a030 6dc6 f299 d43f
00000710: 764a e320 61f3 e93f 948c 16f0 179d 63bf
00000720: fc95 f370 5024 a7bf 5052 aa63 5689 8f3f
00000730: db2d 181b c1d9 bebf c03b eac4 8e58 97bf
00000740: 1202 8a2c add6 d23f 3c28 a3e7 288f e93f
00000750: 103b 0718 f7b0 8bbf 690c 3105 9347 aabf
00000760: 20c2 3a97 1b28 813f a645 69b0 45fd c1bf
00000770: 34a3 d43d f5b3 90bf a00d 158f 8b09 d23f
00000780: e0fb 7f1a a954 e93f f48a 7e52 cca7 9ebf
00000790: 4cd2 9232 44f1 adbf c025 5498 ec49 503f
000007a0: 1220 631d fc83 c4bf aecd 1d6f bfec 90bf
000007b0: a0a8 a831 c25b d23f 90c9 e4eb ec06 e93f
000007c0: 2c0a 1a89 862c abbf 2f56 1060 ef18 b1bf
000007d0: c079 1edd 4196 7abf e796 9d95 fefd c6bf
000007e0: eaa9 be04 428c 9ebf 642d 0f0c 21de d33f
000007f0: e463 9c5a 5011 e93f e242 1062 87b9 b4bf
0.01828423123721671 0.8483331550709968 1.73555213428055 0.022411078058097847 -0.0068582552964284015 -0.06340486600495776 -0.011096964387519379 -0.0653934263771624
0.8865321562284101 1.6728330865458179 0.02167011921523638 -0.008290237728709612 -0.08192160322919884 -0.011962001725752028 -0.1264940155695988 0.9069568652750545
1.605456223472829 0.023034645986163685 -0.011084639459109036 -0.09835421720607518 -0.013291093254109987 -0.1719408611169903 0.9123046722296164 1.5367073777899571
0.027021376489263366 -0.015066027759834899 -0.11097662917590156 -0.014752758220873487 -0.20838332754098424 0.9061290238077786 1.4678758331461352 0.03352499613664667
-0.01984442453391916 -0.11854204163892085 -0.01627688188292297 -0.2391308299810714 0.89130477365233 1.4003587743324897 0.041722966144934925 -0.02471125217750314
-0.12068689635897817 -0.01768300020812099 -0.265847155342703 0.8701704539666806 1.3357421952083652 0.05032338605294251 -0.02884776106559736 -0.11778675043205922
-0.019126020662635513 -0.2891075016840778 0.8446600013658423 1.2737590410642563 0.05799726919718258 -0.0315333481564454 -0.11066499468576785 -0.020813508982132026
-0.3092322229556573 0.8161544547752276 1.2139065497732933 0.06380692765530155 -0.03229425406874975 -0.10016947290375439 -0.022785391732906873 -0.3256923131900765
0.7857343233845832 1.1550334885296742 0.06728527826745237 -0.031162246981427943 -0.08711656920837396 -0.025000051214290865 -0.3379677514362974 0.7542424895108955
1.0969613576804544 0.06856186161750491 -0.0287126769424898 -0.07222271220326176 -0.027332093967469454 -0.3450708315087742 0.7221254594939914 1.0404398471756602
0.06806551397655208 -0.025784015300378604 -0.056215610683434114 -0.029591615737060484 -0.34579735072197687 0.6898472389297717 0.9869150365422537 0.06628412799175516
-0.02332177035353436 -0.04009637572306507 -0.03171832281918416 -0.33927590351445963 0.6580923932931929 0.9386542635349489 0.06376544670043956 -0.021939071861435185
-0.02459541228533141 -0.03364737365338957 -0.3255428673466734 0.6275299211793941 0.8981900843027847 0.060945545156020284 -0.02178786404809735 -0.010590400562724075
-0.03533055005508991 -0.3049392480402311 0.5983656250029038 0.8667337588562809 0.05798486417224312 -0.02256522730368052 0.0010641315233600305 -0.036707739205152495
-0.2793016519810718 0.5722165545204495 0.8450402459769122 0.055062483580410965 -0.023756199838520564 0.010250713569243473 -0.037908580926350875 -0.25148888196849734
0.5503607930683396 0.8334578638821655 0.05204506779045541 -0.02496831068313307 0.016675676595976394 -0.03857321868026865 -0.2239794798841771 0.5342021060643285
0.8302154647351956 0.04863760413966395 -0.025780069568572678 0.0202445410516386 -0.038646941015599075 -0.199187293603792 0.5246334504075433 0.8342606133506746
0.044645310256445386 -0.026204415439379403 0.021623852181287997 -0.038587964630300425 -0.1786147382405059 0.5219867131308206 0.8442757065919053 0.0399406765040353
-0.02592904171745579 0.0211561663847899 -0.03820025347054776 -0.16075389633818288 0.5242404599720126 0.8556405830799696 0.034473212054478286 -0.025369724836673796
0.019902436707400425 -0.037985257097977676 -0.14564246789116156 0.529090953578189 0.8694351798790558 0.028854039195932102 -0.02425663288902183 0.01871548918236296
-0.037919521348114715 -0.13183372599710216 0.5337496340847557 0.8818008874522043 0.023826682350124972 -0.023027552829822717 0.018557344703253154 -0.038724027193317676
-0.11842426027533084 0.5355378140020614 0.8927787376295082 0.019653779905248414 -0.021623627446264393 0.019616914722029782 -0.0406833325366493 -0.10513336569094868
0.531178362829694 0.8990592803094377 0.016896393167928903 -0.02060115922930239 0.02168848283054331 -0.04376508650758104 -0.09213258337142785 0.520107564092169
0.899479659930692 0.015587542038671132 -0.02052286898114833 0.024183007667957612 -0.04849061006496547 -0.07978721012216286 0.4996914081405539 0.8907631684127022
0.01494354219617039 -0.021220084449724425 0.026483354334470438 -0.05426857924308304 -0.06989514557576562 0.4710084462373092 0.8773599523778352 0.01444496328013345
-0.02355929985329116 0.027653081161705034 -0.062204744315427336 -0.059797286929393643 0.43572841536396756 0.8573703642005314 0.013266496873933692 -0.02762381963125997
0.027172375041278146 -0.07244786717747473 -0.05110322548372546 0.3960863051515223 0.8382020054418964 0.010502193118175518 -0.0327836309311335 0.024640621270346774
-0.08547261127335909 -0.04105168484062204 0.35738801787940677 0.8227132386694493 0.005502317144646565 -0.038886987573675716 0.02056951527369072 -0.10174503607502675
-0.0320518011136917 0.32189626100149304 0.8109594004002492 -0.0023942439590470353 -0.04519893053820209 0.01539866916326918 -0.12051016723142231 -0.022798758286224574
0.29435281133194835 0.7987255596319822 -0.013521128102096408 -0.051327318557491015 0.008377280762347061 -0.14054175485447934 -0.016311485194054856 0.28183258984446447
0.7915845410897155 -0.029936974082043613 -0.05848134152748638 0.0009941874025706093 -0.16027785715982695 -0.016528121144302403 0.2868504986714786 0.7820953948305931
-0.05307407783131554 -0.06678672881420121 -0.0064909527590359395 -0.17962629609535627 -0.02983191637000885 0.31043268373169597 0.7833635110611081 -0.08095594543579979

scatter f8 [100, 39]
00000000: acfb 3acd 3c2a d93f 8bd8 1a43 1052 d83f
00000010: 6bc2 44e8 0b76 d73f 6124 1961 a59b d63f
00000020: 7434 c6f2 74c4 d53f a882 e323 45f4 d43f
00000030: a160 05e0 6d30 d43f ad15 bd90 d97b d33f
00000040: d9be b292 63d7 d23f 213d d080 b642 d23f
00000050: 3b0b 6cd5 07bc d13f b0a2 b88b 5e41 d13f
00000060: 5500 3f59 96d0 d03f f035 5b73 eb67 d03f
00000070: bb1f d38d 1c05 d03f e442 a7e6 d649 cf3f
00000080: 43fc b0ef 8987 ce3f ea2c 123f 82c1 cd3f
00000090: c56a 4ad8 05f9 cc3f fa21 0672 3332 cc3f
000000a0: dd55 f518 dd73 cb3f 2808 8aa7 7dc3 ca3f
000000b0: 2651 2343 8f21 ca3f e615 73a0 3d8d c93f
000000c0: 683e 66b6 2305 c93f 547f e029 e484 c83f
000000d0: 635f b299 0d0f c83f 7162 7877 419d c73f
000000e0: 22da 8a69 eb34 c73f 3966 ed0e 19db c63f
000000f0: 9410 952a b08b c63f 401e 941c 3456 c63f
00000100: 128d e85b 723c c63f 2548 c113 5541 c63f
00000110: b72d ed12 bd71 c63f 7d68 2924 4bcd c63f
00000120: 0839 3a10 a264 c73f e484 cbcc 6c28 c83f
00000130: befc e663 44f8 c83f 1c8d b085 082f d93f
00000140: 85d1 c7b0 aa56 d83f dc8c 26ae b579 d73f
00000150: 0425 e4ab 679d d63f 8899 b961 37c4 d53f
00000160: bb17 acfb 81f2 d43f 599d 2d67 052e d43f
00000170: 3716 b4e9 d079 d33f 35ab 91c9 6bd6 d23f
00000180: 44d9 583f 1943 d23f 9f96 66a1 8cbd d13f
00000190: df92 b6ef 0243 d13f 59c2 1847 12d1 d03f
000001a0: b885 221c dc65 d03f 6b4f 89c3 d8fd cf3f
000001b0: 7d24 e565 0332 cf3f 15cc 953d 385f ce3f
000001c0: 0f77 c892 2b86 cd3f a06c 1a38 5fad cc3f
000001d0: 5456 0bd0 e4db cb3f 189c 738b e719 cb3f
000001e0: 26b6 f830 046b ca3f 0fd0 eebb 4bd1 c93f
000001f0: 233f 9417 4e48 c93f 3f45 5571 25cd c83f
00000200: 03ce cbac b655 c83f 0758 8824 fce1 c73f
00000210: 4515 25b9 826a c73f 3d37 0dc5 8bf4 c63f
00000220: 368e 78c5 7e89 c63f ccb0 d897 382a c63f
00000230: cda8 1443 72e5 c53f b1d6 2647 16b3 c53f
00000240: 296c 4976 bd97 c53f 19cb 7e5d d682 c53f
00000250: 3da9 0272 e873 c53f 0791 b716 2751 c53f
00000260: 5328 cb3f ff01 c53f 2571 9976 b66e c43f
00000270: fbe8 57ab ad2a d93f 04e7 7e26 6752 d83f
00000280: b230 1734 3d77 d73f ca51 a4fe a09e d63f
00000290: d03e 1cfe 97c9 d53f f3e0 f260 affa d43f
000002a0: 377c 589f 9936 d43f 4c4e a25a a17f d33f
000002b0: f49a 82f1 98d6 d23f c8e1 f502 223c d23f
000002c0: 430b ede9 6faf d13f 3480 1838 d930 d13f
000002d0: d106 340a 25be d03f bd62 f863 5d56 d03f
000002e0: bff9 5593 ebeb cf3f f98a 4841 3c33 cf3f
000002f0: d316 ed0c 7c7b ce3f 5202 23a5 b7c2 cd3f
00000300: 86b4 96fb e007 cd3f bf2a 75da 214f cc3f
00000310: aaf1 5b79 b89d cb3f 8c1b 862c e8f8 ca3f
00000320: 90ce 92f1 b75c ca3f f1be fb7a a4c7 c93f
00000330: f221 8af9 0f38 c93f 121d 3960 12ab c83f
00000340: bc71 e2bb 3c24 c83f e4b7 6af6 6e9f c73f
00000350: edf6 f4f3 aa21 c73f 795e 6f33 76ab c63f
00000360: eb47 ed50 b435 c63f 7b5d 7fa9 c3cc c53f
00000370: bb09 b567 fb6f c53f f5f1 3b0a a118 c53f
00000380: 2541 5f99 9dde c43f 52e9 e074 18c9 c43f
00000390: f38d 1da1 35fe c43f 1772 70dc 8965 c53f
000003a0: dc10 d0ec 79f9 c53f 3413 11c6 f32e d93f
000003b0: f893 a516 ad56 d83f b1ca 954c a97a d73f
000003c0: 353f 473b 3ca0 d63f cd5c f97c 13c9 d53f
000003d0: 601f 899f 38f9 d43f 5716 a0b3 e135 d43f
000003e0: 57e2 5fe6 8b82 d33f f48d b174 aadf d23f
000003f0: a04c 05f9 0e4d d23f b7d6 34a2 94c8 d13f
00000400: f0aa dd63 a14f d13f e0a1 92d5 34e0 d03f
00000410: 09f3 720b ec77 d03f 0c88 7741 2015 d03f
00000420: fdb2 7ecb c56b cf3f f8a1 b7f2 aaad ce3f
00000430: c143 8784 c9f0 cd3f 1df5 7a32 cc36 cd3f
00000440: fb34 7b0b ea81 cc3f 0b45 6217 7dd5 cb3f
00000450: 0e13 c908 7034 cb3f 079c f682 e19b ca3f
00000460: 55f4 fc17 8b0b ca3f be5f 87a3 6682 c93f
00000470: e321 02a0 f4ff c83f 8796 0aec c586 c83f
00000480: 28ae 295b b814 c83f 057c 44b0 18ae c73f
00000490: 2a45 7959 ff53 c73f 4df5 31cf 0900 c73f
000004a0: 17c4 146c d4b7 c63f b5b0 4185 3575 c63f
000004b0: 64f4 c458 ca31 c63f b56d 4b33 01f9 c53f
000004c0: a4eb 3692 ebd8 c53f 70cc 937a d2e8 c53f
000004d0: 47bf 9907 af3b c63f 3611 c62b 419d c63f
000004e0: 2fe3 9cd9 742f d93f b30b becc 1856 d83f
000004f0: 4078 c93b df77 d73f 765e 9bdf 859a d63f
00000500: 8462 212f f6c0 d53f d719 2d99 65ef d43f
00000510: 670b 96c0 a52b d43f fa46 c3bc a278 d33f
00000520: 10b2 74c9 12d7 d23f 9eff 3c2b aa45 d23f
00000530: f5c3 b5b0 b4c2 d13f e8db 8f28 b54b d13f
00000540: 1b8d ee91 9add d03f 30e9 26ce f876 d03f
00000550: 9219 2809 4814 d03f 317e 3b05 8762 cf3f
00000560: 7db4 c327 a596 ce3f ec76 d439 c5c2 cd3f
00000570: 7a4b 142a 85e9 cc3f d178 8c0d a10f cc3f
00000580: e60d 4375 d041 cb3f 20cb cf17 e983 ca3f
00000590: 4dec 821f 35da c93f d587 aed5 8e44 c93f
000005a0: 1d74 4a66 26c4 c83f 0f66 4843 2151 c83f
000005b0: 94bb 51c2 5eeb c73f 5e0e 27d6 d98a c73f
000005c0: 6872 4f1c 902f c73f 6cba 65a9 23d9 c63f
000005d0: 936b 020d 6b7f c63f 5ac0 f4c0 7330 c63f
000005e0: f456 c984 d9ec c53f a2b1 3115 1cc1 c53f
000005f0: 9bbd 0edd 51bf c53f c380 ce7e b1f5 c53f
00000600: c0f6 3c71 ca75 c63f dbe9 b87f 1ef6 c63f
00000610: a8a5 f01e cb26 c73f 414b ce02 8529 d93f
00000620: 2855 c8e1 9551 d83f d50f 3f10 1976 d73f
00000630: e428 6717 b69c d63f c881 56c7 01c7 d53f
00000640: bd23 ca8e 95f8 d43f cd87 f737 6c36 d43f
00000650: b044 568e 4183 d33f 837b 078e c4de d23f
00000660: 7ff5 fe99 3449 d23f 04f3 e8f2 08c0 d13f
00000670: 8c07 c124 0c42 d13f 4eff bc61 e3cd d03f
00000680: 292d 8c11 8d61 d03f 2661 7a7c 35f7 cf3f
00000690: 16b4 abf7 4d30 cf3f 3ef2 8782 ce67 ce3f
000006a0: 6034 446a 209a cd3f e78c 1d88 e2cb cc3f
000006b0: d58b e8dc d001 cc3f cebd 3162 8744 cb3f
000006c0: fb37 fd24 cb9a ca3f ce9d 320f f402 ca3f
000006d0: aa0f fe3b 817a c93f b8d0 1bbb dcf9 c83f
000006e0: 001f 2b22 c680 c83f ac70 ba8b 0d11 c83f
000006f0: 823d f5fe a3a8 c73f 6912 4028 e94b c73f
00000700: 032d ef16 a6fc c63f 066c 33d2 5db1 c63f
00000710: 7f35 b40c ff7f c63f ef63 16c5 a163 c63f
00000720: da54 8b11 a95b c63f 2cf4 adbb 9b8a c63f
00000730: e95b 9797 47f5 c63f bcf0 c5e2 bbb8 c73f
00000740: 47b7 c15c 5a9d c83f d2dc 2d62 1250 c93f
00000750: 5cd7 ff55 d626 d93f 4c4c 6805 e54e d83f
00000760: 6196 b249 ea73 d73f 278f 5f50 1a9b d63f
00000770: 7e76 7967 bac5 d53f 0a0c cee8 b2f6 d43f
00000780: be04 fa80 d932 d43f 3e7c e7c5 597d d33f
00000790: be7a 2ea3 d1d6 d23f 86ed 4953 0740 d23f
000007a0: b0a3 0cd7 d6b7 d13f 8611 fac0 733c d13f
000007b0: 08b1 62e3 99cc d03f bb3b c01e d065 d03f
000007c0: 5e6c ef81 cf05 d03f 55a4 f306 5952 cf3f
000007d0: 2287 642a 8f98 ce3f 9f2a d328 08dc cd3f
000007e0: 7fc1 e3e3 8c1c cd3f bd97 9468 b95d cc3f
000007f0: 4659 43e3 96a5 cb3f 4bb9 2c81 e1f7 ca3f
0.39320297281295313 0.38000876000604283 0.36657998735885283 0.35324987871405794 0.34011577328130405 0.32740906243092605 0.31545588376094186 0.3044341958487518
0.2943962986564493 0.2853218324607543 0.2771014770698234 0.26961482662822345 0.26273115840377176 0.2563427568937575 0.2503119835860123 0.24444090139743146
0.23851131633452569 0.23246791915548864 0.22634957371777467 0.2202820116765592 0.21447337835949912 0.20909090691208232 0.20414915827007823 0.19962282499743295
0.1954693451520939 0.1915555195309887 0.187959384963274 0.1844865640021172 0.18130247739255007 0.17856133679269862 0.17613794402325722 0.17450572390974806
0.17371968734469384 0.17386878456687885 0.17534602569717858 0.17814006105146865 0.18275857727389444 0.1887336730933732 0.1950765121273203 0.3934956842005748
0.38028971923565563 0.3668035698594403 0.3533572367310429 0.3401010946603482 0.3273014981972399 0.3153089053725658 0.3043100626240149 0.2943372219512413
0.2853453749297794 0.277194173448473 0.26971505555620284 0.26276070540464996 0.25621702907127597 0.24993428752588484 0.2437137839827165 0.23728087431990788
0.23065704981939247 0.22404089202322996 0.21764812620556262 0.21172804173622306 0.2063908805006786 0.20169970203789986 0.19751907492945361 0.19376056703416997
0.1901157706957833 0.18658401283090617 0.1829379467036835 0.1793379509130605 0.1760710205281712 0.17316348471047716 0.17106464648651923 0.1695278022213436
0.16869323993418675 0.16805533948134935 0.16759973112977802 0.16653908356887134 0.16412344565316292 0.15962868491158946 0.39322988255265984 0.38002947577807356
0.3666527756402146 0.353431938813881 0.3404293042703843 0.32780060260439753 0.31583252488229924 0.3046649346444823 0.2943479879854032 0.28492021836384795
0.2763328346665512 0.2686064765748626 0.26160551067742427 0.25527128946991323 0.24938721365101732 0.24375107944168642 0.2381434500804774 0.23250480235403131
0.2268029430828486 0.2211649243057163 0.21575075078716327 0.21072103666321274 0.2059545449788982 0.20140510563896144 0.19702338871526553 0.19272069643395945
0.1886058728604335 0.18455302269052176 0.18071495925862938 0.17710759650684674 0.17351392699725862 0.17031141067739583 0.16747992099597106 0.16481411933627013
0.1630436896216533 0.162386948651895 0.16400785796132275 0.16716120971331414 0.17167591155169404 0.39349073736621 0.3802902909431505 0.3668616531278231
0.3535299853219727 0.3403977127504277 0.327711253925818 0.3157886747506828 0.30484292504801175 0.29490147968155545 0.2859532768099573 0.2778674682661903
0.2704852557423427 0.26368447167126696 0.2573194610411496 0.2512894286466014 0.24547645984912228 0.23967491961890608 0.23391074153053462 0.22823479142054107
0.2227146678982662 0.21745265619078 0.21253776959397225 0.2078821076840713 0.20347727462095358 0.19929202065281787 0.19531114399821012 0.19161294961411476
0.1881323285227705 0.18500050169765828 0.18225089901765418 0.17968866936636588 0.17748503949545189 0.1754519367854123 0.17339448294106596 0.17166152004834392
0.17068237914449214 0.17116766915532677 0.17369640227433988 0.17667402875316335 0.39352151156667764 0.3802549361645859 0.36669140661786415 0.35318133198368373
0.3399024448640733 0.3271116252766694 0.31516403014409494 0.304238018358873 0.2943770377485473 0.28550199720847924 0.2775089002307703 0.2702458282578264
0.26352562190204915 0.25726146823912455 0.251237877790481 0.2451943183468628 0.23897232476830146 0.23250642131545562 0.2258764701333254 0.21922696267660638
0.21294599271469322 0.20715058958702404 0.20197166479724374 0.1974047225349397 0.19348602289838449 0.18997588906567883 0.18687042701955348 0.18392489391964068
0.18113900549259943 0.17850156566005937 0.175763493873856 0.17335364267046566 0.17129057868685715 0.1699557403075121 0.1699011163122862 0.1715604657338244
0.17546968964773235 0.1793859599727757 0.18087138186210194 0.3931591536904087 0.3799795823009213 0.3665831240325564 0.3533148983521086 0.34027142016023193
0.3276723761014713 0.3158216997672952 0.3048862352380395 0.29484666700403056 0.2857181075922525 0.2773458835761604 0.26965621556529906 0.2625664190745639
0.2559540435183459 0.2497317178538278 0.24366163819596015 0.23754292844377461 0.2312660712126755 0.22497207304250041 0.21880541597883388 0.21302883429187464
0.20784892374143724 0.20321512929989044 0.1990510504657526 0.19512519012608265 0.19142986935025164 0.1880204136149407 0.1848340029632532 0.18200411286683796
0.17958522910917205 0.17728779567445957 0.1757811367064441 0.1749155247059941 0.1746722541489934 0.1761049906162112 0.17936034109035795 0.18532513211164836
0.19230203179489022 0.19775609773544162 0.3929954376065916 0.37981534507816117 0.36644990155250495 0.3532167229552549 0.3401933680050674 0.3275573037610121
0.3156036147630167 0.30452579809747593 0.2943615048952032 0.28515799649877527 0.27684565545001316 0.26931470723527473 0.26248786168686467 0.2562141704847211
0.2503546494387531 0.24470055427016982 0.23903073854403895 0.2332773398723775 0.2274337876074348 0.22161023718325437 0.21599088761167645 0.2106897240386821

Maxvals f8 [11]
00000000: 1e96 d780 0fab 2d40 5a10 e168 63e4 2c40
00000010: 03e6 65d8 879e 2c40 2495 ad7b 6f7c 2c40
00000020: 0acd 465b 8b51 2c40 ec9d 3047 5346 2c40
00000030: 8bc4 0519 2d1b 2c40 dac7 c4d3 f3fe 2b40
00000040: 3107 ba80 edd4 2b40 5fc6 b80c 3e9c 2b40
00000050: 8102 bfe0 2539 2b40
14.834102655712794 14.446070935701005 14.3096301674259 14.243038048686294 14.159266331093495 14.137354111370733 14.05307844348342 13.997954004069403
13.915874502857692 13.805160901599434 13.611617110554336
