Data/SIMBA/Model_snap15.npz (npz, 253994 bytes, 5 tensors)

x f8 [35]
11.0 11.1 11.2 11.299999999999999 11.399999999999999 11.499999999999998 11.599999999999998 11.699999999999998
11.799999999999997 11.899999999999997 11.999999999999996 12.099999999999996 12.199999999999996 12.299999999999995 12.399999999999995 12.499999999999995
12.599999999999994 12.699999999999994 12.799999999999994 12.899999999999993 12.999999999999993 13.099999999999993 13.199999999999992 13.299999999999992
13.399999999999991 13.499999999999991 13.59999999999999 13.69999999999999 13.79999999999999 13.89999999999999 13.99999999999999 14.099999999999989
14.199999999999989 14.299999999999988 14.399999999999988
00000000: 0000 0000 0000 2640 3333 3333 3333 2640
00000010: 6666 6666 6666 2640 9999 9999 9999 2640
00000020: cccc cccc cccc 2640 ffff ffff ffff 2640
00000030: 3233 3333 3333 2740 6566 6666 6666 2740
00000040: 9899 9999 9999 2740 cbcc cccc cccc 2740
00000050: feff ffff ffff 2740 3133 3333 3333 2840
00000060: 6466 6666 6666 2840 9799 9999 9999 2840
00000070: cacc cccc cccc 2840 fdff ffff ffff 2840
00000080: 3033 3333 3333 2940 6366 6666 6666 2940
00000090: 9699 9999 9999 2940 c9cc cccc cccc 2940
000000a0: fcff ffff ffff 2940 2f33 3333 3333 2a40
000000b0: 6266 6666 6666 2a40 9599 9999 9999 2a40
000000c0: c8cc cccc cccc 2a40 fbff ffff ffff 2a40
000000d0: 2e33 3333 3333 2b40 6166 6666 6666 2b40
000000e0: 9499 9999 9999 2b40 c7cc cccc cccc 2b40
000000f0: faff ffff ffff 2b40 2d33 3333 3333 2c40
00000100: 6066 6666 6666 2c40 9399 9999 9999 2c40
00000110: c6cc cccc cccc 2c40

intercept f8 [100, 35]
0.8524999241822129 0.9578882932533892 1.001251194826329 1.0261729538668254 1.0678594263383876 1.148551378131737 1.278707157070502 1.458100254113042
1.6773386740417573 1.9232848291703484 2.176371695462063 2.4155896541007893 2.6240029162270604 2.7900678294598915 2.9020699482436947 2.958588176666435
2.9591121027172615 2.8987878684687507 2.7938745192528027 2.632034273382635 2.4237687394422918 2.1829670422569682 1.938714300047423 1.698964373513933
1.4796331713637614 1.3272585171447018 1.246082261609177 1.2385206447140475 1.3217599394942627 1.5432962272478048 1.6835164477501596 2.008624307313676
2.0517320337308678 2.201295595454009 1.416054962624296 0.8470681292070847 0.9512321409005622 0.9933469798327577 1.0164533646060308 1.0580498064245096
1.139576165894144 1.2715392110107657 1.4545475943865358 1.6805654126746374 1.9339903549495632 2.193670642849009 2.4392248103927727 2.6486823230459207
2.8059078656319105 2.9026002944106253 2.9415440061075673 2.9231944256093376 2.8448601248509635 2.7287525332900184 2.5616678982334817 2.3546684019448465
2.124642288593436 1.9006061349625387 1.699631589605554 1.5159309893950073 1.4137450925491664 1.3696988267028123 1.3702663740524046 1.4307785917069489
1.6295424926789581 1.8025917710469432 2.1191848366474324 2.0927109799552928 2.3330690080050642 1.8310889477024017 0.8619183863127626 0.9650774946608238
1.0029502858943224 1.0205744119639404 1.0550276360052073 1.1307248442041375 1.2598882041499373 1.441486037030124 1.6644246748357792 1.9159675370319302
2.172524935142623 2.4157355053289735 2.6278165325323144 2.800085231481584 2.9213765765545787 2.9912275725354456 3.0058892440394738 2.960290135624467
2.8631511194456185 2.6986926949807883 2.4720734032918097 2.201265263074298 1.909030324752117 1.6449351202024947 1.4392681375757643 1.3609655558651301
1.414016532583417 1.56707690973211 1.848062094764256 2.2397048635884373 2.54815989458589 2.933158040428628 3.0310879861745534 3.3853556191087746
3.134788670427179 0.8325697475454032 0.9465786040074786 1.002665259759448 1.041216621383908 1.094890564641117 1.1834375011643798 1.315607120432502
1.4896224832979947 1.6968653293548552 1.9299671135421135 2.171639080938833 2.402341732193217 2.6058607484670318 2.770102346422124 2.88284592097558
2.935356322436706 2.930144219723166 2.8644827968019593 2.761720325986202 2.6022808400096444 2.3920337189240928 2.1404739780185515 1.8800960894417444
1.6144821700782468 1.3726810053860583 1.1942890719932373 1.1138285244428383 1.1074491178925365 1.2624168937661384 1.46455547423228 1.5719354148945575
1.749799697671929 1.7796108063030007 1.8883408734512686 1.227330766460012 0.8481658132427681 0.9525885745686978 0.9943090374448613 1.0171335187555204
1.0593574275235278 1.1414298199496709 1.2756545405489184 1.4605381236583668 1.6871903810996596 1.9412094366024517 2.2008907650954406 2.4426932505283445
2.6504988102406704 2.8130058865056053 2.914184966238171 2.955978978142099 2.9354822313163256 2.8483569023647846 2.7070111915704453 2.506687173131625
2.2525506907771806 1.9775250491640988 1.698852134157014 1.4442442316583022 1.2435510786864443 1.1268234958887051 1.0913151980926512 1.1345417560641338
1.2432705819471532 1.4183121009823898 1.4378192662180456 1.5935380268282624 1.3150429931379968 1.6369834423450178 1.653674000149235 0.8517543375303056
0.9572030536836651 1.0009756758748138 1.026816540213088 1.0719450501021288 1.1572179903458506 1.2924086355341151 1.4777872605179487 1.7037409637032903
1.9554487434349055 2.2116277657564045 2.4520811826313915 2.6568917205965716 2.81504265059635 2.9151765500974847 2.954182984303979 2.9380572220928127
2.857964217644714 2.737669228398495 2.5587150451744662 2.330961554067507 2.0804585372637083 1.8476254962323475 1.654219196374848 1.5029272240685052
1.4599452426365462 1.4656075143079113 1.5084924764339633 1.5334899599221454 1.5611651687961503 1.3857475269159147 1.3233684882888341 1.0918964527625996
1.259072011630995 0.7496514992463345 0.8610315250499633 0.9623148203431715 1.0000775960882045 1.0186344582560094 1.0556540502387273 1.1352917070403248
1.2695797369070925 1.457157978967655 1.6879411295075393 1.9457009508196677 2.20688273326122 2.446228812287404 2.6462931557228453 2.793926423778501
2.8816774564539007 2.9110483620824934 2.8914487901189996 2.816573609024613 2.708575151272802 2.553152858398392 2.36989282149837 2.182128797052656
2.0162059499328393 1.8794349415822276 1.7597483932913907 1.7178858533806616 1.6793030740650505 1.6496532034051643 1.6402548864817657 1.6780203662030049
1.579982947408002 1.7146061669569588 1.729670562114785 2.6268750609533873 2.3990328383650175 0.8522980199139151 0.9561457700637205 0.9957654198580088
1.0142395265580713 1.0490033544247546 1.125198565573264 1.2561011588548783 1.4398580141567168 1.665315948410278 1.9210807931625635 2.1806403822107585
00000000: 0c90 c6eb ad47 eb3f 78d3 9759 05a7 ee3f
00000010: 97c2 0df9 1f05 f03f 1c5d ce54 346b f03f
00000020: 4294 0dc4 f315 f13f e89f ed68 7760 f23f
00000030: 8b76 cca2 9575 f43f e146 9bee 6054 f73f
00000040: a434 d513 61d6 fa3f 9ddf 2250 c6c5 fe3f
00000050: d998 3f90 3569 0140 ca59 27ab 2053 0340
00000060: 4a6e ae3d f5fd 0440 2c37 0915 0f52 0640
00000070: e549 f372 7037 0740 b8ea 2847 30ab 0740
00000080: 8cf2 52f7 42ac 0740 2eeb a8b1 b730 0740
00000090: 4f8c 4ae2 da59 0640 4d09 31fc 670e 0540
000000a0: 39c6 67dd e063 0340 8eea b56c b776 0140
000000b0: 02dc 2f49 f904 ff3f c9fb 5444 f52e fb3f
000000c0: 8d58 11d5 93ac f73f 4c95 476d 733c f53f
000000d0: 4acb 1bf4 f3ef f33f 937b 0706 fbd0 f33f
000000e0: 1ba7 14c0 ed25 f53f b21c 8162 57b1 f83f
000000f0: 28d7 55f1 aeef fa3f 34e7 ee9e a911 0040
00000100: b73c 087c f269 0040 376e 7add 409c 0140
00000110: 29f5 9c3f 29a8 f63f e4b4 0d9f 2e1b eb3f
00000120: a64d 0263 7e70 ee3f 3ec9 fe9a 7fc9 ef3f
00000130: e745 6e9a 6443 f03f 4f1e 42a2 c5ed f03f
00000140: 0d10 bd37 b43b f23f 53f7 ed7f 3958 f43f
00000150: aed9 c5b2 d345 f73f f99e e38e 98e3 fa3f
00000160: da9a d4de 9ff1 fe3f b5da a931 a38c 0140
00000170: 80d4 214c 8883 0340 e6cd 975b 8030 0540
00000180: 64d3 b3d2 7f72 0640 30d4 ce80 8638 0740
00000190: 8ad0 4f39 4888 0740 9ebb 4ec2 b362 0740
000001a0: 576f 6f06 46c2 0640 bcdc 4a35 7cd4 0540
000001b0: c301 31bd 4b7e 0440 ba38 1a63 5cd6 0240
000001c0: c2a8 c974 44ff 0040 68db 83fa e168 fe3f
000001d0: 69ab c9e4 b031 fb3f 961c 67da 4041 f83f
000001e0: 0d11 962c b39e f63f 2fee 2051 49ea f53f
000001f0: 3ad1 f56e 9cec f53f 2a2c b317 78e4 f63f
00000200: a1f9 1726 9b12 fa3f 28f7 0a78 6ad7 fc3f
00000210: 7ba3 fc2d 17f4 0040 d11a 1741 dfbd 0040
00000220: 168b 8515 20aa 0240 922e a7ec 234c fd3f
00000230: e219 21de d594 eb3f 3490 b532 eae1 ee3f
00000240: 23e1 5699 150c f03f 1950 a8d5 4554 f03f
00000250: 034c 90a8 64e1 f03f 7c1a 2aef 7217 f23f
00000260: dd0a 9788 8028 f43f dff5 aaa9 5310 f73f
00000270: a233 91c4 7ba1 fa3f 38ff 7b93 cda7 fe3f
00000280: ea74 d1c0 5461 0140 4d64 f922 6d53 0340
00000290: 50ea 98ac c405 0540 d5ce f915 9366 0640
000002a0: a0d1 bcae fa5e 0740 3577 b7b8 08ee 0740
000002b0: b261 f4a8 0f0c 0840 8c6d 3998 acae 0740
000002c0: a132 2cc6 bbe7 0640 372c 1732 ec96 0540
000002d0: 1299 a36b cec6 0340 b1cc 55f6 309c 0140
000002e0: 231f be61 638b fe3f 15fc 147d a751 fa3f
000002f0: f800 d106 3e07 f73f 68c5 96d1 83c6 f53f
00000300: 7e2f b7cc cf9f f63f c7db d93c bf12 f93f
00000310: f2d5 1f8f a991 fd3f 936f 2e62 eaea 0140
00000320: 38cd a1a7 a162 0440 8c1f 0d90 1b77 0740
00000330: 7d58 df0e ab3f 0840 5637 ab53 3515 0b40
00000340: 34d9 1a15 0c14 0940 6416 ab4f 69a4 ea3f
00000350: 4ac6 6936 5f4a ee3f e808 38ba ea0a f03f
00000360: f753 8ec2 d2a8 f03f 3652 fdf7 ab84 f13f
00000370: 8cc6 4529 5cef f23f fb46 4a0d ba0c f53f
00000380: 4a6b 9262 7ed5 f73f d8b9 7442 5c26 fb3f
00000390: 664d 3032 25e1 fe3f 43c8 7a4f 845f 0140
000003a0: d6af 2cf1 fe37 0340 93c4 2485 cdd8 0440
000003b0: a7a5 436b 2b29 0640 18fa af85 1110 0740
000003c0: a5c7 7718 9c7b 0740 0c32 e273 ef70 0740
000003d0: 92c0 e1f4 75ea 0640 3c79 86d3 0018 0640
000003e0: 68ca f69d 78d1 0440 77aa 0d93 e222 0340
000003f0: c83a 2cd2 b01f 0140 27d6 17a3 df14 fe3f
00000400: fe60 8741 ebd4 f93f 8a93 9f5b 80f6 f53f
00000410: f7e5 a2db ce1b f33f c457 dddb 3dd2 f13f
00000420: e451 f590 1cb8 f13f a84b 8a0e dc32 f43f
00000430: 2c16 90b8 d16e f73f 4f57 e6bf a526 f93f
00000440: 72d3 c0f7 2dff fb3f 8edf 4a2e 4979 fc3f
00000450: bac5 72eb a436 fe3f 3720 f595 25a3 f33f
00000460: 58d0 aea1 2c24 eb3f 271b ca08 9b7b ee3f
00000470: 642c be2f 61d1 ef3f 9b86 ebcb 2d46 f03f
00000480: d7cf 1fc6 20f3 f03f dece 35ea 4b43 f23f
00000490: 966c 4abc 1469 f43f 40c8 3a39 5d5e f73f
000004a0: 582e 4f57 bbfe fa3f 4c4e 4ea0 310f ff3f
000004b0: 083a 119e 6c9b 0140 f36e 49c2 a28a 0340
000004c0: 9190 60b8 3834 0540 fcf9 ef3a 0981 0640
000004d0: 08e7 2335 4050 0740 4045 764e d8a5 0740
000004e0: 1af1 ab1b de7b 0740 e0f0 f757 6fc9 0640
000004f0: c29b cd7b f5a7 0540 6239 2f01 b20d 0440
00000500: f8c2 eb4b 3905 0240 b9e3 524e f1a3 ff3f
00000510: 5c1b 4f93 7f2e fb3f 7e8b e6d6 9f1b f73f
00000520: 21d2 ddd0 95e5 f33f 544d f312 7807 f23f
00000530: 9ff8 d6ec 0676 f13f adde a341 1527 f23f
00000540: abab 98b1 6fe4 f33f bcd8 9307 68b1 f63f
00000550: 8e71 5fc6 4e01 f73f 5e8e e2ba 217f f93f
00000560: 50c9 8585 6a0a f53f 1672 cf8c 1531 fa3f
00000570: f42e 4ede 7275 fa3f e066 fd4f 9241 eb3f
00000580: 4e7c 664c 68a1 ee3f c694 ff11 ff03 f03f
00000590: 3550 332e d76d f03f 7bc3 54da af26 f13f
000005a0: 670d ee02 f783 f23f fcfd 6aad b4ad f43f
000005b0: 9ceb 2541 04a5 f73f e460 7fe2 8542 fb3f
000005c0: 59ea 209f 8449 ff3f 61cb e6e5 69b1 0140
000005d0: 864f 34bd dc9d 0340 b6cd 4772 5041 0540
000005e0: 7840 c914 3585 0640 e0e0 4515 4852 0740
000005f0: d6e1 3fb0 2aa2 0740 6952 1525 2481 0740
00000600: d160 ff57 1cdd 0640 90e5 d91f bfe6 0540
00000610: c075 f697 3f78 0440 50a0 d72b cfa5 0240
00000620: 5eda 1172 c7a4 0040 e42d 99c0 df8f fd3f
00000630: a786 4d8c ae77 fa3f d646 ba6a fd0b f83f
00000640: 2e32 f18a ef5b f73f dc96 6bdd 2073 f73f
00000650: 1abc c801 c922 f83f 6bc2 a9c4 2c89 f83f
00000660: fc23 fa53 88fa f83f 24de 4999 052c f63f
00000670: ba1e 9c6f 842c f53f 8abd 336a 6878 f13f
00000680: 9239 94b1 2825 f43f cb21 1524 25fd e73f
00000690: 6144 1dfc 918d eb3f aa8f 3a73 48cb ee3f
000006a0: 0394 8a5d 5100 f03f 9f9c 4ca5 534c f03f
000006b0: f7a4 5a80 f5e3 f03f 0588 12a3 272a f23f
000006c0: 4ae2 9ad7 3250 f43f 3458 8ce2 8450 f73f
000006d0: 50ee cc8e ce01 fb3f b310 f951 9721 ff3f
000006e0: 56b6 6b22 b2a7 0140 6675 5a69 e091 0340
000006f0: 82aa fbbe 9b2b 0540 a078 cc18 f659 0640
00000700: 41b8 08e9 ac0d 0740 d9bf 41b9 d349 0740
00000710: 7ff5 3ce7 af21 0740 9a4c 8cbe 5788 0640
00000720: accc eb72 29ab 0540 8114 e467 db6c 0440
00000730: a4e2 1a5e 8af5 0240 0102 58f1 ff74 0140
00000740: 80b2 c795 3021 0040 aae2 905f 2a12 fe3f
00000750: 4800 66ee ed27 fc3f f27e 68e0 757c fb3f
00000760: 12e8 72e6 6cde fa3f 7bde e5c1 fa64 fa3f
00000770: abb1 68e8 7b3e fa3f 54d2 2de2 2bd9 fa3f
00000780: 50ae f532 9c47 f93f d299 49e0 066f fb3f
00000790: e630 120a bbac fb3f 4ec8 6b12 d703 0540
000007a0: 6276 f620 3831 0340 ef39 3f7f 0646 eb3f
000007b0: bf3c 9403 bf98 ee3f 34e4 1871 4fdd ef3f
000007c0: fe09 ce39 533a f03f bd60 cabd b7c8 f03f
000007d0: e04a 0a36 d000 f23f 8efd 5b87 fd18 f43f
000007e0: 54fc 9a8e a809 f73f b0de fe55 22a5 fa3f
000007f0: 12b6 b936 bfbc fe3f 0a75 af95 f371 0140

slopes f8 [100, 35, 7]
0.01659059924267948 0.23714878552793084 1.1099571999699374 -0.020847637720834963 -0.0011427080911750424 -0.049029288553253614 -0.008481109305099724 0.008302486325323969
0.26731740603593646 1.1165681227751636 -0.02356957559602818 -0.0007675402044799925 -0.06679601260018575 -0.008299192931282662 0.005440618728437841 0.2922639679639011
1.1168287678580575 -0.02481172702461254 -0.0006241512828719306 -0.08635083397470611 -0.008392316585903715 0.003937065302389097 0.31151151583674763 1.108642702183702
-0.024402187630517103 -0.0006951604645389353 -0.1064902289220589 -0.008682863079404184 0.0006229371016488121 0.32519759952569594 1.0909130211945683 -0.022356033879139703
-0.0008856751379754252 -0.1260033055839481 -0.009191853330995939 -0.006395336418998525 0.3342202661598994 1.0636314713242039 -0.018719557835412126 -0.0011469003677101047
-0.1435941285340701 -0.010009478978118616 -0.017927348797993334 0.3393353382493284 1.0274896827073787 -0.013573174847758496 -0.0013742591162235474 -0.15819852779525678
-0.01136603804682465 -0.033824276775868176 0.341561300873811 0.9834521032889882 -0.006913450078289252 -0.0015982153614927247 -0.16881610809276837 -0.013495816197113882
-0.05316610007885886 0.3415364785026087 0.9328123219989125 0.0012880396931333193 -0.0020016786133529862 -0.17470144780555383 -0.016459725621476413 -0.07473657730048222
0.33975213267561355 0.8775084126208732 0.0108446816029865 -0.0028047229742568652 -0.17559404743068935 -0.02052539985224394 -0.09681680766623794 0.33655274911938454
0.8187387976330102 0.021629635580890386 -0.004229095998017619 -0.17164908228809228 -0.02565134416917277 -0.11761197209996417 0.332047962017341 0.7583041035134718
0.03313071089420197 -0.006575292991889279 -0.16327603054391865 -0.03198734890391742 -0.1357033102552589 0.32653445247726665 0.6977001363300278 0.04474400860885647
-0.009922365220572871 -0.1510486967019712 -0.039551572443853045 -0.1501469354937184 0.32045805829262825 0.6383450822651417 0.05570495210489093 -0.014128496800501746
-0.1355320618213742 -0.0480859449570058 -0.16001480848115443 0.3142152787116932 0.5812237451930077 0.06545698629123387 -0.019077883448091894 -0.11752723218239497
-0.057372778714649686 -0.16522345275447473 0.3086490833222222 0.5272184204578795 0.07333768707767921 -0.024343010143810247 -0.09795979899847526 -0.06647411149562157
-0.1658112130921692 0.30333870523007894 0.4771125488482405 0.07935381099221744 -0.02968507883357415 -0.0773343954489252 -0.07480018882493437 -0.16148489337900837
0.2977171549938679 0.4302874118704044 0.08349139966236407 -0.03470951527693564 -0.05608228145539315 -0.08190295085990051 -0.15365118973979386 0.29054602248405226
0.3862816635038674 0.08588848627485207 -0.039275949284184916 -0.035116587420939885 -0.08736508931910428 -0.14142590202364164 0.28060003055183796 0.34599566189487485
0.08688677551971452 -0.04312703503537578 -0.01471526058950911 -0.09143131841258167 -0.12567177707855673 0.26799187336881275 0.31286338038602973 0.08665950989717747
-0.0464789231603325 0.004160341965425451 -0.0949294693258422 -0.1074847315561714 0.25423392071385137 0.28502255969777335 0.08511947118214679 -0.049527653054709506
0.020734327342903397 -0.099244483145429 -0.08900323092085012 0.2433480553274694 0.26541612481448695 0.08249905809621569 -0.05250606853788786 0.03519369339539975
-0.10653381508690835 -0.07078395311186554 0.2381266280676071 0.2505954693796404 0.07903909079756233 -0.056015056957972265 0.04796856171038585 -0.11711290558497656
-0.05398581833611766 0.2406822164295787 0.2408038418282781 0.07559977342507487 -0.06012951272716745 0.058931947312981535 -0.13079855049671024 -0.04204878026813832
0.2540077655999899 0.23248361898462305 0.07309448567369592 -0.06503192959382142 0.0665676588651142 -0.14780932280235065 -0.035297298072433744 0.2762233776137777
0.2261397263546782 0.07270633388149629 -0.07019491042726239 0.07055785238428469 -0.16671918223480242 -0.034010424520517196 0.3033373987601616 0.2147768572033901
0.07635896060669728 -0.07629647158712952 0.06821501095090048 -0.18756989671621277 -0.03939245723400384 0.3359178340008989 0.19618818753318137 0.08390782435531705
-0.08462965495869029 0.060530329065579924 -0.21093268636678686 -0.05496313501665751 0.36958774296268815 0.17365105389089103 0.09618404898974854 -0.09080982910943997
0.04108047680184865 -0.23364337861269188 -0.06485803776140858 0.3936753345560168 0.13639849590211728 0.11359751116578301 -0.09732296944147995 0.013644008870506916
-0.25765895771668634 -0.08794477368523936 0.4281528566343154 0.08685812177899163 0.13498151727423563 -0.10605594356359249 -0.019512163539176196 -0.2821626747255519
-0.0908625107223945 0.4422004479810302 0.06981806237698962 0.15682822756627757 -0.11476392403839158 -0.07519448941904748 -0.31211946485581393 -0.10045965207420028
0.48682722110198484 0.04207780243143021 0.1763401895519091 -0.12225776926169152 -0.12456857827910932 -0.33639413786575373 -0.044168727340192795 0.4730654687864546
0.07941873796443892 0.19994036541150156 -0.1258726246909265 -0.19629489021277974 -0.4053775722391273 0.017157510483659325 0.23792584295038216 1.113123145061433
-0.021238278367292827 -0.00047946165410206557 -0.044873812622166165 -0.008968942276524772 0.008985397468272675 0.2682312564044432 1.1195885061309108 -0.023954801224053086
00000000: 2364 ac44 20fd 903f 5875 1033 e45a ce3f
00000010: 314a 1d7b 62c2 f13f dce0 d648 1559 95bf
00000020: b0a4 5978 ddb8 52bf 30c6 c3ed 5d1a a9bf
00000030: c82b cb38 8b5e 81bf d528 f1d9 e400 813f
00000040: 8cdb 2477 ba1b d13f 0135 3189 76dd f13f
00000050: 5050 7671 9f22 98bf c03f ce09 9826 49bf
00000060: f8f9 9e21 8b19 b1bf 3ad0 c8d1 2aff 80bf
00000070: 9a69 23f8 e648 763f be10 0dee 73b4 d23f
00000080: d6ea 92d7 87de f13f e00f 83d0 3e68 99bf
00000090: c026 81ac c273 44bf 2058 e797 161b b6bf
000000a0: 9a6d 31aa fd2f 81bf d9a4 74eb 4f20 703f
000000b0: 6c28 36ff cdef d33f c43f 4d21 00bd f13f
000000c0: 70b3 4b17 e3fc 98bf 0022 f7ba 6dc7 46bf
000000d0: f454 9092 f142 bbbf dc88 b127 52c8 81bf
000000e0: c766 513d 9369 443f 20d6 ac97 09d0 d43f
000000f0: c8fa 4c36 6174 f13f f045 8409 80e4 96bf
00000100: 806b 51e0 9405 4dbf bbe1 5556 e020 c0bf
00000110: c8ee 91ab 2dd3 82bf b8a6 430c ff31 7abf
00000120: bc4c 3466 dd63 d53f 5157 056f a204 f13f
00000130: a071 cb42 382b 93bf 40a9 8ce4 72ca 52bf
00000140: 2ac9 f9da 4a61 c2bf e85d e386 d97f 84bf
00000150: ec5b 2a03 8c5b 92bf 121c 0a91 abb7 d53f
00000160: 2c4a 8305 9970 f03f e093 97b0 40cc 8bbf
00000170: 805b 777d 0f84 56bf fcf6 936f d93f c4bf
00000180: 30d3 91cd 1347 87bf 8e5c 2065 6a51 a1bf
00000190: 5443 35ee 23dc d53f 34e0 998b 7078 ef3f
000001a0: 000c d21f 4751 7cbf c0b1 69ad 662f 5abf
000001b0: c8f1 a527 c49b c5bf 646f 98c9 b1a3 8bbf
000001c0: 686a 304a 9638 abbf 50d2 63d1 bbdb d53f
000001d0: 1b51 093a 99d9 ed3f 80c6 e816 6e1a 553f
000001e0: 0078 ce05 d365 60bf 13c1 71f6 9d5c c6bf
000001f0: 7243 fb7c d1da 90bf 600f 52b3 ef21 b3bf
00000200: 02a2 a5ba 7fbe d53f 207d c585 8c14 ec3f
00000210: d618 9086 bc35 863f 6059 5c2e eef9 66bf
00000220: 8e25 8ba1 dd79 c6bf 0f2d 6944 9c04 95bf
00000230: 632e a17e fcc8 b8bf 812f b68a 148a d53f
00000240: c19a f9b4 1b33 ea3f 64fc c645 1426 963f
00000250: 34d2 0c50 8752 71bf 206b 68dd 98f8 c5bf
00000260: b55b 3891 5844 9abf bd93 c975 d11b bebf
00000270: f658 6418 4640 d53f 2b6a a0f7 0644 e83f
00000280: f451 912f 82f6 a03f 64dc c9c5 b1ee 7abf
00000290: ee12 b49d 3ae6 c4bf 912b db52 a560 a0bf
000002a0: f6ac c0df b95e c1bf 5c0e 9ac2 f0e5 d43f
000002b0: 8378 7e3c 8f53 e63f 887e 55cb afe8 a63f
000002c0: fa7a f850 2d52 84bf 251d 384e 9055 c3bf
000002d0: b8ae 4d8c 1a40 a4bf 6123 c5c8 0338 c3bf
000002e0: e5d0 0684 6282 d43f d284 7caa 526d e43f
000002f0: c410 0807 5c85 ac3f 742e 99bd 66ef 8cbf
00000300: 3f87 8a56 1d59 c1bf 30a6 f991 b89e a8bf
00000310: 83b0 a680 5d7b c4bf 8818 7e66 1a1c d43f
00000320: 4367 288a 6299 e23f c862 6aff c9c1 b03f
00000330: 1a21 f215 2789 93bf 7cdf 9cc2 4316 bebf
00000340: 4827 8500 f75f adbf f96b 0ec7 0a26 c5bf
00000350: f4cb b315 e8c0 d33f 4fe4 362a f9de e03f
00000360: 221b 9037 42c6 b23f 02c1 d0c1 5fed 98bf
00000370: 5e6c 05b5 e413 b9bf a283 e786 7204 b1bf
00000380: f93d c544 4d39 c5bf 41bf a4be e669 d33f
00000390: 0e1f 7412 0389 de3f 3448 0607 8850 b43f
000003a0: 16d9 13eb c365 9ebf e21e 4fdb 2fcc b3bf
000003b0: 13db bcec 1a26 b3bf 9331 ee77 89ab c4bf
000003c0: 6f09 0a41 cc0d d33f a249 7736 d489 db3f
000003d0: 0010 0c3f b15f b53f 3ceb f211 72c5 a1bf
000003e0: 7cd2 7819 d1b6 acbf 80a0 637f 97f7 b4bf
000003f0: 8842 7699 d7aa c3bf 1652 2358 4e98 d23f
00000400: 22ca f2b9 d6b8 d83f 7c47 a7af c9fc b53f
00000410: b6cd 632b fa1b a4bf 8a45 0a25 cdfa a1bf
00000420: 420b 70f9 8e5d b6bf 06da ff73 3e1a c2bf
00000430: fd82 9ed4 59f5 d13f fa5d 19fd ca24 d63f
00000440: a4e3 4f33 363e b63f 16cc 192a bf14 a6bf
00000450: 7d5a dfd7 0823 8ebf 0086 69fa 0a68 b7bf
00000460: c192 4a46 0316 c0bf e99e ed62 c726 d13f
00000470: b5ef b720 f405 d43f e450 e550 512f b63f
00000480: ec95 dadd 15cc a7bf e627 e84a 6f0a 713f
00000490: 5e5e 2e36 4c4d b8bf 7564 da8e 1e84 bbbf
000004a0: 85fd bf59 5e45 d03f 948b 2143 cf3d d23f
000004b0: 1fea fac0 63ca b53f 9e37 3c44 b05b a9bf
000004c0: 688b 5e27 613b 953f b804 6b21 1668 b9bf
000004d0: 6d1b 0b6e eac8 b6bf 709d 9671 0726 cf3f
000004e0: 9231 fae9 93fc d03f 5e5b 7984 a81e b53f
000004f0: 306c 6c4e 13e2 aabf 3a40 5164 e804 a23f
00000500: dc64 b7d3 cc45 bbbf 8572 b2ab e51e b2bf
00000510: 60b6 edef ee7a ce3f 8cb9 6094 c109 d03f
00000520: 48c3 14e6 e73b b43f a0a6 6f6b 01ae acbf
00000530: 0b85 90d7 558f a83f 8850 6d83 1cfb bdbf
00000540: d920 6778 07a4 abbf 5e9c 25c4 acce ce3f
00000550: 89a9 b308 a9d2 ce3f d219 72ba 815a b33f
00000560: 1a0d 60a5 4bc9 aebf 2b36 cc04 542c ae3f
00000570: 8ab0 5fc4 01be c0bf 733b 2df0 6a87 a5bf
00000580: bba5 8bc9 a941 d03f e684 32f2 05c2 cd3f
00000590: f088 7cf9 51b6 b23f e81d cdba eea5 b0bf
000005a0: ea04 ccfd 930a b13f be70 bd77 6aeb c2bf
000005b0: be6e b7c9 7c12 a2bf 347a 4fd1 a4ad d13f
000005c0: 9586 8284 25f2 cc3f 59ab 3bde e19c b23f
000005d0: 4478 a12c 4bf8 b1bf 706c 7754 1410 b23f
000005e0: 503c a8dd 0d57 c5bf 34d0 137a d069 a1bf
000005f0: dd07 d543 e169 d33f 0f28 d0dc ce7d cb3f
00000600: 04f4 8fc6 428c b33f 8254 4462 2a88 b3bf
00000610: db61 21f9 8976 b13f 121c 0e56 4a02 c8bf
00000620: 7de9 0e87 3f2b a4bf 4254 cb83 ad7f d53f
00000630: 0584 a8cc b11c c93f ae0e 7cb1 fb7a b53f
00000640: 34c0 5100 4aaa b5bf e86c 81cf d4fd ae3f
00000650: b827 cd9e d7ff cabf a1ac c3c6 2024 acbf
00000660: a4bd 4159 53a7 d73f b64b b09e 323a c63f
00000670: 11ce ce90 849f b83f 442e 2e1e 503f b7bf
00000680: fc6d bc10 8008 a53f 37c3 08b7 06e8 cdbf
00000690: 5467 114f 899a b0bf a23c ca07 fa31 d93f
000006a0: 7cc4 8f83 8175 c13f 4231 5dfb b914 bd3f
000006b0: 7498 e67a 28ea b8bf 58cf 14df 63f1 8b3f
000006c0: 0c89 3aff 7b7d d0bf a90c d576 8c83 b6bf
000006d0: 31bc 3b3d db66 db3f fec8 6e78 553c b63f
000006e0: 3eef 2009 1347 c13f d8ec 2679 7b26 bbbf
000006f0: 8690 1921 fffa 93bf c847 0609 f40e d2bf
00000700: b931 fcf7 c342 b7bf 88b9 961b 034d dc3f
00000710: 484a 94b6 98df b13f b84f 3e86 f212 c43f
00000720: c469 8124 2b61 bdbf 0fec e430 f23f b3bf
00000730: 290c 80eb c3f9 d3bf 21ea 3948 b9b7 b9bf
00000740: a4e0 5b5c 2d28 df3f ce3c a9c2 388b a53f
00000750: 2446 8cb9 5092 c63f 602f a900 494c bfbf
00000760: d367 d1f1 b9e3 bfbf 0fc5 2c47 7b87 d5bf
00000770: 2a38 dd8e 489d a6bf b880 5363 b446 de3f
00000780: 2332 3f52 c954 b43f 3add 4b59 a597 c93f
00000790: d72d 411b 981c c0bf 7afb eae2 3020 c9bf
000007a0: a821 d3c5 b4f1 d9bf 61e3 a109 bd91 913f
000007b0: 022d 2ca1 5a74 ce3f 305a 0737 5acf f13f
000007c0: b620 0bbc 7cbf 95bf 1108 c21f 086c 3fbf
000007d0: 206d 514b b3f9 a6bf 3a20 0f0e 4f5e 82bf
000007e0: 4f70 24a2 ef66 823f a969 816e b32a d13f
000007f0: c4f4 2ca3 d5e9 f13f f2a2 5b7f 9b87 98bf

scatter f8 [100, 35]
0.2684262618234369 0.26651062011653204 0.2638552402466178 0.2603102949409778 0.25596974201577344 0.2510524639459967 0.2458443428291136 0.24060840183161517
0.23557826032743698 0.2309285088246418 0.2267528176416639 0.22310046050697213 0.21991856623407874 0.21713264056110687 0.2145768315298905 0.21210101119697214
0.20958177107540954 0.20695362681017138 0.20421089933567352 0.2012776236143861 0.19819759135514814 0.19497131604780196 0.19157216465776183 0.1880265771466299
0.18444364083698614 0.18075371852673078 0.17712972984578618 0.17397174903838153 0.17111243711693902 0.16849352266714696 0.16650287110954004 0.1636927891818801
0.16031734529971095 0.154560598964397 0.14621405464301618 0.26868912008319434 0.26676801122379606 0.26405141126866166 0.2603763209361361 0.2558325876850161
0.25065379448227715 0.24515552447799752 0.23965460513140963 0.23441956126856298 0.22967448789162043 0.22551039345519436 0.2219653202059845 0.21898158434333695
0.21646907456781325 0.21419990469154115 0.21193339206934705 0.20954246274097615 0.20682592776875053 0.20379246069921964 0.2004280005908577 0.1967808027997058
0.19310348641845662 0.18952417506441963 0.18604859938992857 0.18294935497690806 0.18017628681095302 0.17776975827849786 0.17552994231795074 0.17336121934256857
0.17055711985051436 0.16743300984198095 0.16271007801466694 0.1568701972609116 0.14621241370397525 0.13599958332166287 0.268300851683134 0.2663304282050728
0.2636079733609302 0.25998797981674143 0.2555652933781565 0.25056766956323573 0.24529953802115895 0.2400530806394994 0.23505901556553196 0.23049961406837277
0.22644025930721848 0.2229126681970559 0.21982973319259771 0.21709109826119682 0.2145368025878363 0.21201711768232157 0.20948912577576334 0.20691192818759876
0.20428121982687025 0.20149976953910104 0.19853823276575266 0.19515979034130185 0.1914081715993962 0.1871938575405267 0.18273752909756874 0.17826324689041617
0.1740245381437713 0.1707630530776275 0.16800340673184205 0.16545494413906578 0.16412251265267172 0.16254978754439198 0.16092583172247887 0.15634872972709374
0.14812987517479934 0.26870261177257 0.26674503597648525 0.2640245661939336 0.26040928019421256 0.2559886056035788 0.2509878636409885 0.24569958355033641
0.24040125003652696 0.23536835883402346 0.2307503737284842 0.22662569539117203 0.22301387029738381 0.21981507960911734 0.2169259614554928 0.21416115581719714
0.2114772097546959 0.2087066082299055 0.20579929977896982 0.20282943181134805 0.1996402212539121 0.1963386018659029 0.19282251160619296 0.18909523123957137
0.1851195792057677 0.18087064546194537 0.17663011272806772 0.17248010177109063 0.16894947946056965 0.16547622661783412 0.1620441388985403 0.15879380505098628
0.15437153368466602 0.1496400025742045 0.14317581887220435 0.1336177391356314 0.2684291461583718 0.266591325285364 0.26401423765393994 0.26052829977259845
0.25621926171997955 0.25130700067401823 0.24609221041942794 0.24084250252762562 0.2357974916718404 0.2311585733852323 0.2269530852794037 0.22326192538383582
0.21999987816157485 0.21711118566035761 0.2144146762494385 0.2117849466874142 0.2090831136332871 0.20622416927444576 0.20327966885928436 0.20014725374822512
0.1969952476634612 0.1938597471970831 0.19065436570322578 0.18746631642920114 0.18435357025528346 0.18093518200013572 0.17694346094206662 0.17260778692847586
0.1670919768713242 0.16046493571779258 0.15250649700396532 0.14361242657000856 0.13401351098639125 0.12245117625048905 0.11014768535364584 0.26849809100800986
0.2666203237866488 0.2639876883702219 0.260437384289738 0.2560903463069971 0.2511626415029928 0.24596715632424504 0.24076215112092286 0.23576251869230697
0.23114994565192384 0.2270032174370189 0.22337566973287043 0.22019303704848828 0.21730673210818163 0.21458310329901706 0.21176672346504433 0.20878860548454367
0.20559559701122668 0.20226565994466503 0.19868459068868924 0.1950293328069242 0.1914471066778771 0.18790387192473876 0.18459053585564353 0.1816513428976977
0.1790065774361087 0.17695833118010798 0.17559534607308544 0.17433124710283224 0.17296596140639028 0.17195497396637738 0.16960870080387203 0.16665977145056773
0.16021773946737428 0.1509612619651865 0.2683374533556816 0.266411336579808 0.2637746794019696 0.26030009988706454 0.2560791069872121 0.2513190273703378
0.24629707806262296 0.24122212148323666 0.23629798928130444 0.23168009162233183 0.227504011943321 0.2238525253743026 0.22070311834888254 0.21798645205236453
0.21551469483723965 0.2130202101338041 0.2103330668551158 0.20740116554767185 0.20429923491941993 0.20110318880392763 0.19797270187433907 0.1951152683450985
0.19249085912643882 0.19011655569283428 0.1880013786812706 0.18595715742698393 0.18380654161632545 0.18179444075561485 0.17923408131753174 0.17591181874324055
0.17187463708099182 0.16519059616529544 0.15680540177868535 0.14374828032935036 0.13205519544425665 0.26897409655281956 0.2671187680426068 0.26450085096276543
0.26094592059702765 0.2565536307728777 0.2515550807201163 0.2462362273313451 0.24088102006027048 0.2357215777776477 0.23095898701857498 0.22668500413526207
00000000: 16d4 fa57 e52d d13f d6fa 5b8f 820e d13f
00000010: 5232 ef16 01e3 d03f ee59 e582 eca8 d03f
00000020: 9d4a aee9 ce61 d03f 0e9c 8e5a 3e11 d03f
00000030: a4c7 2dd2 d377 cf3f 053b 8190 41cc ce3f
00000040: 17a1 e0ad 6d27 ce3f 49d5 8ebc 108f cd3f
00000050: 7dfd 0580 3c06 cd3f 4ecc cc4e 8e8e cc3f
00000060: 1619 e1a4 4a26 cc3f 6652 0d9b 00cb cb3f
00000070: 2439 f3ec 4077 cb3f 290f 453d 2026 cb3f
00000080: 78a6 4d52 93d3 ca3f 6419 78d9 747d ca3f
00000090: 6915 112f 9523 ca3f c191 6b15 77c3 c93f
000000a0: 3817 82e6 895e c93f 81ac 0af1 d1f4 c83f
000000b0: bcb6 03cb 6f85 c83f 02d2 cf3f 4111 c83f
000000c0: a3cd ac66 d99b c73f 02f2 d916 f022 c73f
000000d0: ba21 6bde 2fac c63f 441d 46ce b444 c63f
000000e0: 0095 ad28 03e7 c53f cabb b81c 3291 c53f
000000f0: 9283 0d51 f74f c53f 0348 10a4 e2f3 c43f
00000100: 2b9b 855d 4785 c43f 58b0 e646 a4c8 c33f
00000110: c822 7463 24b7 c23f f217 e3d9 3332 d13f
00000120: 81cf f422 ba12 d13f 9923 f7e3 37e6 d03f
00000130: 4db4 c471 01aa d03f b1ec 56a5 8f5f d03f
00000140: 21dc 7a36 b60a d03f 818a 0898 4161 cf3f
00000150: 7e06 b089 00ad ce3f 7b77 98ce 7501 ce3f
00000160: da2a 1c3f f965 cd3f da29 664a 86dd cc3f
00000170: 65c0 900f 5c69 cc3f a927 97ab 9607 cc3f
00000180: 3f9c ee35 42b5 cb3f 246e ba08 e76a cb3f
00000190: e520 ef25 a220 cb3f e242 4c94 49d2 ca3f
000001a0: 70a6 dda1 4579 ca3f 10f0 ef10 df15 ca3f
000001b0: 82c5 deed 9fa7 c93f b1af 4004 1d30 c93f
000001c0: c796 7473 9db7 c83f e7fd d902 5442 c83f
000001d0: 2855 ecc4 70d0 c73f 5e9d 396c e26a c73f
000001e0: bd12 af3d 0410 c73f 9111 03d1 28c1 c63f
000001f0: fdb7 dce0 c377 c63f 354a bc4f b330 c63f
00000200: 0cd0 edd1 d0d4 c53f 5065 c5e2 716e c53f
00000210: b3bb e60f afd3 c43f 8df1 7997 5214 c43f
00000220: 9e5b 909f 16b7 c23f fd6d 5131 6f68 c13f
00000230: d4f3 dd55 d72b d13f 7a82 c4c7 8e0b d13f
00000240: c433 23fa f3de d03f f39f aa9f a4a3 d03f
00000250: 2451 4388 2e5b d03f c860 8dfa 4c09 d03f
00000260: 322c c3aa f965 cf3f 294a 5331 0fba ce3f
00000270: ebf0 3df0 6916 ce3f 3607 15e8 0281 cd3f
00000280: 1d73 1c92 fefb cc3f 409e e2fd 6688 cc3f
00000290: 1514 6075 6123 cc3f 8e6c a41f a4c9 cb3f
000002a0: ea9a 7323 f175 cb3f f0a1 517d 6023 cb3f
000002b0: 568a 0928 8ad0 ca3f a5e8 5b0e 177c ca3f
000002c0: 5af4 2b13 e325 ca3f 8236 2994 beca c93f
000002d0: 8405 5e68 b369 c93f 394b 81fa fefa c83f
000002e0: a570 9a1e 1080 c83f ce06 13e4 f7f5 c73f
000002f0: 7eea 9c7f f163 c73f e88e bc7f 54d1 c63f
00000300: 59b6 03a2 6f46 c63f dcb0 2a50 90db c53f
00000310: 0ed2 c3b8 2281 c53f 37f7 04ab a02d c53f
00000320: 8fb6 306c f701 c53f e8c9 bc72 6ece c43f
00000330: d831 2ab8 3799 c43f 2e79 7934 3c03 c43f
00000340: 83d9 b774 ebf5 c23f 256e 7a70 6c32 d13f
00000350: 12eb 78c5 5912 d13f a12f 494b c7e5 d03f
00000360: 2b94 80af 8baa d03f 29d3 4d08 1e62 d03f
00000370: 23fb 8166 2f10 d03f 69a8 fe7d 1573 cf3f
00000380: 0286 69d9 77c5 ce3f 0a48 dae5 8c20 ce3f
00000390: 2110 5a6e 3a89 cd3f 2fb5 111f 1202 cd3f
000003a0: afa6 bdef b78b cc3f a65d 0b89 e622 cc3f
000003b0: c066 0ddb 3ac4 cb3f 5e7a 27fc a169 cb3f
000003c0: c574 df69 af11 cb3f 543c 67ec e5b6 ca3f
000003d0: 6c91 0ba7 a157 ca3f 64e3 2598 50f6 c93f
000003e0: 8f39 a08e cf8d c93f e46b fa90 9f21 c93f
000003f0: aefd a376 68ae c83f 3b73 00c5 4534 c83f
00000400: f3de 4495 ffb1 c73f 3261 88f1 c426 c73f
00000410: b4f2 d3c6 d09b c63f a8a6 28f6 d313 c63f
00000420: a6cc 7af4 22a0 c53f 0c67 cb32 532e c53f
00000430: 78f2 89c2 dcbd c43f 682d c0fb 5a53 c43f
00000440: cff3 4d48 72c2 c33f 5c62 9d52 6727 c33f
00000450: 692b d1d1 9553 c23f 2e62 e0d5 621a c13f
00000460: 3fc7 0271 f12d d13f 30de df0f d50f d13f
00000470: 16bb 19f9 9be5 d03f bd2b cde3 7eac d03f
00000480: 2e53 6c79 e565 d03f 06a6 49f5 6915 d03f
00000490: 2ba1 c615 f37f cf3f c4e5 eb57 edd3 ce3f
000004a0: 30cd 9ab9 9c2e ce3f 5d96 70a8 9a96 cd3f
000004b0: d72b 8077 cc0c cd3f b497 fbc5 d893 cc3f
000004c0: 38fa e9bc f428 cc3f 09e6 00a1 4cca cb3f
000004d0: c60a 23ab f071 cb3f b85d e7e5 c41b cb3f
000004e0: 77b4 9947 3cc3 ca3f 80d9 56b7 8d65 ca3f
000004f0: 779e d874 1105 ca3f b6cd 9dda 6c9e c93f
00000500: 534b 17e9 2337 c93f 5074 1c6d 65d0 c83f
00000510: 2f7a c4bc 5c67 c83f ee1e 1571 e5fe c73f
00000520: 19da 92d5 e598 c73f 4175 b150 e228 c73f
00000530: 895d fe54 15a6 c63f 4f45 f20f 0318 c63f
00000540: ba0c 0b18 4563 c53f 4a05 8871 1d8a c43f
00000550: 6f9f 8738 5585 c33f fa6c b559 e461 c23f
00000560: dc4f 74cf 5a27 c13f d742 5ad5 f558 bf3f
00000570: 21f2 5282 a332 bc3f cbbd fa9d 122f d13f
00000580: a234 c7b0 4e10 d13f 0831 069e 2ce5 d03f
00000590: 8b88 0b90 01ab d03f 766e 8dc3 c863 d03f
000005a0: 6fde ce78 0c13 d03f 94c0 260e da7b cf3f
000005b0: 9ae8 964e 4bd1 ce3f 5af9 b359 772d ce3f
000005c0: 550a 8648 5296 cd3f 7048 7d01 710e cd3f
000005d0: 72c5 1cee 9297 cc3f ed0f 7712 492f cc3f
000005e0: 9879 cdfd b4d0 cb3f 8fc3 7889 7577 cb3f
000005f0: a4eb d407 2c1b cb3f 23b2 2ac4 95b9 ca3f
00000600: 39b2 aede f450 ca3f 0779 4855 d7e3 c93f
00000610: 8310 9d25 7f6e c93f e24d 159f b8f6 c83f
00000620: f732 0cbb 5681 c83f f7b0 5aec 3b0d c83f
00000630: 6357 53a5 a9a0 c73f 6c92 82e8 5940 c73f
00000640: 78b1 ed01 b0e9 c63f b92e 9612 92a6 c63f
00000650: a75a 5b86 e879 c63f a920 7d7e 7c50 c63f
00000660: f7e3 c7a5 bf23 c63f c4f9 c8de 9e02 c63f
00000670: 40eb 88e7 bcb5 c53f e731 f87d 1b55 c53f
00000680: 902e a0cf 0382 c43f 0e3b 8dd9 b252 c33f
00000690: ce17 9dda 702c d13f 0c36 7922 e20c d13f
000006a0: 89d6 6231 afe1 d03f 3b45 0ac0 c1a8 d03f
000006b0: c7bb 6c9f 9963 d03f a3c2 da66 9c15 d03f
000006c0: b68d b0a3 a986 cf3f 89ce 6bd1 5de0 ce3f
000006d0: 0171 0934 033f ce3f 407b 5378 b1a7 cd3f
000006e0: 8baf 80f9 d91e cd3f ae08 ce15 33a7 cc3f
000006f0: 6f82 b7f1 ff3f cc3f eb9a 44e5 fae6 cb3f
00000700: 1512 114b fc95 cb3f c7b3 f409 3f44 cb3f
00000710: 497e b4a5 31ec ca3f ecfa 9613 1f8c ca3f
00000720: 48d2 4932 7a26 ca3f 1860 84d1 bfbd c93f
00000730: 9e88 0664 2b57 c93f 0009 3f80 89f9 c83f
00000740: 440e 5d5c 8aa3 c83f 557f 9042 bd55 c83f
00000750: eefc 84de 6d10 c83f 0c92 cdb2 71cd c73f
00000760: b738 8406 f986 c73f b6ea d14c 0a45 c73f
00000770: 0930 cb72 24f1 c63f 63b5 3d4a 4784 c63f
00000780: 502a a3f4 fcff c53f f57e 1128 f724 c53f
00000790: 42e0 3c0c 3312 c43f 5f76 6ff9 5766 c23f
000007a0: a298 d944 2fe7 c03f a897 0a21 df36 d13f
000007b0: f802 3951 7918 d13f 468d 29fa 94ed d03f
000007c0: 4349 bf84 56b3 d03f 7fbb 75eb 5f6b d03f
000007d0: 7b79 357b 7a19 d03f 1441 bd2f ab84 cf3f
000007e0: d967 b173 30d5 ce3f 3d1d c2e9 1f2c ce3f
000007f0: 0c25 fb67 1090 cd3f ed95 a0a3 0304 cd3f

Maxvals f8 [11]
14.481299273332855 13.888853166982937 13.718916686014861 13.645324001562294 13.579097326552644 13.538699379542408 13.45362407359145 13.402089350572096
13.324076579739486 13.219846386024361 13.072249897613515
00000000: 3a1b bddb 6cf6 2c40 8646 26c3 17c7 2b40
00000010: 0ef7 0dd9 1570 2b40 5c11 54e8 674a 2b40
00000020: 417d dd71 7f28 2b40 3005 b367 d013 2b40
00000030: d581 216a 41e8 2a40 d78d c5a7 decd 2a40
00000040: e2c2 8e5d eda5 2a40 a23c 9cb4 8f70 2a40
00000050: 5fc7 46f0 fd24 2a40
