Data/SIMBA/Model_snap2.npz (npz, 167498 bytes, 5 tensors)

x f8 [23]
000000 00 00 00 00 00 00 26 40 33 33 33 33 33 33 26 40
       11.0 11.1
000010 66 66 66 66 66 66 26 40 99 99 99 99 99 99 26 40
       11.2 11.299999999999999
000020 cc cc cc cc cc cc 26 40 ff ff ff ff ff ff 26 40
       11.399999999999999 11.499999999999998
000030 32 33 33 33 33 33 27 40 65 66 66 66 66 66 27 40
       11.599999999999998 11.699999999999998
000040 98 99 99 99 99 99 27 40 cb cc cc cc cc cc 27 40
       11.799999999999997 11.899999999999997
000050 fe ff ff ff ff ff 27 40 31 33 33 33 33 33 28 40
       11.999999999999996 12.099999999999996
000060 64 66 66 66 66 66 28 40 97 99 99 99 99 99 28 40
       12.199999999999996 12.299999999999995
000070 ca cc cc cc cc cc 28 40 fd ff ff ff ff ff 28 40
       12.399999999999995 12.499999999999995
000080 30 33 33 33 33 33 29 40 63 66 66 66 66 66 29 40
       12.599999999999994 12.699999999999994
000090 96 99 99 99 99 99 29 40 c9 cc cc cc cc cc 29 40
       12.799999999999994 12.899999999999993
0000a0 fc ff ff ff ff ff 29 40 2f 33 33 33 33 33 2a 40
       12.999999999999993 13.099999999999993
0000b0 62 66 66 66 66 66 2a 40
       13.199999999999992

intercept f8 [100, 23]
000000 7c 83 d4 0f c2 2a d0 3f 94 58 f7 e2 72 05 c7 3f
       0.25260974450980433 0.1798537834390045
000010 90 f6 48 3b e5 23 b9 3f a0 2a a4 e7 68 82 9a 3f
       0.09820397088420862 0.025888098848592223
000020 e0 a2 3c 25 fc ee 9e bf f0 24 7c 4f 23 8b af bf
       -0.030208530209310136 -0.06160841317439203
000030 18 ea f5 97 2d c0 b1 bf b0 85 0f e1 ec 33 ac bf
       -0.06933865509009995 -0.055083658669683344
000040 c0 e6 11 ba 30 5c 90 bf 50 05 5b 32 0f 47 a7 3f
       -0.015976678234870034 0.0454640149087121
000050 e8 c2 b8 fc 1b ac bf 3f 9c 8e d0 11 b8 ed cb 3f
       0.12371992988552061 0.21819210882050732
000060 1e a8 c5 09 2d 69 d4 3f 90 be 2b 34 52 6a da 3f
       0.31891942934328366 0.41273932547390135
000070 8e bd aa 46 17 b1 dd 3f c4 a6 aa c1 c2 63 dd 3f
       0.4639337720972997 0.4592139140391789
000080 cd 3d ce 74 ac 4b d8 3f d8 87 0a 84 43 75 d0 3f
       0.379618753498076 0.2571572102989399
000090 20 bb 4b e2 b6 81 af 3f 58 59 77 0b 1c f4 b7 bf
       0.061536517261506996 -0.09356856613098807
0000a0 88 de 39 00 83 95 cc bf 18 1c 89 20 4e 5c d3 bf
       -0.22331273566281973 -0.30250886132529464
0000b0 70 3a 90 bd f1 8f be bf 97 7d ce a4 4a 56 d0 3f
       -0.11938391569149487 0.2552668199004641
0000c0 b8 88 0c 61 58 56 c8 3f 98 6d c2 e1 7c 50 bd 3f
       0.19013504732817466 0.1145093966646783
0000d0 c0 a4 cc 95 b0 5a a7 3f c0 f5 d2 4b 28 6e 86 bf
       0.0456137831554968 -0.010952296079603907
0000e0 20 33 50 06 0c de a5 bf 60 44 5c 69 91 2a a9 bf
       -0.04270970894876869 -0.04915289317262572
0000f0 20 74 3d 35 d1 d9 9c bf a0 f9 a8 fe 0d 26 93 3f
       -0.0281746567483091 0.01869985453435563
000100 d0 55 9e b5 f6 24 b8 3f 54 06 27 04 86 e7 c7 3f
       0.09431402143521628 0.1867530365253055
000110 d8 be 87 1d 22 9f d2 3f b4 e9 d0 c3 7c ef d8 3f
       0.2909627235776333 0.38961714861548136
000120 aa 4f 3d 8d 8a 82 dd 3f e2 f9 d7 af 71 da de 3f
       0.46109260361594784 0.4820827691291055
000130 86 81 1d 59 cb 9e dc 3f fb 0b 6c 03 d8 53 d3 3f
       0.4471920366541088 0.3019924195688756
000140 b8 4c 9f 95 31 98 bd 3f e4 ff 2b 3f f1 ba c7 bf
       0.11560354140174212 -0.1853925283867276
000150 70 7f 13 46 3a 9b de bf 96 c8 87 10 16 82 e9 bf
       -0.4782243427598507 -0.7971296618327581
000160 36 21 79 77 5c 7b f1 bf 19 c4 45 65 15 dc f4 bf
       -1.0926174799843245 -1.3037313419301937
000170 ba 23 ff 89 31 f8 d0 3f 38 cb 21 6c ef 66 c9 3f
       0.265148529779761 0.19845383434184227
000180 bc 65 12 50 d8 48 bf 3f 70 14 71 98 66 6f ac 3f
       0.12220527605895531 0.05553742037640397
000190 00 3a 49 bb 28 50 76 3f 20 c4 ef ad e4 b4 91 bf
       0.005447539432295034 -0.017291615597006538
0001a0 60 55 78 32 89 58 95 bf 80 40 ad db 68 2c 77 bf
       -0.020845550256202272 -0.005657586671830583
0001b0 a0 33 12 77 64 94 9f 3f 68 d1 f7 85 64 d4 b5 3f
       0.030839509742282112 0.0852721049375923
0001c0 b0 0c 56 b1 e7 a3 c3 3f fe 5c 9a 07 d5 ad cc 3f
       0.15343948515883232 0.22405493613471344
0001d0 be 1e 8a 12 ac 83 d2 3f 50 0d 48 b8 c6 7e d4 3f
       0.28928663073063976 0.3202378081916395
0001e0 9f a2 c2 67 43 95 d1 3f d0 bd e9 ab d3 fe bc 3f
       0.27473530896035386 0.11326334902854929
0001f0 98 23 c7 b4 dc 3c c3 bf 14 30 6a 45 10 df de bf
       -0.1502948649124647 -0.48236471918858226
000200 ef e2 e0 00 57 49 eb bf 66 27 65 19 dd b0 f1 bf
       -0.852702619281528 -1.1056796066281662
000210 e7 58 0d ef 6a 58 f3 bf 46 61 8b 3b 38 a7 f1 bf
       -1.2090863550161488 -1.103325111957092
000220 e6 73 39 87 17 71 d4 bf dc 3e 74 34 c6 25 d0 3f
       -0.3194025822211287 0.2523055565115848
000230 84 b4 ba be 20 80 c6 3f 34 a9 8a ff 7c ae b7 3f
       0.17578515351252488 0.09250622977075268
000240 80 0c 4c 75 f2 98 96 3f e0 c7 0a 22 34 bc 99 bf
       0.02206782189297174 -0.025132002427831313
000250 40 1c ad 08 a4 45 a6 bf e0 0c e4 bb 5e a7 a2 bf
       -0.04350006681357188 -0.03643318217839364
000260 80 2a 7b 43 a4 ed 81 bf 90 78 60 1b 33 6f a1 3f
       -0.008754046735153453 0.03405151089849412
000270 50 5f 6c 21 b5 05 b6 3f 24 88 1d 9c e9 92 c1 3f
       0.08602459016799213 0.13729591486759418
000280 a4 77 7c 67 c9 e3 c8 3f a0 2f b0 dd 08 53 d0 3f
       0.19445149949109208 0.25506803178063286
000290 19 91 65 5b a8 a1 d4 3f 9e a7 86 4a e1 53 d7 3f
       0.3223667995973912 0.3644946315567895
0002a0 cb 62 e1 5c 90 dd d6 3f 6c 57 d8 3d 1f c5 d2 3f
       0.35727318830826665 0.29328137435492496
0002b0 3c 18 58 f2 1b 9a c4 3f 60 5d 61 c8 7e 91 b0 bf
       0.16095303853234266 -0.06472008125398565
0002c0 b8 52 9e a1 46 7e cb bf ce ec 63 2e 04 bc d9 bf
       -0.2147911347534739 -0.40210060625367994
0002d0 bf 99 f2 89 98 a1 e3 bf 3a ba 00 0d 15 46 e3 bf
       -0.6134760565080838 -0.6023049596750021
0002e0 26 c4 ac 79 38 60 cf 3f a4 78 81 a3 97 b1 c6 3f
       0.2451239198794905 0.17729468806914384
0002f0 58 a6 35 22 ef c3 ba 3f d0 18 83 4b 58 14 a6 3f
       0.1045522173423249 0.04312396928576023
000300 00 6a 64 62 53 ff 53 bf c0 78 52 ac 65 2e 98 bf
       -0.0012205423641434843 -0.023614491121968895
000310 40 3a 2a 7d 9f 19 9e bf 60 19 e7 b5 28 fc 97 bf
       -0.02939461900182949 -0.023422847845517736
000320 80 76 e2 a5 c1 f9 75 bf 00 04 43 65 58 95 96 3f
       -0.005365139424751697 0.022054082088974525
000330 d8 09 b5 64 38 0a b4 3f 02 80 85 92 f6 84 c4 3f
       0.0782809491984503 0.16030771402711258
000340 3c e0 c9 14 99 b7 d1 3f 76 9c b2 c4 a6 8a da 3f
       0.27683093099722433 0.41471261223563916
000350 fa 8d 76 3d 0e b5 e1 3f 07 da 0b 92 f5 c8 e5 3f
       0.5533515167666672 0.6807811596361838
000360 36 8c b5 d0 2e 26 e8 3f 28 53 96 1f 35 fb ea 3f
       0.7546609951354017 0.8431649796426415
000370 5c 31 58 d4 36 2b ec 3f 5a e9 a4 c2 a9 95 ed 3f
       0.8802751681665018 0.9245194245952846
000380 2f 54 ac f2 dc a2 ee 3f 66 a4 0a 03 96 c9 ec 3f
       0.9573807468137882 0.899607664051598
000390 ce b7 62 10 57 75 ec 3f de 01 97 da b1 84 d0 3f
       0.889323741915854 0.2580990442911836
0003a0 e8 d4 10 f8 7a 6b c7 3f 48 e0 9d 4d 1a 43 b8 3f
       0.18296753990731607 0.0947739066594987
0003b0 c0 a1 00 40 99 ef 81 3f 00 3e 02 b1 a2 4a b0 bf
       0.008757779374790498 -0.0636388475561418
0003c0 08 01 bb e3 3d 96 ba bf 78 94 1b e4 46 d3 bc bf
       -0.10385500726534158 -0.11259882992779235
0003d0 38 b3 0c 7e 69 9b b4 bf 80 aa 5e 1c b9 86 77 bf
       -0.08049640014060067 -0.005743716324938419
0003e0 58 7a cb 8b 98 11 ba 3f 04 23 f1 0f 65 bb cc 3f
       0.1018309918685899 0.22446883467116419
0003f0 53 95 1a 96 2c 54 d6 3f 03 6f d9 45 27 cd dc 3f
       0.34888758333757613 0.4500215704081116
000400 71 d7 e1 c1 9c 0b e1 3f 5f d5 67 62 51 e3 e1 3f
       0.5326675211679072 0.5589987680420271
000410 09 fe 0a 9e fb 67 e1 3f 94 d5 1c 35 c8 27 de 3f
       0.5439432226921223 0.4711781042745653
000420 0f 02 a4 e4 64 ac d8 3f 1e 23 87 10 68 4e c5 3f
       0.38552210167111495 0.16645527655625697
000430 60 19 e9 f2 74 bd 91 3f 00 32 81 93 4f e0 c9 bf
       0.017324282957156156 -0.20215792372108865
000440 66 b2 98 b4 44 26 dd bf f4 7b 56 59 2d c1 e4 bf
       -0.4554607165944503 -0.6485811943892927
000450 d9 70 9f 44 fe 90 d0 3f 96 da f9 42 ef bc c7 3f
       0.25884968472906916 0.1854533268958291
000460 3c 69 c8 fe a2 32 b9 3f 80 6d 89 a3 d9 25 8f 3f
       0.09842890472683491 0.015208912184951684
000470 f0 36 18 09 d5 81 ac bf 20 ea 40 21 ed bc ba bf
       -0.05567804084794925 -0.10444528638701245
000480 f0 72 36 0e 86 db bf bf 10 35 c9 7a 00 40 be bf
       -0.12444341513623747 -0.11816409108833548
000490 b8 f0 33 03 c9 aa b3 bf 00 4e e1 68 a6 c4 56 3f
       -0.07682472541995622 0.0013896584601028605
0004a0 18 c3 67 d1 61 cf bd 3f 81 0a b4 23 33 83 d0 3f
       0.1164456497424563 0.25800779806755975
0004b0 07 5d 39 d9 06 2e da 3f 7e 6d 91 d5 b6 79 e1 3f
       0.4090592500046601 0.5461076899768356
0004c0 6e 6b 27 fb 60 bc e3 3f 78 f7 19 cf 7a c6 e2 3f
       0.6167454629279356 0.5867284817647791
0004d0 aa 55 94 56 e6 ac db 3f 46 16 d4 be e9 15 c9 3f
       0.432427963781573 0.19598123376651894
0004e0 b8 20 1a 2d a7 f9 bb bf ca 3e 7b bc 7f 8b d3 bf
       -0.10927815295338206 -0.3053893414153036
0004f0 8e 34 e7 e2 49 c6 df bf bf 90 d9 47 ec 91 e3 bf
       -0.49647757681379623 -0.6115628627126383
000500 a2 28 79 e9 15 46 d8 bf 39 9c e8 f9 3f fd d0 3f
       -0.3792776851665939 0.2654571476472856
000510 d8 1f 41 31 e6 40 c8 3f 68 23 67 61 5d 0a ba 3f
       0.18948056607246033 0.10172065380096529
000520 80 29 01 9e d0 09 99 3f 60 d6 35 a0 f7 37 a2 bf
       0.024451503413993603 -0.03558324652378242
000530 58 64 81 95 e7 f2 b0 bf 38 80 b3 72 0b 9c b1 bf
       -0.06620643043551533 -0.06878730345079098
000540 e0 7e 84 74 b2 0d a7 bf 00 18 c1 a9 20 b7 65 bf
       -0.04502637550672062 -0.0026507986022208385
000550 90 cb d8 29 eb 7a a8 3f 78 18 80 16 38 25 b9 3f
       0.04781279455018883 0.09822416829419633
000560 c8 26 3e 8c da 38 c1 3f 74 95 1c 5d c8 74 c3 3f
       0.1345475373057552 0.1520014242789035
000570 6a 5e c9 6f bf 9e c3 3f 38 d6 18 48 a0 8a c2 3f
       0.1532820983727448 0.14485553284036867
000580 a4 2a e2 c7 11 77 c3 3f ac 8d f1 95 d2 0c c8 3f
       0.15207121143278812 0.18789131471122056
000590 68 e2 32 69 c0 0e d4 3f 02 f5 b7 17 7f 7d de 3f
       0.3134003665286742 0.476409695780447
0005a0 a6 c2 c5 63 bd b7 e7 3f 76 1b 8c 65 aa 2d ee 3f
       0.7411791752511661 0.9430744155259692
0005b0 f5 d4 5d 60 24 15 ee 3f f0 b1 40 98 28 bb ec 3f
       0.9400808221968463 0.8978465055166094
0005c0 0a c6 0f 07 44 fb cd 3f 44 b1 24 36 85 4b c5 3f
       0.23423052162938546 0.16636719840733794
0005d0 ac a7 76 4f 6d db b6 3f c0 bd ae 32 11 d6 94 3f
       0.08928569021250493 0.020347851484698642
0005e0 60 96 9e 7e 8c 8f a1 bf c8 78 2e fc 8a 12 b2 bf
       -0.03429831548355078 -0.07059544235969206
0005f0 18 d1 c9 91 cd 39 b5 bf b8 55 e4 5a 00 ad b1 bf
       -0.08291325387273607 -0.06904604167023976
000600 e0 ce a7 89 66 1a 99 bf 10 36 2b e0 99 26 a7 3f
       -0.024514772559952713 0.04521637784419508
000610 18 e2 8e f2 0b 52 c1 3f a0 8f bb 29 75 1d cd 3f
       0.13531636565836958 0.22746147668578676
000620 56 1c 05 2f 04 9b d4 3f ca c7 eb f1 b2 11 d9 3f
       0.32196144668382 0.39170526146983475
000630 d8 6d 29 ab c7 5b da 3f 48 05 ff 4f de 15 d8 3f
       0.4118518039228696 0.3763347417080536
000640 1f 6d e9 43 21 f4 d2 3f 38 ac 75 ae e0 ab c5 3f
       0.2961505091859226 0.16930778997934381
000650 e0 73 1d 8a 6c 2f 92 3f 40 5a b1 52 7f dd b7 bf
       0.01775903313624727 -0.09322353142611295
000660 f0 3f 73 44 31 2c b5 3f 6c 2c 00 41 6c b0 d7 3f
       0.0827055732836468 0.3701429972431416
000670 44 09 da 6b dd e5 f9 3f b2 15 17 f3 86 bf cf 3f
       1.618619366927832 0.24803244466435853
000680 68 a9 b8 08 0f af c7 3f 50 3d a4 92 08 8b bc 3f
       0.18502986837240631 0.11149648265949463
000690 70 3f 5c 31 bd 94 a5 3f 40 a6 72 d6 41 5b 93 bf
       0.04215041377585649 -0.01890280600915717
0006a0 90 f3 66 5a 05 1e af bf 08 35 9c 0d 09 f3 b4 bf
       -0.06077591637174529 -0.08183342535285842
0006b0 88 8b 8c 9f 5b 2b b5 bf 20 3c e2 ba c4 de ae bf
       -0.08269283910025937 -0.06029333859725505
0006c0 00 aa e4 2c 1c bb 8d bf 20 f1 4e fe 24 0d aa 3f
       -0.014517040367157286 0.05088153461790257
0006d0 00 d2 fc b2 e8 98 c0 3f f8 ca e3 99 8c 5c ca 3f
       0.1296664117777624 0.20594937814856684
0006e0 0f c0 33 5d f8 c3 d1 3f 38 8c 39 9e 30 fd d2 3f
       0.27758607007763286 0.2967034859813711
0006f0 d6 ce b4 a8 a7 bd d1 3f 40 f1 0c 5e d4 44 cc 3f
       0.277200617553928 0.22085051147758783
000700 5c c8 a4 3b 1a a6 c5 3f f0 82 47 c7 5a ad bc 3f
       0.16913154518403217 0.11202018132417968
000710 d8 89 55 7f 76 da c2 3f a2 77 b3 c6 19 1f d3 3f
       0.14729195802199402 0.2987732353629956
000720 c9 39 eb ff f6 86 d8 3f 71 ac 89 bf 85 9f ee 3f
       0.3832376002509617 0.9569729557964718
000730 d1 d8 af 4c 4b 91 d1 3f d0 a0 d3 8e 18 f5 ca 3f
       0.2744930504699257 0.21060473417242642
000740 ba 30 68 ca e9 1b c1 3f f8 80 c4 42 9d 1f b0 3f
       0.1336643446269415 0.06298239593570887
000750 00 18 76 fb 67 4a 51 3f f0 78 a9 c5 c5 97 a6 bf
       0.0010553374721395947 -0.044126682642614656
000760 40 ff 3c 00 25 8a b2 bf 08 bb e7 70 87 d6 b5 bf
       -0.0724204183179582 -0.08530470377420951
000770 10 4e a8 96 ee 37 b4 bf c0 38 12 d3 c0 25 a8 bf
       -0.07897845438156303 -0.047163034215473854
000780 00 f7 4c bc fa 2f 69 3f 90 b0 a3 a2 02 cf b6 3f
       0.0030746361902903585 0.08909622641266624
000790 48 30 29 a4 09 4e cb 3f 1b 3d db 8c 6b d0 d6 3f
       0.2133190204207287 0.35647095447071003
0007a0 a8 69 94 3c 99 85 de 3f ae 86 f4 eb 7f 66 e1 3f
       0.47690421024312935 0.5437621696948634
0007b0 a0 1a 56 06 ae 7c e1 3f fa 9c 5e 50 f3 51 dd 3f
       0.5464697002178873 0.45812685822097843
0007c0 b8 a8 53 99 19 5b d0 3f b0 26 95 94 fa 5c a5 3f
       0.25556030247993133 0.04172499717476563
0007d0 28 db 06 5a 12 6a cc bf 8e 9e ea 73 81 36 dd bf
       -0.2219870509704489 -0.4564517623898404
0007e0 90 bd 16 ee 8c 6c d5 bf 12 b6 59 22 c1 8d ce 3f
       -0.33475039721357636 0.2387010019041758
0007f0 1e 80 c2 b3 1a b4 c5 3f ec d9 1e 02 86 d4 b7 3f
       0.16955884721119302 0.09308660079737024

slopes f8 [100, 23, 7]
000000 23 07 ac 0a 40 90 a0 3f d8 cc b1 85 08 40 91 bf
       0.03235054140351525 -0.01684583011633553
000010 e5 15 f6 d2 49 03 e4 3f ee a4 0d 4d 8b 95 ad bf
       0.625401412996038 -0.05778155627815261
000020 40 65 1b a5 d5 f0 20 3f 94 dd cd ab 58 16 69 bf
       0.0001292477414185731 -0.0030624133927934036
000030 65 b7 71 dd 53 20 72 bf 13 3b 0b 02 44 95 a4 3f
       -0.004425361249657066 0.040201306581016415
000040 00 15 55 c3 d6 c4 86 3f 10 6a b0 17 4c 38 e4 3f
       0.011117627941198638 0.6318722212484449
000050 48 03 65 cb 33 76 ae bf 40 85 bf ba 4c 2c 31 bf
       -0.059495562151374914 -0.00026203988340796694
000060 bc b5 43 f9 bf 03 7f bf 18 b1 24 48 84 1a 74 bf
       -0.007571935555671979 -0.004908100820369542
000070 e8 5a 05 7d 14 f1 a8 3f e8 5b e1 8f af ff a2 3f
       0.04871429468282945 0.03710697776175903
000080 06 2e f7 5c 41 74 e4 3f 04 be bb 36 dc da ae bf
       0.6391913238271065 -0.06026352089054046
000090 a0 dc 63 a6 01 c2 44 bf 1d 10 94 bf 15 11 8d bf
       -0.0006334789329959407 -0.014192743214614773
0000a0 68 fd 76 46 cf 4e 76 bf aa e4 dc 03 01 ca ac 3f
       -0.005446252507169326 0.05622866794733146
0000b0 90 a5 1c 05 19 4c af 3f 81 dd 18 9a f5 ba e4 3f
       0.061127454637538325 0.6478221902570312
0000c0 3e 24 be ef f9 b0 ae bf 00 94 26 e1 43 19 4c bf
       -0.05994397212550283 -0.000857504028591749
0000d0 2c d2 57 b7 ac 5a 97 bf 58 71 74 ba bd 30 78 bf
       -0.02280683392560172 -0.005905858160329146
0000e0 19 2f 64 a4 ac cc af 3f c8 b3 f3 b6 ef 29 b5 3f
       0.06210841662149686 0.08267114845848689
0000f0 2e 22 e4 63 3a fa e4 3f 5c 88 a3 5e 2b f3 ad bf
       0.6555454207419353 -0.058495860388362714
000100 80 d5 18 07 82 27 48 bf 40 2e ca 2c de 10 a1 bf
       -0.0007371315861692124 -0.03333181664228535
000110 48 29 98 3b 6a e4 79 bf 78 26 b4 ff ea cb b0 3f
       -0.006321349117124626 0.06561154120222479
000120 98 24 31 83 0f f6 b9 3f 8a 9f 16 70 bb 25 e5 3f
       0.1014108367245562 0.6608559788919461
000130 00 cd dc 7a 90 a0 ac bf 00 18 db 1a a8 dd fb be
       -0.05591250896250166 -2.6574941947264674e-05
000140 da 53 f0 93 02 23 a7 bf e0 c0 26 fb c6 fc 79 bf
       -0.04518898063557915 -0.0063445828149470695
000150 5b 49 93 0b 97 1d b1 3f 18 bf 05 a8 96 fb bd 3f
       0.066857757879267 0.11712018587217832
000160 26 19 f0 93 64 32 e5 3f 40 82 ad fb ca ab aa bf
       0.6624014748966018 -0.052091925833114505
000170 60 35 74 c0 1a 20 51 3f d4 88 ac 8b fa 85 ad bf
       0.001045251965311543 -0.05766280131344251
000180 60 34 ab a0 83 51 78 bf 90 eb bf 4c 41 e7 b0 3f
       -0.0059371129706962955 0.06602867244502719
000190 d4 65 f5 49 3a 9e c0 3f 5e f7 42 73 e4 12 e5 3f
       0.12982872592219385 0.6585561991885063
0001a0 e0 e7 7f 61 a8 2e a8 bf 60 0b c9 94 58 9a 62 3f
       -0.047230970289049656 0.002270863542692167
0001b0 cc 2b 3e bc 20 e3 b1 bf 90 25 6b ff 26 05 76 bf
       -0.06987194629452559 -0.005376007399442342
0001c0 dd 0a c7 1f 3d 1d b0 3f 90 48 16 d3 0d f6 c1 3f
       0.06294614816492179 0.14032147223457914
0001d0 c0 7b 9e 2f c6 cb e4 3f 18 34 40 4a d3 49 a5 bf
       0.6498747758922647 -0.041578867734735236
0001e0 40 4b 7e 64 c4 53 6a 3f 8d bc 76 78 d8 a9 b4 bf
       0.00321377141876536 -0.08071663800250146
0001f0 d0 32 32 dc 94 73 73 bf 4b d4 fb c6 ab a4 ad 3f
       -0.004748898968625695 0.05789696506500571
000200 52 b4 85 0a ef 1d c3 3f 56 6d f5 20 00 66 e4 3f
       0.14935100568564735 0.6374512332653619
000210 70 7e 39 ef f3 ff a1 bf 80 fc 5e 7c 26 c0 6b 3f
       -0.035155890419216074 0.0033875228573090888
000220 b2 68 0c c3 ad eb b6 bf 28 7d 56 0f 24 6e 72 bf
       -0.08953367244649504 -0.004499569758450485
000230 55 e1 d1 9c fb 56 aa 3f 5a 15 d4 72 75 49 c4 3f
       0.05144487656883948 0.15849178416116666
000240 c1 8f 1c 6c ed f5 e3 3f f0 ed 5c 20 f7 d0 9c bf
       0.6237704383424828 -0.02814088950183974
000250 30 b8 2d 2b ae cc 65 3f 88 82 c6 7a 2c 70 b8 bf
       0.002661075757195007 -0.09546163556525233
000260 68 30 5c 29 f7 17 74 bf 1d c5 50 20 11 5b a6 3f
       -0.004905667757849931 0.04366353530384457
000270 24 ba 05 43 a5 74 c5 3f 14 ac 84 83 2d 84 e3 3f
       0.16762223980499968 0.6098849838939508
000280 40 dd c8 da 1f d1 94 bf 58 fc 72 26 39 ff 4a 3f
       -0.020328996399453958 0.0008238820127174458
000290 b2 65 8a 92 c1 2f b9 bf f8 8f d5 c3 83 ad 77 bf
       -0.09838495090152469 -0.005780710894530465
0002a0 bd eb fd 9a 9b 1f a2 3f f2 53 0c 2b 42 8d c6 3f
       0.03539739863386824 0.17618586637459505
0002b0 56 81 cc 6b 45 1a e3 3f 90 65 62 6e 1c 13 88 bf
       0.5969569306799183 -0.011755201452887915
0002c0 e8 08 4d 5b b5 b1 60 bf 50 f0 08 a3 69 09 b9 bf
       -0.0020378629800755672 -0.09779987554878855
0002d0 fc cf 8a 4d 9d 1b 7d bf b0 25 c0 11 6d 74 9c 3f
       -0.0071064133305078735 0.027787880142602084
0002e0 9e 38 17 a1 0f aa c7 3f 30 f4 dc b3 3e c4 e2 3f
       0.18487735143429956 0.5864556801749412
0002f0 20 bf b5 3f 9e 86 64 bf 58 50 e0 24 7b 6a 76 bf
       -0.0025055971906836755 -0.005472641974865487
000300 4a 7f 8a ca 03 fb b7 bf c8 b3 b2 13 06 39 7d bf
       -0.09367393202637433 -0.007134460199421384
000310 61 65 c1 11 1a 4e 98 3f d6 90 b6 ed b4 90 c8 3f
       0.023735434850413187 0.19191609961592943
000320 20 45 41 92 46 92 e2 3f d0 20 0a be 05 a6 7a 3f
       0.5803559166471679 0.006505987578414543
000330 a0 d3 4f f2 7e a6 82 bf 12 bc 4b e1 a7 12 b6 bf
       -0.009106628198404298 -0.08622216463457757
000340 10 a3 03 30 91 2a 71 bf c9 74 33 f8 da dd 98 3f
       -0.004190985812081008 0.024283810996043074
000350 82 3e d0 7e 94 55 c9 3f f2 85 fc 6c a2 43 e2 3f
       0.19792419616759466 0.5707561615601533
000360 74 3b 38 4e ca b0 8e 3f 90 1a 31 bb 9a 4f 8b bf
       0.01498563815314722 -0.01333542712940286
000370 b0 0a cc 98 80 63 b3 bf c0 71 91 30 b2 81 68 3f
       -0.07573703508755147 0.0029915313976245084
000380 f9 af 07 aa 1a 90 9f 3f 06 e5 fa 87 2e 85 c9 3f
       0.030823151233491306 0.19937688483859278
000390 67 a9 8a 92 0c fd e1 3f e0 54 a6 8d 6e 37 97 3f
       0.5621397840634871 0.0226723932224403
0003a0 e8 44 38 47 c5 ab 92 bf 5b 99 07 51 16 a8 af bf
       -0.018233377906715115 -0.06182927836543924
0003b0 38 f4 a6 b5 ed 8f 90 3f bc c8 63 10 aa c0 a4 3f
       0.016174043857734882 0.04053241205282762
0003c0 7b 11 e8 ea b2 95 c8 3f e4 88 8f 52 5a 75 e1 3f
       0.19206844778103602 0.5455752956879931
0003d0 38 b3 9e 83 eb 37 9d 3f f8 2d f6 82 c5 c0 97 bf
       0.028533630283777728 -0.02319630252672586
0003e0 10 c9 66 2a 5b bf a7 bf 3e b8 ea db 80 ae a2 3f
       -0.046381806302990936 0.036487604947396765
0003f0 7b 6c dd 6a 03 88 ac 3f c8 52 9d 2c ce 4c c6 3f
       0.05572519950393314 0.17421891382641363
000400 13 62 4d a3 a6 d8 e0 3f 6c a2 11 93 d6 ac a0 3f
       0.5264466466424572 0.0325686506774375
000410 e0 86 65 9d aa 18 9d bf ba bd 26 de 35 60 a0 bf
       -0.028414407593465252 -0.031984027259905415
000420 e7 45 8c 3a 13 5d ae 3f c7 44 11 54 e1 25 b1 3f
       0.05930385675140908 0.06698425581386679
000430 6b f6 a5 1b 1e eb c1 3f ca 26 65 9f 99 5e de 3f
       0.13998772001280044 0.474523931178379
000440 4c e1 35 1f 60 04 a3 3f cc 45 2c ed d6 58 a1 bf
       0.03714275723445101 -0.03388091702630511
000450 4c c7 03 5e 56 43 95 bf 3a 73 cc 0f cc 59 b5 3f
       -0.020764684189038804 0.08340144525250262
000460 98 9b d4 0e 17 62 b3 3f 90 f4 1a bc 04 2a b8 3f
       0.0757154856879495 0.09439115135588083
000470 1b 73 22 3a 5d b6 d9 3f 2a 37 c7 20 c1 8d a5 3f
       0.4017556255073928 0.04209712529301009
000480 66 2c 28 7b 14 f4 a2 bf bc 83 a5 7f 8f 36 90 bf
       -0.0370184326494261 -0.015833131948401066
000490 60 ea c9 52 4b a0 b9 3f cb bf 02 c5 04 65 b4 3f
       0.10010214587411204 0.07966642198402878
0004a0 b4 45 be e8 1a 2b 9f 3f c5 2c fa 9e a4 ae d1 3f
       0.030437870460053154 0.27628436589357036
0004b0 ca 8d 0d e0 a9 74 a7 3f d6 b0 0d 5e 6f 97 a2 bf
       0.04581194744130419 -0.036311607581269875
0004c0 1d c2 57 47 9f 3a 93 bf c5 cf 47 fd 42 01 bc 3f
       -0.018778313378733914 0.10939425166708279
0004d0 1e 6b f4 e4 f3 d9 af 3f 37 34 dd 1b 58 eb a9 bf
       0.06220972223146347 -0.05062365856301947
0004e0 10 37 ed ea ea 15 a3 3f 4a e0 48 26 ea 9b a8 3f
       0.03727659337765321 0.04806453435270493
0004f0 ce 68 2d 54 45 91 a1 bf 0c c2 77 5a 57 bd 9d bf
       -0.034311453366812836 -0.029042591950146288
000500 9b b7 bd 59 dd 3c ba 3f 29 ec ac f1 99 7e a0 3f
       0.10249122086471944 0.03221589160099143
000510 10 ba 8d d0 28 e8 8b bf 71 94 91 d7 a2 ea e3 3f
       -0.013626402725745584 0.6223921022725688
000520 50 ae 4e 0f 00 e9 ac bf b0 84 7f 96 52 74 43 bf
       -0.05646515070779101 -0.0005937007199429325
000530 a2 a6 d6 6b 27 75 5c bf 82 08 27 7d b1 80 75 bf
       -0.001736916062649398 -0.005249684635091014
000540 c6 90 d8 06 1b 2b a4 3f 40 43 27 98 c5 94 8e 3f
       0.039391369424522746 0.014932197290279725
000550 df 0f cf ec f3 26 e4 3f cc c6 19 62 a1 e9 ad bf
       0.6297549843952729 -0.058423083520109026
000560 00 3a 8e fd 45 1f 5a bf 96 1f 0d 15 20 fa 7a bf
       -0.0015943702221395961 -0.006586194344727311
000570 a0 5a 75 11 cf b3 76 bf 15 3e 68 b5 f0 3f a8 3f
       -0.005542572841781862 0.04736282553141905
000580 50 f2 1c fa 85 f2 a4 3f a4 c6 f3 12 10 70 e4 3f
       0.04091280630243388 0.6386795396958473
000590 b5 92 66 c5 38 75 ae bf b8 29 5f e7 94 99 65 bf
       -0.059488081070673195 -0.0026367100026380673
0005a0 6c aa 6a 59 a4 c2 8b bf b0 79 40 53 7d 8f 76 bf
       -0.013554843882350918 -0.005507936050007364
0005b0 ca f2 88 c1 1b ef ab 3f 00 1a a0 88 a1 76 b0 3f
       0.05455862748610725 0.0643101652677629
0005c0 26 45 ea 0d 52 c9 e4 3f e3 60 0a f6 8d 6c ae bf
       0.649575259378399 -0.05942195537972041
0005d0 e8 e8 e4 df ff 58 6c bf d8 9f 06 7f 5c 0d 97 bf
       -0.0034604070234794844 -0.022511906865162107
0005e0 40 a5 83 24 6d 98 74 bf bd 11 e5 65 54 f3 ae 3f
       -0.005028177584088411 0.060450208128290474
0005f0 28 c9 77 ab ba b1 b5 3f e4 05 88 83 d6 14 e5 3f
       0.08474318205097531 0.6587936943980677
000600 e8 b0 12 2b 55 cc ad bf 20 53 d7 13 e9 2f 6f bf
       -0.058199559696136494 -0.0038070251746184086
000610 6a 76 b0 f7 26 f1 a0 bf 38 55 db d4 19 c2 71 bf
       -0.03308984540511235 -0.0043354996721139336
000620 33 48 d6 d3 3b 5e b0 3f 40 fc 67 53 16 29 ba 3f
       0.06393789216807093 0.10218944107326511
000630 3e 1f df cf 64 3c e5 3f 4c b2 85 7d a5 85 ac bf
       0.6636222896567927 -0.055707141468563565
000640 a0 d5 f7 01 de 9c 6b bf e4 4f 21 da 8b cb a6 bf
       -0.0033706985557226538 -0.044521685006344375
000650 40 d7 8a bd 42 69 6b bf 3e 18 b2 70 e4 a5 b0 3f
       -0.00334609065279326 0.06503131629332956
000660 20 df 8b 71 9f 0b be 3f 07 5a 00 aa a9 28 e5 3f
       0.11736485025528198 0.6612137146319704
000670 02 a6 a9 6b 89 8b aa bf 80 4d fd 55 8f bc 65 bf
       -0.05184583129159749 -0.0026533889321542214
000680 d4 f4 c3 30 1b ab ac bf 80 f5 cf 6e eb d0 61 bf
       -0.0559929368045943 -0.0021748159692822067
000690 41 a8 e7 7e bf 46 b0 3f 3c 6e 93 fe d9 b0 c0 3f
       0.06357952926887923 0.1303970807119742
0006a0 2a 18 54 1a a0 be e4 3f a4 10 b4 2e 95 df a7 bf
       0.6482697023609536 -0.046627675963493403
0006b0 a0 00 4b e0 be f4 60 bf c4 88 1a 6c a0 fe b0 bf
       -0.0020698288011261196 -0.06638529433488133
0006c0 c0 94 88 9b 8a d4 51 bf c8 aa bb 5e 93 a0 ae 3f
       -0.0010882714833624768 0.059818845094772366
0006d0 70 e7 82 1c 8c 4d c2 3f 64 42 8e a2 b4 f7 e3 3f
       0.14299155609279124 0.6239875006595637
0006e0 08 bf f0 73 7a de a4 bf 10 a8 d1 39 f9 32 64 bf
       -0.04075987496650951 -0.0024657123272406947
0006f0 08 14 a5 0f 10 23 b3 bf 00 00 00 3b a5 a5 a5 3e
       -0.07475376493410135 6.451324363609956e-07
000700 12 27 ff 3f c1 6a ab 3f fe 6f 9e 4d 20 cf c3 3f
       0.05354885011872858 0.15475848951325583
000710 66 6a 9c a4 ab e6 e2 3f 28 3d 4b 92 07 7c a1 bf
       0.5906580176409306 -0.03414939556898339
000720 26 24 72 6e b9 31 71 bf 36 d3 75 8d e3 8b b4 bf
       -0.004197811452407973 -0.08025953487033352
000730 80 50 1d f0 c3 a6 49 3f 69 aa 34 96 3f 7e a7 3f
       0.0007828194359072033 0.04588507374349577
000740 88 68 59 09 98 55 c5 3f f5 b1 1a d8 c2 bc e1 3f
       0.1666746183062211 0.5542921276842764
000750 d8 c0 83 be b7 d7 9b bf 28 e2 4e 02 ae 36 7d bf
       -0.027190085414020654 -0.007132224772185704
000760 01 2d 88 ed e7 20 b5 bf 40 1e c4 95 36 72 57 3f
       -0.08253335522765683 0.0014310391480324564
000770 02 94 d4 dd cc 12 a3 3f 72 de 27 7b a7 b1 c6 3f
       0.03725280959978507 0.17729657662833948
000780 16 1a f7 51 39 a6 e0 3f 68 2b e6 34 3d 46 94 bf
       0.5202910042651776 -0.01979919085855944
000790 ac a8 10 4f eb 57 87 bf af 89 e3 1e c1 e5 b4 bf
       -0.011398161268591465 -0.08163077358361791
0007a0 80 93 f9 61 03 3a 60 3f 35 80 51 ac 29 c0 9d 3f
       0.001980787855972499 0.029053355352857763
0007b0 46 ca 23 3c da 97 c7 3f ce ad ff c9 f8 66 df 3f
       0.18432166992677618 0.4906599018711092
0007c0 a0 9e 52 32 86 22 88 bf 7e 13 bf 3a 2d d9 90 bf
       -0.0117845996958999 -0.016453463278384366
0007d0 41 cb af 9e e1 a0 b3 bf 80 d7 27 56 dc 0a 68 3f
       -0.07667360424219984 0.002934866280379589
0007e0 f5 f4 71 8c be 9f 97 3f 9a a4 fd 56 04 fb c7 3f
       0.023070313760844525 0.1873479294547778
0007f0 b7 cc 69 72 80 b9 dd 3f b0 01 be 6b e7 e3 67 bf
       0.46444712804004545 -0.0029162902773693586

scatter f8 [100, 23]
000000 e1 3c 2b 37 67 d9 cc 3f 4b 45 b2 db fd 99 cc 3f
       0.22538461869996865 0.22344945170747574
000010 67 93 b9 eb c2 58 cc 3f 29 00 b2 44 ab 18 cc 3f
       0.22145878324513577 0.21950283865226197
000020 f8 58 cb 8f 87 db cb 3f 0a a1 fa f7 ea a2 cb 3f
       0.21763700982291545 0.21590935810423445
000030 ce 26 82 b0 4b 73 cb 3f 6d 34 3b ee e0 4d cb 3f
       0.21445604437422222 0.21331416733156364
000040 87 fa 9e 84 c1 34 cb 3f bf 96 78 16 bf 28 cb 3f
       0.21254748321185366 0.21218098256320236
000050 7d 62 b1 c4 22 2a cb 3f e8 7f b3 d2 6f 37 cb 3f
       0.21222338298936796 0.2126292971433934
000060 b3 02 86 6c 95 4d cb 3f 80 5a dc 54 03 67 cb 3f
       0.21330516623495085 0.2140812076911125
000070 c9 01 ef 89 90 87 cb 3f 6f db 11 66 22 a9 cb 3f
       0.21507460341491783 0.21609907134890302
000080 f3 89 b0 c1 69 c8 cb 3f 08 80 4d 90 1b e0 cb 3f
       0.2170536227941536 0.21777672334701514
000090 98 8d 5a ce d8 e7 cb 3f 7e 36 10 79 8a d1 cb 3f
       0.21801290584435828 0.2173321810845898
0000a0 db 25 ef 3e 85 ad cb 3f fa 20 d8 9b e9 7c cb 3f
       0.2162329251571425 0.2147495280226009
0000b0 80 b0 f1 81 3c 2b cb 3f ce 6f d9 cc c2 d6 cc 3f
       0.21225696892668466 0.22530398371134058
0000c0 8e b4 83 ab 97 99 cc 3f 3f f3 d8 5e 11 5a cc 3f
       0.22343726992349783 0.22149865275596345
0000d0 8d 10 b5 98 99 1a cc 3f dd 31 42 ae 9c dc cb 3f
       0.21956176716242162 0.21767004498214151
0000e0 d6 1f 37 e8 03 a2 cb 3f 27 1b 34 05 49 70 cb 3f
       0.21588181341780793 0.21436417345122402
0000f0 2e 73 d6 ff 25 4b cb 3f 50 8f c1 1c 59 34 cb 3f
       0.21323084823679878 0.21253503707986932
000100 70 aa 41 1f 44 2e cb 3f a4 84 d5 14 7a 37 cb 3f
       0.2123494293803847 0.21263052003181315
000110 e7 92 66 4a 47 4d cb 3f 6c c1 2f f1 39 6b cb 3f
       0.2132958520206991 0.21420978810011648
000120 28 c3 66 60 57 8d cb 3f a3 f8 cd 46 03 b9 cb 3f
       0.2152508946142231 0.21658364255194326
000130 d0 5e f3 3d fb e9 cb 3f ab fc 9c f9 75 1d cc 3f
       0.21807804608282888 0.21964907348772064
000140 e6 9d a6 37 0d 48 cc 3f 39 32 83 90 ab 5f cc 3f
       0.22094884126020914 0.22166962200425802
000150 65 2b c0 32 e1 4a cc 3f d0 0b 11 fa c3 13 cc 3f
       0.2210351465040176 0.21935319624216598
000160 cb 05 61 be c5 b6 cb 3f d7 2d b3 13 1e 2e cb 3f
       0.21651527210091923 0.2123448940459258
000170 bd 1f 14 63 4e d3 cc 3f 7f 81 e5 00 6e 91 cc 3f
       0.2251985534460327 0.22318816226744428
000180 a7 b3 70 ac ee 4c cc 3f d3 a2 ea 5e 71 09 cc 3f
       0.22109778804715782 0.2190381730518057
000190 c2 44 b5 ad 2e ca cb 3f e5 97 5f f9 f3 91 cb 3f
       0.21710761529769768 0.21539163280902965
0001a0 03 da d8 a4 29 66 cb 3f 35 4c a1 dc a5 48 cb 3f
       0.21405525731252348 0.21315453789665786
0001b0 12 ef a0 e6 67 39 cb 3f 63 33 f8 23 4a 33 cb 3f
       0.2126893879047818 0.2125027347214213
0001c0 9c 76 70 34 cc 31 cb 3f e6 de 5c e4 89 2e cb 3f
       0.21245720444214988 0.21235774660612278
0001d0 20 69 e8 f0 b6 25 cb 3f 6a 97 63 b5 2d 15 cb 3f
       0.2120884586627847 0.2115838180245036
0001e0 d7 a2 55 39 3d 01 cb 3f 04 f9 98 79 bc e6 ca 3f
       0.21097531604325212 0.21016651093845706
0001f0 39 9b 71 b3 f3 be ca 3f 74 59 cf 10 5e 8a ca 3f
       0.20895239126113 0.20734763928221478
000200 70 78 e5 9b 38 34 ca 3f 6b c1 2c fb 6a c0 c9 3f
       0.2047186623776187 0.20118462814708535
000210 c8 ed b8 92 33 32 c9 3f b9 43 c6 93 e2 9e c8 3f
       0.19684452690294862 0.1923487874560388
000220 3b f1 97 26 f7 ed c7 3f 0d 4c 2b 7e 38 d4 cc 3f
       0.1869496286816544 0.22522646103479396
000230 a0 7d 99 b4 0b 91 cc 3f 60 ee db 0e ce 4b cc 3f
       0.22317644422853977 0.22106338239233292
000240 d6 f7 39 ed 3f 07 cc 3f f0 b6 84 1f 26 c7 cb 3f
       0.21897124369928517 0.2170150426767843
000250 20 36 0d 5e 1e 8d cb 3f 8a e7 86 b2 e3 5d cb 3f
       0.21524409859050397 0.21380277840745193
000260 1c af 2c 9c 1e 3d cb 3f 21 7e 34 ec 53 2b cb 3f
       0.2128027212687521 0.21225976022195517
000270 55 68 12 26 e5 28 cb 3f ff e9 d7 11 7c 35 cb 3f
       0.21218551978091918 0.21256972190151655
000280 ad 84 50 77 6e 4e cb 3f d4 a1 74 34 96 6e cb 3f
       0.21333103967575565 0.21431233941372219
000290 36 70 ce 1f 22 8e cb 3f f5 10 fe 1c e5 b1 cb 3f
       0.21527506402060376 0.21636642375609197
0002a0 47 9c f4 ea 4c d8 cb 3f e8 8f 92 f1 72 f7 cb 3f
       0.21753846619069092 0.218489044146849
0002b0 3a a9 26 9c 5e 0e cc 3f d7 26 86 bc 7a 18 cc 3f
       0.21918852448045262 0.21949705319666776
0002c0 e2 1c a0 8f 6b ee cb 3f 86 7b 0f af 99 b4 cb 3f
       0.21821350586853955 0.21644898460268908
0002d0 be ed 1b 95 3a 63 cb 3f 29 67 6e fe cb c6 ca 3f
       0.21396572380750273 0.20919179843331762
0002e0 a2 62 90 82 8d d2 cc 3f b6 f7 34 c5 27 90 cc 3f
       0.2251755607146793 0.22314927224391362
0002f0 14 37 ab 54 54 4d cc 3f 75 ac ef 57 df 0c cc 3f
       0.22110990652293394 0.21914283555756567
000300 8b a9 a8 07 6f d1 cb 3f 47 c1 cc b1 e1 9a cb 3f
       0.21732890962568904 0.21566411191589394
000310 94 d8 28 cd d7 6b cb 3f fe bf 27 a4 50 43 cb 3f
       0.21422860639149077 0.21299179091829495
000320 a2 9e 3f 55 9c 20 cb 3f 13 7a 13 ad ab 02 cb 3f
       0.21193269884610283 0.21101900053959408
000330 fc d2 8a 3d 1e ed ca 3f 15 1b ee 63 81 e3 ca 3f
       0.21036127095216972 0.2100679147663064
000340 d9 65 5e ea 32 e6 ca 3f fb 38 5f 6d 44 f3 ca 3f
       0.21015011256967744 0.21054892864635363
000350 77 7c db 1a b5 16 cb 3f bb 16 c6 24 12 43 cb 3f
       0.21163047610659522 0.21298434062571467
000360 98 2f 25 29 b3 77 cb 3f 28 35 50 f0 bd aa cb 3f
       0.21459044941945815 0.2161481307415809
000370 42 d9 cd 1a 66 d5 cb 3f a6 5a cc 72 f5 d4 cb 3f
       0.2174499159697892 0.21743648629554463
000380 b8 63 d3 d5 78 b9 cb 3f 15 9c 57 96 b1 76 cb 3f
       0.2165976566382406 0.2145597442715547
000390 c8 ba 33 84 39 dd ca 3f 06 57 b2 4b bf d8 cc 3f
       0.20987624125651494 0.2253646010982992
0003a0 1b 2a 6b 56 1b 9b cc 3f 1c ec 4d f1 3c 5c cc 3f
       0.22348348350199462 0.22156488211098313
0003b0 72 55 b2 5a d2 1d cc 3f d1 d4 c5 40 fc e1 cb 3f
       0.21966008595033376 0.21783402598126725
0003c0 58 79 02 49 b9 a9 cb 3f 76 c9 1c 74 11 79 cb 3f
       0.21611705841946605 0.21463220758011986
0003d0 af 61 db c1 9c 53 cb 3f 8c f8 76 74 91 3a cb 3f
       0.21348914590522614 0.21272485911135097
0003e0 e5 b8 98 6e 98 30 cb 3f f0 3f 98 b6 3d 36 cb 3f
       0.21242051506255347 0.21259280601270758
0003f0 5c f9 be 07 78 4a cb 3f 34 e8 12 2d aa 6a cb 3f
       0.2132101095030049 0.21419264984962327
000400 b9 c0 7a 7f de 91 cb 3f 6d f8 ec 0b e3 c6 cb 3f
       0.21538907265267485 0.21700704653079886
000410 a6 8f 14 2a e4 05 cc 3f 36 50 18 46 31 4f cc 3f
       0.21892978720381712 0.22116676256757878
000420 96 6a 4c 73 ce 95 cc 3f 0c 25 cf db 9e c6 cc 3f
       0.22332172994432103 0.22481141789311498
000430 29 34 d4 76 9f cf cc 3f 55 04 1f e1 fe b1 cc 3f
       0.22508614828294185 0.22418199531788
000440 a5 01 17 53 29 6a cc 3f d0 1e 33 c9 06 f1 cb 3f
       0.22198978955385687 0.21829304527476845
000450 5c c9 b7 6f 07 e3 cc 3f 3e 79 8a f5 f6 a6 cc 3f
       0.22567837672211055 0.2238453577928769
000460 44 c3 db 1b 72 6a cc 3f 33 5c 39 77 d5 2e cc 3f
       0.22199846611285967 0.22017925569045502
000470 31 27 27 85 71 f5 cb 3f 8a 11 8a 6e 6f be cb 3f
       0.2184278392945145 0.2167491235487769
000480 3a 1e 11 96 f0 8c cb 3f fa a2 41 6c 8f 60 cb 3f
       0.21523864104732288 0.21388428483921712
000490 20 f2 40 8d 35 3b cb 3f f5 87 3b af c9 1c cb 3f
       0.21274442097809843 0.2118160348537114
0004a0 1d 0f 66 c4 11 09 cb 3f bb c3 24 80 9f 01 cb 3f
       0.21121427621630398 0.21098703152668272
0004b0 3f 77 36 4a bd 03 cb 3f ae c3 ca 61 68 0d cb 3f
       0.21105161784810808 0.2113466718197094
0004c0 70 6b 77 77 87 20 cb 3f d9 de 54 bb 92 38 cb 3f
       0.21193021138500567 0.21266397616431368
0004d0 e9 75 75 81 da 4b cb 3f 12 1e f6 88 ee 4a cb 3f
       0.2132523662684627 0.21322423636978322
0004e0 60 a0 7d e6 89 27 cb 3f 95 15 0b 6e c9 d9 ca 3f
       0.21214412455015275 0.20977132676322854
0004f0 5d 3b 40 25 59 67 ca 3f 19 d3 14 35 c7 e4 c9 3f
       0.20627893751994977 0.20229425517904856
000500 83 a8 0d 97 18 2b c9 3f 4f 8a 44 c0 65 de cc 3f
       0.1966276872220228 0.2255370320136358
000510 18 49 a1 4b 73 9c cc 3f de 34 f0 0e 36 57 cc 3f
       0.22352448647377154 0.22141147355470187
000520 0a 73 73 61 b2 11 cc 3f 35 dc 65 5c 01 cf cb 3f
       0.2192900634608111 0.21725480090728558
000530 81 0f 1e 3a be 91 cb 3f e3 8c b0 bf ae 60 cb 3f
       0.21538522565617416 0.2138880191788309
000540 2d 1b a8 f5 e2 3f cb 3f f6 a2 14 a8 7e 30 cb 3f
       0.21288716311411218 0.21241744238911736
000550 c1 67 77 eb fb 33 cb 3f 52 48 03 41 3f 44 cb 3f
       0.21252392766365172 0.2130202357716962
000560 64 9a 5c 93 50 5c cb 3f 14 b8 8e 8e ab 76 cb 3f
       0.21375472255131733 0.21455902539077043
000570 36 7a 9c 3a cd 8c cb 3f cf ab bf b1 7e a0 cb 3f
       0.21523442613484328 0.215835415641179
000580 94 3b 2f 1d a8 b1 cb 3f fc 2b ec 31 f3 bc cb 3f
       0.2163591520788627 0.21670379579185794
000590 42 e7 77 22 db ca cb 3f b2 b4 2e a6 39 cf cb 3f
       0.21712817366624831 0.21726151098611052
0005a0 4b 6e d6 33 8f be cb 3f 3f af d0 14 ae a8 cb 3f
       0.21675291091092883 0.21608520523420258
0005b0 28 bb b4 0f eb 6d cb 3f f4 90 be 8c d7 ef ca 3f
       0.21429193751233666 0.21044439670834658
0005c0 40 61 7f a3 b6 db cc 3f 08 74 f7 11 6b 9a cc 3f
       0.22545512183456573 0.22346247079158865
0005d0 d7 ba 32 43 ae 56 cc 3f 02 c3 a3 38 60 13 cc 3f
       0.22139528542671513 0.21934130445108485
0005e0 bb 48 4a b7 af d2 cb 3f 70 f1 04 6e 40 95 cb 3f
       0.21736713838305896 0.21549229976688933
0005f0 f1 75 a5 41 1d 62 cb 3f 92 20 93 60 09 3a cb 3f
       0.21393171029460192 0.2127086373859624
000600 dc 31 56 a1 8d 20 cb 3f 0a e6 fc 7a f4 15 cb 3f
       0.21193094613808128 0.2116075134779723
000610 b7 4c c1 52 d8 19 cb 3f 97 3c f8 35 66 29 cb 3f
       0.21172622719550357 0.2122009051822473
000620 31 47 ff e4 b5 3c cb 3f b4 a4 29 5c fc 4f cb 3f
       0.21279023820403034 0.21337847232942908
000630 cd 0f c6 b2 eb 69 cb 3f 7d b2 bc e1 e7 84 cb 3f
       0.21416994313415075 0.21499346277541412
000640 21 f2 2c d0 18 9d cb 3f db fb a9 da 81 b3 cb 3f
       0.21573171772787794 0.21641562630608643
000650 c0 7f 1e 51 3c c2 cb 3f c6 6c 17 7d 23 c6 cb 3f
       0.21686510048766472 0.21698421104415483
000660 77 e9 e5 15 c3 d3 cb 3f 61 e0 5e 29 f6 e5 cb 3f
       0.21739996499293188 0.21795537014054658
000670 4f 4b 92 05 15 dd cb 3f 2a 21 ab 2d c0 c9 cc 3f
       0.21768439075511956 0.2249069426527595
000680 15 d8 08 1e 52 89 cc 3f 9b 1c fe 76 56 48 cc 3f
       0.22294069735079405 0.22095757303415983
000690 e0 77 f0 b2 fb 09 cc 3f 3b ae d6 1e 8f ce cb 3f
       0.2190546630599206 0.2172411823824961
0006a0 e7 10 35 9d 4f 96 cb 3f 25 f9 d3 93 28 65 cb 3f
       0.21552462745797316 0.2140246125999933
0006b0 be 12 8c e4 d3 3a cb 3f a2 61 de 51 ac 18 cb 3f
       0.2127327791169104 0.21169046399587638
0006c0 4e e8 af 25 2a 00 cb 3f e5 8c 2e be 87 f4 ca 3f
       0.21094252433960253 0.21058747087690857
0006d0 ab 96 f1 b9 df f5 ca 3f 4f 17 2a 8e 11 01 cb 3f
       0.21062847689897998 0.21097011033651333
0006e0 6c 55 3f 6c de 10 cb 3f 36 38 a3 5c fc 28 cb 3f
       0.2114522961189026 0.2121882870036999
0006f0 5a 9d d0 e4 2c 42 cb 3f 11 ff 49 03 d2 4e cb 3f
       0.2129570119152316 0.2133429065761381
000700 ee 20 8e 09 d8 4d cb 3f b7 1d 43 ba a1 36 cb 3f
       0.21331310717165003 0.21260472864945054
000710 e1 58 ba 61 6a fa ca 3f a0 39 b2 c5 9f c1 ca 3f
       0.2107670762240508 0.20903393891462674
000720 90 ea b9 8d d9 80 ca 3f ef 38 3c f5 37 1c ca 3f
       0.20705718441225374 0.20398616289498459
000730 5b 12 4e 64 8f d5 cc 3f 49 89 b1 53 af 94 cc 3f
       0.2252673377771711 0.22328750216099483
000740 c7 4c 41 0c f7 51 cc 3f f2 d9 26 19 f4 10 cc 3f
       0.22125137422935934 0.21926738002885277
000750 12 d4 ba 6e b2 d2 cb 3f 29 f0 08 e9 e8 97 cb 3f
       0.21736746222237052 0.21557341936738908
000760 e2 fa 71 d3 68 65 cb 3f 2c 91 fe 6b b8 3a cb 3f
       0.21403227161859834 0.2127295043293399
000770 51 e4 b4 37 3b 1a cb 3f 80 b5 86 bc a1 04 cb 3f
       0.21173801631974468 0.2110788507974739
000780 55 53 77 73 09 f9 ca 3f cb b9 8a f3 9a f6 ca 3f
       0.21072500360483085 0.2106507958573743
000790 fe 15 2c 7a 09 fd ca 3f 28 f9 57 f0 9c 06 cb 3f
       0.2108470770400998 0.21113931403665132
0007a0 6f a7 38 c5 6b 1e cb 3f bb 42 75 5c 06 3c cb 3f
       0.21186587457605863 0.21276931299737165
0007b0 5a 46 ca 72 58 61 cb 3f 3b 5d 89 d8 74 87 cb 3f
       0.21390824894892796 0.21507130215716494
0007c0 62 db 3e e7 1c a7 cb 3f 50 4a 71 ee ed 9e cb 3f
       0.21603738108907594 0.21578764097883374
0007d0 5b 99 6d cf 17 94 cb 3f e5 81 e2 26 86 5a cb 3f
       0.21545693996740564 0.21370007418319328
0007e0 29 21 0d b3 f9 f6 ca 3f bb f4 e7 10 86 d6 cc 3f
       0.21066209070910105 0.22529674363605587
0007f0 c0 99 b1 eb 90 95 cc 3f 68 8b b8 6b 95 51 cc 3f
       0.2233143950317764 0.2212397361737104

Maxvals f8 [11]
000000 06 a7 1d 1b 6c 84 2a 40 fa 02 46 fc 58 e3 29 40
       13.258637282724077 12.944038280054418
000010 fa 1c 49 7a 2a 95 29 40 28 46 d5 c5 93 69 29 40
       12.79133970396514 12.706205541881971
000020 24 b3 2d 22 5c 4b 29 40 b7 54 4c c5 ba 37 29 40
       12.64718729789599 12.608846822326411
000030 66 06 fd ef 43 0f 29 40 16 84 8a df 9d f8 28 40
       12.52981519664463 12.485579476984679
000040 80 c7 66 8a 95 d0 28 40 41 9d 44 d8 03 9b 28 40
       12.40739090447073 12.302763708472982
000050 d5 39 18 94 01 52 28 40
       12.160168292958511
