Data/SIMBA/Model_snap31.npz (npz, 282826 bytes, 5 tensors)

x f8 [39]
000000 00 00 00 00 00 00 26 40 33 33 33 33 33 33 26 40
       11.0 11.1
000010 66 66 66 66 66 66 26 40 99 99 99 99 99 99 26 40
       11.2 11.299999999999999
000020 cc cc cc cc cc cc 26 40 ff ff ff ff ff ff 26 40
       11.399999999999999 11.499999999999998
000030 32 33 33 33 33 33 27 40 65 66 66 66 66 66 27 40
       11.599999999999998 11.699999999999998
000040 98 99 99 99 99 99 27 40 cb cc cc cc cc cc 27 40
       11.799999999999997 11.899999999999997
000050 fe ff ff ff ff ff 27 40 31 33 33 33 33 33 28 40
       11.999999999999996 12.099999999999996
000060 64 66 66 66 66 66 28 40 97 99 99 99 99 99 28 40
       12.199999999999996 12.299999999999995
000070 ca cc cc cc cc cc 28 40 fd ff ff ff ff ff 28 40
       12.399999999999995 12.499999999999995
000080 30 33 33 33 33 33 29 40 63 66 66 66 66 66 29 40
       12.599999999999994 12.699999999999994
000090 96 99 99 99 99 99 29 40 c9 cc cc cc cc cc 29 40
       12.799999999999994 12.899999999999993
0000a0 fc ff ff ff ff ff 29 40 2f 33 33 33 33 33 2a 40
       12.999999999999993 13.099999999999993
0000b0 62 66 66 66 66 66 2a 40 95 99 99 99 99 99 2a 40
       13.199999999999992 13.299999999999992
0000c0 c8 cc cc cc cc cc 2a 40 fb ff ff ff ff ff 2a 40
       13.399999999999991 13.499999999999991
0000d0 2e 33 33 33 33 33 2b 40 61 66 66 66 66 66 2b 40
       13.59999999999999 13.69999999999999
0000e0 94 99 99 99 99 99 2b 40 c7 cc cc cc cc cc 2b 40
       13.79999999999999 13.89999999999999
0000f0 fa ff ff ff ff ff 2b 40 2d 33 33 33 33 33 2c 40
       13.99999999999999 14.099999999999989
000100 60 66 66 66 66 66 2c 40 93 99 99 99 99 99 2c 40
       14.199999999999989 14.299999999999988
000110 c6 cc cc cc cc cc 2c 40 f9 ff ff ff ff ff 2c 40
       14.399999999999988 14.499999999999988
000120 2c 33 33 33 33 33 2d 40 5f 66 66 66 66 66 2d 40
       14.599999999999987 14.699999999999987
000130 92 99 99 99 99 99 2d 40
       14.799999999999986

intercept f8 [100, 39]
000000 7b a6 72 ef 66 f6 f7 3f a0 72 85 d2 98 18 03 40
       1.4976567605430364 2.3870102354979537
000010 9c eb c1 f7 3b 50 08 40 42 0c a1 65 6a 37 0c 40
       3.0391768795065683 3.5270584049008287
000020 c8 69 be 7d b0 5e 0f 40 76 48 49 c1 d2 03 11 40
       3.9212350677237033 4.253733654115527
000030 86 39 28 19 5c 31 12 40 99 33 ce 54 e6 3c 13 40
       4.548202889518853 4.809472394071144
000040 a1 48 83 1c 98 2b 14 40 d7 c2 45 bc 77 f7 14 40
       5.042572446358606 5.241667691953544
000050 d6 9d df 51 54 92 15 40 e2 8d 28 e6 69 ef 15 40
       5.392899779580565 5.483802410340532
000060 28 76 9a 85 9b 00 16 40 8d 6a cf 82 a8 bc 15 40
       5.500593268921456 5.434236568364793
000070 1a cf b9 65 84 27 15 40 34 1e 9e 0a 59 49 14 40
       5.28859099337185 5.07162872877193
000080 54 0d 3e 49 c2 36 13 40 22 0a d9 3d a8 04 12 40
       4.803475517666204 4.504548040744824
000090 14 07 a2 1f e7 cb 10 40 b2 2f 08 e2 e7 3e 0f 40
       4.199123853935607 3.9057157191036476
0000a0 34 ef ac 98 49 1d 0d 40 ea 60 fa 6e 7c 15 0b 40
       3.639300530221499 3.38549124433131
0000b0 d4 aa 6e f6 68 2e 09 40 14 1b ba c8 17 66 07 40
       3.1476611378214816 2.924850052051065
0000c0 15 ed be 0a e2 d6 05 40 ec ea 1b 4b af 70 04 40
       2.7299233283535025 2.555021845616798
0000d0 46 61 9b f4 f0 4b 03 40 76 a6 ef da 66 4a 02 40
       2.412080679885693 2.286328993261857
0000e0 e9 c3 ed 97 63 67 01 40 fa e5 cd 71 3e 31 00 40
       2.175482928222199 2.0240448847732724
0000f0 e7 73 a6 14 c5 26 fd 3f 91 58 7c 7b 92 80 f8 3f
       1.8219652945183442 1.531389696470374
000100 37 8e 13 b1 04 3f f3 3f 37 84 d6 33 b0 77 ea 3f
       1.2028853337332188 0.8271103870830591
000110 d8 74 fe 1c 1f 76 df 3f dc e9 92 6d d9 e7 d3 3f
       0.4915845664161913 0.3110259599740439
000120 6c 17 33 3c 44 cc dd 3f db 47 f9 7e c0 aa ed 3f
       0.46559244040360315 0.9270937423664195
000130 5c a0 6f 67 9b 38 fe 3f 1a 71 00 fc c0 17 f8 3f
       1.8888200798483217 1.5057992786233343
000140 a4 0b ea ee 3b 30 03 40 d6 7e 3a 98 6b 6a 08 40
       2.3985518136191377 3.0519630329944034
000150 1c 46 aa d2 59 4b 0c 40 75 f8 e8 af 9e 64 0f 40
       3.5367924173558674 3.924130796715924
000160 b2 e2 66 0d 72 fe 10 40 9e 23 bb 66 dd 25 12 40
       4.248481950192103 4.536977391407076
000170 17 51 ec 81 70 31 13 40 95 3d 4f c1 19 27 14 40
       4.79828074459899 5.038184185468158
000180 9e d4 24 83 88 fe 14 40 e1 45 c5 bd c9 ab 15 40
       5.248567628024061 5.417761769452654
000190 e6 17 84 49 c6 1a 16 40 c4 6a 05 ff 65 38 16 40
       5.526147030532206 5.5550765845352466
0001a0 a7 55 93 0d 42 f8 15 40 fb 79 cd 9d dc 5a 15 40
       5.492439472310628 5.338732209841051
0001b0 23 7a 4f 0d 1c 65 14 40 4d ad a2 67 fa 30 13 40
       5.098739822364709 4.797830218605054
0001c0 2c 9e 15 b2 59 dc 11 40 7d 19 ef 17 dc 8d 10 40
       4.465185911721658 4.138534902542571
0001d0 a8 47 db 01 d3 c2 0e 40 84 32 96 8e 60 cf 0c 40
       3.8451290268939893 3.6012583865725123
0001e0 48 1b 43 f4 68 15 0b 40 b3 d1 e3 38 6a 8d 09 40
       3.3854540904025363 3.194050259068001
0001f0 98 51 56 d7 53 f0 07 40 da 7a 4b cf 83 43 06 40
       2.9923474143235573 2.782966250887836
000200 e4 73 15 e2 e7 62 04 40 37 79 24 e9 9a 94 02 40
       2.5482938444897503 2.3225610937362506
000210 eb ae 4c 69 c7 c5 00 40 48 92 7a 7e 81 37 fe 3f
       2.0965717531706693 1.8885512295320428
000220 68 de d0 04 09 ad fa 3f 86 44 0c 51 d1 2f f7 3f
       1.6672449291344495 1.4491742292341612
000230 5e 69 48 9d 26 a5 f2 3f e6 09 99 81 8e e3 ec 3f
       1.1653200286733276 0.9027779132086919
000240 bf eb 7b b4 5c d1 e3 3f aa 02 ad 10 22 2a d8 3f
       0.6193069005088246 0.37757159832475884
000250 c1 fa e3 31 e3 80 d4 3f 15 34 e8 7b ed 4b e2 3f
       0.3203666674816468 0.5717685146388499
000260 21 d8 05 4f c8 4e f2 3f 48 4a 7f 92 35 a9 02 40
       1.14423399799626 2.3326217122169375
000270 bb e0 fc d5 0f d5 f7 3f c6 c0 8d e2 55 f7 02 40
       1.4895170554064368 2.37076928134056
000280 ce bb 9c c7 5f 23 08 40 90 02 f5 a8 5d 0a 0c 40
       3.0172725290972044 3.5050614547511216
000290 d6 30 22 85 b4 37 0f 40 62 e6 c7 97 5b f8 10 40
       3.902199783426208 4.24253689916222
0002a0 68 e1 c6 a7 47 32 12 40 64 d7 58 f5 ef 4b 13 40
       4.549101468576147 4.824157556102225
0002b0 b3 8d 64 f3 17 4a 14 40 69 91 23 cd 02 21 15 40
       5.072356989872264 5.282237248702907
0002c0 fa 31 c6 d9 e1 c2 15 40 21 eb 70 d3 72 1d 16 40
       5.440314676973225 5.528758338706013
0002d0 09 18 11 56 78 24 16 40 57 92 a2 ff 60 d1 15 40
       5.535615296166733 5.454471582696519
0002e0 de 8d 5e 49 ba 2c 15 40 ea 07 ca cc 50 45 14 40
       5.29367937697995 5.0676910398778805
0002f0 51 d0 1f 5c 40 2d 13 40 32 ac d0 34 b6 fd 11 40
       4.794190825883633 4.497765374409072
000300 21 08 41 df fd c7 10 40 d6 eb 4f 80 9f 35 0f 40
       4.195304382652496 3.9011831306829476
000310 69 0c b1 4f ba 12 0d 40 0d 93 9e 36 c1 f3 0a 40
       3.634144423094359 3.369020868982608
000320 7c a8 3d 1a 75 de 08 40 c7 e0 1f 83 f3 ed 06 40
       3.1086217927996227 2.8661871189216046
000330 44 cb 0c 28 8e 3e 05 40 ac 37 77 97 8a bb 03 40
       2.655544579401438 2.4665729363686832
000340 4e 23 33 e0 25 9c 02 40 a0 f7 98 7b 6f 9b 01 40
       2.326244117317777 2.2008962303215895
000350 5a 8f 28 60 7e ab 00 40 fc 1e 82 8f 92 21 ff 3f
       2.083737136113922 1.9456964116852182
000360 9a a7 3f 3e 2e 91 fc 3f 53 c5 f9 b6 c5 47 f9 3f
       1.785444491537851 1.5800225398528098
000370 d6 64 76 01 d5 59 f5 3f 81 5b dc 23 57 eb ef 3f
       1.3344316537025427 0.9974780750661553
000380 cd 2c 4c fe 04 93 e4 3f d0 7d 8b f0 4d 63 d5 3f
       0.6429467169522468 0.3341860627242257
000390 00 26 dd d2 a6 e9 c6 3f d0 28 d3 06 40 06 c8 3f
       0.17900548263632743 0.18769073804134573
0003a0 fb 7f 0c 9d 6e 7e e6 3f 09 7e fa 84 c2 e0 f7 3f
       0.7029336039886397 1.4923730082008453
0003b0 a0 a3 7f bd 70 1b 03 40 b8 55 18 26 98 5b 08 40
       2.3883986286713963 3.044723794572487
0003c0 cf 0d 33 d3 1e 41 0c 40 24 a5 4f 5a 70 5b 0f 40
       3.5317970752673555 3.9196478896671056
0003d0 a0 0b 34 49 e2 f8 10 40 40 b0 dd b7 51 1c 12 40
       4.24305071239624 4.527655480294982
0003e0 58 a2 4c 91 56 24 13 40 5a 91 92 96 bf 12 14 40
       4.785486479093912 5.018308975883281
0003f0 3f d2 a4 eb 31 e2 14 40 d9 8b 00 f2 69 83 15 40
       5.220893556532757 5.378333836825697
000400 a2 23 b4 b3 12 e4 15 40 ee a2 c4 58 40 f6 15 40
       5.472727592344116 5.4904798383729325
000410 61 73 4f c5 77 ad 15 40 88 61 91 9e bf 10 15 40
       5.419402201628004 5.26635597002349
000420 eb dd c2 a4 e4 2d 14 40 55 90 c5 f8 ba 16 13 40
       5.044817518609743 4.772197615679109
000430 ec 2d b7 8d 8c ea 11 40 2c 4e 42 a3 b6 bf 10 40
       4.479051794343359 4.187220145151098
000440 29 a4 b5 15 62 5e 0f 40 a8 f2 11 cf 84 78 0d 40
       3.9210855194146643 3.6838470628120668
000450 13 42 43 80 77 a5 0b 40 00 fb 83 c0 e5 da 09 40
       3.4557943363690895 3.231883529689526
000460 ad 1b 9c 55 fd 0e 08 40 e0 59 e2 0f 99 5e 06 40
       3.0073191345467962 2.7961903801872126
000470 c2 d7 13 00 61 ce 04 40 12 a2 00 af 75 8f 03 40
       2.6007709508948844 2.445048682410069
000480 dc 41 e8 99 61 79 02 40 aa d3 41 f7 f5 98 01 40
       2.30926819076579 2.199687892624259
000490 1e 39 2e 15 ab 85 00 40 96 0d 9b bb c7 10 fe 3f
       2.065267720673673 1.8790967300745698
0004a0 8d ab 2f 6f 32 b9 f9 3f 42 3f a7 6e 2c 5c f4 3f
       1.607714113541735 1.2725033113856203
0004b0 d1 18 4d e0 59 8f eb 3f 51 1b c0 8c c5 d3 de 3f
       0.8612489109880476 0.4816755175128736
0004c0 b9 ee ca 0b 09 43 d1 3f 46 d7 39 dd 51 57 d7 3f
       0.2697165122187744 0.36470457653137023
0004d0 8c 3e fa 69 31 cc e9 3f fc a3 ad 06 49 68 fc 3f
       0.8061759061692597 1.7754602681036422
0004e0 d7 e9 30 83 84 25 f8 3f fa 4e 9b df 75 29 03 40
       1.509159576859579 2.3952443570395845
0004f0 90 a4 5e 04 50 5d 08 40 be 25 9e 64 c6 40 0c 40
       3.045562776697416 3.5316284046900526
000500 5f df 59 2c 80 65 0f 40 0c f0 64 a0 d2 04 11 40
       3.9245608773161815 4.254709726486919
000510 a2 47 c7 81 3d 33 12 40 34 98 9e 1a 65 3f 13 40
       4.550039317882609 4.811909118585437
000520 cb 42 d1 2d ac 31 14 40 0c 3a 28 fe 3c 00 15 40
       5.048508373162529 5.2502326690723855
000530 83 f2 5f 74 63 9a 15 40 87 15 70 e8 db ef 15 40
       5.400770014148864 5.484237319794722
000540 48 39 54 9e 8c f0 15 40 3a ff 1f df d7 95 15 40
       5.484911416903124 5.396331297233525
000550 be b9 73 44 ca ea 14 40 e6 88 00 52 1a 02 14 40
       5.229287213862731 5.002053529055251
000560 5d 3a 54 e1 17 f4 12 40 79 61 7c 83 1e d8 11 40
       4.738372345701092 4.461053900209998
000570 46 f6 0b 06 aa c0 10 40 12 ac a2 3d 9c 88 0f 40
       4.188148588638404 3.941704255606518
000580 fc 9d b7 bc d4 cb 0d 40 d3 9e 79 e6 74 2b 0c 40
       3.72452685771327 3.5212190633645633
000590 f9 a9 a7 26 3b 82 0a 40 28 57 67 ff c6 cc 08 40
       3.313589384071062 3.099988932934952
0005a0 3e e6 bb 19 97 21 07 40 78 6f 38 35 f1 57 05 40
       2.8914014826266614 2.6679405362937665
0005b0 5a a9 0f a9 c6 86 03 40 5b 10 78 04 af b9 01 40
       2.4408086021332283 2.2156658505573836
0005c0 a6 1d 05 df 21 fb ff 3f 70 36 a5 21 ff 3a fc 3f
       1.9988115989416229 1.7644034685394239
0005d0 84 86 ca 4a 25 20 f8 3f fe 34 1d a6 f1 4b f3 3f
       1.5078480645683223 1.2060410012084612
0005e0 03 ab 3b d5 d3 6e ed 3f ce 04 67 a8 cd 99 e2 3f
       0.9197787441929396 0.5812748231038769
0005f0 20 b3 03 b0 85 a9 c8 3f 38 50 9f b9 81 58 c4 bf
       0.19267340750175155 -0.1589510113104795
000600 fe 35 c9 4c 4d fa d4 bf b2 89 7a 8d 3e 11 dd bf
       -0.3277772188056075 -0.4541775113704275
000610 d4 d9 47 04 ae 27 c4 bf 7a ad 56 71 8a e1 f7 3f
       -0.157460929956598 1.4925636698997935
000620 0f 76 30 e7 f3 07 03 40 46 ce bb b2 33 3b 08 40
       2.378883176962297 3.0289072001994866
000630 07 47 fe 40 0b 23 0c 40 af 93 9d 86 93 4d 0f 40
       3.517111308822567 3.9128790394629145
000640 70 ec fb 8e ea fd 10 40 7e f1 3e b6 93 2e 12 40
       4.247965082288928 4.545485351173168
000650 f7 ca 58 fa f4 3c 13 40 bd dd ba 74 c6 2f 14 40
       4.809528266591534 5.046655486970335
000660 96 dd de be ae 02 15 40 06 f8 e7 60 f2 a5 15 40
       5.252619726517329 5.4120574132521195
000670 10 5f 59 43 72 0b 16 40 fb 97 13 9d 5e 22 16 40
       5.511178066568178 5.533564047165778
000680 fb e1 18 f0 80 db 15 40 a8 bb a9 63 71 3e 15 40
       5.464359046477052 5.310979420885737
000690 4f a3 e8 c3 fa 51 14 40 9c 8c 47 e0 54 2b 13 40
       5.0800581560841485 4.792315964095135
0006a0 63 92 97 1f 55 e5 11 40 bf bc 07 2e 27 9d 10 40
       4.473957532526216 4.153469771597144
0006b0 02 97 69 93 f4 cc 0e 40 8c 1e 55 3f a4 ae 0c 40
       3.850075866374824 3.5852742145396572
0006c0 b1 8f 1c ba 33 b9 0a 40 21 07 01 9d 9b ee 08 40
       3.3404306926695075 3.116507746309154
0006d0 63 1a e6 db dc 46 07 40 be 3e 0d 29 14 07 06 40
       2.9096009425732503 2.7534564215819435
0006e0 e4 32 8a 46 16 11 05 40 a5 60 85 d8 38 79 04 40
       2.633343268482678 2.559190455980643
0006f0 4d f7 ea 4a dd 09 04 40 e6 78 2f c3 5e 9f 03 40
       2.504816613479227 2.4528174637663254
000700 4f a2 f6 47 d8 da 02 40 46 93 1b 68 7f 62 01 40
       2.3568578359739045 2.1730945714392957
000710 7a 7b 79 87 e6 6f fc 3f 9e 85 f5 27 b2 4a f4 3f
       1.7773194591497643 1.2682363091374564
000720 d2 03 cd c0 e4 2f e4 3f 80 32 7a 7b 31 66 84 bf
       0.6308463826791189 -0.009960543232659491
000730 8a 14 5f d7 22 62 dc bf 7e ca a4 83 ce a4 d6 bf
       -0.44348975212444286 -0.3538090024550583
000740 d8 31 fc b4 fa a7 d4 3f 58 ce 75 e0 65 12 fc 3f
       0.3227526442940678 1.7544916885352873
000750 0e 0c d1 9c 3a 23 f8 3f 96 ff e2 10 23 23 03 40
       1.5086008191726736 2.3921567267679604
000760 54 c7 36 89 c6 50 08 40 38 87 16 92 b9 2f 0c 40
       3.0394411773531065 3.5233031666874943
000770 53 1e 30 37 1e 56 0f 40 76 b2 60 8c 60 03 11 40
       3.9170498191413485 4.25329799022858
000780 9b 64 40 86 96 36 12 40 76 47 47 23 0e 4c 13 40
       4.553308580093609 4.824272681451353
000790 c8 8d f1 65 93 43 14 40 f5 8d 4b 67 1c 14 15 40
       5.065991967075611 5.269639600740892
0007a0 b1 c9 91 a3 00 ab 15 40 c1 20 50 8a cf f7 15 40
       5.416994624875245 5.492002640858289
0007b0 d8 57 e9 e5 fb ee 15 40 61 58 52 29 1f 8c 15 40
       5.483382789961944 5.3868376213559666
0007c0 f7 4e f0 0e 15 da 14 40 fa b3 ac 4c 36 e9 13 40
       5.212970956246628 4.977746198693234
0007d0 33 09 4a b7 2a d1 12 40 ed 9a 6c 88 60 ab 11 40
       4.704264511007113 4.417360431317076
0007e0 16 10 8f 5b 4a 8f 10 40 06 df 0b ff 1b 1b 0f 40
       4.139932089430678 3.888236992406635
0007f0 2b 7b a5 bc 67 48 0d 40 42 17 0f 74 67 7f 0b 40
       3.6603541124344665 3.4372090403657305

slopes f8 [100, 39, 7]
000000 a2 30 2f 69 9a f6 9f 3f ac 00 59 ca 91 9c e9 3f
       0.031214153928701756 0.8003624870398389
000010 ec 0c 77 ad ba aa fb 3f 60 37 54 0c 2d e0 93 3f
       1.7291819358804856 0.019409850957394226
000020 d4 a5 d9 af 27 14 7b bf 80 39 5e 4c fd d6 b0 bf
       -0.006611018206606773 -0.06578047861532887
000030 f0 4d b0 62 63 cd 87 bf 09 ca 99 2f fd 1b a9 bf
       -0.011622215699424537 -0.049041664181363194
000040 8a db 7c 07 16 e5 ea 3f c6 a2 64 49 89 cf fa 3f
       0.8404646059269549 1.6756680361669836
000050 84 f4 a9 f4 3f ca 92 3f e0 2c 9e ea cc da 7f bf
       0.01834964686212405 -0.007777023749336837
000060 f8 53 09 60 e3 f3 b5 bf 20 86 bf 76 cc cc 88 bf
       -0.08575268835677707 -0.012109372495561266
000070 c8 49 76 45 c1 98 bb bf 9e 0e 09 73 33 a4 eb 3f
       -0.10779960580683856 0.8637940642151596
000080 4e 48 1e 46 94 dc f9 3f 38 45 97 b1 20 f8 93 3f
       1.6163523425098165 0.01950121959618409
000090 30 4d a2 1e c4 e4 84 bf 60 a3 8c fe 61 93 ba bf
       -0.010201961693644707 -0.10381138290962388
0000a0 b8 1b e4 fb ae a5 8a bf cc 95 90 c1 5e 71 c3 bf
       -0.01301132875643228 -0.15189728213697007
0000b0 78 58 15 6a 9d ec eb 3f 22 60 75 df 62 de f8 3f
       0.8726336547795333 1.554293511280783
0000c0 28 ca 4c 3e 35 fa 97 3f 90 ad 5e 2e f9 4a 8c bf
       0.02341540520428445 -0.0138148753429366
0000d0 58 35 3b 28 42 49 be bf 30 ae 53 87 9c da 8c bf
       -0.11830533487519312 -0.014088843231056719
0000e0 81 61 58 cc 9f 07 c8 bf fe 2d 16 3f 8e da eb 3f
       -0.18773267247958006 0.8704291565094875
0000f0 1c de 31 69 0b da f7 3f e0 52 c6 56 eb ce 9e 3f
       1.490733538548631 0.03008620946055174
000100 80 3b a9 d3 a7 ae 92 bf 5a 6f 7e 17 af 5e c0 bf
       -0.018244383138433573 -0.12788952490961486
000110 94 c6 cf 5d ee 52 8f bf e0 dc 14 12 dc ec cb bf
       -0.015294897306350287 -0.21816588290105354
000120 f0 8d 3f 08 82 82 eb 3f 74 4f 69 9e 33 d7 f6 3f
       0.859681144819147 1.4275394618934714
000130 50 9f cc 50 c4 d1 a3 3f 88 db f3 98 f8 6e 97 bf
       0.03870976911849644 -0.02288425859020607
000140 5c 15 d4 94 63 df c0 bf 82 45 a2 9a 87 ff 90 bf
       -0.13181729094518857 -0.016599768460371596
000150 33 33 5b d7 44 64 cf bf de 55 6f 3c 42 f7 ea 3f
       -0.24524746432725805 0.8426829510087221
000160 ee e6 89 62 7f dd f5 3f e8 e4 44 f2 b9 97 a8 3f
       1.366576561848372 0.048032580207697795
000170 0a 37 c8 01 0b 9c 9b bf 64 36 95 e0 aa a8 c0 bf
       -0.026962444289941913 -0.13014732328376788
000180 41 76 7e 17 28 83 92 bf f7 33 8a 91 79 3d d1 bf
       -0.018078447755774944 -0.26937712872387415
000190 d8 ee 75 15 a5 47 ea 3f 25 3e 5c 51 32 ed f4 3f
       0.821245710292227 1.3079093149316432
0001a0 20 dc e1 9b 10 03 ad 3f b0 98 9b c7 25 87 9e bf
       0.05666400816783601 -0.029812422092526603
0001b0 c0 f1 2d e9 94 96 bf bf a2 d5 e4 6d f8 68 94 bf
       -0.12339144413812786 -0.019931680400267056
0001c0 67 b2 9b 74 87 9f d2 bf 20 42 c4 50 40 7e e9 3f
       -0.29098688495176933 0.796661527392704
0001d0 be 20 ea 97 10 03 f4 3f 4a fd d1 94 1e 42 b0 3f
       1.250748246589907 0.06350890286738778
0001e0 90 8d e0 9c e3 a9 9f bf 64 ac a7 96 e6 c2 bc bf
       -0.030921513032934167 -0.11234894922351796
0001f0 3d 99 04 d5 0e ba 96 bf 41 b1 9e 90 6f d0 d3 bf
       -0.022194129706940336 -0.3095969116500506
000200 db fc 16 1e 12 a2 e8 3f 21 84 a1 c3 1f 19 f3 3f
       0.7697840297404598 1.1936338083107858
000210 4c cc df e9 6a 63 b1 3f 50 93 e7 f2 6e f0 9e bf
       0.06792324266261679 -0.030214055610389423
000220 80 66 12 45 83 17 b9 bf 56 72 49 6a 2d b1 99 bf
       -0.09801502643895255 -0.025089940654981234
000230 74 11 83 84 4f bd d4 bf 69 35 95 3d a5 ba e7 3f
       -0.3240546030104021 0.7415338709630933
000240 73 f3 b5 50 2a 2c f2 3f d4 c9 92 13 80 e6 b1 3f
       1.135782542492248 0.06992340543619174
000250 f0 16 52 1c d5 bf 9c bf 2c 68 71 ea db db b4 bf
       -0.028075532773548184 -0.08147978280740692
000260 15 35 31 f6 1c 69 9d bf 5c 14 ed 84 aa 55 d5 bf
       -0.028721287275677094 -0.3333536432367674
000270 70 f3 6c 21 fd cb e6 3f dd 51 0b 96 b5 3d f1 3f
       0.7124009754985376 1.0775657521345388
000280 c4 fb 50 ce 20 e2 b1 3f 10 ae 60 ab b4 b8 99 bf
       0.06985669171352443 -0.02511865898138238
000290 68 34 df 2b 04 69 b0 bf 18 5f 07 01 17 da a0 bf
       -0.06410242148486278 -0.03291389358099489
0002a0 cd 83 14 58 36 87 d5 bf 84 09 0d 22 d2 dd e5 3f
       -0.33637770272804063 0.6833277382905156
0002b0 22 fe 15 07 6f 52 f0 3f f6 fb ff 57 da 7c b1 3f
       1.0201254154961892 0.06831135414539333
0002c0 d0 44 8e b9 08 a6 96 bf b8 22 5b d5 b1 09 a8 bf
       -0.02211774475614875 -0.0469489643997511
0002d0 78 19 c6 8c ec 47 a3 bf 5c 1e 16 42 59 46 d5 bf
       -0.03765811174803252 -0.33241874173879693
0002e0 13 fb f1 6c d3 f7 e4 3f 67 3d 72 1b ec e8 ee 3f
       0.6552521827541987 0.9659328971919593
0002f0 8b 26 2f 99 6b e8 b0 3f e6 cb 5c 6c 8b 2b 94 bf
       0.06604645242546263 -0.019697359551354675
000300 28 db 65 32 ec d5 9f bf fd 3f 58 ff 78 e3 a5 bf
       -0.03108948762516231 -0.04275110356331877
000310 ef b7 6f 88 02 99 d4 bf 12 d1 1a c5 21 23 e4 3f
       -0.32183898280970785 0.6292885636999321
000320 bd d1 66 d2 bc 5c ed 3f 7d 58 47 16 c8 48 b0 3f
       0.9175705060393323 0.06361055892861774
000330 20 e9 9c a1 1e c3 92 bf f4 94 97 f4 18 88 91 bf
       -0.018322447408743447 -0.017120733193128637
000340 c5 c7 36 b5 cd 82 a8 bf 96 92 85 bd 02 8b d3 bf
       -0.04787295186123645 -0.3053595400618091
000350 4e 0d 23 7e e7 63 e3 3f 4a e2 73 aa d4 13 ec 3f
       0.6059453452693704 0.8774207429078811
000360 76 b6 bf e8 92 62 af 3f 00 a2 ff a7 8d 68 92 bf
       0.06129893389866663 -0.017976964358156877
000370 dc bc fe 94 32 14 76 bf 86 4a d6 61 99 b5 aa bf
       -0.0053903556690066655 -0.0521667415552161
000380 ad 90 34 d6 f0 37 d2 bf 53 6e 40 65 8e c0 e2 3f
       -0.2846643535469962 0.5860053994724218
000390 c6 aa e4 16 a0 1b eb 3f bc fe 4f 4e 8e 58 ae 3f
       0.8471222350247778 0.059269377765301695
0003a0 c0 5c e4 39 6a fe 92 bf 50 83 b4 07 91 1d 70 3f
       -0.018548640998315546 0.0039344468343934375
0003b0 4e cf 7d b0 62 4c ac bf a8 95 11 5e 97 bb d0 bf
       -0.0552702751582773 -0.26144966303248873
0003c0 16 f7 81 54 08 3a e2 3f 6f 2c 87 8d de 80 ea 3f
       0.5695840502300793 0.8282311214656043
0003d0 d4 23 9a d6 6a 3f ad 3f 00 18 b0 5b b7 68 94 bf
       0.05712446088461545 -0.0199307107650597
0003e0 88 ee ff 55 ab 40 85 3f 60 b2 39 ad fe 17 ad bf
       0.010377253114703736 -0.05682369103019336
0003f0 95 10 9c fa 4d 6d ce bf df 20 1a b5 b7 cd e1 3f
       -0.2377107118301224 0.5563620125913323
000400 6c f7 ad 6b 38 3b ea 3f 70 1d 36 9c 46 f4 ab 3f
       0.8197290518871632 0.05459805161359099
000410 30 f9 67 6c c5 23 96 bf bc f8 ea ec 86 60 8c 3f
       -0.021620831243120253 0.013855985741767156
000420 7c 76 89 35 0a f4 ac bf 63 09 c7 e4 17 82 cb bf
       -0.05654937652137179 -0.21490763350272876
000430 db 73 cd f4 86 7d e1 3f 86 0b a7 66 21 4c ea 3f
       0.5465731412219798 0.8217932705814384
000440 ea d1 ec 6f 5f 1a aa 3f 2a 4a 4a 71 98 d6 97 bf
       0.05098245850823331 -0.02327955428570242
000450 0e 92 69 64 53 a9 8e 3f b0 a1 8c 5a e4 62 ac bf
       0.014971400739519882 -0.0554419861348977
000460 e6 55 5c 16 18 dc c8 bf 13 18 5b 3d 6c 46 e1 3f
       -0.1942167386229549 0.5398465345722364
000470 d3 96 42 53 62 a5 ea 3f f3 0e e2 ee 87 b5 a7 3f
       0.8326884866880512 0.04630684653332464
000480 c3 c7 72 54 ce 06 99 bf d8 73 9c d8 d9 4a 8c 3f
       -0.024440025238341222 0.013814641879031628
000490 50 63 1d e7 12 bc ab bf fe 2a f5 2a 5f 58 c6 bf
       -0.05416926451898141 -0.17457189176123927
0004a0 b1 98 31 10 91 1b e1 3f 5e 89 34 ab 62 2e eb 3f
       0.5346150699886235 0.8494122833110784
0004b0 50 31 32 92 84 ad a4 3f 98 95 3f 6f fd 6f 99 bf
       0.04038633617992338 -0.024841270365774187
0004c0 08 b7 32 2f 8a f0 88 3f 78 c7 4d 6a e0 8a ab bf
       0.012177543225643031 -0.05379391954092133
0004d0 4e 45 d9 f1 14 00 c4 bf 25 d7 a7 3f 2e f6 e0 3f
       -0.1562524968053744 0.5300513499521214
0004e0 70 b1 bc dd 37 dc eb 3f 88 ed 1d 1c 98 47 a1 3f
       0.8706321078112023 0.033749345237960304
0004f0 60 cc 75 e5 a2 26 99 bf c8 15 cf 8b 56 66 86 3f
       -0.024561448340545744 0.010937381879453492
000500 af 31 87 86 63 06 ac bf fc cb e1 c9 01 d2 c1 bf
       -0.054736242458236155 -0.1392214046241803
000510 45 58 f4 29 a8 ce e0 3f c0 05 89 25 2d 91 ec 3f
       0.5252266711638717 0.8927217228994593
000520 40 48 22 05 97 cc 9b 3f 38 e7 6a 88 ea 3c 98 bf
       0.02714763611636095 -0.023669876648205718
000530 c0 49 3e 40 29 4c 87 3f c6 b3 95 96 60 f6 ac bf
       0.011375734589624709 -0.05656720960801169
000540 7d 8f 94 bd 53 de bf bf ab 86 ed ba f3 99 e0 3f
       -0.124486192497498 0.5187929774221706
000550 cf 98 a5 4d f2 3d ed 3f 80 d9 09 00 d6 94 95 3f
       0.9138118282833377 0.021075576546047525
000560 50 06 03 44 ef 1c 97 bf c0 19 0e c2 f4 61 8b 3f
       -0.0225713143597715 0.013370430156794622
000570 13 e0 85 cc f2 23 ae bf a3 c8 08 61 c8 89 bc bf
       -0.05886801478021666 -0.11147739762307877
000580 d3 a2 78 c1 8d 51 e0 3f e8 a9 88 76 a5 c6 ed 3f
       0.5099552897200631 0.9304988207925904
000590 e0 7f f5 f6 af 56 90 3f a8 90 dd b8 9f 00 96 bf
       0.015955686042957384 -0.021486755045217493
0005a0 70 ce b5 79 45 de 90 3f bb 01 33 bb 73 e7 ae bf
       0.016472898057556085 -0.060359589196653705
0005b0 4c 77 38 20 ad de b9 bf dc 9a 6a ff 7d f7 df 3f
       -0.10105402027735727 0.49948072379122066
0005c0 a6 8a 63 29 b1 12 ee 3f 00 17 93 3a 59 5a 88 3f
       0.9397817428947135 0.011891076183370597
0005d0 a0 b4 25 e9 28 80 95 bf bc 20 a2 01 09 dc 93 3f
       -0.020996703367406 0.019394055103959515
0005e0 bf 7d 8a 17 0c e3 ae bf 2e 05 9c 4d b2 96 b7 bf
       -0.06032598292699331 -0.09214319605600416
0005f0 58 5a 3c 9f 18 1a df 3f 90 01 78 d2 c8 0b ee 3f
       0.4859677844082504 0.9389385328977813
000600 88 79 27 d2 75 9b 81 3f 40 7e 6f be 48 a7 95 bf
       0.008597298122307931 -0.021145950911771516
000610 d0 72 f5 4a 6c f1 94 3f 92 d2 fe d7 21 f6 ad bf
       0.020452205729599993 -0.05851846467650036
000620 a7 e0 38 39 fb a4 b5 bf dc ce f1 b6 c9 06 de 3f
       -0.08454866549516514 0.46916430345230054
000630 76 c6 ac 2c 54 af ed 3f c0 71 62 05 d9 b7 79 3f
       0.9276524422222809 0.006278846491252599
000640 44 96 9b d8 1c f1 96 bf 78 c8 d3 66 c0 dd 92 3f
       -0.022404146881760192 0.018424040103987654
000650 94 6d 17 89 a0 8b ac bf cc c5 b6 12 b7 fa b2 bf
       -0.05575277017097871 -0.07413810927280123
000660 52 49 87 ac 36 d5 dc 3f 5a a9 9d 54 fd fb ec 3f
       0.4505135235641734 0.9057604458478565
000670 40 7b 96 79 fa 5f 71 3f 3e fb 82 e0 b8 c6 99 bf
       0.004241922776968832 -0.02517212744055119
000680 40 ad 84 3b 34 de 88 3f f4 69 3c 56 43 d0 ab bf
       0.012142570558885013 -0.054323295857290704
000690 ac c6 13 d7 1b d2 ae bf e4 26 bb db 5e 82 db 3f
       -0.06019675255255427 0.4298321862994341
0006a0 28 bf 96 77 22 f4 eb 3f 80 3b 3c 49 a8 4f 60 3f
       0.8735515914649783 0.001991108592739932
0006b0 4c 5d 69 db 07 a7 9e bf 00 d8 6f 1d bf 42 5a 3f
       -0.029934046522922572 0.0016028276784232354
0006c0 d4 82 64 43 94 1a ac bf 17 ba e2 f8 ef 74 a4 bf
       -0.054890282847059574 -0.039954661494778936
0006d0 c0 db 69 d2 bb 1f da 3f da 0a 77 ed 97 c8 ea 3f
       0.40818687008089327 0.8369865072239364
0006e0 00 da f6 16 da 77 52 bf 44 3f d7 60 76 a8 a2 bf
       -0.0011272077352778576 -0.036441516229045706
0006f0 60 cd 50 f0 d3 b8 8a bf 6a 05 16 b7 85 d7 ae bf
       -0.013047843715048912 -0.06023805484711427
000700 d2 aa 6c a2 19 5a 91 bf 6e e0 d0 cc 7d 06 d9 3f
       -0.01694526723728524 0.39102120400958185
000710 e3 a6 c7 c9 42 81 e9 3f 40 1c 61 ec 6e 0b 77 bf
       0.7970289174092752 -0.005626138014185378
000720 dc 3a c4 13 95 37 a6 bf 58 bc 5d 83 e1 38 9c bf
       -0.04339280954638067 -0.02756073345466023
000730 e5 2d 0e b1 2b ca b1 bf 3a c0 76 4e 30 33 83 3f
       -0.06949112961427024 0.009374978441741278
000740 84 18 c9 65 ca 0d d8 3f 6d c8 fb 32 05 17 e8 3f
       0.3758417123793907 0.7528100963375103
000750 88 5f cd 2e 01 cd 87 bf ca ff 65 8a 7f e9 a9 bf
       -0.011621484032431587 -0.050609574932422755
000760 c2 4e 4c df d9 6b a5 bf 40 8e 90 a8 8e be b4 bf
       -0.04183846331411935 -0.08103267302845385
000770 e0 e4 2a 94 f2 cf a0 3f 8e 8c 7e b8 c7 6d d7 3f
       0.032836514078960155 0.36607544915222767
000780 2a 3d be 6f 76 b6 e6 3f a4 a4 af a7 46 a8 94 bf
       0.7097732717974499 -0.020173171982524565
000790 62 67 e2 96 c5 b0 ac bf 18 07 5a f2 06 f3 aa bf
       -0.056036162060265196 -0.05263539989847582
0007a0 92 04 df ec c8 81 b8 bf f0 af 31 fe 5c 32 a7 3f
       -0.09573035986888304 0.04530611613230906
0007b0 74 03 8d eb e9 32 d7 3f 9e 20 7f 42 a9 29 e5 3f
       0.3624825287152398 0.6613355921517898
0007c0 0c c9 41 ab 18 c7 a0 bf 78 c9 89 13 0d da af bf
       -0.032768984704391796 -0.06221047271255292
0007d0 65 5e 29 04 e5 38 b0 bf c4 8c 7c d9 77 74 bd bf
       -0.06336814262010078 -0.11505841312150539
0007e0 ae 34 7d 64 4c a7 a1 3f d4 6e 47 9a 84 e5 d7 3f
       0.034479510561689394 0.37338366571723935
0007f0 58 b3 dd 59 6f 09 e4 3f 38 98 0c b6 82 79 a8 bf
       0.6261517291255627 -0.047802052233507586

scatter f8 [100, 39]
000000 28 5e 26 14 ad 97 d8 3f 2d 24 7f fb 74 d1 d7 3f
       0.3842575737739673 0.3721592384359294
000010 99 c4 b3 26 8f 03 d7 3f 94 42 16 ea a5 32 d6 3f
       0.3595922353698114 0.3468413148885159
000020 e8 13 5d bd 60 60 d5 3f 16 c6 dc 8e 07 91 d4 3f
       0.33400743954217527 0.3213518996372796
000030 e6 37 72 28 1d ca d3 3f 23 a3 39 37 87 0f d3 3f
       0.3092110533697209 0.2978227652843534
000040 dc 17 46 15 41 63 d2 3f b9 1c e2 81 16 c6 d1 3f
       0.28730799748916325 0.27771532710944374
000050 51 18 1b 1d af 37 d1 3f 08 42 29 4f c3 b6 d0 3f
       0.2690236839520184 0.2611549637850037
000060 4c 5a c6 dc 5d 41 d0 3f 44 5f c2 f3 3f ae cf 3f
       0.25398966369667586 0.24750518228824536
000070 fc 62 31 34 2b eb ce 3f c3 61 78 ef be 35 ce 3f
       0.24155178116304643 0.23601519291766068
000080 0a e9 77 84 1f 8c cd 3f 60 68 81 60 be ed cc 3f
       0.23083871811088158 0.2260053607195145
000090 2f 84 e8 8e ae 59 cc 3f 62 f2 12 e3 9c d0 cb 3f
       0.2214868734163544 0.21730385863874618
0000a0 d9 28 a3 2b b7 53 cb 3f d4 ef fa 8b 12 e1 ca 3f
       0.21349229460458366 0.20999366602870728
0000b0 53 c4 bf 11 b1 75 ca 3f 4b 6c 8f df c0 0b ca 3f
       0.20671666494993932 0.20348368564632077
0000c0 55 a7 37 31 c1 a1 c9 3f be 65 dc 2f 74 38 c9 3f
       0.20024886038964476 0.19703533493956898
0000d0 fd 23 40 17 9b d2 c8 3f 9f 5f 83 a3 82 75 c8 3f
       0.193927179673011 0.19108612999002347
0000e0 e5 6f e9 e1 0e 2a c8 3f 50 84 31 04 55 ee c7 3f
       0.18878351240971294 0.18696081833607758
0000f0 fe 85 b5 f7 d0 be c7 3f ba 8e 07 9b 99 97 c7 3f
       0.18551075072450368 0.18431396550942286
000100 eb 6e 87 ba 55 69 c7 3f 0f 8e 2b 1f 1a 2f c7 3f
       0.18290206535208794 0.18112494012812916
000110 16 28 bf 23 4d e5 c6 3f 15 14 f3 ff b3 85 c6 3f
       0.17887272115177727 0.17595529553923997
000120 c9 d5 ee d4 92 1f c6 3f f7 86 a6 c3 70 ab c5 3f
       0.17283854863278084 0.16929444840666694
000130 d1 94 63 7a 57 02 c5 3f d5 b5 17 b7 1c 94 d8 3f
       0.16413396335625532 0.3840400493635035
000140 59 c8 a1 55 95 cd d7 3f e3 a0 5a bb 58 ff d6 3f
       0.3719228111505167 0.3593351201657368
000150 3e c9 1e 71 d0 2d d6 3f 56 fb 8b 5f 49 5a d5 3f
       0.34654627844715324 0.33363565760366976
000160 e4 8b d6 70 12 89 d4 3f 47 7b e4 37 dd bf d3 3f
       0.3208662130293176 0.3085854574036841
000170 18 92 d8 37 cf 02 d3 3f 19 24 37 4e 09 54 d2 3f
       0.29704647496899517 0.28637917173597455
000180 28 29 29 ed 9e b4 d1 3f c7 3e af 9d 1d 24 d1 3f
       0.2766492191336902 0.26782932661897657
000190 10 5f f1 58 70 a1 d0 3f 5a ca 91 14 10 2b d0 3f
       0.25985344587159975 0.25262834557284963
0001a0 37 e2 d5 e5 53 82 cf 3f 58 3b d1 0f d8 c2 ce 3f
       0.2461647865527696 0.24032116672830273
0001b0 95 17 cf e8 c6 12 ce 3f 1a 95 d4 5a 53 70 cd 3f
       0.23494802825569808 0.22999040541723376
0001c0 31 9c 5e 56 f3 d7 cc 3f ff 41 70 d5 f7 46 cc 3f
       0.22534028737320136 0.22091577455331898
0001d0 5f d9 05 87 38 c0 cb 3f c1 d3 f8 c9 03 4a cb 3f
       0.2168036135951281 0.21319625245965138
0001e0 c9 e2 87 65 e8 e2 ca 3f 24 2f 4e dc 15 8a ca 3f
       0.21004967649039077 0.2073390317640299
0001f0 e4 bd ea 60 83 3a ca 3f 83 e8 ad 22 53 ed c9 3f
       0.2049106810786575 0.20255507653547875
000200 64 fb f2 35 7a 9e c9 3f 8f ef d3 22 ab 4d c9 3f
       0.2001488459991051 0.19768275452213088
000210 fb d8 26 9e 94 fd c8 3f 37 1f c2 1d 9b b3 c8 3f
       0.19523866388562525 0.19298113778153844
000220 b0 d5 69 c4 24 73 c8 3f d6 8b ad 77 85 31 c8 3f
       0.19101390448092337 0.1890112718930072
000230 d9 e1 71 b3 e5 f4 c7 3f 48 6b 41 9a 97 a9 c7 3f
       0.1871611715503281 0.184863043136682
000240 05 39 92 1b 6d 4e c7 3f ef 8e 10 e9 e3 e6 c6 3f
       0.1820808777451434 0.1789212120066774
000250 ec f5 93 cf c3 61 c6 3f 3c 1d 8b ca b9 c6 c5 3f
       0.1748585475506127 0.17012712850394418
000260 f8 86 84 62 71 22 c5 3f 67 c6 d0 13 4c 3a c4 3f
       0.165113614181841 0.15802908866457985
000270 c5 08 57 22 51 97 d8 3f 2a 4d 17 f0 15 d1 d7 3f
       0.38423565248025354 0.3721365780485991
000280 e5 63 6b 65 52 02 d7 3f 89 e4 23 91 58 2f d6 3f
       0.3595167150902497 0.3466397683510612
000290 6c 6d 8c d3 f1 59 d5 3f 4d c4 1c 88 0b 87 d4 3f
       0.33361478480374873 0.3207424954626433
0002a0 95 94 c4 f2 f8 bc d3 3f 11 11 a4 42 fe ff d2 3f
       0.30840896327783557 0.2968745852270028
0002b0 7b 65 12 58 b8 52 d2 3f a5 76 1d 6e 65 b6 d1 3f
       0.286298833854367 0.2767575812666599
0002c0 a1 b2 c4 12 22 2a d1 3f 7b 04 23 09 54 ad d0 3f
       0.2681966002735781 0.26057911770119063
0002d0 99 ff 6c d4 df 3c d0 3f 64 33 4b 81 74 af cf 3f
       0.25371547455505944 0.2475419646565583
0002e0 47 02 76 ac bd f6 ce 3f 0c cd 03 f6 c8 46 ce 3f
       0.24190493508287345 0.23653518688625075
0002f0 04 20 a4 d4 7d a1 cd 3f 13 46 e4 f7 85 08 cd 3f
       0.2314908302580535 0.2268226108940757
000300 49 01 1e 1b 28 7c cc 3f b1 1e 92 f5 26 ff cb 3f
       0.2225389606865156 0.21872412672768385
000310 c1 a0 b6 3e 3f 8f cb 3f 9b 83 c2 a8 cc 26 cb 3f
       0.2153090530603148 0.21212156524873368
000320 a4 71 74 90 95 bf ca 3f 07 86 7a 63 3f 4f ca 3f
       0.20897168687305367 0.20554344518045317
000330 9f 24 3c 51 c7 d8 c9 3f 74 b2 6d 49 c2 5f c9 3f
       0.20192805735158445 0.19823483071685966
000340 0e 51 b2 5b b3 ea c8 3f aa 89 d0 55 d0 7f c8 3f
       0.19466249444361278 0.19140056791463894
000350 57 69 37 f4 de 25 c8 3f 4b aa 3e c6 6c d4 c7 3f
       0.18865572857505228 0.18617019348069372
000360 49 70 67 25 37 85 c7 3f 51 41 60 e3 07 3f c7 3f
       0.18375291181917167 0.18161104776710116
000370 15 fa 9f 54 a0 ee c6 3f f8 6f 8f f9 c3 91 c6 3f
       0.1791572964866225 0.176323410850159
000380 30 f4 47 d2 4f 2c c6 3f e5 bd 07 2a 1f ac c5 3f
       0.17322728889112815 0.16931523849733235
000390 43 b2 fc b8 ec 0a c5 3f f2 f0 72 eb a1 41 c4 3f
       0.1643958953149128 0.158252944913222
0003a0 31 63 52 20 52 74 c3 3f 7f a5 66 0e 27 a1 d8 3f
       0.1519873292752663 0.3848359718927767
0003b0 ab ee a0 85 03 dd d7 3f 3a 80 29 e6 31 10 d7 3f
       0.372864609238358 0.3603634593655475
0003c0 5d f3 ae 31 ac 3f d6 3f 6e 38 9f 12 87 6d d5 3f
       0.34763626911062834 0.3348100358824756
0003d0 8e 5d 9e 45 23 9e d4 3f 5b b4 9b 1d 5b d7 d3 3f
       0.32215196417515635 0.3100192822592526
0003e0 9f 8b 33 86 bc 1c d3 3f e6 9e 7f b4 46 70 d2 3f
       0.29862893205261715 0.28810279490288193
0003f0 15 19 51 27 3c d2 d1 3f 3f b7 78 4e e6 41 d1 3f
       0.2784567245438592 0.2696471945117657
000400 4a b7 9d 78 30 be d0 3f 33 69 64 6f 02 45 d0 3f
       0.2616082361117732 0.25421200636050684
000410 a3 11 76 a4 af ab cf 3f 8d c1 a9 88 67 de ce 3f
       0.24742694406826357 0.24116224453929327
000420 83 b1 72 78 7b 1d ce 3f c1 29 35 5c 6c 67 cd 3f
       0.2352747285962203 0.22971872808768803
000430 1e 85 2d f6 32 bb cc 3f f6 a9 11 bd 6a 19 cc 3f
       0.2244628622093296 0.21952566367993115
000440 ad 4d 62 f3 21 85 cb 3f 38 42 91 97 61 02 cb 3f
       0.21500038513168587 0.21101016903641479
000450 63 44 2b 8f db 90 ca 3f 70 c3 a7 a1 7f 2f ca 3f
       0.20754570475267817 0.2045745410282751
000460 ae 32 92 31 55 ce c9 3f 7f 6f d8 65 32 67 c9 3f
       0.20160927696669745 0.1984618184368365
000470 6e a0 c1 38 db f2 c8 3f 6b 6a bb 03 3d 70 c8 3f
       0.1949113871698986 0.19092524225455362
000480 3c f4 d2 89 ba e7 c7 3f 1f 2f b0 1e b1 6b c7 3f
       0.18675929765405097 0.18297399519394106
000490 e6 68 41 38 c2 03 c7 3f 3e 3c fc d7 be b9 c6 3f
       0.1798022055325596 0.1775435022941298
0004a0 b8 91 3f 78 16 8f c6 3f 3a c3 95 93 36 72 c6 3f
       0.17624169227123132 0.17536050993251157
0004b0 79 1e d7 b4 ae 64 c6 3f 32 d5 1c 15 76 5b c6 3f
       0.1749475844392128 0.17466617613687557
0004c0 29 85 69 f9 4e 48 c6 3f ac 57 6a ae 1d 24 c6 3f
       0.17408168009118555 0.1729771711003968
0004d0 13 b3 34 8b 36 c4 c5 3f 27 19 4a 99 39 f6 c4 3f
       0.17005044743691453 0.1637641905292153
0004e0 c6 80 e0 c1 f5 99 d8 3f 96 60 f4 72 ff d3 d7 3f
       0.384396972020124 0.3723143217662338
0004f0 a2 e3 8d c6 59 06 d7 3f 5d 55 22 32 2b 36 d6 3f
       0.3597626151090997 0.34705619712743446
000500 cf 07 f0 a8 d3 64 d5 3f 8f 95 cb 45 90 96 d4 3f
       0.33427897928060885 0.3216896707147833
000510 fa 4b ab 9f 92 d0 d3 3f f9 fc 19 3d 03 17 d3 3f
       0.30960527031601226 0.2982795807547088
000520 f1 5e 19 89 73 6b d2 3f b7 3a dd e6 e1 ce d1 3f
       0.28780830753883807 0.2782521013768177
000530 ed c4 a0 e2 4b 40 d1 3f 75 d7 7f a9 26 be d0 3f
       0.2695493424572096 0.2616058974521061
000540 5b 1e 3b 43 c2 46 d0 3f 14 d3 1f 99 a4 b3 cf 3f
       0.25431877675553033 0.24766976811192676
000550 d9 fb 41 13 10 eb ce 3f 33 1c 49 ad 1a 31 ce 3f
       0.24154854717559607 0.23587354146204262
000560 8d cb 0b ce 67 85 cd 3f 7b 80 21 85 4f e7 cc 3f
       0.23063371239512911 0.22580904007464028
000570 a4 d9 7c db ea 54 cc 3f 90 c8 c8 fc 4a d0 cb 3f
       0.22134147374317792 0.21729409544929412
000580 87 67 cf 37 99 57 cb 3f 23 ff f3 f9 94 e6 ca 3f
       0.21361079430681348 0.21016180233709134
000590 f3 51 1b c5 53 7a ca 3f 60 1b 2e c1 a4 0d ca 3f
       0.2068581306872513 0.2035413687956078
0005a0 e3 15 f0 ef cb 9e c9 3f ec 71 ec 95 f4 32 c9 3f
       0.20015858855928945 0.19686753578652316
0005b0 74 1e ca 1e 6a d0 c8 3f d2 9e ee dd ea 80 c8 3f
       0.19386030677218324 0.19143424831894734
0005c0 fa f4 b8 36 c4 4d c8 3f 4e 06 d5 a7 3d 33 c8 3f
       0.18987324401852118 0.18906374640396212
0005d0 8e 3d c2 f0 68 2b c8 3f e0 1c e9 3f 68 2b c8 3f
       0.18882476573751855 0.18882468338617908
0005e0 5a a6 12 3c ab 18 c8 3f 19 07 20 64 44 eb c7 3f
       0.18825283463711423 0.18686728371545128
0005f0 eb a8 d4 82 e0 98 c7 3f 65 8a e7 8e c0 10 c7 3f
       0.1843529356786527 0.18019873597866645
000600 43 ff 4b 53 c7 59 c6 3f 45 f2 4f 4d 24 76 c5 3f
       0.1746148258898704 0.16766790175451454
000610 e5 62 79 c2 a9 47 c4 3f 86 1b 5b 20 da 96 d8 3f
       0.15843698497589923 0.38420727882151373
000620 6e ce 70 2f 80 d1 d7 3f 8b 31 7b 73 54 04 d7 3f
       0.3721619094169232 0.35963927533591605
000630 48 98 61 4e f0 33 d6 3f 3a 47 7e b6 06 62 d5 3f
       0.3469200864259432 0.3341080457840807
000640 a7 65 8f 69 c5 92 d4 3f 70 80 67 a9 d8 cb d3 3f
       0.3214581995831289 0.30931679290188807
000650 0a cd 47 2f 06 11 d3 3f c1 03 60 f0 ba 64 d2 3f
       0.2979140722010959 0.2873980853474301
000660 82 98 5e f6 30 c8 d1 3f 9c dc c1 b1 d3 3a d1 3f
       0.2778437047912875 0.2692155109320511
000670 35 0d 3e 9d 3a bb d0 3f b9 80 b9 08 cf 46 d0 3f
       0.2614275489397245 0.25432182170880996
000680 40 b6 6d 97 e2 bc cf 3f f4 03 2c fa 2e 00 cf 3f
       0.24795181650135767 0.24219310012270479
000690 3c c2 4b 24 5e 52 ce 3f e3 86 3d c8 11 b2 cd 3f
       0.23688866398107844 0.2319967487083466
0006a0 c1 61 44 4a 6d 1c cd 3f 97 67 5d 7e 98 8d cc 3f
       0.22743002058338216 0.22307115717086098
0006b0 e0 a9 97 05 08 03 cc 3f e2 8f 51 e0 09 7e cb 3f
       0.21884250901287228 0.2147838921838448
0006c0 67 29 b2 62 e2 fc ca 3f 83 2e ef 80 01 7d ca 3f
       0.21084241694581893 0.20693987651462828
0006d0 03 6e 7e 5a 5e fa c9 3f bc c1 c6 a6 57 78 c9 3f
       0.20295314234395798 0.19898505824450108
0006e0 8e e7 ae ca bd f8 c8 3f 7c 10 d6 fa 74 83 c8 3f
       0.19509098431245459 0.19151174781666558
0006f0 df 15 d6 eb 96 1d c8 3f 8d db c5 b4 62 d2 c7 3f
       0.18840300097887927 0.1861079580955586
000700 d9 3c 83 a0 cf 99 c7 3f 9c a9 d4 f8 b1 71 c7 3f
       0.18438144052058794 0.18315720224320564
000710 f9 e8 50 a0 cb 54 c7 3f f9 c6 4a 73 43 27 c7 3f
       0.1822752507012593 0.18088572625634194
000720 4b 9a fd 16 b7 da c6 3f 1f f7 a5 1d 67 64 c6 3f
       0.17854965803708675 0.17493905017539021
000730 41 d2 2d 87 23 b1 c5 3f 36 ee 14 ee 35 e4 c4 3f
       0.16946834660088153 0.16321443677030495
000740 79 50 86 b2 cb f2 c3 3f 18 87 d7 97 34 5a c2 3f
       0.15584703652405432 0.14337785162120364
000750 5b 7d b5 55 e4 9b d8 3f d9 f6 c8 7d 9e d3 d7 3f
       0.38451488847745957 0.37229120525067355
000760 40 de 7f 01 45 03 d7 3f 3a 83 4e 6b 5c 2f d6 3f
       0.35957455774721225 0.34664068679017
000770 c1 cb b7 ed 3f 5a d5 3f 4c c4 5b 0a 75 88 d4 3f
       0.3336334058250792 0.32082868587082625
000780 9a 48 95 7e ed bf d3 3f c3 ff fd 56 e3 04 d3 3f
       0.30858933793673204 0.2971733426602407
000790 b3 6d 8f 01 5f 59 d2 3f 74 88 19 4d cb bd d1 3f
       0.2867047801243771 0.27720911530753445
0007a0 82 69 3c a5 d7 30 d1 3f a3 c9 ac ea 89 b0 d0 3f
       0.26860610138250973 0.26077506940341716
0007b0 28 f6 4f 81 e4 39 d0 3f 4d b0 76 3d 43 98 cf 3f
       0.2535334837737957 0.24683418751863187
0007c0 06 6b 2e 77 57 ca ce 3f 7a f5 50 e7 46 07 ce 3f
       0.24054997748756807 0.2345970754121643
0007d0 85 5c fd dd c8 50 cd 3f fe 4a ee 18 f6 a8 cc 3f
       0.22902785147991636 0.22390629021955272
0007e0 b3 18 81 4f e7 12 cc 3f 5a ae 27 ea 9d 8c cb 3f
       0.21932689077420306 0.21522878583288013
0007f0 f8 2e 0e 82 ec 17 cb 3f 84 59 97 1f 55 ad ca 3f
       0.21166759825097592 0.20841468851604017

Maxvals f8 [11]
000000 7c 40 26 1c 46 a8 2d 40 00 49 fd da 3b df 2c 40
       14.82865989653532 14.436003535669897
000010 53 75 fa 78 68 95 2c 40 ab 28 fe 8a a1 71 2c 40
       14.29181268746712 14.221935599828006
000020 cb 33 41 77 c7 47 2c 40 07 92 40 0d be 33 2c 40
       14.140193678578632 14.101059354908115
000030 de f2 92 73 36 0a 2c 40 83 f7 80 b6 aa f2 2b 40
       14.019946681678842 13.973958686106704
000040 b6 39 0a 1a e5 c8 2b 40 d2 24 ef b9 30 8f 2b 40
       13.892372907398435 13.779668627207148
000050 8d 19 fc f2 31 2d 2b 40
       13.58827170684233
