Data/SIMBA/Model_snap33.npz (npz, 282826 bytes, 5 tensors)

x f8 [39]
000000 00 00 00 00 00 00 26 40 33 33 33 33 33 33 26 40
       11.0 11.1
000010 66 66 66 66 66 66 26 40 99 99 99 99 99 99 26 40
       11.2 11.299999999999999
000020 cc cc cc cc cc cc 26 40 ff ff ff ff ff ff 26 40
       11.399999999999999 11.499999999999998
000030 32 33 33 33 33 33 27 40 65 66 66 66 66 66 27 40
       11.599999999999998 11.699999999999998
000040 98 99 99 99 99 99 27 40 cb cc cc cc cc cc 27 40
       11.799999999999997 11.899999999999997
000050 fe ff ff ff ff ff 27 40 31 33 33 33 33 33 28 40
       11.999999999999996 12.099999999999996
000060 64 66 66 66 66 66 28 40 97 99 99 99 99 99 28 40
       12.199999999999996 12.299999999999995
000070 ca cc cc cc cc cc 28 40 fd ff ff ff ff ff 28 40
       12.399999999999995 12.499999999999995
000080 30 33 33 33 33 33 29 40 63 66 66 66 66 66 29 40
       12.599999999999994 12.699999999999994
000090 96 99 99 99 99 99 29 40 c9 cc cc cc cc cc 29 40
       12.799999999999994 12.899999999999993
0000a0 fc ff ff ff ff ff 29 40 2f 33 33 33 33 33 2a 40
       12.999999999999993 13.099999999999993
0000b0 62 66 66 66 66 66 2a 40 95 99 99 99 99 99 2a 40
       13.199999999999992 13.299999999999992
0000c0 c8 cc cc cc cc cc 2a 40 fb ff ff ff ff ff 2a 40
       13.399999999999991 13.499999999999991
0000d0 2e 33 33 33 33 33 2b 40 61 66 66 66 66 66 2b 40
       13.59999999999999 13.69999999999999
0000e0 94 99 99 99 99 99 2b 40 c7 cc cc cc cc cc 2b 40
       13.79999999999999 13.89999999999999
0000f0 fa ff ff ff ff ff 2b 40 2d 33 33 33 33 33 2c 40
       13.99999999999999 14.099999999999989
000100 60 66 66 66 66 66 2c 40 93 99 99 99 99 99 2c 40
       14.199999999999989 14.299999999999988
000110 c6 cc cc cc cc cc 2c 40 f9 ff ff ff ff ff 2c 40
       14.399999999999988 14.499999999999988
000120 2c 33 33 33 33 33 2d 40 5f 66 66 66 66 66 2d 40
       14.599999999999987 14.699999999999987
000130 92 99 99 99 99 99 2d 40
       14.799999999999986

intercept f8 [100, 39]
000000 ae 6e 52 7b 9d 33 fc 3f 8a fb 5d 7e 95 ca 05 40
       1.762601358152931 2.723917948954697
000010 d6 2b 72 aa a1 6e 0b 40 40 37 25 f9 73 95 0f 40
       3.4290192905514045 3.947975107620465
000020 2b 3c 55 75 9f 6d 11 40 b0 df b9 06 fc c8 12 40
       4.357053597762426 4.696273903937183
000030 32 d2 58 d2 14 f3 13 40 21 79 fb 18 ba f4 14 40
       4.98738411585923 5.238991155956939
000040 50 34 b1 41 82 d2 15 40 a2 38 01 69 df 87 16 40
       5.455575014534659 5.632688179683244
000050 09 08 5e f5 6d 0e 17 40 7d 97 c6 7a b8 58 17 40
       5.764091333259793 5.836641233798102
000060 85 b6 55 48 9a 54 17 40 ea b9 a5 a1 20 f9 16 40
       5.8326197912516635 5.743288541545988
000070 5a ea c2 d0 35 3f 16 40 7e 60 c0 36 2d 29 15 40
       5.561728727242178 5.290211539737468
000080 04 2a 69 d0 6b c9 13 40 9f 71 f7 83 ea 3d 12 40
       4.946700340670308 4.560464918115399
000090 9e 99 da 9d 78 a8 10 40 aa 05 70 5b fb 5d 0e 40
       4.164522615878381 3.795889582019943
0000a0 66 84 a1 07 d0 dc 0b 40 3a e7 46 ca aa d2 09 40
       3.482818660370458 3.2278648188484143
0000b0 46 43 79 95 e7 31 08 40 62 e0 9b 2d bd f6 06 40
       3.0243674924499 2.8704780162043315
0000c0 f2 45 5d b4 6d d7 05 40 a2 94 82 36 b3 bd 04 40
       2.730189713570092 2.5926269777870212
0000d0 e2 fa 83 2f 78 83 03 40 be cf a9 9d 27 15 02 40
       2.4391940796043494 2.2603294675299983
0000e0 ee f4 ec 32 45 78 00 40 63 ff 7e 52 4f 06 fd 3f
       2.058725736481043 1.814040491342859
0000f0 80 46 7b 6e 55 4f f8 3f 12 a4 19 1b c0 9e f3 3f
       1.5193685832677204 1.2262574251747123
000100 ef 02 f3 e1 f2 fc ed 3f 80 24 1b 45 a6 e7 e4 3f
       0.9371275342055848 0.6532775258757653
000110 49 f7 be cd 74 d9 da 3f 10 2f 73 3e 05 ff c7 3f
       0.4195224770772837 0.18747010754884075
000120 b0 18 c9 1e 4f 5b b5 3f 9c e6 59 04 2b 45 c1 3f
       0.08342451573944021 0.13492334091624947
000130 2c 84 52 3a ba 4d d4 3f c2 89 e8 bf a4 15 fc 3f
       0.31724410720386476 1.7552840706272126
000140 9a 43 4c 26 41 b9 05 40 5e ae 50 39 08 5d 0b 40
       2.715456294252772 3.420425842070286
000150 0c 80 20 43 94 85 0f 40 2c b8 fc 27 85 66 11 40
       3.940224193982436 4.350117325591821
000160 2c d2 aa 07 51 c5 12 40 72 fc fe 45 83 f4 13 40
       4.692691917229734 4.9887820183640645
000170 b6 67 71 c4 2a fc 14 40 4d 59 cf 89 ae e2 15 40
       5.246256894513797 5.471368935852593
000180 67 cc 98 96 68 9e 16 40 eb d8 ed b0 22 26 17 40
       5.654695847583844 5.787241711155938
000190 9b 99 f4 93 57 6a 17 40 83 9f f3 88 97 5c 17 40
       5.8538497083704 5.840421810025762
0001a0 a8 93 ed 22 fd f0 16 40 9f f5 6f bd fa 26 16 40
       5.7353406388764725 5.53806587215277
0001b0 cb bc df 77 15 fe 14 40 4a ca ea 59 29 90 13 40
       5.248128769903995 4.890782742457825
0001c0 21 8c 38 84 ae f8 11 40 63 2f 6e d7 01 5f 10 40
       4.492853227568987 4.0927804623605395
0001d0 5b f8 e6 75 bf c9 0d 40 66 38 02 fe 68 5e 0b 40
       3.723509713278913 3.4210986942699035
0001e0 ee 76 7f 64 98 60 09 40 48 88 8a 35 b8 de 07 40
       3.1721656657599544 2.983749788561031
0001f0 28 50 14 66 83 bf 06 40 19 c7 0e f9 d2 cc 05 40
       2.8435123419713086 2.7250117738375477
000200 de ba 3a 0c 91 de 04 40 be bb 80 03 d4 e3 03 40
       2.6086750941679915 2.486244227758532
000210 fc 08 44 41 8e d7 02 40 4c 01 0c a0 f0 7f 01 40
       2.35525179852368 2.187470674864164
000220 62 cb b2 56 5f 69 ff 3f d2 76 fc 5e 9e ea fa 3f
       1.9632256876618261 1.682279940643117
000230 b3 ac 13 5e 10 a2 f6 3f 62 45 67 84 1d b8 f2 3f
       1.4145663905026538 1.1699500247962864
000240 ac 14 1b a2 92 f3 ed 3f 49 a1 6d 6f 54 14 e9 3f
       0.9359830061081502 0.783731668122564
000250 14 21 55 2a b5 74 e5 3f 50 5a 39 5d 10 bb e6 3f
       0.6704965426261276 0.7103349514753265
000260 a7 fa 62 b4 eb 6c f1 3f b6 48 a9 b9 40 39 f9 3f
       1.0890919729569448 1.576477742423362
000270 3a 7b 28 25 c8 e9 fb 3f 83 c3 0c 4d af a7 05 40
       1.7445756389131035 2.7068773288269212
000280 24 af 40 70 7c 50 0b 40 1a 5a cd 64 99 82 0f 40
       3.414299847578052 3.9387691378754086
000290 ba 66 d1 f4 9c 6a 11 40 20 82 b2 a2 4c cb 12 40
       4.354114365845527 4.6985345288708515
0002a0 be a8 5b 35 7d fa 13 40 e0 22 9d 39 ab fd 14 40
       4.994618257255011 5.247723484245142
0002b0 c9 dc c7 15 7f d9 15 40 6c 0b 25 e7 1e 8b 16 40
       5.462398853610645 5.635860072742485
0002c0 31 79 75 d1 80 0c 17 40 eb 01 d8 17 6f 54 17 40
       5.762210152430542 5.832455036696483
0002d0 77 e6 1b cb 73 55 17 40 3b b0 11 5d 73 04 17 40
       5.833449529245278 5.754346327023138
0002e0 5d 80 2b 03 32 5c 16 40 46 4d 72 f2 3f 5f 15 40
       5.590034532098881 5.343017376161987
0002f0 99 15 76 b5 09 16 14 40 00 67 6b 1c 67 9c 12 40
       5.021521411258981 4.652737087302512
000300 27 92 42 c5 df 09 11 40 4d 06 f2 ba b9 07 0f 40
       4.259642679393926 3.8787722210989046
000310 81 1c 01 1d d0 4e 0c 40 f5 33 d1 11 10 f0 09 40
       3.5384828821148067 3.2422181503266025
000320 a4 68 bd 97 95 f3 07 40 96 82 bc f9 80 79 06 40
       2.9939376692464794 2.8093280325559347
000330 7e ed 45 b8 7f 3d 05 40 34 50 35 61 1e 32 04 40
       2.655028762468361 2.5244720072169233
000340 be 3c 20 70 09 10 03 40 4f 2f bc 8a d2 c1 01 40
       2.3828305015409503 2.2196398581199115
000350 1a 89 4d a4 a3 e7 ff 3f dc 6b 4b eb c4 4e fb 3f
       1.994052545364474 1.7067307654567605
000360 e4 28 67 c7 15 97 f5 3f f1 7b b4 70 fd fb ee 3f
       1.3493860043695856 0.9682604981679771
000370 34 78 5b 89 82 e4 e1 3f 7c a8 af f6 95 b5 c3 3f
       0.5591442759284804 0.15397905869696504
000380 94 f8 8e 55 16 b6 d2 bf 68 b9 f4 3d 15 a7 e7 bf
       -0.2923637233287846 -0.7391458711697796
000390 1a 3c 0e 3c d2 0b f2 bf d6 33 f1 e2 f8 75 f9 bf
       -1.1278860422060064 -1.5913018097810343
0003a0 10 86 4c f8 a7 db 00 c0 c2 30 82 09 56 41 fc 3f
       -2.1072539709428 1.7659511920383442
0003b0 f0 a8 07 49 26 d4 05 40 fb 56 3b 81 4a 7c 0b 40
       2.7285886483633632 3.4356889816507397
0003c0 16 cf 27 9c 47 a5 0f 40 4e c2 57 85 f4 74 11 40
       3.955702991452095 4.3642140230954976
0003d0 3a a7 d8 7e f2 cb 12 40 36 13 94 17 d2 ee 13 40
       4.699167234395469 4.983223312771591
0003e0 92 db 89 1e bd e9 14 40 1c 6e e1 4b 8c c0 15 40
       5.228260495342413 5.438035188326037
0003f0 08 43 7e b8 31 73 16 40 b5 48 8c 41 bd fc 16 40
       5.612494356829082 5.746815704524285
000400 bb af e3 00 b6 4f 17 40 a3 d8 77 d6 d9 57 17 40
       5.827842725655439 5.835791922631105
000410 63 82 4f 1c 34 0a 17 40 4e 71 52 44 bb 5a 16 40
       5.759964411118378 5.588604991466424
000420 53 1a dd b0 cd 4a 15 40 ec 8d 12 a0 2f e9 13 40
       5.323050273413702 4.977720738537283
000430 a4 67 60 27 44 58 12 40 bc 36 36 04 59 bd 10 40
       4.58619748617085 4.184909883316944
000440 42 c3 1d 82 1d 79 0e 40 fc 24 48 bd 3d ea 0b 40
       3.8091383138020385 3.489375571026015
000450 20 9a 08 5e 10 c9 09 40 74 77 6c 79 78 15 08 40
       3.2231757494330537 3.0104836927629837
000460 cf 5d db ba ed d0 06 40 11 cf 90 bf d2 bc 05 40
       2.8520159338183713 2.717198845488277
000470 a3 6f b4 6b 85 bd 04 40 a6 64 a5 ed c6 c6 03 40
       2.592539636081669 2.4720591131304728
000480 4c e8 b8 6a 14 7f 02 40 71 c7 9f 67 c0 eb 00 40
       2.3120506608657134 2.1151130767474844
000490 ac b6 43 5b a9 9c fd 3f b7 80 c4 a4 f6 4d f8 3f
       1.8507474484462518 1.5190340458139369
0004a0 d3 e6 a0 94 04 79 f2 3f 37 d1 33 7a b6 2c ea 3f
       1.154545384006657 0.8179581057325213
0004b0 f1 19 93 c1 48 b6 e0 3f 69 82 84 06 a4 f2 d7 3f
       0.5222514897112075 0.37418461452947455
0004c0 e2 50 5a 7b 5a c3 d2 3f 20 01 fd 47 21 6b e0 3f
       0.2931734280221133 0.5130773931523755
0004d0 16 21 08 fe 3a 9f ec 3f fc cc d2 37 88 74 f9 3f
       0.8944373094136917 1.5909502201655519
0004e0 df 3c 04 ab 0c 90 fc 3f 76 cc c4 02 89 eb 05 40
       1.7851683311781057 2.740007421141452
0004f0 62 2e bf 46 c6 7a 0b 40 06 91 26 3c 27 8f 0f 40
       3.4349484946340434 3.9448990535039483
000500 40 4c 2d 73 90 61 11 40 6c 8a ae 38 68 b7 12 40
       4.345277595176469 4.679108510640258
000510 c4 3a 57 61 91 df 13 40 e8 dd 0c 97 f8 e1 14 40
       4.96832801909358 5.220674858246163
000520 01 73 78 ac 8e c3 15 40 d7 7b 72 ee 1e 7d 16 40
       5.440973944522512 5.622188306558164
000530 2d 36 b5 5c 28 09 17 40 b7 dd 84 bd 20 5b 17 40
       5.75894303184536 5.838992081865789
000540 b4 37 b5 ea 9f 5c 17 40 cd f5 12 e6 ea 01 17 40
       5.840453784285206 5.751872630030857
000550 f6 99 e6 40 e3 43 16 40 3c 25 bf bb 18 24 15 40
       5.566296590876382 5.285250600377648
000560 c3 32 1d b7 77 b9 13 40 b8 89 45 8f 08 21 12 40
       4.931120740086672 4.532259214991818
000570 aa ea 4d d0 4d 82 10 40 58 58 89 bf 72 10 0e 40
       4.127249960666328 3.758031364802303
000580 d5 66 52 34 41 97 0b 40 18 15 a1 60 51 b0 09 40
       3.4488548362395286 3.21109271518311
000590 d4 ae a3 8d 8a 40 08 40 10 6b 2a 98 ee 44 07 40
       3.0315142694069923 2.9086582076973926
0005a0 7c a1 2f d3 e9 47 06 40 78 80 f7 9c f9 31 05 40
       2.78511395444019 2.6494018805533948
0005b0 ed 5b 6f 66 e9 f7 03 40 98 55 4d 0f 2e 7c 02 40
       2.496050644181642 2.310634727046544
0005c0 8e e8 5b 14 69 0b 01 40 32 29 63 8a a7 10 ff 3f
       2.1305715170429442 1.9415660291438823
0005d0 0a 85 d3 1c 55 2f fc 3f a4 e1 63 1d 27 6f fa 3f
       1.7615557790780394 1.6521369121602243
0005e0 67 dd 3f 39 34 cd f9 3f 4a 06 a7 fd 24 76 f9 3f
       1.612598632460356 1.5913438709543635
0005f0 48 4c 21 d0 32 91 fa 3f f4 e3 f6 8c c3 09 f9 3f
       1.6604488496857517 1.5648837572500698
000600 e2 9a a7 c2 f7 66 f9 3f aa 73 af cf 3c 30 f8 3f
       1.5876386264514442 1.511776744147236
000610 6a 51 62 f2 7c c0 f1 3f 3e 1f 5d e6 fb 61 fc 3f
       1.1094941585662021 1.7739218710502906
000620 58 71 d4 d7 59 da 05 40 01 b8 11 6a e3 71 0b 40
       2.7316166745860464 3.4306095396668757
000630 5b d7 82 9c 44 8a 0f 40 04 81 c6 c6 45 63 11 40
       3.9425136783055854 4.346945863595696
000640 40 58 22 80 68 bc 12 40 0c c7 80 2d 7d e6 13 40
       4.683992387863384 4.9750868902062955
000650 cd 36 54 c0 39 ee 14 40 a6 f6 e5 82 32 d3 15 40
       5.232642178668994 5.456247372899872
000660 28 22 8f 08 fb 91 16 40 8c f8 22 93 3e 1b 17 40
       5.642559179054423 5.776605891236738
000670 4a e8 1c 61 a4 60 17 40 2d 62 ba f9 fe 4c 17 40
       5.844377057446829 5.8251914043435535
000680 35 41 d1 25 f9 db 16 40 9c 26 18 d2 81 0d 16 40
       5.714817610642332 5.513190539096879
000690 e8 ac 50 94 51 ec 14 40 b7 93 62 43 ab 8d 13 40
       5.2307799505462995 4.888348629848159
0006a0 73 d6 de f3 60 13 12 40 dc be 3f 96 02 94 10 40
       4.518924532390531 4.144541118279189
0006b0 d2 37 c4 dc 1d 61 0e 40 0c 3a 9c cf 3c 04 0c 40
       3.7974202391987797 3.502069112734949
0006c0 28 6f 99 53 e1 19 0a 40 6e a2 f7 81 11 90 08 40
       3.2626368075560954 3.070345893258767
0006d0 f1 9e 67 9f fd 75 07 40 c2 d7 03 6d 34 80 06 40
       2.9326126531121806 2.8125999943540316
0006e0 dd 42 32 da e3 a0 05 40 ee c9 26 b9 eb 7f 04 40
       2.7035595938290116 2.5624613251650237
0006f0 82 a8 18 ec 5b 16 03 40 b4 f8 aa c7 c3 56 01 40
       2.385917515280256 2.1673656081248627
000700 72 cb 53 62 ed ff fd 3f 1e 3c d3 99 f9 3b f8 3f
       1.874982246485811 1.5146423348230722
000710 80 7e ef eb 57 63 f2 3f 8d e3 87 d8 29 1c e9 3f
       1.149253770468846 0.7846879223935602
000720 c9 09 cc 31 e2 82 dc 3f ac a9 27 8f 2e c7 c7 3f
       0.44548849928846984 0.1857660483359046
000730 e0 f0 4b 0a a0 fb af bf 04 b6 40 ef 43 c6 c0 bf
       -0.06246662259761293 -0.1310505789019062
000740 c0 d9 c2 5b c1 0f b8 bf c0 86 ae f6 fc 51 c1 bf
       -0.0939904068971833 -0.1353145794392301
000750 e6 75 5a 41 92 44 fc 3f f5 d3 e1 71 c8 d1 05 40
       1.7667410424104388 2.7274330994646285
000760 da 92 be cf 78 70 0b 40 30 ce 1f 0f c3 96 0f 40
       3.429917929652544 3.948614233167767
000770 d2 dc 8e ef 36 6f 11 40 6c a2 43 e2 88 cc 12 40
       4.358608000845566 4.6997409204273985
000780 6a 98 71 17 29 fb 13 40 2c 0f a2 4d dc 02 15 40
       4.995273939426719 5.25279351522094
000790 c7 7e 16 aa 7d e5 15 40 a6 36 d9 3f 99 9f 16 40
       5.4741121841650004 5.655858037598284
0007a0 f0 83 17 b6 5d 29 17 40 c6 ee cd d1 dd 79 17 40
       5.790396542725816 5.869010236925254
0007b0 65 fe cc c7 8f 7c 17 40 41 20 3d ef 88 27 17 40
       5.871642228972267 5.788608301263651
0007c0 8a 91 c6 c1 a1 6b 16 40 7e 50 0d 68 4e 44 15 40
       5.605109241242085 5.316705346882484
0007d0 62 a8 7b 49 7f c8 13 40 e7 6a 06 24 a5 1d 12 40
       4.94579806153533 4.528950274364184
0007e0 8a bb 52 03 80 78 10 40 12 11 07 a5 bf 0a 0e 40
       4.117675830769153 3.755248345640333
0007f0 f8 48 56 50 ac bc 0b 40 c6 ad 7c d8 23 00 0a 40
       3.4671255375225165 3.250068370156188

slopes f8 [100, 39, 7]
000000 e0 a2 2e b0 4a d4 91 3f db ef e5 e5 cc c3 ec 3f
       0.017411391261393017 0.898901413936524
000010 1a de 51 59 23 18 fc 3f a0 5b e9 0a 13 dd 97 3f
       1.755893086343241 0.023304269352901863
000020 32 ff 03 67 05 ea 7b bf 60 5f e2 7d 95 e9 af bf
       -0.006814976790565018 -0.062328979126674566
000030 08 24 b8 96 fd ae 84 bf fb a0 36 c1 11 ce b1 bf
       -0.010099393045509344 -0.06955061881183504
000040 47 07 db 8e 79 0b ee 3f 11 84 64 3c 89 0e fb 3f
       0.9389007368228953 1.6910488471114642
000050 90 ba c1 17 c5 1d 97 3f 30 43 f2 73 f1 4f 80 bf
       0.022574500632283334 -0.0079649795063986
000060 40 96 84 b2 6c a5 b4 bf 38 f7 d3 09 14 b9 85 bf
       -0.08064917906138991 -0.010606915044714435
000070 28 78 3c fa 08 0f c1 bf 3c 83 38 01 9d bd ee 3f
       -0.13327133387150636 0.9606461547701666
000080 1e 50 75 4f 0f f4 f9 3f 44 7d 3f e0 0a 8b 98 3f
       1.6220849136198079 0.023967904984485658
000090 d0 c0 88 52 a2 4a 85 bf 78 e3 b4 54 aa c5 b8 bf
       -0.01039625944494596 -0.09676613395721556
0000a0 48 33 1b 46 f7 95 87 bf 93 96 c6 44 8b 15 c7 bf
       -0.011516506030056953 -0.1803449712580699
0000b0 78 01 21 41 35 f1 ee 3f 8b 0e 10 86 35 d6 f8 3f
       0.9669443389939678 1.5522971379113268
0000c0 b8 c1 14 a3 8f 81 9c 3f 70 6d e6 91 8f 9f 8c bf
       0.027837986305884604 -0.013976213111894537
0000d0 b8 51 b4 54 e3 e1 bb bf d4 9e 6b 9a ca 94 89 bf
       -0.10891552751519995 -0.012490828359161744
0000e0 97 a6 33 47 b5 dd cb bf f6 27 21 a3 5c c4 ee 3f
       -0.21770349480293724 0.9614699541209564
0000f0 c8 db 48 49 04 ba f7 3f 10 5b f2 39 46 64 a1 3f
       1.4829142439536884 0.0339681573615761
000100 c0 80 29 9f 21 c3 92 bf 24 40 0e fd d7 b2 bd bf
       -0.01832249196957103 -0.11601018837086535
000110 00 42 8a 8e 21 90 8b bf ce b1 9e 58 71 dc cf bf
       -0.013458501970746717 -0.24891487910407623
000120 ce d5 ed ca 55 50 ee 3f 98 6b 1f 3d 9a a5 f6 3f
       0.9473065341432461 1.4154302966696601
000130 50 48 1b 16 be 3d a5 3f 10 4c e8 4d 2b 73 97 bf
       0.041486683081203624 -0.02290027297028635
000140 4e 57 20 50 7b 21 be bf b4 93 49 71 40 4a 8d bf
       -0.11769839006623536 -0.014301780183083902
000150 56 9e 48 47 0b a8 d1 bf 6a 6a 3c ec af a7 ed 3f
       -0.2758815952424575 0.9267196287140227
000160 ef b0 9e 30 2c 9f f5 3f 30 f8 eb 37 55 29 a9 3f
       1.3513605021681163 0.0491434698833334
000170 60 41 6c 19 55 99 9b bf a0 94 a3 13 bc 44 bd bf
       -0.026952104260148046 -0.11433005790202566
000180 08 1d 52 b3 0d 4a 8f bf 44 f1 0e 53 9d 28 d3 bf
       -0.01527796462529675 -0.29935391532105293
000190 ec 2c f9 d2 44 d8 ec 3f 51 4d 87 bd a7 a5 f4 3f
       0.9014000053952294 1.2904431727846097
0001a0 02 a5 5f 77 c8 93 ac 3f c8 9a ed 4f 44 9b 9e bf
       0.0558149953574887 -0.029889171007563303
0001b0 60 61 5e 7c b2 52 bb bf 1c 4b 96 ce 70 32 91 bf
       -0.10673060928673328 -0.01679397831828587
0001c0 8d de e1 1b 2f 76 d4 bf 48 4c ef 68 2f ee eb 3f
       -0.31971338007813516 0.872825341177653
0001d0 45 c7 c0 02 09 b8 f3 3f 14 83 f3 67 e6 0b af 3f
       1.2324304683247231 0.060637664975507516
0001e0 a0 e2 6e 9f 43 fc 9f bf a0 7c 48 76 38 85 b8 bf
       -0.03123574886896796 -0.09578278434536225
0001f0 7f a3 37 8a a4 5c 93 bf 6b 08 32 7d eb 8a d5 bf
       -0.018908091484181263 -0.33660399652592926
000200 79 c0 ab fb fc f0 ea 3f 74 ca 44 95 d3 d1 f2 3f
       0.8419175067374588 1.1762271719750546
000210 f4 da 4c 9e 4a 38 b0 3f d0 94 3f 43 b7 a8 9f bf
       0.06335893978835455 -0.03091703746749347
000220 e8 5a 21 c9 b0 14 b5 bf 06 e2 8d 46 fc 09 96 bf
       -0.08234696302802613 -0.021522466474808176
000230 52 ac e4 ab 95 5e d6 bf 57 cf b1 b5 ba e6 e9 3f
       -0.3495229891438544 0.8094152020189352
000240 5c 88 a1 00 70 f3 f1 3f e4 e4 a3 b1 b7 70 b0 3f
       1.121932985749047 0.06421993338507864
000250 10 ee d4 dc 49 09 9e bf b8 6a ca b3 49 35 b1 bf
       -0.029332307914257838 -0.06721935882016339
000260 be 48 cb 5e e4 08 99 bf 7e 4d 3d 04 dd df d6 bf
       -0.024447983060618787 -0.3574135342980397
000270 f5 30 1b dc 58 d1 e8 3f 3c 27 50 29 b5 1f f1 3f
       0.775555066962197 1.0702411283295552
000280 46 74 68 7d 96 4b b0 3f 10 fd b8 f5 f8 b5 9b bf
       0.0636533790752348 -0.027061357495992644
000290 c0 80 c0 53 a9 41 aa bf 48 b5 ea f3 13 1c 9c bf
       -0.05128220698702668 -0.027450858843328235
0002a0 fb ce 6b 31 37 f7 d6 bf 4f c1 2b 6b a7 b6 e7 3f
       -0.35883884264261184 0.7410466283018112
0002b0 d7 d8 6b 6d a5 5b f0 3f 94 e6 19 2a a9 d2 af 3f
       1.0223745607632304 0.06215408934526781
0002c0 d8 4c 8b b1 bd 60 99 bf 30 d5 08 e9 8c 2b a2 bf
       -0.02478310009139481 -0.03548851341876469
0002d0 52 b8 91 2f df e3 9e bf 25 dd 1a 49 a9 99 d6 bf
       -0.030166137007136058 -0.3531287397303962
0002e0 96 2a c5 01 58 9b e6 3f b8 d4 76 55 ab 64 ef 3f
       0.706462863404641 0.9810387295934992
0002f0 68 ca 45 5b bd dd ae 3f 54 23 6f 10 e6 8f 97 bf
       0.060285489455868924 -0.02300986743265139
000300 38 73 94 3d cf 10 95 bf 1d 09 19 fb c5 8f a0 bf
       -0.02057193578103808 -0.03234690370710978
000310 d9 6d d4 8c 2f bf d5 bf 62 29 33 c7 a5 85 e5 3f
       -0.33979405167494076 0.6725644007322382
000320 21 8e d0 db b3 4a ee 3f d8 8a 50 e6 06 e3 ad 3f
       0.9466189664130448 0.05837270318467852
000330 24 47 40 d1 6c 97 96 bf 50 ba de 72 b3 a4 7d bf
       -0.022062015792534542 -0.007237149211432994
000340 de c9 d6 43 01 4d a1 bf e8 ea 89 7b 76 6c d4 bf
       -0.03379062607872972 -0.319120045321752
000350 8a 6f ff 77 d7 79 e4 3f 13 7d 2f 0e 43 6e ed 3f
       0.6398732513148258 0.9197097088871565
000360 5a ca 1d 42 f0 d5 ac 3f c0 fb 78 28 e2 69 96 bf
       0.05631972128948766 -0.02188828823113531
000370 a4 83 6c a2 c8 8d 70 3f c1 b4 ae 19 f2 ab a1 bf
       0.00404146550025156 -0.03451496661669174
000380 6d 5f fb 6d 59 ba d2 bf 6c b9 ce ab 29 87 e3 3f
       -0.29262386074468943 0.6102493625274241
000390 c6 b5 c6 86 22 c4 ec 3f 36 73 6b 22 ae c0 ab 3f
       0.8989422447536348 0.05420440836107902
0003a0 10 95 8e 0e 07 f4 96 bf 30 b6 a9 8f 6c 95 8a 3f
       -0.022415266288267566 0.012980316290135269
0003b0 dc ce a8 df 1f b8 a1 bf 9c 04 a5 c0 50 d0 d0 bf
       -0.0346078835031258 -0.26271456540059446
0003c0 c2 2a 20 e1 ea b6 e2 3f d7 ac 99 0e eb 47 ec 3f
       0.584828796099224 0.8837790761148437
0003d0 48 eb 74 cf e4 7f aa 3f a0 e4 41 96 52 06 98 bf
       0.0517570021861134 -0.02346161882494313
0003e0 8c f4 8d 88 ec 8a 93 3f 5c 63 51 51 14 94 a1 bf
       0.019084640345216772 -0.034332880903724855
0003f0 46 43 2d 0c 83 b3 cd bf 25 8c 9a da 68 14 e2 3f
       -0.23204076857157413 0.5649914044955763
000400 d2 19 34 ab e6 ee eb 3f 8e 34 e2 10 84 e9 a8 3f
       0.8729127258127909 0.04865658479784783
000410 a0 0d e3 9f 08 49 99 bf 38 18 18 46 7c 66 96 3f
       -0.024692663916324187 0.02187532594509653
000420 86 35 ae 2d cf 48 a1 bf 42 f2 ef 04 00 0d ca bf
       -0.03375861580489485 -0.20352173081472996
000430 d9 15 24 c7 0b a4 e1 3f ba 88 22 c7 e4 b3 eb 3f
       0.5512751473876804 0.8657096757272236
000440 bb b8 d5 a2 23 e6 a6 3f 80 86 e5 10 1c a2 9a bf
       0.04472457277994254 -0.026009024173055284
000450 44 ba 30 84 fc ed 95 3f 34 9c 4d 96 6d 68 a1 bf
       0.02141565853906459 -0.03399984798198155
000460 58 6a d3 be 74 f4 c6 bf 30 e2 48 88 bb 62 e1 3f
       -0.17933520620029486 0.5433023130236219
000470 ac 58 9f 06 0e 9f eb 3f 5a ea bb 77 0a 7f a4 3f
       0.8631658677429832 0.04003174506756997
000480 28 c7 f5 23 2c 87 9b bf 4c 87 71 72 9e 98 92 3f
       -0.026882829375103473 0.018160320029330365
000490 8c 37 a1 e9 32 cc a1 bf c9 6f 7b 53 91 6f c4 bf
       -0.034761038798577365 -0.1596547753932767
0004a0 c8 c1 96 41 5b 47 e1 3f 1c 78 69 e2 45 af eb 3f
       0.5399605065377324 0.865145628176609
0004b0 80 17 a6 f7 e0 cb a1 3f 70 74 a5 5b a4 e9 9b bf
       0.03475859664017289 -0.027258461087843633
0004c0 ec 9c c9 94 0f 32 8b 3f 60 e4 bc 3f 5c b1 a2 bf
       0.013279077270637228 -0.03650940206575437
0004d0 ac c8 53 89 ab 6d c2 bf af ac 6a 9d 2d 3e e1 3f
       -0.14397186475213652 0.538840110258567
0004e0 ef 4f 0d e2 46 f0 eb 3f 40 0b 5a a1 39 6f 9e 3f
       0.8730806746557372 0.029721165154579454
0004f0 30 89 ce d9 e6 b6 9b bf c8 62 3a ab b5 cb 81 3f
       -0.027064902347441577 0.008689326560941693
000500 b8 e8 6b 4d 8c ce a3 bf d1 13 86 50 1f ea c0 bf
       -0.038685211611622916 -0.13214484626601444
000510 f7 eb 61 5c 6b 3a e1 3f f6 cf 1d 58 38 4f ec 3f
       0.5383812717767559 0.8846704216980459
000520 e0 a7 27 77 f1 1f 9a 3f 48 47 cc 3e 98 06 9b bf
       0.025512478730810417 -0.026392344315417732
000530 a0 1b 84 9e 13 e3 76 3f b8 60 ef 7c ce 52 a5 bf
       0.005587650907051961 -0.041647389174330696
000540 66 d6 68 7c a0 18 bf bf b7 90 d6 18 80 2c e1 3f
       -0.12146952664701302 0.5366821751709016
000550 d4 6b 30 c1 1b ba ec 3f f0 40 79 55 9d fa 96 3f
       0.8977183125710959 0.022440393773934753
000560 60 8e 92 ff 31 e7 99 bf e0 16 b5 05 2a 8b 72 3f
       -0.025296002601534417 0.004527248525226318
000570 e0 22 6e 55 42 15 a7 bf b5 d5 79 c0 1c 76 bc bf
       -0.04508406918382035 -0.11117725085372039
000580 e7 e0 2d ab 7e 09 e1 3f 90 7e 5b c2 77 0c ed 3f
       0.5324090331405643 0.9077719493906944
000590 88 17 ee c6 6f 24 95 3f d0 19 53 61 36 eb 98 bf
       0.020646807209707713 -0.024334764185164393
0005a0 80 4e fc 75 47 2a 78 3f a2 44 6a 09 27 24 a9 bf
       0.005899695533816307 -0.04910394658976115
0005b0 6d ba 65 07 97 93 b9 bf a6 f9 55 3c 57 ce e0 3f
       -0.09990829401588437 0.5251880815920245
0005c0 18 6d 52 87 24 2c ed 3f 04 cb 59 00 64 9e 94 3f
       0.9116385119445196 0.020135462304504706
0005d0 a8 8e 15 7c 2d d2 98 bf 78 be 58 7f 0e 03 81 3f
       -0.024239264200686478 0.00830661131030229
0005e0 e8 f2 ae 8e 02 dd ab bf 90 ac 78 5b 38 48 b6 bf
       -0.05442054740658425 -0.08703949196994842
0005f0 55 8b 8c ab 89 6c e0 3f 69 00 c8 d4 20 fb ec 3f
       0.5132492399755885 0.9056553035625373
000600 b4 22 25 be c9 6f 94 3f 68 5b 51 e2 88 72 99 bf
       0.01995768759778356 -0.024850977719633432
000610 60 51 e5 d1 19 f8 86 3f 29 7f 40 99 6f 2f af bf
       0.011215402334223412 -0.060908782441627736
000620 87 f0 33 13 ef 9e b2 bf 3a 6d fd 76 ab d9 df 3f
       -0.0727376386529973 0.497660509301301
000630 ee ed d7 39 78 85 ec 3f 28 8b 05 7b a6 9e 94 3f
       0.8912926797633511 0.020136452921529685
000640 f8 7a b0 bc 42 2b 9b bf 50 10 83 2b 9e 5c 89 3f
       -0.026532213942227906 0.012383685782317994
000650 cc dd 35 ed c4 c7 b1 bf a5 ea bb b2 d5 69 ac bf
       -0.06945448676366722 -0.05549495512783168
000660 56 31 3b 4b 41 aa de 3f 2c 1e c4 ad 78 d8 eb 3f
       0.47914154383467655 0.8701747316235404
000670 80 2c c8 64 e5 b2 94 3f 66 81 eb cb ac c9 9d bf
       0.02021368434547499 -0.029089641519818875
000680 c0 32 82 e8 74 54 86 3f c1 ee 51 11 72 4b b4 bf
       0.010903275819395986 -0.07927620814183013
000690 d8 7b e1 e9 2b d3 a1 bf ee 52 9d 64 ef 56 dd 3f
       -0.03481423597326455 0.4584310991825039
0006a0 7e 82 0e 14 86 f9 ea 3f a8 45 21 40 25 44 94 3f
       0.8429594413501744 0.01979120448988217
0006b0 ba ee a9 53 d4 92 a0 bf c0 a1 b5 2a 1d e3 76 3f
       -0.03237021943365677 0.005587686474747888
0006c0 32 6f 3e e8 d0 39 b7 bf 0f 32 4d 17 67 60 8d bf
       -0.09072595281616883 -0.0143440298067157
0006d0 c4 ef a9 90 51 03 dc 3f f1 bc 04 c9 d4 1b ea 3f
       0.43770255210233366 0.8158973623411879
0006e0 95 c0 fc 66 bf 77 92 3f 74 7d 6f c0 a1 30 a2 bf
       0.018034926091048026 -0.035527281513846015
0006f0 c0 45 c6 4d 64 0d 6d bf 55 92 03 c4 ac 3d ba bf
       -0.0035464247759555423 -0.10250358376976838
000700 75 c9 61 44 4d bc 77 3f 36 54 90 8b d4 cf da 3f
       0.005794812988926136 0.41893495206142306
000710 38 c4 2f 29 2a 30 e9 3f d8 94 9a f9 2b 43 8f 3f
       0.7871294788766425 0.015264838747791762
000720 4c 69 e8 7f 51 71 a3 bf f0 d4 69 4b 80 42 90 bf
       -0.037973925460578956 -0.015878681757801993
000730 82 aa 68 87 9c 1b bd bf 7d 69 4a 39 fe 42 9a 3f
       -0.11370256715660257 0.025646183249230504
000740 54 d5 a4 53 8b f8 d9 3f 18 f8 77 74 92 70 e8 3f
       0.4057949368319289 0.7637417101648252
000750 d0 73 d7 26 b2 8d 86 3f 34 d3 5f f6 dc 5e a4 bf
       0.011012450991012473 -0.03978624827860813
000760 ca ad 52 6a 75 82 9e bf d8 05 1c 20 f7 10 bf bf
       -0.029794535269201984 -0.12135262044832673
000770 28 97 f2 ba c9 93 a5 3f 04 e9 b0 69 d4 c0 d9 3f
       0.0421431580264609 0.4023943931712355
000780 66 dc 7e 7e 1d e1 e7 3f c0 b0 b7 d3 9c 17 6e 3f
       0.7462298842064115 0.0036733687427298045
000790 3c 2b bc d6 72 35 a5 bf 5c 87 27 04 ad 4f a6 bf
       -0.04142340537335662 -0.0435766284533787
0007a0 dd d6 d6 c2 07 db bf bf 7b 17 98 55 4f 27 ae 3f
       -0.12443588740174101 0.05889366073465304
0007b0 da 57 cf 76 c8 83 da 3f 3c c3 04 bf 94 99 e7 3f
       0.4142933998349442 0.7374976855117903
0007c0 80 3c 8d ff 8e eb 7e bf fc a8 60 36 7e b8 a5 bf
       -0.007548864924344589 -0.04242319501675415
0007d0 ec e0 ac 08 f7 19 ae bf e2 c5 1d 8e 9c a9 be bf
       -0.05879184704684967 -0.11977556676517723
0007e0 4d 3d 7e f4 75 29 b1 3f 9a b6 b6 a2 81 54 dc 3f
       0.06703889102049239 0.44265786066066826
0007f0 7a 94 07 f3 f4 b1 e7 3f e0 91 15 e1 da 0c 97 bf
       0.7404732462570245 -0.022509975421955875

scatter f8 [100, 39]
000000 13 fd 28 22 49 2a d9 3f c0 92 77 c3 e8 37 d8 3f
       0.3932059129328575 0.37841242874700853
000010 5e 90 98 01 28 43 d7 3f f6 82 73 f6 4b 52 d6 3f
       0.363473893698261 0.3487729937315146
000020 ee dd a6 f6 a9 66 d5 3f 1a 9e 2b 64 0d 84 d4 3f
       0.3343911083897798 0.32055983335746563
000030 bd f3 50 ed b5 af d3 3f cc 1e 8b 84 8d ed d2 3f
       0.3075995271245196 0.2957490724915999
000040 bd 29 71 aa 13 3f d2 3f 05 ac 0d 84 4f a4 d1 3f
       0.28509990353327536 0.27565372367706714
000050 b9 3d 93 48 67 1b d1 3f d4 c2 64 0e a5 a2 d0 3f
       0.26729757392328285 0.25992704778313436
000060 09 6c 26 de 0e 37 d0 3f d4 23 fa 20 21 af cf 3f
       0.25336047834724745 0.2475320254345933
000070 1f ee 29 c3 70 01 cf 3f 5f 97 7c dc f2 5c ce 3f
       0.24223145989877623 0.23721156850768474
000080 66 71 a5 65 f1 b9 cd 3f f2 71 f2 72 16 12 cd 3f
       0.23223702872463575 0.22711449253701194
000090 42 7e fc 79 48 61 cc 3f a6 ab 2b 0e 70 a8 cb 3f
       0.22171884495127087 0.2160778111641239
0000a0 44 f1 0a bc b9 ed ca 3f ad 44 e1 d8 78 38 ca 3f
       0.2103798072984181 0.20484839048234474
0000b0 bf 51 bc 04 6f 8e c9 3f 6b 1c d7 88 0d f3 c8 3f
       0.19965923053008613 0.19491738492635888
0000c0 3f a1 d4 78 b6 67 c8 3f 06 67 6e fb 01 e8 c7 3f
       0.1906650629036992 0.18676781441609352
0000d0 45 8f 35 bb 75 72 c7 3f 27 19 f6 c1 90 02 c7 3f
       0.1831805385692126 0.17976579161422387
0000e0 d4 5c de 26 66 9b c6 3f 30 a4 c0 19 f4 34 c6 3f
       0.17661740205651333 0.17349101312109516
0000f0 43 f4 74 2d 15 d2 c5 3f 8a 2f 2e a2 41 6f c5 3f
       0.17047371596882685 0.16745777529683564
000100 49 f3 61 f4 98 0e c5 3f 63 ff 3a d1 53 b2 c4 3f
       0.16450797970528644 0.16169212070780778
000110 85 cb 41 ee 21 64 c4 3f db f5 e6 1b 06 2a c4 3f
       0.15930580266612196 0.15753246652995653
000120 09 89 ac 21 a8 ee c3 3f d8 70 0d 4f d4 b2 c3 3f
       0.15572072643505688 0.15389493808732513
000130 c5 1c 39 3c b9 61 c3 3f c2 9e d1 a6 5e 25 d9 3f
       0.15141978684025595 0.3929058674898266
000140 ec 79 f8 b4 7f 32 d8 3f 09 a7 ee 9a 42 3d d7 3f
       0.3780822055140607 0.36311402444935986
000150 f3 a0 6d bd dc 4b d6 3f de 2d cd ff ab 5f d5 3f
       0.34838026522494586 0.33396434765447036
000160 6c 26 12 f1 ce 7c d4 3f cd 42 64 e3 fc a8 d3 3f
       0.32011769811706503 0.3071891995069052
000170 34 54 ec 9e 10 e8 d2 3f b6 2e de 90 96 3b d2 3f
       0.295414118955992 0.2848869719243611
000180 6f 09 55 4f f5 a2 d1 3f 6a 5c e0 ff a3 1b d1 3f
       0.27557118174822554 0.2673120497506206
000190 0d 7e d5 e5 e0 a3 d0 3f 21 b2 d6 20 ad 38 d0 3f
       0.2600023502800191 0.2534592457475658
0001a0 ea b2 53 67 58 b2 cf 3f 08 b4 bb ac 2b 04 cf 3f
       0.24763016743909044 0.24231477674712232
0001b0 60 97 90 ac 4a 5f ce 3f 18 13 7e 27 d7 bb cd 3f
       0.23728307176605323 0.23229493549674696
0001c0 6e 4c 6a 3b 5e 13 cd 3f 7b fc b0 c8 69 60 cc 3f
       0.22715356732496467 0.2216922979295964
0001d0 9d 75 2f 33 90 a4 cb 3f f0 1c 9c b6 c7 e4 ca 3f
       0.21595957278524916 0.21010681549544286
0001e0 6f 03 83 fb 9e 28 ca 3f 96 b5 87 cf 67 75 c9 3f
       0.20436465531204415 0.19889543183618902
0001f0 4d 93 83 81 0b d0 c8 3f 6d cd fb bf 1e 3a c8 3f
       0.19384902786182537 0.18927368520926838
000200 91 11 f5 af 5b ae c7 3f d2 4b 3c fa 05 28 c7 3f
       0.18500848857560162 0.18090891569644768
000210 10 2f ed a1 78 a6 c6 3f 54 88 9f 20 74 28 c6 3f
       0.17695529848639824 0.17310954659393707
000220 6e a6 59 f9 91 ab c5 3f 92 fb f0 70 21 2d c5 3f
       0.16929840731909301 0.16543977751458933
000230 31 b3 bb f6 81 ab c4 3f c4 ce c4 e8 e9 25 c4 3f
       0.16148399875182798 0.15740703454650007
000240 cb cd fb 06 c8 a0 c3 3f a4 02 36 4a 1e 31 c3 3f
       0.15334415760990647 0.14993647216399097
000250 a9 d2 c3 de a4 d5 c2 3f c6 f5 b7 24 8a 89 c2 3f
       0.14714489819711687 0.14482237618351074
000260 5a d2 33 93 c5 3b c2 3f 6b 8d 5d 4f 6e 15 c2 3f
       0.14244908988588884 0.14127901911988813
000270 dc f9 f4 47 84 2d d9 3f c9 4e 37 41 8e 3a d8 3f
       0.39340312029881175 0.3785739552379082
000280 17 dd e8 61 dc 44 d7 3f d0 13 0f de 39 53 d6 3f
       0.36357793389784504 0.3488297146362216
000290 bb ee 01 68 1d 67 d5 3f 15 21 c0 7f 58 84 d4 3f
       0.33441863209712225 0.32057774043688997
0002a0 95 74 d6 c3 39 b0 d3 3f b3 66 f1 e7 61 ee d2 3f
       0.30763095974709503 0.2957997098033999
0002b0 5d 39 02 66 4f 40 d2 3f ea 59 d6 96 cd a5 d1 3f
       0.2851751800707428 0.27574481706815723
0002c0 dd 9d a9 c1 d5 1c d1 3f 44 3c 0e 8c 0d a4 d0 3f
       0.2673849478946673 0.2600129955034769
0002d0 eb 83 9b f6 73 37 d0 3f 48 bf 9f 8f 87 af cf 3f
       0.2533845814014614 0.2475442363061069
0002e0 e7 b6 88 b5 c1 01 cf 3f 5d 9d f8 37 51 60 ce 3f
       0.24224110950438346 0.23731436951605192
0002f0 df e3 3f ec e7 c1 cd 3f da 35 df 8c 47 22 cd 3f
       0.2324800399362905 0.2276086271144056
000300 f0 de 64 18 f1 7b cc 3f ae 4c 12 91 17 ce cb 3f
       0.22253240290751064 0.21722693046158298
000310 b9 a0 88 6f f0 19 cb 3f 15 34 21 f4 35 65 ca 3f
       0.21172910161954464 0.206213707164722
000320 ed dc 12 f8 63 b2 c9 3f cb c4 bc db 44 04 c9 3f
       0.20075654614422636 0.19544277886737968
000330 c5 7f c2 5a 3a 5d c8 3f 3f 15 94 be f1 bc c7 3f
       0.1903450911677266 0.18545362287128772
000340 35 9b d7 aa 6a 24 c7 3f 73 1a 8d 05 f6 95 c6 3f
       0.18079884855179676 0.17645144721082637
000350 b2 29 96 2d bc 16 c6 3f 2a 05 24 06 97 a3 c5 3f
       0.17256881929308815 0.1690548686965852
000360 01 7e 39 05 56 3a c5 3f b9 6a a5 a0 16 d0 c4 3f
       0.1658427739630355 0.16260035366106765
000370 5e 77 40 5c c6 5d c4 3f 81 cc 75 b2 86 e1 c3 3f
       0.15911178116305796 0.1553200122249088
000380 7f f0 d9 a1 8e 60 c3 3f cd 94 94 f7 ed ca c2 3f
       0.151384190587013 0.14681791867147923
000390 ee 52 9b 51 a7 12 c2 3f a0 73 2c 01 63 55 c1 3f
       0.14119426235870186 0.1354182964068089
0003a0 b7 6e e4 5f d4 5a c0 3f e8 2b 41 23 27 32 d9 3f
       0.12777189905397332 0.39368608897046764
0003b0 99 2a 6b 55 4f 41 d8 3f 67 58 98 11 e8 4c d7 3f
       0.37898619977628695 0.3640690013720644
0003c0 2b d3 45 5b f3 5a d6 3f c9 5c 03 fe af 6c d5 3f
       0.3493011847815974 0.3347587566945092
0003d0 69 d8 93 dc 01 86 d4 3f a9 a0 56 ed 19 ad d3 3f
       0.3206791547849038 0.307440263534327
0003e0 b6 0e 5e 32 e6 e6 d2 3f a8 21 bc a0 60 35 d2 3f
       0.29534296911900115 0.284507901160874
0003f0 4b 67 16 78 f7 98 d1 3f fe 1f 54 88 81 10 d1 3f
       0.27496134497925045 0.2666324454626191
000400 ed 1d a2 58 b5 99 d0 3f 36 f8 01 01 b5 31 d0 3f
       0.2593816152152318 0.2530338773575552
000410 cf 44 d2 7b 01 ad cf 3f 89 ba fa 49 fe 08 cf 3f
       0.24746721788372958 0.24246195423389263
000420 be f8 66 ff df 6d ce 3f 01 c0 fb 7e e7 d3 cd 3f
       0.23772811861812743 0.23302930546151404
000430 9f 35 f6 43 9c 31 cd 3f 3b f3 a4 90 d6 81 cc 3f
       0.22807648962445357 0.22271234572135676
000440 dd 67 15 9d 28 c6 cb 3f 4d 00 8d ea db 05 cb 3f
       0.2169848219880909 0.2111163039462575
000450 17 88 aa 4a 87 47 ca 3f df 32 c6 49 32 95 c9 3f
       0.2053078760700948 0.19986561395889788
000460 fc aa dd c2 05 f4 c8 3f ee 2a 2a 38 9c 68 c8 3f
       0.19494697585044907 0.1906924509279046
000470 0b 89 1b de c6 ec c7 3f 5f f5 4e 07 b7 7e c7 3f
       0.1869133553037233 0.18355453354699144
000480 74 f6 99 82 5f 11 c7 3f 0e 0b a7 6d da a2 c6 3f
       0.1802176845266562 0.17684488634230217
000490 e4 4b e4 08 07 27 c6 3f 34 66 7e bd 71 98 c5 3f
       0.17306602415246097 0.1687147307646214
0004a0 2c 0e ba d7 15 f5 c4 3f d2 52 eb 97 2f 39 c4 3f
       0.16372941049131506 0.15799517553263925
0004b0 79 8b 32 c5 f4 6b c3 3f 8c 0a 31 0b 8b a2 c2 3f
       0.15173205975323947 0.14558542295897714
0004c0 82 a6 17 16 0f e6 c1 3f 40 92 10 09 ee 2e c1 3f
       0.13983334139566145 0.13424468462575767
0004d0 a0 92 f5 c2 45 90 c0 3f c2 1e c1 11 09 e5 bf 3f
       0.12940284747596298 0.12458855327087817
0004e0 4d e2 6b 4f 32 30 d9 3f e0 30 76 f4 8c 3d d8 3f
       0.39356668239591813 0.3787567508050085
0004f0 6d ac 34 6c 28 48 d7 3f 3e e8 59 05 1e 56 d6 3f
       0.36377916876762734 0.3490061809785664
000500 27 66 52 b8 ba 68 d5 3f d8 ae c1 f4 f1 83 d4 3f
       0.33451717376883255 0.32055329229363627
000510 28 aa 9d f6 4f ad d3 3f 99 2e fc 1d 8e e8 d2 3f
       0.3074531467779331 0.29544403961401994
000520 c2 c2 35 f0 36 38 d2 3f 3b 21 d8 4b d5 9c d1 3f
       0.28468106706626994 0.2751973381678174
000530 9f 10 a1 55 1a 15 d1 3f 76 25 a2 2a 67 9f d0 3f
       0.26691301691267627 0.2597291866628305
000540 a0 60 fd 7f 51 38 d0 3f ac 87 e3 1f 73 bc cf 3f
       0.25343739985465596 0.24793852860517285
000550 90 29 0d 87 bb 16 cf 3f 55 7d b2 6e 7a 76 ce 3f
       0.24288124174411196 0.23799066929948745
000560 cb 4a dc 4b 45 d3 cd 3f 43 b7 d8 2d 38 26 cd 3f
       0.23300996975065966 0.22772886503792664
000570 1c 04 c0 17 95 6c cc 3f 51 ff 8c b2 00 a8 cb 3f
       0.22206367168112784 0.2160645362691818
000580 f5 63 f8 17 4e e0 ca 3f 64 67 95 0c 07 20 ca 3f
       0.20997024698661418 0.20410240282472636
000590 4c 39 08 e3 b8 6f c9 3f bf 20 57 da 46 d8 c8 3f
       0.1987219914012236 0.19410024319791394
0005a0 9a a5 a7 2f 55 5b c8 3f 13 c9 e6 66 1e f3 c7 3f
       0.19028725459001522 0.1871068956803091
0005b0 62 bc 6b fc 68 95 c7 3f d9 13 6a 55 ba 40 c7 3f
       0.1842471344493531 0.18166283770201977
0005c0 d9 29 e4 6a f6 f0 c6 3f 76 9c fe ad cf 9e c6 3f
       0.17922859401035288 0.17672153468922475
0005d0 fd 5b ce 55 c4 4f c6 3f b6 40 60 64 11 fc c5 3f
       0.1743092936492018 0.17175500298663388
0005e0 05 92 34 34 69 a4 c5 3f 37 fe 1f 76 a7 47 c5 3f
       0.16907992409791475 0.16624921100445686
0005f0 73 1d 8a 5a 3b ef c4 3f 60 7f 71 a8 ce b4 c4 3f
       0.16355077668070414 0.16176779961369459
000600 d5 18 38 1b bb 62 c4 3f 3f 66 2e 6b 2a 31 c4 3f
       0.1592630274682906 0.1577504180284439
000610 c3 62 66 d9 e0 00 c4 3f 85 9e e7 98 81 22 d9 3f
       0.15627680411559738 0.39273109371286125
000620 d2 da 59 88 b3 30 d8 3f 9c b7 4c 76 bd 3d d7 3f
       0.37797249141241906 0.36314331581785964
000630 2b e8 fa b6 a4 4f d6 3f 4a 1a 36 8e 29 67 d5 3f
       0.34861104840422524 0.3344215287001232
000640 d9 9d 49 99 9e 87 d4 3f 0f 53 25 f5 4f b5 d3 3f
       0.32077755898941757 0.30794142665881535
000650 5b ac 07 65 30 f3 d2 3f 95 3d bf 26 13 43 d2 3f
       0.2960930811520421 0.28534392150773985
000660 07 27 2e 15 2b a5 d1 3f b1 b2 c0 46 73 18 d1 3f
       0.27570607250582707 0.2671173277802082
000670 14 b4 d8 6f ca 9a d0 3f a6 c1 a6 c8 c0 29 d0 3f
       0.2594476787806468 0.2525484046446088
000680 54 fc 5d 3d 5e 87 cf 3f 65 b2 09 57 44 cb ce 3f
       0.2463186072963902 0.24057821512123492
000690 46 b8 91 85 2c 18 ce 3f c7 ac 85 8d c0 6a cd 3f
       0.23511272928175425 0.2298203173662385
0006a0 28 7e 42 89 ac bf cc 3f e5 1d 46 0a 55 15 cc 3f
       0.2245994253362238 0.21940100671439136
0006b0 4f 87 d3 44 07 6d cb 3f 4a 23 1d 3f 55 c7 ca 3f
       0.21426478253038758 0.20920816022614935
0006c0 69 a9 ea 95 f2 26 ca 3f b0 15 b6 7b 97 8f c9 3f
       0.20431358642720035 0.19969457188214568
0006d0 5e b2 d6 2d 16 01 c9 3f 2b 71 48 c8 29 7d c8 3f
       0.19534566152778415 0.1913196781105254
0006e0 72 0b 68 75 33 03 c8 3f ed bc 24 04 a6 96 c7 3f
       0.18759768707976893 0.1842849273902866
0006f0 e7 30 c7 7b b2 2e c7 3f 73 5e d3 8c 98 d2 c6 3f
       0.18111258548595474 0.1783018767953198
000700 4d d5 11 b7 c6 76 c6 3f ff b3 ba 7a c4 1c c6 3f
       0.17549976290653505 0.17275291435853998
000710 e2 6c 9e 8c e3 bf c5 3f b9 d7 25 a8 0c 5e c5 3f
       0.16991848341135724 0.1669326611551563
000720 ad bb 6a 43 60 f6 c4 3f 76 74 4e 41 31 91 c4 3f
       0.16376879970399952 0.16068092049400534
000730 73 3b 7e 60 b6 2f c4 3f af df 86 ae 8a d2 c3 3f
       0.1577060671956719 0.15486272355860595
000740 71 c7 87 79 11 5e c3 3f e8 7b 08 48 e2 c7 c2 3f
       0.1513082354936688 0.14672497288935848
000750 94 b4 93 db 1f 2a d9 3f af 99 1c 43 97 37 d8 3f
       0.39319607203544504 0.3783929973018542
000760 8a 2f 25 0e 5f 42 d7 3f d8 4e fc 29 9c 50 d6 3f
       0.3634259832513115 0.3486700449004565
000770 2a 07 ca 42 a6 63 d5 3f 2b 39 35 2f 34 7f d4 3f
       0.3342071201551443 0.32026390657564957
000780 d2 48 86 9d b9 a8 d3 3f a6 a3 58 47 f3 e3 d2 3f
       0.307173160393302 0.2951629826298422
000790 d4 42 c5 78 dc 32 d2 3f 65 10 8f 2d ed 95 d1 3f
       0.2843543223762428 0.2747757859144769
0007a0 c5 64 81 b9 cf 0b d1 3f c8 9c 26 51 a6 92 d0 3f
       0.2663459121300316 0.2589507858742306
0007b0 5d 09 12 00 55 28 d0 3f 0f fb c4 95 91 96 cf 3f
       0.2524616718948403 0.24678249180757247
0007c0 6c 34 01 05 d6 ee ce 3f df e1 78 11 67 50 ce 3f
       0.24166369671221177 0.23682869294294925
0007d0 7b a1 27 c8 f2 b0 cd 3f bb 76 83 95 ad 07 cd 3f
       0.23196253560241673 0.22679681587663034
0007e0 c8 d0 01 c0 06 52 cc 3f 65 22 24 ea a3 95 cb 3f
       0.22125324607225694 0.215504159285291
0007f0 63 50 77 a7 a0 db ca 3f 82 91 76 34 3b 2e ca 3f
       0.20982750107816903 0.20453586637189508

Maxvals f8 [11]
000000 9f 5d 1a 12 d7 ae 2d 40 82 f6 28 d1 6f ed 2c 40
       14.841484609335394 14.46374372124706
000010 9f bd 58 fd 65 a7 2c 40 e2 e1 0a 0c a5 85 2c 40
       14.326949994165998 14.261024833992398
000020 ec 74 6e 6a 79 57 2c 40 97 d3 58 59 80 4d 2c 40
       14.17084820364331 14.15136985024746
000030 1a 05 4d 44 e2 1e 2c 40 02 f0 5b 1b b5 05 2c 40
       14.060320028688285 14.011147360775798
000040 dd 75 e4 7c 7f da 2b 40 9e 1b 2a 2d 6b a6 2b 40
       13.926753905189736 13.825036441221354
000050 54 e8 91 a1 35 3f 2b 40
       13.623456048069933
