Data/SIMBA/Model_snap0.npz (npz, 124250 bytes, 5 tensors)

x f8 [17]
000000 00 00 00 00 00 00 26 40 33 33 33 33 33 33 26 40
       11.0 11.1
000010 66 66 66 66 66 66 26 40 99 99 99 99 99 99 26 40
       11.2 11.299999999999999
000020 cc cc cc cc cc cc 26 40 ff ff ff ff ff ff 26 40
       11.399999999999999 11.499999999999998
000030 32 33 33 33 33 33 27 40 65 66 66 66 66 66 27 40
       11.599999999999998 11.699999999999998
000040 98 99 99 99 99 99 27 40 cb cc cc cc cc cc 27 40
       11.799999999999997 11.899999999999997
000050 fe ff ff ff ff ff 27 40 31 33 33 33 33 33 28 40
       11.999999999999996 12.099999999999996
000060 64 66 66 66 66 66 28 40 97 99 99 99 99 99 28 40
       12.199999999999996 12.299999999999995
000070 ca cc cc cc cc cc 28 40 fd ff ff ff ff ff 28 40
       12.399999999999995 12.499999999999995
000080 30 33 33 33 33 33 29 40
       12.599999999999994

intercept f8 [100, 17]
000000 00 7b a9 8d 7b 85 8d bf c0 00 0a 4e fa af b9 bf
       -0.014414754162485277 -0.10034145741701916
000010 f4 45 21 ca ee 01 ca bf b2 cf f3 4e 93 75 d4 bf
       -0.20318398351314182 -0.3196762343425191
000020 16 68 f4 b3 c0 e9 dc bf e2 28 68 01 c0 24 e3 bf
       -0.45176713536932434 -0.5982360866048817
000030 5d e1 b2 49 35 86 e8 bf 2e 48 00 4d 86 fa ed bf
       -0.7663828315190063 -0.9368316177299272
000040 e3 ba a7 6e cd d2 f1 bf eb 4e 45 40 9a 3d f4 bf
       -1.1139654467075892 -1.2650396833968738
000050 ab 80 35 9c be 2a f6 bf a6 8c 1d b5 bb b9 f7 bf
       -1.3854356862939692 -1.4828450274297125
000060 af ab a1 9c b2 dd f8 bf 5e 2e 52 fa 0c 06 fa bf
       -1.5541254156512243 -1.6264772203602642
000070 fb 52 fb fb 8f ea fb bf f8 a4 cc 95 4e f3 fe bf
       -1.7447662203823586 -1.9344011165179023
000080 87 e6 6a 46 83 35 01 c0 40 b5 7c e7 31 dd 81 3f
       -2.151129293572754 0.008722677113463306
000090 38 d4 0f 59 f4 e3 b2 bf b4 ce ec 05 93 89 c7 bf
       -0.07379080938683635 -0.18388593472774561
0000a0 76 95 a2 3a 41 ec d3 bf 40 63 73 ac 74 0b dd bf
       -0.31129484869082746 -0.4538242038811866
0000b0 d3 93 92 10 b0 70 e3 bf 93 5b 09 d4 76 b1 e8 bf
       -0.6075058292086574 -0.7716631070460259
0000c0 06 b7 63 3e e2 7e ed bf a2 12 cf cf 9d 2d f1 bf
       -0.9217387407822748 -1.0736368291410732
0000d0 a8 96 cc ca 61 02 f3 bf fa 7f d9 21 a5 b3 f4 bf
       -1.1880815431444862 -1.293858654236827
0000e0 9d 24 f5 5a 4f a2 f6 bf 07 cc c6 ce a1 d3 f8 bf
       -1.4146264603644234 -1.5516679837426197
0000f0 2a bd e6 ab 0d 0f fc bf ce d2 f2 8d 15 6e 00 c0
       -1.7536751475234476 -2.053752049420246
000100 10 35 41 e4 c9 ab 02 c0 db 6e 08 f0 23 7e 05 c0
       -2.333881171455353 -2.686591983086925
000110 b0 5d 65 a2 54 3b ab bf 08 06 81 2d 4e d1 c0 bf
       -0.05318703157780236 -0.13138749334216038
000120 3c 98 90 43 c5 fa cb bf e0 60 5f 50 49 2b d4 bf
       -0.21859041022361392 -0.31514199112781505
000130 3c 72 83 cb f7 45 db bf 41 48 d7 31 ed bd e1 bf
       -0.4261455047069693 -0.5544343923049909
000140 3b fb 7c 64 3a bf e6 bf ae 2e f0 d1 27 7b ec bf
       -0.7108432734165498 -0.8900336361270627
000150 e8 57 22 07 b2 5b f1 bf 14 17 e8 59 8b 3e f4 bf
       -1.0848865774801144 -1.2652696144081732
000160 5b 77 a4 0b 61 8b f6 bf a6 66 5c d5 e3 5c f8 bf
       -1.4090280966551834 -1.5226782164012689
000170 e0 01 6d c5 e3 47 f9 bf ae e7 11 e7 83 75 f9 bf
       -1.5800512039132784 -1.5911902452630602
000180 18 10 6b 84 5a 79 f7 bf a6 56 9b 12 80 b0 f6 bf
       -1.4671273396097657 -1.4180908896281976
000190 54 c3 da ac 40 a5 f2 bf 20 f2 78 a5 9c f2 91 bf
       -1.165344882214602 -0.017527053451191432
0001a0 88 61 6f 0a dd da bb bf 34 96 0e 40 e2 18 cb bf
       -0.10880834107172721 -0.21169689300329397
0001b0 0a 9d 4f ef 83 09 d5 bf d6 dd c8 8b 6a 64 dd bf
       -0.3287057721158396 -0.4592539181789709
0001c0 53 c0 77 c0 d8 4d e3 bf 56 72 9c 93 fa 85 e8 bf
       -0.6032527693878457 -0.7663548357991867
0001d0 54 17 84 d2 7f 9b ed bf 82 b0 07 08 b6 4f f1 bf
       -0.9252318488731626 -1.081960708014805
0001e0 12 65 45 bd 62 6e f3 bf 48 25 4f e3 52 e8 f4 bf
       -1.2144496339227016 -1.3067196730865636
0001f0 28 83 a9 4d ee fa f5 bf 42 f5 b0 af 29 a4 f6 bf
       -1.3737624200513867 -1.4150788176478533
000200 3a ca 25 14 07 9f f8 bf bd 9b 40 39 25 2a fc bf
       -1.538825110150937 -1.7602894054814293
000210 57 70 53 0d ff db 00 c0 f5 4b 3f 28 d0 3c 04 c0
       -2.1074200669373044 -2.5296939033810255
000220 80 09 52 44 62 d2 8a 3f 98 8e 76 41 c9 c2 b3 bf
       0.013096587858176134 -0.07719095085354366
000230 c4 a9 5a 5a 6c 20 c8 bf 94 af 08 2b 65 7b d4 bf
       -0.18848947917770265 -0.3200314445737089
000240 40 df ce e1 5b c2 dd bf 9a a3 2b 11 2c ce e3 bf
       -0.46498772670337374 -0.6189174971924445
000250 c7 87 45 a8 b3 ea e8 bf 3f 9a a5 84 b9 ad ed bf
       -0.7786501204066035 -0.9274566260108442
000260 36 cd e5 75 97 03 f1 bf 1c 8f 24 fb e7 bb f2 bf
       -1.0633768658997957 -1.1708755312219585
000270 e8 4e fc 0b ce ea f3 bf 98 ad 44 48 b5 92 f4 bf
       -1.244825407808941 -1.285817415521569
000280 b8 60 65 9c 14 5c f4 bf 44 ac 8d 7e 09 1d f4 bf
       -1.272480593606856 -1.2570891326420375
000290 94 3c a1 69 fd ad f4 bf d6 e8 e3 0a f1 ed f5 bf
       -1.292478001228834 -1.3705912042046768
0002a0 26 9a e0 0e 06 8d f8 bf 00 47 71 bc 59 bc 61 bf
       -1.534429605593354 -0.0021650078447600363
0002b0 f8 ed 9d d7 0b ed b7 bf 38 d7 50 be 87 09 c9 bf
       -0.09346078886112952 -0.19560334007990732
0002c0 64 bd b9 f6 a6 80 d3 bf f0 ab 0e 22 16 3a db bf
       -0.3047273072652017 -0.42542031598958285
0002d0 54 b0 28 f6 1d d2 e1 bf d2 16 23 74 d1 aa e6 bf
       -0.5568990524093445 -0.7083518284132089
0002e0 f4 f4 9c bc 35 52 ec bf 2e 00 24 2e ca 6d f1 bf
       -0.8850353893136842 -1.089304142224147
0002f0 40 f8 38 24 40 00 f5 bf c0 b0 f4 48 32 fd f8 bf
       -1.3125611700957194 -1.5618155336224362
000300 84 09 cb 20 ea fe fc bf 85 22 72 b7 18 af 00 c0
       -1.8122350007039083 -2.085496361895198
000310 d1 60 bb 50 46 95 02 c0 d8 69 1c ab d2 4b 04 c0
       -2.3228880221541677 -2.537022911839113
000320 7a 82 15 d9 a8 51 05 c0 1c b7 64 f2 a6 de 04 c0
       -2.664872833222316 -2.6087168633447515
000330 c0 f8 71 ff e4 2c 86 bf 40 09 68 f0 12 3f ba bf
       -0.010827817006653695 -0.10252493256851825
000340 94 30 f7 da c5 d3 cb bf 10 34 46 62 5e 45 d6 bf
       -0.2174002951782127 -0.34798392865269623
000350 d4 09 5e cc a7 b0 df bf e2 5c 3e a9 1b 48 e5 bf
       -0.49515719373462486 -0.665052252344051
000360 83 7b 60 8f d7 94 eb bf a4 b7 55 60 33 22 f1 bf
       -0.8619191932992724 -1.070849777515357
000370 4b d3 af e6 85 94 f4 bf 36 7c 94 11 d0 c4 f7 bf
       -1.2862605105594465 -1.4855499922484916
000380 09 10 d5 96 89 7d fa bf de 63 74 13 d9 03 fd bf
       -1.6556487934003619 -1.8134394416758748
000390 c6 c3 4e be 9c 4a ff bf de a8 ec 29 c0 46 00 c0
       -1.955715888394694 -2.0345462107990064
0003a0 90 64 e6 19 69 9a 01 c0 d6 3f ca 80 27 ed 02 c0
       -2.200395777076274 -2.365798002407227
0003b0 26 37 ef 4c 52 24 04 c0 00 26 b7 d8 20 11 55 bf
       -2.517735100794101 -0.0012858219878232324
0003c0 98 d9 5a bf 9f 76 b3 bf d8 44 b7 97 25 7e c5 bf
       -0.0760288088011748 -0.167912196235682
0003d0 1a 3b 97 43 1c 71 d1 bf 7c d2 44 30 4e 05 d9 bf
       -0.272528711325252 -0.3909488173842772
0003e0 49 89 c2 98 06 93 e0 bf a1 c2 70 c0 72 29 e5 bf
       -0.5179474814979496 -0.6613096006968427
0003f0 07 51 00 f6 42 14 ea bf bb 6a cf fc f9 bd ef bf
       -0.814973335715451 -0.9919404924106269
000400 3a 99 2c 35 02 16 f3 bf 8a 4b 3b e5 5b 0c f7 bf
       -1.1928731991880128 -1.4405173258171282
000410 28 6f ea a8 e8 c1 fb bf 9d 88 69 6b 38 cd 00 c0
       -1.734841022326643 -2.1002052680569947
000420 9e 93 90 1f be aa 03 c0 da 6a 6e d2 f4 15 06 c0
       -2.4583704439159666 -2.7607208671519006
000430 ba 92 5e a1 07 3e 07 c0 f4 d5 6c 37 a0 e5 06 c0
       -2.9052879912363467 -2.86212199498072
000440 40 2b 19 77 af 57 87 3f 50 37 43 ae 41 d0 aa bf
       0.011397715398876351 -0.052370121500287525
000450 74 4e c9 40 3d f6 c1 bf 04 3b 49 3e 30 62 d0 bf
       -0.1403271261539093 -0.2559929474127076
000460 22 12 ac 29 2e e4 d9 bf f7 29 15 40 b8 ba e2 bf
       -0.40455202168985427 -0.5852929355253867
000470 26 b4 54 ff bf 0a ea bf 02 7d f5 49 f6 e7 f0 bf
       -0.8138122546130304 -1.0566313637753528
000480 30 e2 1e 21 82 f2 f4 bf 7b 97 40 4b 71 91 f8 bf
       -1.3092061322951274 -1.5355084361594595
000490 82 3a 85 f7 be 59 fb bf c8 41 2d ca 87 cb fc bf
       -1.7094106358305514 -1.7996900460749305
0004a0 b0 c8 8c 51 25 4d fc bf 9a 1f 63 d5 5f 4c fa bf
       -1.768834417871897 -1.6436460814893281
0004b0 f8 5d b0 2e 1e ad f7 bf fd 70 7d 85 7a d4 f5 bf
       -1.4797651122843245 -1.3643746580556233
0004c0 f2 19 61 b8 f1 fd f2 bf e0 b4 a6 ba e4 79 9d 3f
       -1.1869981005016794 0.02878529919842243
0004d0 50 3e ce a6 a2 36 ac bf 7c 6e 1e 42 44 6e c4 bf
       -0.05510433469964637 -0.15961507061443914
0004e0 8c a3 06 fe ec d9 d1 bf 64 37 d7 c6 dc c7 da bf
       -0.27892613227100393 -0.4184486333659747
0004f0 1e af eb 0d fd 26 e2 bf 4c a6 d8 b3 4e ca e7 bf
       -0.5672593376052395 -0.7434457314131548
000500 47 66 f8 89 10 f0 ec bf a2 28 d8 6f 23 d1 f0 bf
       -0.9043047613842611 -1.0510591858788207
000510 44 e4 bf cd 13 64 f2 bf 48 39 f0 1e 55 30 f3 bf
       -1.149432948788914 -1.1992999275713192
000520 10 26 c4 1d 52 8b f3 bf a2 c7 ba 81 e6 6a f3 bf
       -1.221513859056703 -1.213598734623226
000530 b5 a1 b6 e6 ba 61 f4 bf cb 69 ad f5 7f eb f7 bf
       -1.2738598835222608 -1.4949950787328017
000540 ac c0 5c d4 38 b6 fd bf ef 96 0f 51 2e 34 02 c0
       -1.8569877906229904 -2.2754789669878543
000550 40 3f 3f 45 15 63 9d bf 40 f3 9d 44 27 53 bf bf
       -0.028698284484391268 -0.12236257004947237
000560 40 87 9e 4e de 01 cf bf 98 f8 ac 12 dd 81 d8 bf
       -0.24224451865034702 -0.3829262430553029
000570 88 01 29 59 16 42 e1 bf a3 e5 fd 49 14 73 e6 bf
       -0.5393172971162565 -0.7015477605011039
000580 e9 e3 40 30 bf 1d ec bf 5c 4b df 30 cf 89 f0 bf
       -0.8786312048388228 -1.0336448582717912
000590 ad 54 56 95 2b bd f2 bf 5a 0c 3e 46 d4 9e f4 bf
       -1.171184142445138 -1.2887766593783199
0005a0 3d 3b ad 73 bd da f5 bf 59 cd 8f 98 ec b0 f6 bf
       -1.3659033316250337 -1.4181943854753938
0005b0 62 9b 4b 1b 16 31 f7 bf c8 53 a4 31 84 a6 f7 bf
       -1.4494839731430251 -1.4781534136902668
0005c0 95 3b 7e b6 61 b1 f8 bf 0e de 7d fc fe b3 fa bf
       -1.543306076873454 -1.6689443457561342
0005d0 9a 84 4b 41 0d c9 fc bf 90 d7 e3 63 d5 d4 ac bf
       -1.7990849066339138 -0.056311291164021005
0005e0 00 7b dd 3b 30 aa c3 bf 4a c5 f4 2e ea eb d0 bf
       -0.15363123820403501 -0.2643990953975687
0005f0 a6 95 1e 52 bb 8b d8 bf f9 1c 2b bb 1d 92 e0 bf
       -0.3835285474727591 -0.5178364425309204
000600 37 c6 9a d5 4a 1c e5 bf 3a 80 2f c5 e7 4b ea bf
       -0.6597036525692549 -0.8217657901077537
000610 61 34 37 b3 91 c1 ef bf 52 15 76 6f d5 d4 f2 bf
       -0.9923790455155875 -1.1769613603549556
000620 9d de 38 8a 8b ba f5 bf 18 96 be 35 ea 93 f8 bf
       -1.358043231897603 -1.5361120318788206
000630 0c 7c 61 54 04 6c fb bf db 01 fd bf 53 70 fe bf
       -1.7138713165402377 -1.9024236201804487
000640 9c 40 b6 38 85 91 00 c0 74 c6 c9 8d 02 d5 01 c0
       -2.07105488115492 -2.229008777351561
000650 86 03 ee ae 8b cb 02 c0 d4 bf 19 6d 54 be 03 c0
       -2.349387518538097 -2.4679344676478454
000660 40 b6 af f6 ce 32 82 3f 20 85 03 aa 81 0f af bf
       0.008885971930762016 -0.06066518020976219
000670 c0 ba 37 d9 d8 b1 c1 bf 88 09 84 29 0f 17 cd bf
       -0.13823996168453867 -0.22726621176850537
000680 16 dd 8c 49 da 80 d4 bf c2 65 0f be 64 c2 db bf
       -0.32036454374925094 -0.4337398391777151
000690 51 31 d4 82 2c b3 e2 bf 3d 2c e9 b7 7a f1 e8 bf
       -0.584371810460235 -0.7794774620064185
0006a0 44 a8 02 09 44 96 f0 bf 96 46 fe 87 85 14 f5 bf
       -1.036685977169797 -1.3175101577984711
0006b0 5b 6d 51 d6 6f d0 f9 bf e2 fe 33 49 ad 32 fe bf
       -1.6133879062461662 -1.8873722896095662
0006c0 c3 33 f3 09 3e 7a 00 c0 97 65 e2 74 89 79 01 c0
       -2.059688642248575 -2.1843442088690597
0006d0 23 33 5b 4a c2 ff 01 c0 d8 6a c9 2d 6a 63 02 c0
       -2.249882298381992 -2.2985423638432216
0006e0 c9 ab 4f b6 43 5d 02 c0 00 40 22 c2 0a 26 27 bf
       -2.2955393069327994 -0.00017660981490452698
0006f0 68 4b f6 d9 cb f8 b3 bf 10 f4 41 e5 f4 ef c5 bf
       -0.07801508017864267 -0.17138539499492866
000700 56 fa bb 52 b4 d7 d1 bf 52 f8 ba 3b 97 0c d9 bf
       -0.2787905509902989 -0.39139347870866914
000710 db 13 4a 4c f0 9a e0 bf bb 2a 84 ef d1 38 e5 bf
       -0.5189134111429853 -0.663186042599896
000720 9c 36 6b 93 54 3e ea bf f6 69 7e 73 0f 88 ef bf
       -0.8201086882852056 -0.9853589301813475
000730 a4 8f db a9 91 f1 f1 bf 9b 81 f0 01 e4 df f3 bf
       -1.1214768061699738 -1.2421608043442578
000740 ea fb ab 9b e5 ab f4 bf 1f 0b 27 b8 ff c8 f4 bf
       -1.2919670182161505 -1.2990719979722554
000750 ec 03 aa 85 cf 1e f5 bf fe b0 e2 6b 46 b1 f7 bf
       -1.3200221272711543 -1.480780049732004
000760 77 19 03 4d fb 07 fd bf 98 b2 0e 0b 66 7a 03 c0
       -1.8144486435208742 -2.434764944444691
000770 38 5d fb 14 84 da a9 3f 60 f3 79 b8 c1 40 9a bf
       0.05049526935698129 -0.025637652287048396
000780 f8 68 0b a2 e8 90 c0 bf 7e a0 73 f3 ee f5 d0 bf
       -0.12942226326305906 -0.2650105836351101
000790 f2 7f 20 94 5d 65 db bf 55 5c 2f b1 5f d7 e3 bf
       -0.428061861663081 -0.620040746750315
0007a0 a0 a9 5a 89 c8 96 ea bf 43 13 5d ce 95 82 f0 bf
       -0.8309061701486833 -1.031881147487369
0007b0 65 95 09 00 65 7f f3 bf 37 df ee 61 c4 b7 f5 bf
       -1.2186021806204164 -1.3573650193702187
0007c0 b8 ce e1 7d e4 db f6 bf d2 a1 cf 43 a4 51 f7 bf
       -1.4286847035663595 -1.4574320458287855
0007d0 fc f2 01 6a 65 06 f7 bf 8e 4c a8 56 7f f2 f6 bf
       -1.4390615597650926 -1.4342034707122227
0007e0 bb 9d 84 4b e3 bf f8 bf 1b 08 dd c5 fe bd fa bf
       -1.5468476247714154 -1.67138554849999
0007f0 72 6e ce 03 3f bb fd bf a0 f5 f4 4b 09 5f 97 bf
       -1.8582143925367771 -0.022823472271957024

slopes f8 [100, 17, 7]
000000 37 4b 06 3c 5e 85 a8 3f 90 55 8a 0a a1 8e b6 bf
       0.047892517878742095 -0.08811384684880452
000010 16 6d d1 0c 7c 7f d1 3f 6d 88 2c d6 9e 72 ae bf
       0.27340604068531726 -0.05946823467662985
000020 a8 e9 4d 37 01 7f 59 bf 50 0f 33 e4 09 5d 84 3f
       -0.0015561591983145138 0.009943082119555108
000030 2e e0 0e 7e ff b6 53 3f 92 a0 f8 ce a0 09 ad 3f
       0.0012032980959997375 0.05671408201698215
000040 d4 b9 1c 69 28 11 b1 bf 19 7e e6 18 51 8e d2 3f
       -0.06666805807319715 0.2899363272826761
000050 6a 43 bd ae be 3b b0 bf a0 cf 1f 90 6a bb 59 bf
       -0.06341163412186082 -0.0015705624250559116
000060 d3 98 c8 33 4d 0d 82 3f 20 6c 76 57 4b 15 04 bf
       0.008814433234033114 -3.830562757941463e-05
000070 3d 8f 82 91 bb 1c b1 3f f0 8c 73 0d d4 58 a9 bf
       0.06684467604150952 -0.049505831377041676
000080 0f 47 aa 51 75 b1 d3 3f ea 95 c0 20 ab 08 b1 bf
       0.3077061936865996 -0.06653852033249277
000090 58 a3 3b 82 a9 35 58 bf 68 ce 9e b0 94 0a 7a 3f
       -0.0014776378019922456 0.006357746906292407
0000a0 9d 8b 64 50 90 3b 4b bf 2d aa f4 d0 9a f6 b3 3f
       -0.0008310751589174385 0.07798163987596558
0000b0 56 3a d7 67 21 8a a2 bf 4c c1 36 1f 26 da d4 3f
       -0.03621010201060375 0.32581475303870344
0000c0 34 71 39 65 56 8f b1 bf 40 5b 28 54 53 ef 57 bf
       -0.06859340640352657 -0.001460868240092686
0000d0 64 95 9b 56 a7 c3 67 3f 7a 64 25 ff 02 9f 52 bf
       0.0029009121252438364 -0.0011365441574382727
0000e0 57 af d2 db f3 1c b7 3f f8 c3 d3 3f 59 75 9b bf
       0.0902855312039582 -0.026814836998656916
0000f0 ac e7 01 6e 7a 02 d6 3f b1 85 d0 23 e7 d8 b1 bf
       0.34390125983156383 -0.06971592544916551
000100 60 db 98 5f c9 14 56 bf 60 93 64 f4 dc 52 59 bf
       -0.0013477293526997433 -0.0015456350097988389
000110 88 fe 9e ad d4 de 4d bf f5 9d ed 57 c4 88 ba 3f
       -0.0009115732639130717 0.1036493982952534
000120 20 c7 92 67 6e 15 95 bf 61 53 e4 c9 69 ef d6 3f
       -0.020589566299071937 0.3583626243210372
000130 45 93 6c d0 48 fe b1 bf 30 e5 2f 00 b7 67 53 bf
       -0.07028632248382134 -0.0011843955151092482
000140 9c 7f 2b 12 64 58 7a bf 80 cb 05 4c c9 c0 28 bf
       -0.006431952383280672 -0.00018885094869921723
000150 85 38 82 e1 19 64 be 3f c4 d9 8a f6 df 90 91 bf
       0.11871492152769932 -0.017154216215851795
000160 b4 55 ff 3b aa a9 d7 3f 0a a2 74 d0 f8 00 b2 bf
       0.3697305284416317 -0.07032733048675524
000170 d8 7a ae 9f 9e 7a 55 bf ca 93 01 7a 9f 69 87 bf
       -0.0013109730777853181 -0.011431928549606857
000180 00 bf c8 86 89 0d 1e 3f f1 0f 09 1b 60 20 c1 3f
       0.00011464263816018602 0.1338005191811358
000190 80 1d 22 f3 a9 1f 90 bf b8 13 b6 f0 8b 5e d8 3f
       -0.015745788063694643 0.3807706690498054
0001a0 72 b1 b7 10 ae 09 b2 bf 1f 44 83 fd 32 d8 61 bf
       -0.07046020420211166 -0.00217828711547742
0001b0 69 31 ae 5a ee e6 90 bf 00 00 42 d2 71 c5 df be
       -0.016505932125754273 -7.574860578896114e-06
0001c0 b4 59 9b 5b b4 1d c3 3f 30 2c c3 2c 36 aa 8d bf
       0.14934401009550202 -0.014484809151687456
0001d0 1d 04 23 e7 72 32 d9 3f eb ac a3 7b 68 34 b2 bf
       0.39370415279342 -0.07111218470133777
0001e0 68 81 7d 1d 7f 52 71 bf 04 e9 94 6c c0 1f 96 bf
       -0.00422906545995292 -0.021605497958469236
0001f0 00 d8 63 af 8f 33 50 bf e8 aa 0c 12 39 ce c4 3f
       -0.000988855664727506 0.1625434244281998
000200 00 2b 8f 19 e5 e5 88 bf 72 e6 c4 cf 0e 15 da 3f
       -0.012157239763742833 0.40753526964144904
000210 b2 50 c8 a1 47 6c b2 bf e4 a7 bd 5b 31 55 81 bf
       -0.07196471881644831 -0.008463273632248254
000220 37 43 41 ea ca 3f 9c bf d0 47 66 24 b5 63 70 bf
       -0.027587099597727174 -0.004001338564551163
000230 14 30 cf 89 2d 23 c6 3f 40 02 c8 fe e5 8f 88 bf
       0.17294854382487357 -0.011993214452560186
000240 57 c8 7c 01 af 5b db 3f 34 dd 3d 39 7a bd b2 bf
       0.4274709238553717 -0.07320369622708683
000250 d4 e0 59 6e 74 66 8f bf 5c 97 48 47 8c 1d a1 bf
       -0.01533213578953544 -0.033428558065039055
000260 f8 25 5a 6b 93 8c 82 bf 26 3a 72 f3 80 34 c7 3f
       -0.009057189668300034 0.18128978621503328
000270 00 20 7c 43 e8 5a 88 bf b7 53 3f 4b 83 7c dc 3f
       -0.01189214187571963 0.4450996622884377
000280 bf e0 10 03 fc 03 b3 bf 3c ca 3f 9a 93 b7 99 bf
       -0.0742795474515132 -0.025114351548788813
000290 10 50 d7 bf b3 eb a5 bf fa 5a 91 b0 c6 24 91 bf
       -0.042813889663790516 -0.01674185230907719
0002a0 78 40 3c 27 cd f6 c7 3f f8 9a 4e e3 dc 2f 91 bf
       0.18721928039349556 -0.016784144757958835
0002b0 b4 60 9e 57 ba 2e de 3f 03 da 54 b0 f1 da b2 bf
       0.47160204464445177 -0.07365332179038124
0002c0 9c 78 12 8b 69 ff a2 bf b4 86 16 46 f6 d6 aa bf
       -0.03710489103944889 -0.05242127996031112
0002d0 de 6d 6d 6e 4c da 9b bf 8f da ff c5 4c ae c8 3f
       -0.027199930419880995 0.1928192107004247
0002e0 cc b4 dc 69 ed db a0 bf 52 23 9c be f1 d1 df 3f
       -0.032927912876724 0.4971889840531293
0002f0 7f 21 39 5b 2d 7b b2 bf cc 7e 4e 6b 9c a2 a9 bf
       -0.07219203450325117 -0.050068748568489946
000300 04 5f c0 b9 06 4c b0 bf 9d 1d 6b 55 ae 32 a8 bf
       -0.06366006884524827 -0.047261665274670885
000310 09 9a b3 cf fe cf c9 3f a4 99 cb 50 59 0c b1 bf
       0.20166001455000096 -0.06659467909375977
000320 0f 8f e7 a6 a3 df e0 3f 96 4e 0f 69 51 19 b1 bf
       0.5272997150281941 -0.0667925721639285
000330 f8 70 36 e0 fc 15 af bf 64 46 0c 45 c9 fb b2 bf
       -0.06071462857218707 -0.07415445266476578
000340 8d a7 03 be c8 00 b3 bf 2b 57 22 10 fa 9d cb 3f
       -0.07423071517010112 0.2157585696010583
000350 7d 48 4f 06 0c 20 be bf 91 f6 b8 68 8c 50 e1 3f
       -0.11767649797482878 0.541082577263028
000360 0a 42 80 bf 10 39 ae bf f4 19 ed b4 a6 83 b1 bf
       -0.05902912461909089 -0.06841508786337852
000370 46 7d 97 f6 cb 3a b5 bf 5c 96 ea c7 83 b7 bb bf
       -0.0829284169226315 -0.10826896315355711
000380 18 ec cf be 60 9a cd 3f 64 93 3c 02 a1 55 c8 bf
       0.23127373997689982 -0.1901131878777519
000390 e1 6e 11 91 db 5f e0 3f 9c e3 de 00 41 92 aa bf
       0.5117013772355358 -0.05189707885387593
0003a0 d0 1e ea 69 65 29 b2 bf 26 9f 2d 4b 9a 2a b6 bf
       -0.07094415508083363 -0.08658756575971135
0003b0 5c 0c 01 76 86 b0 c3 bf 62 cc e4 35 85 52 a7 3f
       -0.15382462274473852 0.04555145533449757
0003c0 ae 1c e9 3c 42 62 b8 bf a5 33 bc d4 35 f1 d1 3f
       -0.09524930941653295 0.28034730696600213
0003d0 0e 42 5c ad 3e 57 ae bf 3c 99 cd 80 74 49 75 bf
       -0.059259375250011556 -0.005197005358104353
0003e0 ca da 54 b0 30 2e 87 3f 28 6b ba f9 1c fb 57 bf
       0.011318569546899044 -0.0014636786426424717
0003f0 89 04 41 60 12 b2 ab 3f 3f 4b 36 79 c0 da b2 bf
       0.05409295487380301 -0.0736503883293098
000400 6f f1 4f 9e 5f 5a d3 3f 83 01 0d a8 51 fa af bf
       0.30239096126731274 -0.06245665718461437
000410 a9 74 dc 39 3f aa 75 bf 38 eb 92 82 b2 aa 85 3f
       -0.0052893132940684895 0.010579485521125073
000420 36 81 07 29 79 f6 4b bf 7e b4 7a 86 e4 a1 b0 3f
       -0.0008533565142521463 0.06497028620897713
000430 ca 10 1c 46 3c 73 ac bf f5 6d 79 fd e8 1e d5 3f
       -0.05556667667227229 0.33001160386422096
000440 6d 0e 32 f3 9f 88 b0 bf 76 36 59 f7 f6 92 74 bf
       -0.06458472907439168 -0.005022968971002953
000450 ce af 6f cd 1d f0 81 3f 02 92 6e e4 49 ee 58 3f
       0.008758766967694866 0.001521656189404586
000460 ce c2 16 c2 b4 c4 b3 3f 40 e2 47 45 2d e6 a4 bf
       0.07722024668215541 -0.040818609912041115
000470 c4 a4 28 45 6b 2b d7 3f 9a ba 8b c3 9b d4 b0 bf
       0.36202508691583213 -0.0657441475302484
000480 8c 8c 6d 2d 51 fd 71 bf 0a e1 30 f6 39 4e 77 3f
       -0.004391972636628282 0.005689836895776299
000490 d7 ab 1f 97 ab 8c 78 3f a5 9e 5e 12 0e 32 b7 3f
       0.0059935286280774136 0.09060752819515956
0004a0 00 bb 95 33 54 95 9e bf b5 4f ef d7 41 7c d9 3f
       -0.029866519592753882 0.3982090576876048
0004b0 12 c6 ba 16 1c ee b0 bf 24 af 9c fe d0 78 69 bf
       -0.06613326601907257 -0.0031093675542218802
0004c0 50 15 c5 57 53 ab 53 3f 90 b5 1a 86 75 aa 8a 3f
       0.001200515164854938 0.013020437388457734
0004d0 d2 d6 92 45 9e d1 ba 3f dc 5f 70 c0 5d 97 96 bf
       0.10476102064680085 -0.02206179129652229
0004e0 81 2a 9f e6 61 a9 db 3f de 73 ee 61 3c fd b0 bf
       0.43221328279165766 -0.06636407271294284
0004f0 7c 90 41 51 65 01 54 bf a8 c7 56 d1 f3 0f 75 bf
       -0.0012210359027671472 -0.005142166531571769
000500 6a f4 1d 96 6a dc 96 3f 62 97 88 85 d1 9d be 3f
       0.022325196659484105 0.11959561834427526
000510 a8 8a 51 b6 89 99 91 bf f7 90 e6 86 b1 72 dd 3f
       -0.017187263253058888 0.4601253335370212
000520 2e 67 fb 24 a0 13 b1 bf 90 c1 98 4c 07 bd 50 3f
       -0.06670571234590447 0.0010216304093654018
000530 6c 77 dd 88 a4 cf 8b bf 09 cd 54 c0 9f 90 a0 3f
       -0.01357964079550885 0.03235339377206443
000540 be 3b 77 ac 91 06 c1 3f 20 2c c2 3b 66 78 8b bf
       0.1330129711263605 -0.013413237284359225
000550 30 89 50 42 04 c6 de 3f 44 87 86 6e eb 3f b1 bf
       0.4808359763720942 -0.06738158653618337
000560 60 9d 5f 90 db a3 68 3f d7 6f 1a 00 64 8d 99 bf
       0.003007820926530222 -0.02495342493658356
000570 ff 20 58 11 da 9c a5 3f 7f 55 90 44 8e bf c2 3f
       0.04221230947229237 0.1464708170685007
000580 50 f5 4b 63 1a 20 81 bf 4c 0a a3 e1 28 74 df 3f
       -0.008362013011260189 0.4914648250088802
000590 da 45 d1 37 34 9e b1 bf a0 92 70 3d 44 c2 6f 3f
       -0.06882025110942128 0.0038768132030944785
0005a0 32 18 8d 3d 90 29 a4 bf 5c 47 1e 37 96 a6 a9 3f
       -0.039379603875702066 0.050099081257157535
0005b0 fb c6 3f 91 f9 0e c4 3f 00 bd 13 7c 81 5f 59 3f
       0.15670699684374498 0.0015486492632666438
0005c0 7c cb 80 4a 1b 8d df 3f 0e e8 dc fe 24 3b b2 bf
       0.49298746371930924 -0.07121497366179616
0005d0 60 72 ec 73 97 10 65 3f bb dc 3a e4 21 e2 ad bf
       0.002571388059904131 -0.05836587821016211
0005e0 9f cb 45 0b d3 8d ab 3f 7f 91 69 f0 5b 43 c5 3f
       0.053816409231237865 0.16611813773046077
0005f0 20 63 5f a8 65 40 89 3f 0e 22 e4 7e 02 5b df 3f
       0.012329858971428076 0.4899297942324957
000600 1f 00 0f d0 b7 da b2 bf c0 ef d1 0a 4e ac 65 bf
       -0.07364987210803563 -0.0026456379187589085
000610 de cf bd 98 ba 4a b4 bf bc 57 6a 79 b7 c3 aa 3f
       -0.07926527241744405 0.052274449893203706
000620 4a 54 fa 49 7e a0 c6 3f c8 a4 cd 62 24 03 9b 3f
       0.17677286731910363 0.02637917378470858
000630 d9 ff 8f 35 57 23 de 3f 61 ec 1c 75 ef 90 b3 bf
       0.4709070227690951 -0.07643028840259226
000640 10 bf cd e4 b6 23 89 bf 09 ef 42 3f 01 06 bb bf
       -0.012275151116881072 -0.1055603770682262
000650 4d 8e 03 92 1a 66 a7 3f e8 66 34 f7 08 2c c8 3f
       0.045700865100823586 0.188843842225473
000660 08 30 d5 57 b0 b5 a5 3f 79 92 ee 95 f6 13 de 3f
       0.04240180084397599 0.46996845857419306
000670 1f db b0 b1 19 a0 b3 bf 48 85 f3 75 f6 0c 9b bf
       -0.07666168773799285 -0.026416636418507694
000680 d0 d5 73 5c 82 f0 c0 bf 35 24 fb dc 46 ec a1 3f
       -0.13233975900918304 0.03500577399751884
000690 ba ee 6a 45 c2 61 ca 3f 68 a9 95 a3 58 b3 aa 3f
       0.2061083640054358 0.052149553269219606
0006a0 a0 47 39 c0 da c2 de 3f 3d 58 c8 19 33 ef b2 bf
       0.4806429745850611 -0.07396239642579956
0006b0 54 69 ac 11 25 11 a6 bf db 3d 51 80 76 65 c4 bf
       -0.04309955445042371 -0.15934640183921442
0006c0 9e 15 4e c9 a9 49 90 3f 76 a3 11 4a c4 8e cd 3f
       0.015906002914126575 0.2309193956055215
0006d0 fc 1c 96 7e d9 eb a6 3f 08 41 f4 ac e8 3a e0 3f
       0.04476813955539602 0.5071910264978507
0006e0 6d 11 14 15 29 84 b0 bf 38 dc 24 f9 71 31 ae bf
       -0.06451660885438111 -0.058970986998638286
0006f0 22 f1 a0 9c 93 53 c7 bf ac b3 b2 a5 7b ae 77 bf
       -0.18223805568585144 -0.005781634327985435
000700 5b ac ae 42 d6 38 d0 3f b8 06 8f d6 86 3f 94 3f
       0.2534690524286753 0.01977358517229419
000710 11 81 a5 35 f7 47 e2 3f 24 00 04 84 7f a3 a8 bf
       0.5712848708899704 -0.04812239157217871
000720 8c 7b e3 6a f0 14 b3 bf d9 d3 43 9f 59 ae c9 bf
       -0.07453825578293855 -0.20063324238404226
000730 56 3a 9f f9 64 de 9a bf b6 2d 6f b1 68 fb d1 3f
       -0.02623899243899993 0.2809697849995375
000740 98 06 bb 88 81 0a 9f bf 0b e5 25 b5 00 57 e2 3f
       -0.030313514681216874 0.5731204546019922
000750 cc 2c 30 d9 89 a5 9a bf d7 fd b3 e1 ed 22 b6 bf
       -0.026022104149927824 -0.08647047767953296
000760 56 cc b3 65 59 b3 ca bf dd e6 d4 c1 d7 41 a8 bf
       -0.20859830346998604 -0.04737734070881825
000770 ac 2f c0 bc 64 4a aa 3f 94 ab 5b c7 ba 8a b7 bf
       0.05134882740102795 -0.0919605957712249
000780 5b 35 18 c7 66 f6 d0 3f 2f 4b 21 77 37 8d af bf
       0.2650391525538304 -0.061624272625201086
000790 d0 99 43 71 c7 3c 78 bf 38 4c 36 99 0e 61 84 3f
       -0.005917338439962852 0.009950746584570166
0007a0 0a da 3b 8a 7e 7b 7c bf ed ee 3a 9e 2d 79 ae 3f
       -0.006953710839062053 0.05951826626320931
0007b0 87 09 d6 b5 2b 83 b1 bf 57 05 76 9e 87 db d1 3f
       -0.06840775670392506 0.2790240333052529
0007c0 0b 11 32 53 20 07 b1 bf fc cc 22 71 b3 48 7f bf
       -0.06651498824254902 -0.007637692399089287
0007d0 28 cc 13 14 7a c1 81 3f e1 ff 8f 97 82 43 84 bf
       0.00866980909129296 -0.009894390344925287
0007e0 1c 6c 0b f3 22 7d b1 3f 22 44 ec f3 0a bf a8 bf
       0.0683156817789698 -0.048332540775057234
0007f0 cc 49 97 6e 96 f1 d2 3f 8c 40 3a 22 99 09 b2 bf
       0.29599533843898196 -0.07045895658143503

scatter f8 [100, 17]
000000 95 3f 1a d5 d1 48 cd 3f 1f 4e d7 29 e3 49 cd 3f
       0.2287847796001158 0.2288173631956036
000010 e3 19 fb 0f 52 4f cd 3f 2b f1 cf a7 ca 59 cd 3f
       0.22898317127528775 0.22930272287329365
000020 12 8b dd 62 58 69 cd 3f 67 a1 d1 82 d8 7b cd 3f
       0.22977738215839644 0.23034197223320094
000030 69 9c 86 44 94 8f cd 3f df c6 a4 e8 02 a3 cd 3f
       0.230944188556552 0.23153721198610008
000040 37 77 ca 03 7c b6 cd 3f 29 6f a8 1d 1b cc cd 3f
       0.2321314829359211 0.23279131839887526
000050 7b 6c 75 aa 8d e7 cd 3f 27 39 91 b7 c1 09 ce 3f
       0.23362894843271306 0.23467275107618343
000060 5e 54 58 d5 6d 33 ce 3f 44 3c a7 f4 39 63 ce 3f
       0.23594448964346076 0.23740314908943294
000070 04 81 a7 83 81 91 ce 3f 20 7d 3c 67 47 a9 ce 3f
       0.23881548813279363 0.23954098263582413
000080 ba a5 8f 59 07 7c ce 3f 45 bc 41 84 81 56 cd 3f
       0.23816005585767447 0.22920245130396402
000090 90 5c a5 5d 0b 56 cd 3f 29 08 64 3e 51 59 cd 3f
       0.22918836662822573 0.22928824945853535
0000a0 9f c8 59 e4 82 60 cd 3f 6b a8 e3 a2 46 6c cd 3f
       0.22950779104173066 0.22986681893900437
0000b0 05 31 ae 89 6a 7a cd 3f 7e 0a aa 95 d2 8a cd 3f
       0.2302983448283912 0.23079902942489022
0000c0 d1 37 81 2c 7c 9e cd 3f e2 24 e4 b2 89 b6 cd 3f
       0.23139908001979717 0.23213311419411925
0000d0 34 6c 3c a6 da d6 cd 3f ed 9e ad 57 30 03 ce 3f
       0.23311932675355396 0.23447231560861984
0000e0 ee 78 fc fc de 37 ce 3f 71 cd fa 0e 69 6c ce 3f
       0.23608004906504426 0.23768342238836795
0000f0 04 43 cd fa 1c 9c ce 3f 0b d3 ca 2a 07 a9 ce 3f
       0.23913919683629825 0.23953332509486133
000100 93 ba 82 4d 1e 8e ce 3f b0 c3 fe 7f 5c 02 ce 3f
       0.23871210846614996 0.2344470620132859
000110 d7 fc d7 9a 87 27 cd 3f fc 65 cb 78 0c 29 cd 3f
       0.22776885090568186 0.22781520746393358
000120 55 b9 6f fe 9f 2d cd 3f de c4 44 d5 5b 34 cd 3f
       0.22795486377385524 0.22816036141879342
000130 fa 0f f9 f0 c8 3d cd 3f 12 ed 4b 56 76 46 cd 3f
       0.228448026335286 0.2287128373498964
000140 1f 90 38 cb 72 4e cd 3f e3 d8 77 e4 fa 53 cd 3f
       0.22895655558488756 0.229125367695537
000150 ad 2e d1 41 10 58 cd 3f de b2 e1 31 49 5e cd 3f
       0.22924998487211692 0.22943987784983383
000160 2e fa c3 05 3a 6d cd 3f f9 aa 8c d5 af 88 cd 3f
       0.22989583283920595 0.23073385169239893
000170 42 ba 1b 6b 1d b8 cd 3f 21 64 38 35 37 fa cd 3f
       0.23218124132059087 0.23419847582479839
000180 01 4e da df 9c 3c ce 3f be 48 c1 f3 64 71 ce 3f
       0.23622475557623093 0.2378355207643547
000190 ad a6 17 20 31 55 ce 3f d4 02 59 3a cd 41 cd 3f
       0.23697485033999524 0.22857060765274773
0001a0 e3 a5 be 3b cf 49 cd 3f 56 c9 52 71 ce 57 cd 3f
       0.22881498734686465 0.22924213918083564
0001b0 8e 2b dd 83 86 6a cd 3f 39 7f 2b 7b e9 7e cd 3f
       0.22981339872998457 0.2304355479636742
0001c0 a5 fb 9e f2 90 90 cd 3f e3 cf 02 8e d1 9c cd 3f
       0.2309743103669152 0.231348223058034
0001d0 32 39 2b c3 58 a3 cd 3f 49 0f 9d 25 4d a7 cd 3f
       0.23154744653442944 0.23166813217732798
0001e0 37 36 b7 6c 46 ab cd 3f da f0 99 a6 50 b4 cd 3f
       0.23178940113432286 0.2320652783854545
0001f0 d4 b2 96 a7 96 ca cd 3f 10 5a cf 1c c7 e2 cd 3f
       0.23274501021423666 0.2334832087205574
000200 3f 38 31 a9 4e fa cd 3f ad 0a 25 db 40 11 ce 3f
       0.23420127164212265 0.23490153026985663
000210 ba 99 71 0d a3 00 ce 3f e0 fc 69 dd 1a 8d cd 3f
       0.2343944373744316 0.2308686810610885
000220 11 0b cf 2d 84 50 cd 3f b4 16 a1 b6 6d 59 cd 3f
       0.22901966320758807 0.22929164330905893
000230 0a 0b b6 ea f3 66 cd 3f 20 ce 0b cc f5 78 cd 3f
       0.22970437012198658 0.23025391066731604
000240 47 0f 0f 14 4f 8c cd 3f a1 4e 43 a7 f5 9d cd 3f
       0.23084438781199365 0.2313830439294309
000250 26 91 d7 b8 74 ac cd 3f eb 3a 8a 46 aa b6 cd 3f
       0.23182543778887882 0.23213699764570292
000260 e3 5b 02 08 57 bf cd 3f 42 a8 e6 71 d9 cd cd 3f
       0.2324017323596471 0.2328445249707461
000270 5e c8 3d c9 7b e5 cd 3f 67 54 f0 b7 7c 08 ce 3f
       0.23356578184354054 0.23463400823007705
000280 79 9a a6 ac dd 40 ce 3f 98 08 63 af 2b 87 ce 3f
       0.23635455064978197 0.23850008071719198
000290 a5 66 2f f6 c7 c8 ce 3f 87 f3 a1 95 c5 02 cf 3f
       0.24050235291251912 0.24227208906441097
0002a0 73 9e f2 a9 21 e1 ce 3f 44 eb 99 84 ae 5b cd 3f
       0.24124546812275902 0.2293604037730238
0002b0 c4 7f d2 5b 13 58 cd 3f 29 02 7c 4e ea 55 cd 3f
       0.22925035460957421 0.22918442566153033
0002c0 6b 47 ef 7d f6 55 cd 3f 69 4e 51 eb b0 59 cd 3f
       0.22918587826876133 0.22929965486638373
0002d0 f0 2f be 81 4a 60 cd 3f bc d5 d3 0c 2c 69 cd 3f
       0.22950106940368142 0.22977209688512612
0002e0 cf 63 2d 54 ca 71 cd 3f bb 68 bc 3b 06 7b cd 3f
       0.2300351058027261 0.23031690518184242
0002f0 06 3c d6 fe 19 83 cd 3f 4e da 96 a8 29 87 cd 3f
       0.23056340163427097 0.2306873391332424
000300 92 25 b9 34 59 8b cd 3f dc 58 79 0c 10 85 cd 3f
       0.23081507753731195 0.23062325104792236
000310 7c 4c e7 74 8f 79 cd 3f f2 ab b1 4c 2d 61 cd 3f
       0.2302722283189701 0.2295281052095955
000320 e7 d4 e1 58 41 08 cd 3f 7c 45 d5 8b 45 51 cc 3f
       0.22681443061779946 0.2212302143839614
000330 c3 c7 88 fa 0f 62 cd 3f 73 e1 ce d9 4b 67 cd 3f
       0.22955512745971704 0.22971485266840438
000340 25 89 33 f3 6b 70 cd 3f d7 64 29 df 97 7d cd 3f
       0.22999333739341768 0.2303953017861093
000350 6d 76 88 8e e2 8d cd 3f d8 1f b6 2c 76 9e cd 3f
       0.2308924861871903 0.23139836486029597
000360 1e 36 61 75 9c ac cd 3f 32 2d 0c d3 dc b3 cd 3f
       0.23183017474586703 0.2320514708047568
000370 3d cd dc 49 62 b6 cd 3f 2f 7b 50 76 48 b4 cd 3f
       0.23212841612403592 0.23206430222577398
000380 00 60 53 f6 6c ad cd 3f 4c 4d d1 76 f8 9d cd 3f
       0.2318550303232314 0.2313833789981835
000390 e9 e5 a0 17 63 80 cd 3f 03 96 01 d2 aa 4d cd 3f
       0.23048056272254705 0.22893271688660385
0003a0 fa ad 93 69 eb fb cc 3f 5c 88 d6 45 f3 71 cc 3f
       0.22643797545548222 0.2222274867063473
0003b0 59 97 97 4e e9 8b cb 3f 69 01 b4 85 08 4e cd 3f
       0.21520725572116353 0.22894388702844573
0003c0 5e 04 ac 91 ca 55 cd 3f ca c2 b5 b8 a7 62 cd 3f
       0.22918064225089813 0.229573216619903
0003d0 dd 45 68 ce 37 75 cd 3f 8d 3a 8f 13 c9 8b cd 3f
       0.23013970926744678 0.23082841353467068
0003e0 07 e8 1d 68 a7 a3 cd 3f 3b c9 0d 9d 2a ba cd 3f
       0.2315568216689032 0.23224384945530993
0003f0 b7 5c 1a ca c3 cc cd 3f d5 82 57 d7 23 e1 cd 3f
       0.23281142586049494 0.23343322767961774
000400 42 46 b9 7d 7a f8 cd 3f 28 e0 93 b2 9b 18 ce 3f
       0.23414546145299836 0.23512598247157368
000410 8c 4a 35 82 78 41 ce 3f d2 69 e8 90 f5 75 ce 3f
       0.23637300832577457 0.23797483039454775
000420 be cf 34 a4 49 b1 ce 3f e5 a2 45 7d f4 e4 ce 3f
       0.23978539007077687 0.241362153213479
000430 94 ca 3e 92 23 f9 ce 3f e4 d9 22 0e c8 af ce 3f
       0.24197811737902397 0.23973942461243702
000440 43 bb 8d 35 5a 45 cd 3f 6a 66 27 0f 32 44 cd 3f
       0.22867896666454088 0.22864366283356513
000450 43 fa 29 24 20 48 cd 3f 20 7a 60 f3 41 53 cd 3f
       0.22876359716242875 0.22910332091937935
000460 f8 f7 82 3e 5d 66 cd 3f 9c e9 3a 12 15 80 cd 3f
       0.22968640854190858 0.23047126188414502
000470 82 ad 63 4f 6d 9d cd 3f 31 fa c2 b2 82 bc cd 3f
       0.23136679054674053 0.2323153851375124
000480 71 68 6b 20 6a d9 cd 3f b0 74 f9 e8 db f0 cd 3f
       0.23319746573435254 0.23391293407158775
000490 89 10 9b dd d7 00 ce 3f 43 4c 1e da 44 0c ce 3f
       0.23440073319045876 0.23474941873846164
0004a0 3c 2a 17 99 eb 0e ce 3f dc fc a5 b4 70 08 ce 3f
       0.23483033156510824 0.23463257618639133
0004b0 83 6c 07 60 9a f9 cd 3f b0 99 47 61 0a cf cd 3f
       0.23417977990070335 0.23288087606415564
0004c0 41 ab c4 e1 f0 6d cd 3f 15 d3 28 27 0a 48 cd 3f
       0.2299176313766456 0.22876097595294512
0004d0 fa eb 09 8a 46 4b cd 3f 68 7f 7d b3 ff 54 cd 3f
       0.22885972728894882 0.22915645851298483
0004e0 bf 00 39 37 13 67 cd 3f b5 f2 73 92 ff 7e cd 3f
       0.22970810123843496 0.23043818141004171
0004f0 3e 69 9b 0f 60 99 cd 3f 72 39 dd 34 fa af cd 3f
       0.23124314081253233 0.23193290311105447
000500 e8 b2 93 2a 0a bf cd 3f 9f 92 0a 64 8e c1 cd 3f
       0.23239256934120722 0.23246936688260164
000510 d4 fb de 81 3c b5 cd 3f 86 6d eb 7f bc 99 cd 3f
       0.2320933946739091 0.23125416036678476
000520 68 1d 79 67 e2 6f cd 3f 3b 4e ea 62 ea 2c cd 3f
       0.22997694065473273 0.22793321447226042
000530 d1 a2 f3 3a 86 d3 cc 3f 7c 88 e4 74 0a 59 cc 3f
       0.22520521048070077 0.2214673109784292
000540 89 53 f5 5f ba ae cb 3f 00 43 c4 da 12 bc ca 3f
       0.2162697762056747 0.20886455232587053
000550 72 7a 89 36 31 44 cd 3f e4 6c 1a 02 c1 47 cd 3f
       0.22864356196346908 0.22875225641914831
000560 a2 46 79 38 c9 4f cd 3f 85 00 09 bf 14 5b cd 3f
       0.2289973760367064 0.2293420727528465
000570 cb a4 94 f9 df 69 cd 3f ab 98 0a 97 82 79 cd 3f
       0.22979354559473672 0.23027069449489565
000580 e2 fc 37 2b f0 86 cd 3f 6e 87 1d f9 30 91 cd 3f
       0.2306804858235188 0.23099338687739696
000590 44 5d 04 59 47 9c cd 3f fa 6b 1b 7f 7f aa cd 3f
       0.23133174749885133 0.23176568704988637
0005a0 d0 7f 79 30 f5 bb cd 3f f8 60 39 f9 14 cd cd 3f
       0.2322985159580626 0.23282110375544796
0005b0 0a ad d9 0d ac d5 cd 3f 45 e0 43 eb 26 d2 cd 3f
       0.2330832545879747 0.23297583091312127
0005c0 d0 f3 bf 42 9c aa cd 3f 60 cc a3 9f 21 35 cd 3f
       0.23176911601322425 0.2281839398852723
0005d0 9f c9 99 c5 73 81 cc 3f b6 c8 d5 4c ba 44 cd 3f
       0.22270056866143492 0.22865990401948516
0005e0 57 73 75 c8 2f 42 cd 3f 8f 70 df 77 8c 42 cd 3f
       0.22858235633875765 0.2285934052769147
0005f0 15 70 a4 e8 3a 46 cd 3f 72 8e b9 86 2d 4c cd 3f
       0.22870575294007325 0.22888726309166746
000600 29 95 7f aa 16 52 cd 3f 47 06 f4 4b d3 56 cd 3f
       0.22906764340511046 0.22921220024731978
000610 83 25 a1 e0 1e 57 cd 3f 13 a9 55 bf df 56 cd 3f
       0.2292212101768137 0.22921368448744114
000620 22 cf 94 a6 0f 56 cd 3f 20 6c 49 20 4f 5b cd 3f
       0.22918887742854915 0.2293490321779652
000630 5d 66 84 b2 7b 5b cd 3f cf dd bd f5 75 5a cd 3f
       0.22935434548053282 0.22932314395050787
000640 34 da db d6 47 4a cd 3f cf b4 2c a1 bd 26 cd 3f
       0.2288293646922327 0.2277447735772626
000650 47 df 7b 81 ed e1 cc 3f 33 5b fc d1 5a 4d cc 3f
       0.22564476797537678 0.22111068013392696
000660 81 5b ca 60 a0 32 cd 3f 20 2e ed 9b 63 2f cd 3f
       0.22810749746414774 0.2280087005004683
000670 18 dd d0 1a d8 33 cd 3f c8 e2 1d d3 ef 40 cd 3f
       0.2281446581780322 0.22854421432909633
000680 83 d2 ab c6 7c 57 cd 3f 0d d6 5c 95 ff 73 cd 3f
       0.22923240376225715 0.2301024894056102
000690 38 10 15 01 db 93 cd 3f 02 23 f4 f9 ae b6 cd 3f
       0.23107469132276193 0.23213755802887454
0006a0 83 fd 4b 0e 37 d9 cd 3f d9 ba 3d b7 63 ff cd 3f
       0.23319137762153383 0.2343563694698421
0006b0 80 24 e7 78 e8 2c ce 3f 95 97 4e d8 3f 67 ce 3f
       0.23574548629247616 0.237525921457913
0006c0 0a a6 89 b0 72 b4 ce 3f 01 c9 ce 03 58 10 cf 3f
       0.23988183612827668 0.24268627344060437
0006d0 20 b3 5d 1a e1 78 cf 3f 22 c9 6b b9 e8 d2 cf 3f
       0.24587644374278117 0.24862393430482493
0006e0 74 c5 a4 c7 12 d7 cf 3f 94 f7 b5 f0 a9 4d cd 3f
       0.24875101803040034 0.22893261197526427
0006f0 fd e5 3b 08 02 4f cd 3f 12 47 41 24 df 53 cd 3f
       0.22897363092469894 0.22912205953849046
000700 03 1f 5a 21 0f 5e cd 3f 8d 13 da 33 6a 6e cd 3f
       0.22943295601384514 0.22993209392384664
000710 9c cd 34 f7 7f 84 cd 3f e4 b9 69 62 8f a1 cd 3f
       0.2306060750066593 0.23149292283365164
000720 20 59 a2 25 49 c4 cd 3f 1b 45 f1 ad 29 ed cd 3f
       0.2325526651154144 0.23380013459476676
000730 a0 a1 19 da 5a 1d ce 3f 7b 5f 2c c2 60 52 ce 3f
       0.23527084016246835 0.23688897591705058
000740 dd 04 86 d5 d8 86 ce 3f 07 0e 7a 52 d8 b8 ce 3f
       0.2384902041049263 0.2400160219877849
000750 fc 2d df 6a e8 d9 ce 3f 6a 0e 24 19 c0 e6 ce 3f
       0.2410250207743586 0.24141694285946197
000760 86 46 56 1a 75 cb ce 3f bd ea b4 1a 8e 60 ce 3f
       0.2405840281103801 0.2373216276553957
000770 5f d6 fb aa e5 42 cd 3f 87 3b 74 5a c1 41 cd 3f
       0.2286040387040655 0.2285691920919499
000780 c7 95 8e 67 8e 45 cd 3f d9 e0 fd 68 e8 4f cd 3f
       0.22868518883221453 0.22900109411762662
000790 59 f4 2b ef ea 5f cd 3f 86 03 0e 0b 3e 73 cd 3f
       0.2294896762686303 0.2300794176080922
0007a0 06 cc 59 c6 78 86 cd 3f 26 a0 c8 a5 1a 98 cd 3f
       0.2306662529477707 0.23120434851557653
0007b0 d8 a7 fa 1e f2 a0 cd 3f 4f e1 1e 57 ae a4 cd 3f
       0.23147417557384986 0.23158816579758443
0007c0 65 f4 ac 20 98 a5 cd 3f b5 e7 39 6f e5 a1 cd 3f
       0.23161603541840062 0.2315031807991638
0007d0 53 3b c2 cd 1b 9b cd 3f 85 99 9d a1 3b 90 cd 3f
       0.23129603907406224 0.2309641398562229
0007e0 86 0f 90 c0 e0 5d cd 3f d1 3e de 99 cb 03 cd 3f
       0.2294274273154963 0.22667832387059275
0007f0 eb 41 f2 20 07 51 cc 3f 5a f5 c0 c9 3d 55 cd 3f
       0.22122277363497686 0.22916385985619564

Maxvals f8 [11]
000000 6b ba 66 9e c7 51 29 40 e9 a8 52 d0 c7 04 29 40
       12.659726095237792 12.509336958017643
000010 05 76 ab 90 44 a0 28 40 15 fd 53 98 4c 60 28 40
       12.313023110323238 12.188084373714938
000020 02 76 85 6b 36 3c 28 40 6e 95 db 98 94 2c 28 40
       12.117602691690085 12.087071205906536
000030 71 c4 9e c4 95 0d 28 40 79 be bd f2 95 f3 27 40
       12.026533264523296 11.975753389036287
000040 d4 63 a3 cc 01 d1 27 40 79 4d 98 d6 02 9f 27 40
       11.908216853089392 11.810568529216413
000050 fb 90 a8 78 04 55 27 40
       11.666049738480515
