Data/SIMBA/Model_snap14.npz (npz, 253994 bytes, 5 tensors)

x f8 [35]
11.0 11.1 11.2 11.299999999999999 11.399999999999999 11.499999999999998 11.599999999999998 11.699999999999998
11.799999999999997 11.899999999999997 11.999999999999996 12.099999999999996 12.199999999999996 12.299999999999995 12.399999999999995 12.499999999999995
12.599999999999994 12.699999999999994 12.799999999999994 12.899999999999993 12.999999999999993 13.099999999999993 13.199999999999992 13.299999999999992
13.399999999999991 13.499999999999991 13.59999999999999 13.69999999999999 13.79999999999999 13.89999999999999 13.99999999999999 14.099999999999989
14.199999999999989 14.299999999999988 14.399999999999988
00000000: 0000 0000 0000 2640 3333 3333 3333 2640
00000010: 6666 6666 6666 2640 9999 9999 9999 2640
00000020: cccc cccc cccc 2640 ffff ffff ffff 2640
00000030: 3233 3333 3333 2740 6566 6666 6666 2740
00000040: 9899 9999 9999 2740 cbcc cccc cccc 2740
00000050: feff ffff ffff 2740 3133 3333 3333 2840
00000060: 6466 6666 6666 2840 9799 9999 9999 2840
00000070: cacc cccc cccc 2840 fdff ffff ffff 2840
00000080: 3033 3333 3333 2940 6366 6666 6666 2940
00000090: 9699 9999 9999 2940 c9cc cccc cccc 2940
000000a0: fcff ffff ffff 2940 2f33 3333 3333 2a40
000000b0: 6266 6666 6666 2a40 9599 9999 9999 2a40
000000c0: c8cc cccc cccc 2a40 fbff ffff ffff 2a40
000000d0: 2e33 3333 3333 2b40 6166 6666 6666 2b40
000000e0: 9499 9999 9999 2b40 c7cc cccc cccc 2b40
000000f0: faff ffff ffff 2b40 2d33 3333 3333 2c40
00000100: 6066 6666 6666 2c40 9399 9999 9999 2c40
00000110: c6cc cccc cccc 2c40

intercept f8 [100, 35]
0.8420406459556098 0.9176001446094473 0.9365499195205291 0.9402518325999125 0.9620255054412035 1.022689924998193 1.1330439204864085 1.294129816958431
1.4982966732899667 1.7303751171393136 1.973298977205212 2.2041339166746146 2.4087833085868384 2.5719162392383788 2.6877270374182123 2.7474922742047156
2.757359220002144 2.715132349535985 2.6387975443763123 2.5319694310042333 2.4166958676603256 2.2956114488666928 2.1580218555382484 1.9941127783840433
1.8174601824495158 1.5982119291929293 1.3554952588740272 1.1552665806431106 1.0065905869287048 0.9121508943914183 1.0148227777575736 1.2605570546314875
1.5410554953257032 1.7309149082583164 2.2599070837981943 0.8466604520025809 0.9249111380351414 0.9473617936243446 0.9545102219555052 0.9775487351574562
1.0383127183594254 1.1447937930222953 1.2993079906093978 1.493572099768305 1.7134842379485988 1.9419354785391028 2.1568775487873677 2.349715210348738
2.5130882075358354 2.6427452841993393 2.728375924957794 2.7709386959719047 2.765005581200347 2.7262625045417606 2.643595772684286 2.5435188257740475
2.409343279320941 2.2266228284428173 2.000646698169939 1.7057193231146814 1.4065697890801183 1.0732562960870604 0.818738334431909 0.6629482527317503
0.6042897872089042 0.9008783581031019 1.382027372606251 2.066471422570238 2.653910532643102 4.054110870418471 0.8317193888470713 0.9114645561320458
0.9357983613954372 0.9447141284376237 0.9690307716731755 1.0288051957780917 1.1336907362091977 1.2869867241035284 1.4808934025415441 1.7040245178858822
1.9430900178028465 2.1794000362629595 2.3974892405957102 2.577427118115462 2.7117223533448 2.7829772294136483 2.800378136895844 2.7592200501579383
2.6697457125204047 2.5426806263911077 2.4128791132300624 2.2643444870316403 2.100193422554128 1.9019292545996271 1.685031809749939 1.4033436149896574
1.079020695529816 0.8584370416073943 0.732751786088619 0.7717674487943549 1.1213243430847928 1.6441620207882843 2.4056038118303986 2.963484801414826
3.9450221569479287 0.8538635114359647 0.9270562088938697 0.9425261018022485 0.9414994432584549 0.9581112217145081 1.0140127418619271 1.121825959516186
1.2842227078471096 1.4952323064310218 1.7364847847611635 1.9903098341754317 2.230557347270442 2.440786556604208 2.609616612361427 2.7225771408969783
2.7788455496256406 2.785107817450746 2.733408816043739 2.6479747394725806 2.526694269419369 2.390420551692508 2.2392484908972894 2.07490554666959
1.9038778517015187 1.7402335647975513 1.5806492555822391 1.4588011688938367 1.4593793578897567 1.5454589476981577 1.651042041828691 1.9197568097569926
2.369999581157474 2.621042164260295 2.7124767009532706 2.9337466226475937 0.8502324674796957 0.9284490029381889 0.9482147781076505 0.9501292655233744
0.9666314492385195 1.0190475113875073 1.1193209407560993 1.271881285218224 1.4718161822204245 1.7038949453449477 1.9496352985739493 2.18560394463967
2.392953765208176 2.5565618094849034 2.6630180436141826 2.720310958682324 2.725704878613501 2.690580522128006 2.62954241654177 2.538583512826909
2.439177355854169 2.3092526415675394 2.1377571685515058 1.8851578522451407 1.5869623798742087 1.2424138196614734 0.9072240073103233 0.6228443546102062
0.43262936693718573 0.42158531720524206 0.636730428135506 1.143838063314356 1.5334813625983468 1.996458630049991 2.8181978034635415 0.8392841785895663
0.9104747133305969 0.9280219511181671 0.9339715181229242 0.9620225818219146 1.032342908462193 1.1508305030306836 1.3166833886528089 1.5182488002575805
1.7404317833988385 1.9695904090691325 2.1817118882603133 2.3678036463836127 2.515160492202297 2.6229890599291728 2.6841066864734553 2.7054749499328916
2.683161570586786 2.6363788686490484 2.5497362771680616 2.4504163897854574 2.321982334478612 2.142273426210085 1.9482847126350364 1.7426251101082342
1.5486634427541173 1.4255480785516628 1.4088563570010604 1.5017102102510338 1.6548367008273102 1.867346709855147 2.0756644365949306 1.9215881939817074
1.6111262346132202 1.1603656086564393 0.8449984622821154 0.9193706699947333 0.9386760824522464 0.9432776666553895 0.9657555762001667 1.0281509972893628
1.138479587362999 1.2982947649455236 1.501544027039176 1.7314292618909013 1.9731806354767798 2.204479475264037 2.409002068708251 2.5738686723437967
2.686848263013678 2.734073121523433 2.7260107333435144 2.6587028900682497 2.5620533486727495 2.445176296430148 2.3254611055753784 2.207080711986191
2.076470203934155 1.9206333003043143 1.7555285978929729 1.549765188151196 1.3466149906705644 1.1919430804268454 1.201154697390764 1.2909760331672184
1.739657120569353 2.5221640308853743 3.488380584373503 4.915830812824283 8.580000703902716 0.8604498186758547 0.937220060058735 0.9533667244317179
0.9494732070460019 0.9596589361930384 1.0067556276376506 1.1045330984763972 1.2557581150588706 1.4540311724699029 1.68389830155686 1.9285364517514265
00000000: a006 8939 fff1 ea3f d8e0 7cfa fa5c ed3f
00000010: f62f 6d89 37f8 ed3f 80a9 e002 8b16 ee3f
00000020: fa35 79b6 e9c8 ee3f 0e0e 5d1c f05c f03f
00000030: 63bb 76a9 f220 f23f bed6 8977 c1b4 f43f
00000040: acc6 b7ee 05f9 f73f efce 9ed1 9daf fb3f
00000050: e639 c5f2 a192 ff3f 91f9 80f6 10a2 0140
00000060: ca3f ec2e 3045 0340 25a4 3cd2 4893 0440
00000070: 1e4a 7208 7780 0540 7dc6 bd3a ddfa 0540
00000080: c1dd c959 120f 0640 b18c 2c4f 97b8 0540
00000090: 16e4 0ee3 411c 0540 4c14 6530 7941 0440
000000a0: e6d5 9fa4 6455 0340 1da5 0989 695d 0240
000000b0: 59b8 6cf6 a043 0140 621f fbcc e2e7 ff3f
000000c0: 2172 d620 5114 fd3f 065f ffab 4692 f93f
000000d0: b7f3 ebcb 1bb0 f53f ec61 60cf f87b f23f
000000e0: ac1f 35bb fe1a f03f 90b4 8d12 5730 ed3f
000000f0: 4446 1bcf b63c f03f 3126 c6df 3d2b f43f
00000100: 6ceb 9bce 29a8 f83f 8e0d b2d4 d3b1 fb3f
00000110: ba4b 472a 4a14 0240 7e5d 05a9 d717 eb3f
00000120: 7825 323e df98 ed3f 3616 23ae c950 ee3f
00000130: 1de4 5f05 598b ee3f 07eb f748 1448 ef3f
00000140: 53fe 05cc ed9c f03f e21c db4b 1351 f23f
00000150: d894 f12c f7c9 f43f 1491 abdb abe5 f73f
00000160: 2036 c372 6e6a fb3f e947 b4ef 2a12 ff3f
00000170: a925 2c04 4941 0140 8ae4 fa7c 37cc 0240
00000180: 2ca3 7afd cd1a 0440 e85a baa3 5724 0540
00000190: 8d19 c7c1 b6d3 0540 9b5c 33e8 e12a 0640
000001a0: 8c1a 043f bb1e 0640 168b 4ab7 62cf 0540
000001b0: d02e 5c8a 1526 0540 c9ad eb65 2059 0440
000001c0: ab2a ecc4 5546 0340 e882 25a1 1fd0 0140
000001d0: 13ec 5b0e 5301 0040 ceec 4e58 a04a fb3f
000001e0: 6a40 ba52 4f81 f63f 64b8 3ecb 0e2c f13f
000001f0: dcba 4bbc 1a33 ea3f f08a 0d41 df36 e53f
00000200: 33cf 2b89 5756 e33f 9443 b7d9 fed3 ec3f
00000210: 9a54 f8bb c81c f63f 4f76 502b 2288 0040
00000220: 4eb2 0172 353b 0540 c238 0bd7 6837 1040
00000230: 4e83 d1fa 719d ea3f 009c 81b7 b72a ed3f
00000240: 5700 bb67 0ff2 ed3f faad b61f 193b ee3f
00000250: 03ed 24d2 4c02 ef3f 0426 dd6f fc75 f03f
00000260: 26bf bce5 9823 f23f c292 2664 7f97 f43f
00000270: 1473 cc47 bdb1 f73f b86e 7e36 af43 fb3f
00000280: 465b fa8e e516 ff3f 7b34 4549 696f 0140
00000290: aff6 c6d6 0e2e 0340 1709 e11b 929e 0440
000002a0: a795 3b7d 9bb1 0540 25c1 ce90 8943 0640
000002b0: 5f35 13a7 2c67 0640 a62a 2ff6 e112 0640
000002c0: 754a dfa3 a35b 0540 4a2e b4f0 6857 0440
000002d0: 6132 8490 934d 0340 2a6e 75a4 601d 0240
000002e0: 8127 8935 32cd 0040 16fa bc5e 4d6e fe3f
000002f0: ea87 39ea e3f5 fa3f 5ae5 366f 1874 f63f
00000300: ad1f 7034 ab43 f13f b81e 6cf5 5078 eb3f
00000310: 34c2 aadf b372 e73f 2e0d 16a6 51b2 e83f
00000320: 3b20 5ccb f1f0 f13f 77c6 c9d5 7c4e fa3f
00000330: 568e 1736 ad3e 0340 6928 0285 37b5 0740
00000340: a1b1 d0c6 678f 0f40 a4af 1b92 d952 eb3f
00000350: e117 58c8 71aa ed3f a9be db7f 2c29 ee3f
00000360: a6e9 bf70 c320 ee3f ab38 66dd d8a8 ee3f
00000370: 6663 c06c 6539 f03f 3cd0 fec6 fff2 f13f
00000380: 0cbe 2f1c 2d8c f43f c5b3 00b6 78ec f73f
00000390: 10d0 0845 a4c8 fb3f f40c eb1f 4fd8 ff3f
000003a0: 5208 5373 2ed8 0140 5e0d 291a bb86 0340
000003b0: 6d86 a9ac 7ee0 0440 ebea 2786 d6c7 0540
000003c0: da37 2260 133b 0640 7647 7e9b e647 0640
000003d0: 2a0c fc70 05de 0540 d059 5561 0d2f 0540
000003e0: a72c 317c ab36 0440 11a5 69cf 941f 0340
000003f0: 712b e01c fbe9 0140 0ee1 4914 6899 0040
00000400: 2c30 4a9f 4876 fe3f ca4f 8326 ffd7 fb3f
00000410: 68c2 b2df 564a f93f e73f fce4 3f57 f73f
00000420: f680 692b 9e59 f73f 5ec9 5a29 33ba f83f
00000430: cc9a 5f0f ab6a fa3f 8cdf a2ea 52b7 fe3f
00000440: 24d7 2457 c2f5 0240 ef7a 47f4 e4f7 0440
00000450: d70c 0efc 26b3 0540 c92c 3826 5078 0740
00000460: 5e53 3ab8 1a35 eb3f 50f2 f3ae dab5 ed3f
00000470: d9cc b184 c657 ee3f 10a7 4c7d 7567 ee3f
00000480: fe76 b813 a5ee ee3f 29ac 67c3 044e f03f
00000490: 0a68 2413 bde8 f13f ed81 c630 a059 f43f
000004a0: cac3 0520 8f8c f73f 5a38 a158 2743 fb3f
000004b0: 7409 68c8 b431 ff3f 48e3 c1eb 1d7c 0140
000004c0: ff45 93f1 c424 0340 9e85 8fad d673 0440
000004d0: b6d8 6f67 dc4d 0540 8ced 5364 32c3 0540
000004e0: 858a 015c 3ece 0540 e95a ae14 4f86 0540
000004f0: 06ef d388 4d09 0540 0c0d 6edf 044f 0440
00000500: 9e4c e46a 6f83 0340 a0df ed72 5979 0240
00000510: 08bf 2d6e 201a 0140 340c b347 9b29 fe3f
00000520: 42ac 18aa 3264 f93f 26b6 3850 ede0 f33f
00000530: a867 31a4 fa07 ed3f eb91 b148 57ee e33f
00000540: 8d33 9215 33b0 db3f 02b3 77fb 40fb da3f
00000550: f2b8 a67d 1860 e43f a3ae 1d24 294d f23f
00000560: ab2a d6c0 2389 f83f 561b be9a 7ef1 ff3f
00000570: 9247 3c4a ab8b 0640 07f5 627e 6adb ea3f
00000580: 5fe0 b2dd 9b22 ed3f 74b9 4017 5bb2 ed3f
00000590: 4478 b73c 18e3 ed3f 1209 de94 e3c8 ee3f
000005a0: 6aa4 61ff 7984 f03f a318 dc3e cd69 f23f
000005b0: 5034 d799 2211 f53f bec2 0441 bf4a f83f
000005c0: 19df 69ff ced8 fb3f 9879 973b 7183 ff3f
000005d0: c8fa ca5c 2574 0140 8e89 c409 43f1 0240
000005e0: dd99 d176 0c1f 0440 eb4a 31b0 e1fb 0440
000005f0: ff06 2bed 0c79 0540 3fdf f00c d0a4 0540
00000600: 166f dc69 1d77 0540 84b4 e5cd 4d17 0540
00000610: 97e4 1e22 dc65 0440 fbaf 7de8 739a 0340
00000620: 90cd 6379 6b93 0240 274c 0540 6023 0140
00000630: 2007 4197 2c2c ff3f f9a6 11de cae1 fb3f
00000640: 383c 7251 53c7 f83f 9b14 8480 0bcf f63f
00000650: d24c a1f6 ac8a f63f 418f 1149 0107 f83f
00000660: 9f61 640c 367a fa3f daef 91f1 a6e0 fd3f
00000670: f829 c5f4 f59a 0040 8a7f 1843 d3be fe3f
00000680: 3143 764d 2cc7 f93f 1752 4987 db90 f23f
00000690: d280 1537 3a0a eb3f 78ed 100a 7c6b ed3f
000006a0: fc6e 756c a209 ee3f 76a0 2aa5 542f ee3f
000006b0: 03b3 f63c 78e7 ee3f 5252 cb75 4e73 f03f
000006c0: d633 2e5f 3637 f23f fe24 40bb d0c5 f43f
000006d0: cb32 9a07 5306 f83f 9c8a 722b efb3 fb3f
000006e0: 8092 a7db 2592 ff3f c0b2 9722 c6a2 0140
000006f0: 49c9 68e0 a245 0340 0a53 5f75 4897 0440
00000700: 4caa 574d aa7e 0540 b786 8eba 61df 0540
00000710: 000b 22b7 dece 0540 93fd 5405 0645 0540
00000720: 0341 79d3 157f 0440 a0f9 1097 b88f 0340
00000730: b087 245a 8b9a 0240 99e7 acee 19a8 0140
00000740: 0b20 0869 9c9c 0040 34a6 c6fb e9ba fe3f
00000750: f249 b227 a516 fc3f 356b f994 d6cb f83f
00000760: 16bc 1329 bc8b f53f 5e07 52e8 3212 f33f
00000770: 86ae ebfc ed37 f33f def7 257c d6a7 f43f
00000780: 1895 71b4 a2d5 fb3f d866 de55 642d 0440
00000790: a315 6f14 34e8 0b40 61ff 768d cfa9 1340
000007a0: 9ad6 2dda f528 2140 4cfb e10e ce88 eb3f
000007b0: 0270 63ec b4fd ed3f 86ec d0ee fa81 ee3f
000007c0: 281b 96a2 1562 ee3f 8d6c 48a8 86b5 ee3f
000007d0: 5948 fcc9 ab1b f03f 0ae4 f4e5 2aac f13f
000007e0: ced4 3dd2 9517 f43f dcf6 d130 b643 f73f
000007f0: 66a0 6f58 3ff1 fa3f ffa8 d609 49db fe3f

slopes f8 [100, 35, 7]
0.014127441416417174 0.21396353718279182 1.078669649024265 -0.02483701467773989 -0.0005669723568365592 -0.048705853599879 -0.007660414461541448 0.008533828035808759
0.2433504394488556 1.0849375619974055 -0.02721660239751908 -0.0005540293656470796 -0.0658529180488664 -0.008123064230497036 0.007860727652869506 0.2677935680636344
1.0847545102865719 -0.028161327186103924 -0.0009089967534117172 -0.0847705487541085 -0.00902316064825645 0.008266257438898644 0.2871040842126438 1.0763761255333073
-0.02767711836229958 -0.001605169403706988 -0.10447506822596025 -0.010235765752416845 0.006759274564695251 0.3015157357958752 1.0586673134718505 -0.025720605114308626
-0.0024547985523625804 -0.12377609732488498 -0.011664300563851218 0.0015586652047401598 0.3115763959594503 1.0315887575260603 -0.02239916876279341 -0.003301067126999374
-0.14158296402557294 -0.013217468396369184 -0.00818816128434619 0.3178421321485385 0.9954986987061027 -0.017677800556016254 -0.004032268644433568 -0.1567700457898419
-0.015049285300910417 -0.022462201675168898 0.32080285389362295 0.9514530509338315 -0.011547324569578521 -0.004585303819392955 -0.1683858805998045 -0.017346144940775788
-0.04048772971101738 0.32127280271318337 0.9001561425504984 -0.00401713564668426 -0.005147749644584226 -0.17572857180066145 -0.020416962553456736 -0.06087835407314117
0.3195044636814328 0.8437509940525001 0.00489220468523361 -0.005996093296238299 -0.17819055170385306 -0.024401891196022686 -0.08210089080079963 0.31645024540320477
0.7832948877613173 0.015033881895838708 -0.007414697941385114 -0.17588999753669898 -0.029248850840234653 -0.10217239154129674 0.31262056852643183 0.7213507736552156
0.026009989170179826 -0.009683706154845543 -0.16895211286088896 -0.03475255056896678 -0.1198895631767702 0.30878263555962293 0.6596439018539092 0.037458870850179266
-0.01284423081269385 -0.15786755882180847 -0.04043371544627768 -0.13397893283675308 0.30571272982649556 0.5997161773419203 0.04867275831664622 -0.016716521176750418
-0.14321428442338208 -0.04605673443966768 -0.14398879883511517 0.30398591717215195 0.542656056079898 0.059029288281985726 -0.02117556627331854 -0.12553210717442895
-0.051184941194285676 -0.14926015382064045 0.3038417645976902 0.4889958163951345 0.06793469861786347 -0.02583711697464232 -0.10569929940154198 -0.055587113438224076
-0.1503515241145936 0.30541590603241964 0.4394170044893147 0.07515485786558727 -0.030322029810431313 -0.08384829403975418 -0.059163751653979635 -0.14720675132229002
0.3070807519462072 0.39423906031284206 0.0805530085204544 -0.03440412785068608 -0.06099537882804475 -0.062465580926041174 -0.14134199449513848 0.30819341419432744
0.3536062242118897 0.08389997677558429 -0.037510940308157256 -0.038410512744322264 -0.06592828658261532 -0.13313294239893486 0.3072630736242263 0.31865214842931133
0.08559104214402564 -0.03969638236071747 -0.017432310242435953 -0.0704591908466756 -0.12434602627686724 0.30341593998417704 0.29394784918791905 0.08556629219585106
-0.0409263966515978 0.0007161677476987534 -0.0760568375963569 -0.1152308544550954 0.29565542688435403 0.2788196348415253 0.08371232332955687 -0.04135510089021469
0.014417381031078359 -0.0827511632682662 -0.10490346006953477 0.28583057893509944 0.2739279459710001 0.07991472390771967 -0.041467268195075846 0.02324351793264898
-0.0905964869103643 -0.09263752663539615 0.2731232589647878 0.28146832317631 0.07463539644540494 -0.04192025217473272 0.02745395018202619 -0.09804683522040597
-0.07940095308647048 0.2605352581175464 0.2998002371080418 0.0676663353932477 -0.04314300832935661 0.028244302246962324 -0.1056212333464574 -0.06278856711685808
0.2545975788978149 0.32016942981037144 0.060396644623433235 -0.04592964147780304 0.025353277617765235 -0.11079595791631922 -0.04437398836931182 0.25285004339476214
0.34310339630857883 0.05355892971064966 -0.05009124896069658 0.01986968270023226 -0.11498143907290964 -0.02902500528073415 0.25978344249328483 0.36285669802722076
0.047653529219167864 -0.057661871594544334 0.01199316435038876 -0.120050614468861 -0.01737825536756015 0.27620982047395726 0.38052624665325663 0.0420232076984084
-0.0690711180948878 0.0038645677436444786 -0.12708754197197564 -0.009576720517741074 0.30274884400588 0.40300006583036596 0.03929244617822358 -0.08165312707300593
-0.003396133550816749 -0.1379734981215927 -0.016243091210642036 0.3353882153703766 0.4159764001405568 0.03942861281402141 -0.09654265806101281 -0.009398073507689758
-0.15274721323125925 -0.03258982571640744 0.3953879870210761 0.43727232317973397 0.043423039246368145 -0.1150971570433677 -0.005567967326719832 -0.16827651798327292
-0.051042718013233776 0.4659452242029543 0.49486924272144245 0.047838589982487245 -0.13395904509384646 -0.0019140298846471691 -0.20485871316960397 -0.06317564691657837
0.5132555268839741 0.6474390554286545 0.056782380013006784 -0.1535493622273934 -0.006595863637284871 -0.25058774438222153 -0.09764340403417933 0.6306300400332998
0.887212489184451 0.07165079333663105 -0.19862500565366065 0.03687553242740067 -0.31051289585525643 0.013848445888891244 0.21686560925313847 1.0806611028739312
-0.02597534930788177 5.225902720960851e-05 -0.04853474075345271 -0.005251167409015702 0.008032408033513282 0.24657020598378898 1.088264189912927 -0.02834815473983912
00000000: 7399 e016 d9ee 8c3f f447 5e3d 2863 cb3f
00000010: c8f3 1b1b 3b42 f13f 3aac 15d7 df6e 99bf
00000020: 0014 7cdd 1b94 42bf 20a5 ab40 f9ef a8bf
00000030: a0c5 60d9 8660 7fbf 1c80 9602 2f7a 813f
00000040: 4435 7371 1b26 cf3f 7ab1 2f7d e75b f13f
00000050: 7883 d244 abde 9bbf 0044 d400 8927 42bf
00000060: 68b5 5da1 bcdb b0bf 87d2 b439 d3a2 80bf
00000070: 08e2 8801 4919 803f be65 3aa2 8723 d13f
00000080: bee8 9d8b 275b f13f 10e7 1aad 52d6 9cbf
00000090: 0050 fea9 37c9 4dbf 3818 90ce 85b3 b5bf
000000a0: f063 201f bc7a 82bf 4312 e24a e6ed 803f
000000b0: 0872 0fcf e95f d23f 9dc5 152c d638 f13f
000000c0: 60b9 daf8 6357 9cbf 4045 fb85 914c 5abf
000000d0: 5c22 47c9 e0be babf 18ca 3f39 7df6 84bf
000000e0: 6768 33f3 9caf 7b3f 1240 1ea8 084c d33f
000000f0: de4a 0b23 4df0 f03f 0078 3297 8056 9abf
00000100: 8073 05f0 151c 64bf e471 0952 caaf bfbf
00000110: e8a0 9eeb 73e3 87bf 91fc 1a05 8489 593f
00000120: 1a7d b61f def0 d33f 66ee 8736 6381 f03f
00000130: 50d5 2cc5 ceef 96bf c08e 46eb d60a 6bbf
00000140: e58d 14fc 631f c2bf c88e fc93 c211 8bbf
00000150: 83f3 7167 f4c4 80bf c89b b786 8657 d43f
00000160: 94e7 4416 20db ef3f 3061 031d 211a 92bf
00000170: c0f0 4ddf 2384 70bf 1d74 d475 0a11 c4bf
00000180: 388e 90e1 28d2 8ebf e530 5dd6 5400 97bf
00000190: e0f0 7bb1 0888 d43f 5a16 2eab 4d72 ee3f
000001a0: 00a4 0fab 1fa6 87bf a0ee 241f 0ac8 72bf
000001b0: a364 2425 ab8d c5bf 1de2 ed14 30c3 91bf
000001c0: e707 ffc5 ceba a4bf 1ed5 2fcd bb8f d43f
000001d0: 6f88 3141 14ce ec3f f81f 9ea3 4574 70bf
000001e0: 209a f185 ce15 75bf 03a6 6d1a 467e c6bf
000001f0: 4892 cd29 2fe8 94bf f690 8e97 722b afbf
00000200: 7c04 9cd9 c272 d43f 0a89 ad15 0200 eb3f
00000210: 48fe 0d32 d909 743f 8819 c709 5c8f 78bf
00000220: 7e1a 03b0 f2ce c6bf ca01 9732 cffc 98bf
00000230: 303f f660 9004 b5bf 1c59 b487 b840 d43f
00000240: 16e2 c170 c010 e93f a0af 9878 15ca 8e3f
00000250: c8fe afd2 df5e 7ebf d88b 8e3d 9083 c6bf
00000260: 00b2 3727 69f3 9dbf 8756 3948 f827 babf
00000270: 5c30 78b3 f901 d43f f063 b937 4e15 e73f
00000280: 20c3 6bd3 5ca2 9a3f e2bf e909 0dd5 83bf
00000290: 6cef a90b 39a0 c5bf a3e7 4a18 16cb a1bf
000002a0: 1dd8 f918 15b1 bebf f647 533e 18c3 d33f
000002b0: ebfc 2e87 cd1b e53f 5c43 7e22 cf2d a33f
000002c0: 552a 437a 134e 8abf 5498 1e11 0135 c4bf
000002d0: 9abc fe5a bab3 a4bf cf83 71bf 3826 c1bf
000002e0: fad7 2420 cc90 d33f 151a 12fb df30 e33f
000002f0: c42a 5ac2 a2eb a83f 0c34 07bf 221e 91bf
00000300: 5e90 f57d d854 c2bf a89c 5b90 bf94 a7bf
00000310: b05a fe96 396e c2bf b8bb 2c59 8174 d33f
00000320: 37dd ba3b 705d e13f 10c5 5a3d 1639 ae3f
00000330: 2805 7932 0caf 95bf fbc0 74a3 6f11 c0bf
00000340: b74b f4a0 e934 aabf dab6 a0eb f41a c3bf
00000350: dec8 86ba 2472 d33f 2d11 d31b b54b df3f
00000360: 8ecc d31c 2b64 b13f c44f b791 0b75 9abf
00000370: afc5 23fa 1b0f bbbf 6ea9 9704 ea75 acbf
00000380: 6feb 7cff b73e c3bf ce98 0528 ef8b d33f
00000390: 05a0 e57f 681f dc3f d710 ab48 593d b33f
000003a0: e25b 89f9 bc0c 9fbf 0be4 b9f0 1477 b5bf
000003b0: e8cd ec14 b64a aebf 75fe 56bb abd7 c2bf
000003c0: 5ac3 b506 36a7 d33f 085d b677 363b d93f
000003d0: 2d94 3039 1f9f b43f 97a4 eef7 6a9d a1bf
000003e0: 1213 8c4a c93a afbf 13ee 6716 7dfb afbf
000003f0: 633a f495 7e17 c2bf 78a9 b3de 70b9 d33f
00000400: 2abc 2900 7ca1 d63f 2be4 6208 787a b53f
00000410: be42 bb4b a234 a3bf ee70 1ef0 8aaa a3bf
00000420: 1aef c01a ade0 b0bf a6d4 cf10 800a c1bf
00000430: eb01 1fbd 32aa d33f 3a75 13fb cb64 d43f
00000440: 65d2 d666 4be9 b53f 7e80 0490 1553 a4bf
00000450: 5c3a 8a89 c6d9 91bf ae9b 6310 9d09 b2bf
00000460: d327 3f24 24d5 bfbf 024c d4b0 2a6b d33f
00000470: 3c77 bfa3 0ad0 d23f 5d04 9f2a ace7 b53f
00000480: 1fcf 52fe 4df4 a4bf fc36 0487 a677 473f
00000490: b410 1dfe 7578 b3bf f8f0 5fef c47f bdbf
000004a0: 279b 56bd 04ec d23f fc20 484f 2ed8 d13f
000004b0: edfd f8ba 2b6e b53f 0548 b1eb 7e2c a5bf
000004c0: 7afb 2d20 dc86 8d3f ec72 f123 2e2f b5bf
000004d0: 8863 3c02 f4da babf 9c45 2e57 0c4b d23f
000004e0: 46fa 5914 0988 d13f e60b a795 4a75 b43f
000004f0: 002f 81a1 323b a5bf 5978 7515 26cd 973f
00000500: 0b9a 69d4 5431 b7bf e806 48cb 17b7 b7bf
00000510: 07f7 41fa d97a d13f d0bd b9b6 9303 d23f
00000520: ef64 db2a 4e1b b33f 70d7 4240 9276 a5bf
00000530: 5415 b668 e31c 9c3f 4c79 bfee 9819 b9bf
00000540: 2b12 c7f0 9e53 b4bf 4877 4413 9cac d03f
00000550: ce92 6d55 ed2f d33f d6dd 8db9 9452 b13f
00000560: 94ba a623 d716 a6bf ccd1 cb09 13ec 9c3f
00000570: dc78 fc3e fe09 bbbf 1761 545a e912 b0bf
00000580: f770 c0a4 534b d03f 94ba 8deb a77d d43f
00000590: 463d e41a 4fec ae3f c8da 2008 1784 a7bf
000005a0: 10dd dba8 35f6 993f c692 c7b7 1f5d bcbf
000005b0: eeb5 adf9 2fb8 a6bf 420d cbf2 b12e d03f
000005c0: 0dae 92f2 67f5 d53f 8d31 0877 136c ab3f
000005d0: 7c37 3468 8fa5 a9bf 0080 84d5 b758 943f
000005e0: f414 7770 6c6f bdbf 40b5 c921 bbb8 9dbf
000005f0: d942 63bb 4aa0 d03f 6055 ca4c 0b39 d73f
00000600: ae13 121b 0b66 a83f 680e 7359 db85 adbf
00000610: f8a5 4845 df8f 883f 982a 0217 a3bb bebf
00000620: 4e5f dcf9 9acb 91bf 6642 71f4 6bad d13f
00000630: b04d 29c2 8a5a d83f 21b1 79dd 1084 a53f
00000640: 84d1 5011 a5ae b1bf a0e2 4e02 96a8 6f3f
00000650: 2ed4 3f92 6744 c0bf 0bbd 69ab f59c 83bf
00000660: 460d faaf 3c60 d33f c6be c1c9 c0ca d93f
00000670: 6070 a1b6 231e a43f 940a 6526 38e7 b4bf
00000680: 804d 1351 35d2 6bbf 86cf 1297 1da9 c1bf
00000690: 1d82 2466 07a2 90bf 4fb1 1e22 0077 d53f
000006a0: 70bc a07a 5b9f da3f 4c30 20b5 fc2f a43f
000006b0: 687c 0a07 05b7 b8bf 1030 e312 4c3f 83bf
000006c0: 2713 b17e 388d c3bf 3fc4 4417 9daf a0bf
000006d0: a327 5f6a 094e d93f 842f e00d 45fc db3f
000006e0: c082 e96a 8b3b a63f a424 5ddd 0177 bdbf
000006f0: 88e2 2cd9 6fce 76bf 0422 b6be 158a c5bf
00000700: 1eaf 2169 4522 aabf fd75 ebea 0bd2 dd3f
00000710: 7f3b 520b f0ab df3f 704e ecb6 4c7e a83f
00000720: 133a d7ea 9125 c1bf f023 85f0 055c 5fbf
00000730: 9e9a ae70 cf38 cabf 860c 6979 472c b0bf
00000740: 43a7 ceda 966c e03f b503 271c d2b7 e43f
00000750: 6831 4a82 9412 ad3f d24d 8b68 81a7 c3bf
00000760: c0b6 c6a9 4304 7bbf 689a b92d a109 d0bf
00000770: cd35 ff7a 28ff b8bf a42e ba0c 1f2e e43f
00000780: 8fcc 3472 0b64 ec3f 4000 1dd6 b457 b23f
00000790: 06a3 b94f 8b6c c9bf 4ab7 988b 59e1 a23f
000007a0: 2ad0 2b7b 71df d3bf 8bb3 8bf1 925c 8c3f
000007b0: b046 af95 40c2 cb3f fa71 ee4b 634a f13f
000007c0: b43c 1e2f 4899 9abf 00f8 9580 1666 0b3f
000007d0: a807 83a8 8bd9 a8bf 35c7 9984 3f82 75bf
000007e0: 191d 7f8e 4b73 803f 5426 6fcd 9c8f cf3f
000007f0: e157 11b6 8769 f13f 28c9 0976 4c07 9dbf

scatter f8 [100, 35]
0.26282260057801154 0.2610921678092308 0.2587099942050915 0.2555163060532019 0.2515570851812946 0.24700296457073578 0.24211490868507884 0.2371692638475208
0.2324019724181097 0.22801822193487026 0.22409944294249276 0.2206597257669474 0.2176515511929177 0.214929282768992 0.21240322596549202 0.2099973494315011
0.20755805624761486 0.2050615324680653 0.2024330348614042 0.19962904983188637 0.19667777516863993 0.1936563377838509 0.19067361733274307 0.18786251942714038
0.18505901023333762 0.18233650737488974 0.1800070713943308 0.17764518929280668 0.17540738382139304 0.17331249537191787 0.1710647979502118 0.16716424958245663
0.16171184519873003 0.15450458910619336 0.14127255520898935 0.2629286623864785 0.2611160470485924 0.2586814970010572 0.2554940251637489 0.2515990199924315
0.24716559985953337 0.24242277781325935 0.23763386682460658 0.23298871390829964 0.22869008254636358 0.22482257789942908 0.22139802245533435 0.21837449338344012
0.2156577287372377 0.21313743836729823 0.21075854887996512 0.20835708663261437 0.20587475621815138 0.20324363883572022 0.20039865826829747 0.19734145255512983
0.1942846914643483 0.19123886128121212 0.18842101075872128 0.185569018397728 0.18274226803584326 0.18075911252145546 0.1788671263460737 0.17731083929005217
0.17575643440081512 0.17349320627014445 0.16906162622134416 0.16259019028369384 0.15448488157260337 0.1419711462417019 0.26333895517152256 0.2616986615374062
0.2593944574631881 0.2562491762247462 0.2522935265185972 0.24766769247328166 0.242626126055615 0.23744707239925694 0.23238734798369282 0.22767603257358046
0.22343206496018933 0.21967388211672037 0.21637760226661698 0.2133810036251082 0.21061446565679828 0.2080266826726174 0.2053809650529921 0.2027321022792998
0.19997299585780512 0.19714498565197133 0.1943270336238747 0.19177905847793789 0.18945619610944953 0.1873051449999093 0.18515767694921526 0.18255228541599017
0.1793551634554022 0.17488771080490761 0.1697136846709721 0.16401866916644794 0.15786866287733387 0.15031907893093646 0.13989762637693415 0.13169031925585248
0.11674724305377325 0.2630077059554529 0.2613035506908442 0.25895509984794035 0.2558053693325135 0.2519022200422868 0.24741179140100938 0.2426105209301095
0.23775287232501163 0.23308012244536186 0.22878286329349387 0.22491387651295203 0.22148662022359894 0.2184435479700537 0.21563373527090998 0.21302591867490336
0.2104958787550964 0.20788485233242857 0.2052062805940815 0.2023174112832139 0.19925251381210388 0.1958866333452061 0.19236228679735548 0.18881866319384302
0.18529616577940297 0.18168843474728316 0.178289159946712 0.17537238626969365 0.17245459590568846 0.16971674294362332 0.1668437897748487 0.16260017088084824
0.1559993748272624 0.14707455646397327 0.13553832956506168 0.11844999746112547 0.2625337602034792 0.26080887749647186 0.25846478868160755 0.25533831060965834
0.2514515047332247 0.24696930108186685 0.24213417682599186 0.23721501372041237 0.23247511944814137 0.2281069156228204 0.2242102186004733 0.22080465709063563
0.2178535417171994 0.2151846266017845 0.21266109905343028 0.2101042655849119 0.20732027448976284 0.20426705970487644 0.20084421564943034 0.19727930518614245
0.19358370353170287 0.19007935534379053 0.18695449323707297 0.1842111396830858 0.18192714254186756 0.17965328164722788 0.17765141568390755 0.17590247825658717
0.17399342921915162 0.17208718833876377 0.17065834474558825 0.16609755377079785 0.16152804520873232 0.1533881622369329 0.1383106577098875 0.26245976075369365
0.260641474034206 0.25818320380622695 0.2549381281939922 0.2509494025228743 0.24638521055053056 0.24152735303434658 0.23663519391975776 0.2319403668365496
0.2276436090361855 0.22377643611456344 0.22035409458003968 0.21729815203073394 0.21446454161371703 0.21178273417929244 0.2092022046415106 0.2065866359028295
0.20392826923878069 0.20113892312197834 0.1981618623378652 0.1950212218246878 0.19174309892396113 0.1885011673468412 0.1854335847046192 0.18232753623966683
0.17949057653168005 0.17721620029160814 0.17556291358452325 0.17413426346250144 0.1732405741862448 0.172290286486207 0.1702441607576713 0.16702401312393994
0.16370929430075187 0.1576226765916587 0.2626825295787311 0.26093286916112846 0.2585414038495689 0.2553569020016575 0.25143336945871475 0.24694548859725932
0.24213896514150665 0.23727827355997366 0.2326058046020572 0.22826743718121376 0.2243642627679131 0.22093778065431308 0.21793218366163955 0.21522169850895745
0.21273319011206368 0.21037613585866108 0.20794201654121516 0.20535242202106843 0.20249294946692 0.19935534739380362 0.19614487536009756 0.19302547217430466
0.19028148060732655 0.18793568817944908 0.1856407237510274 0.1834736198971085 0.18147203645318105 0.1796875064104196 0.17810295226103828 0.177035841678662
0.17593590900538186 0.17460045142915553 0.17127549276781182 0.16794008050351356 0.1631898990899286 0.2629232352034976 0.2611894213988516 0.25879261171857537
0.2555712655194721 0.2515822524032685 0.24700165964705637 0.24210644616761323 0.23718424753095005 0.23248024891447264 0.22816116328616434 0.22432315197335118
00000000: 7676 88e2 15d2 d03f 7bdf 7eec bbb5 d03f
00000010: 0597 105d b48e d03f 77f7 8510 615a d03f
00000020: 5a91 7be3 8219 d03f 6c55 6c0b cb9d cf3f
00000030: 9695 560f 9ffd ce3f 2cb6 ebfb 8f5b ce3f
00000040: f9e4 870b 59bf cd3f 6619 0d7b b32f cd3f
00000050: 91b2 3e61 4aaf cc3f a14f dbf0 933e cc3f
00000060: 550c 268b 01dc cb3f 0308 3980 cd82 cb3f
00000070: 8918 8b66 0730 cb3f a209 0772 31e1 ca3f
00000080: 366b cd2b 4391 ca3f 0e1a cfcf 743f ca3f
00000090: 950c 2e60 53e9 c93f 4d04 2ed8 718d c93f
000000a0: 4884 19c2 bc2c c93f 2fee b81a bbc9 c83f
000000b0: 32bb 533b fe67 c83f c0b7 8a08 e10b c83f
000000c0: e122 647e 03b0 c73f b960 057c cd56 c73f
000000d0: 54fc 57c2 780a c73f 6bf4 26db 13bd c63f
000000e0: dab1 7ec8 bf73 c63f 2126 ce95 1a2f c63f
000000f0: 78b4 5888 73e5 c53f 222e 825c a365 c53f
00000100: df8e 4047 f9b2 c43f a081 a56e cec6 c33f
00000110: 92f4 3816 3815 c23f 7e61 88bd d2d3 d03f
00000120: 4735 a214 20b6 d03f 8dca 6cd6 3c8e d03f
00000130: 7fb5 999c 035a d03f 62ae a4c6 321a d03f
00000140: bde4 0b54 1fa3 cf3f dbb7 41a7 b507 cf3f
00000150: a283 375b c96a ce3f 2b60 49fd 92d2 cd3f
00000160: d863 ba74 b745 cd3f b97f bd79 fcc6 cc3f
00000170: 4420 ec38 c556 cc3f 8e64 ae05 b2f3 cb3f
00000180: 7a2d 0726 ac9a cb3f 139e ab6b 1648 cb3f
00000190: eb5b 65d9 22fa ca3f a20b 7dec 71ab ca3f
000001a0: 12b4 83a0 1a5a ca3f aab0 f536 e303 ca3f
000001b0: df59 b6c9 a9a6 c93f 1949 6f16 7c42 c93f
000001c0: 36f6 f91d 52de c83f c7aa 76d7 837a c83f
000001d0: ab42 8bff 2d1e c83f e4a3 95c0 b9c0 c73f
000001e0: b8c8 6740 1964 c73f c3e7 5d56 1d23 c73f
000001f0: 8831 fe34 1ee5 c63f 2711 fd1f 1fb2 c63f
00000200: b012 e8d4 2f7f c63f f914 817f 0635 c63f
00000210: 3d8b d0b5 cfa3 c53f ed9d f55e c1cf c43f
00000220: 7e56 0a1d 29c6 c33f 17b8 0a4b 1c2c c23f
00000230: 335e 0ea2 8bda d03f d072 2dbe abbf d03f
00000240: 085b e435 eb99 d03f 4ec8 e0f1 6266 d03f
00000250: dbf3 58bf 9325 d03f 6f69 b92f 93b3 cf3f
00000260: 7632 4876 5f0e cf3f 262d 3e69 aa64 ce3f
00000270: 860c cc5d debe cd3f 8f47 fefc 7c24 cd3f
00000280: 89dd f001 6c99 cc3f a103 bd15 461e cc3f
00000290: cd37 a9e2 42b2 cb3f de28 1498 1150 cb3f
000002a0: 47bd 0731 6af5 ca3f 011b 634b 9ea0 ca3f
000002b0: 81cf 0f68 ec49 ca3f 1fc8 9122 20f3 c93f
000002c0: e76d a512 b798 c93f 9f09 f900 0c3c c93f
000002d0: 8055 124f b5df c83f 8d36 1c58 378c c83f
000002e0: 6446 28c3 1940 c83f c2d5 1270 9df9 c73f
000002f0: c4d3 8c2b 3fb3 c73f 6efb d58f df5d c73f
00000300: 9e70 b428 1cf5 c63f a88f 3073 b862 c63f
00000310: be38 ac92 2db9 c53f 5d6d 0052 90fe c43f
00000320: fa89 0f54 0a35 c43f 4d92 fcd3 a73d c33f
00000330: ccd9 0959 2ae8 c13f f7ab 3377 3adb c03f
00000340: 1f6a d0b6 25e3 bd3f 8b2d eb45 1ed5 d03f
00000350: 46ef 2287 32b9 d03f 27ad 3e69 b892 d03f
00000360: 8028 db7b 1d5f d03f 4ec5 377d 2a1f d03f
00000370: 6626 5b88 30ab cf3f 59b9 878e dc0d cf3f
00000380: 1c3f 95a5 af6e ce3f 8a10 a0c7 91d5 cd3f
00000390: b18a ddc1 c148 cd3f 4415 0558 fac9 cc3f
000003a0: b653 2e6f ac59 cc3f f7db 464b f5f5 cb3f
000003b0: 9391 73e0 e299 cb3f 435c f4ec 6e44 cb3f
000003c0: ea13 9969 87f1 ca3f 3f00 0d89 f89b ca3f
000003d0: b7ed 0a0c 3344 ca3f 6cb7 6f74 89e5 c93f
000003e0: cd00 3c3b 1b81 c93f 5979 f82d d012 c93f
000003f0: 15a3 63d1 539f c83f 1560 a5bf 352b c83f
00000400: a761 0ce6 c8b7 c73f 8987 a60e 9141 c73f
00000410: 97e9 99df 2dd2 c63f 182d d333 9a72 c63f
00000420: a0db ba00 fe12 c63f 6264 433a 47b9 c53f
00000430: 90d4 4f26 235b c53f b9ed 2018 15d0 c43f
00000440: 4a2e 8a9a c9f7 c33f 7811 0bcd 56d3 c23f
00000450: 7a0f 6bea 5159 c13f 8e8b 4e31 bd52 be3f
00000460: d0de 8a66 5acd d03f f0a4 d6b7 17b1 d03f
00000470: 0786 a3e5 af8a d03f f5ff 5e7f 7657 d03f
00000480: f5fc 560d c817 d03f bb9c a1a7 b09c cf3f
00000490: f612 5bb1 40fe ce3f 8251 06c3 0f5d ce3f
000004a0: 48ec 94a5 bec1 cd3f 79b4 4b7f 9b32 cd3f
000004b0: a8b5 28a2 ebb2 cc3f 861f 81b6 5343 cc3f
000004c0: 501f 7ff6 9fe2 cb3f 40a6 ed7a 2b8b cb3f
000004d0: 666f c898 7a38 cb3f 48f9 b752 b2e4 ca3f
000004e0: 679a 5d83 7889 ca3f 2390 8a4a 6c25 ca3f
000004f0: b00c e764 43b5 c93f ecdd f9c1 7240 c93f
00000500: 4d86 dacd 59c7 c83f f954 6c33 8554 c83f
00000510: ce90 25f5 1fee c73f fdb5 3f0a 3b94 c73f
00000520: 2f6c bc7b 6349 c73f 329f a5f4 e0fe c63f
00000530: 79a9 3916 48bd c63f c6dd b2ef f883 c63f
00000540: f089 1bac 6a45 c63f e7df fcf6 f306 c63f
00000550: c763 bcf4 21d8 c53f 2112 b244 af42 c53f
00000560: dc76 c773 f3ac c43f 8259 332a 39a2 c33f
00000570: 0daf c6e3 29b4 c13f 91ff 3c06 24cc d03f
00000580: 4c52 bd93 59ae d03f 125a 2ed8 1286 d03f
00000590: 8c2f c602 e850 d03f c555 3215 8e0f d03f
000005a0: 552c c4f2 8c89 cf3f 8c9c 2f49 5eea ce3f
000005b0: b1e6 7be1 0f4a ce3f 67b5 17d1 38b0 cd3f
000005c0: ff16 faff 6c23 cd3f 2c1e 5dcd b4a4 cc3f
000005d0: 2e67 e11e 9034 cc3f b603 3a04 6dd0 cb3f
000005e0: 42f7 30f8 9273 cb3f b229 9456 b21b cb3f
000005f0: 8bdb 9749 23c7 ca3f da24 7f4e 6e71 ca3f
00000600: 1723 8e4f 521a ca3f a47a 6194 ebbe c93f
00000610: 6a1d 072f 5e5d c93f d7a9 e194 74f6 c83f
00000620: 7c59 8eb1 098b c83f cc99 8166 ce20 c83f
00000630: 1375 f1a6 49bc c73f c1a1 a73a 8256 c73f
00000640: 6e66 1216 8cf9 c63f ad73 493c 05af c63f
00000650: 4c35 1e76 d878 c63f 6a9d 5713 084a c63f
00000660: f72e 3c44 bf2c c63f af38 f0ac 9b0d c63f
00000670: 5a03 6587 8fca c53f a6ca 01f9 0a61 c53f
00000680: 0857 8918 6df4 c43f 33da 88d8 fa2c c43f
00000690: 635b 7162 cacf d03f 52e7 dfc6 1fb3 d03f
000006a0: 6e88 8c3e f18b d03f 74eb b979 c457 d03f
000006b0: 60b0 bcfc 7b17 d03f 91c1 b5e6 e89b cf3f
000006c0: f75d 2fdc 68fe ce3f 20e7 7e6c 225f ce3f
000006d0: ba13 d0e9 06c6 cd3f a3af b70c de37 cd3f
000006e0: ec5a 7dd9 f7b7 cc3f 6638 2e6f b047 cc3f
000006f0: 334b c9a8 33e5 cb3f 5026 3e76 628c cb3f
00000700: 570c 2757 d73a cb3f 3797 afef 9aed ca3f
00000710: b120 4110 d89d ca3f 8510 5ef8 fc48 ca3f
00000720: adc4 d0f9 49eb c93f ce67 abdc 7984 c93f
00000730: fe8c 7978 461b c93f e44c 2405 0fb5 c83f
00000740: 3118 1fc0 245b c83f c5b1 3dd1 460e c83f
00000750: e180 a842 13c3 c73f 2f83 9146 107c c73f
00000760: 3a3b dac6 793a c73f 5b2a c40d 0000 c73f
00000770: 6a1f a4d9 13cc c63f 6266 1d47 1ca9 c63f
00000780: fa60 af5f 1185 c63f caa5 60be 4e59 c63f
00000790: fba2 05f8 5aec c53f 16a0 b980 0f7f c53f
000007a0: fa7b d017 68e3 c43f b4ae 23fa bbd3 d03f
000007b0: de07 bed5 53b7 d03f f6c5 f1e2 0e90 d03f
000007c0: 9305 cd94 475b d03f 18de 9472 ec19 d03f
000007d0: 49f4 1e19 c09d cf3f 5068 3812 58fd ce3f
000007e0: 51ca 22ad 0d5c ce3f 59dc 06ad e9c1 cd3f
000007f0: a504 448f 6234 cd3f fc07 bbfc 9eb6 cc3f

Maxvals f8 [11]
14.426673888021373 13.859738566197146 13.66190729276602 13.58827170684233 13.518645524330312 13.483016420144132 13.41430468812833 13.36285930295868
13.278067330888662 13.185258765296584 13.035029282202368
00000000: ca37 f6ff 74da 2c40 75da 41a7 2fb8 2b40
00000010: f2d3 3e83 e552 2b40 8d19 fcf2 312d 2b40
00000020: 516e fae7 8b09 2b40 6ce6 9fed 4df7 2a40
00000030: 6b2e 7cbe 1fd4 2a40 8783 ceb1 c8b9 2a40
00000040: 7181 58d7 5e8e 2a40 0a7e a43c da5e 2a40
00000050: 4dec aa5b ef11 2a40
