Data/SIMBA/Model_snap16.npz (npz, 261202 bytes, 5 tensors)

x f8 [36]
0	0x4026000000000000	11.0
1	0x4026333333333333	11.1
2	0x4026666666666666	11.2
3	0x4026999999999999	11.299999999999999
4	0x4026cccccccccccc	11.399999999999999
5	0x4026ffffffffffff	11.499999999999998
6	0x4027333333333332	11.599999999999998
7	0x4027666666666665	11.699999999999998
8	0x4027999999999998	11.799999999999997
9	0x4027cccccccccccb	11.899999999999997
10	0x4027fffffffffffe	11.999999999999996
11	0x4028333333333331	12.099999999999996
12	0x4028666666666664	12.199999999999996
13	0x4028999999999997	12.299999999999995
14	0x4028ccccccccccca	12.399999999999995
15	0x4028fffffffffffd	12.499999999999995
16	0x4029333333333330	12.599999999999994
17	0x4029666666666663	12.699999999999994
18	0x4029999999999996	12.799999999999994
19	0x4029ccccccccccc9	12.899999999999993
20	0x4029fffffffffffc	12.999999999999993
21	0x402a33333333332f	13.099999999999993
22	0x402a666666666662	13.199999999999992
23	0x402a999999999995	13.299999999999992
24	0x402accccccccccc8	13.399999999999991
25	0x402afffffffffffb	13.499999999999991
26	0x402b33333333332e	13.59999999999999
27	0x402b666666666661	13.69999999999999
28	0x402b999999999994	13.79999999999999
29	0x402bccccccccccc7	13.89999999999999
30	0x402bfffffffffffa	13.99999999999999
31	0x402c33333333332d	14.099999999999989
32	0x402c666666666660	14.199999999999989
33	0x402c999999999993	14.299999999999988
34	0x402cccccccccccc6	14.399999999999988
35	0x402cfffffffffff9	14.499999999999988

intercept f8 [100, 36]
0	0x3febb05d0c62566a	0.8652787439229546
1	0x3ff02d7bb6f68c13	1.0111043116564857
2	0x3ff15d0bad7abb3a	1.0852162148036784
3	0x3ff220c23325ae38	1.132997703355512
4	0x3ff30844058677d6	1.1895179954367356
5	0x3ff475798d11f2a6	1.2786803732443928
6	0x3ff6a77c938c848e	1.4158902896527112
7	0x3ff9a427ee57fbaa	1.602577143697753
8	0x3ffd50a500a2f494	1.83218860863352
9	0x4000b48a138c3b6c	2.088153984753651
10	0x4002cbc43dfb8ca7	2.3494953958884994
11	0x4004bdcbf4a5eb2c	2.5926741707929946
12	0x4006662804d1f6b2	2.7998810173583815
13	0x4007a5ffb20f0da4	2.9560541067928217
14	0x40086fab00577c8e	3.0545253779124044
15	0x4008c6d5c58010d4	3.09708742425037
16	0x4008a563a2e55f1a	3.080756447434294
17	0x4008104e9fbcd37d	3.007962463331238
18	0x40071f45fab23857	2.8902701936377
19	0x4005da324ef5f32f	2.7315412682350124
20	0x4004681ac2e0f7c2	2.5508322930245138
21	0x4002c5aed9c0b5f8	2.346524907296722
22	0x400126c1e62f9789	2.1439245208047777
23	0x3ffecfb84a79a02b	1.925712862890587
24	0x3ffb3cfed23d44ae	1.7023914539789007
25	0x3ff75268d6173778	1.4576195109288772
26	0x3ff38dd71c94dadf	1.2221289745772805
27	0x3fef14ceffe8f2f1	0.9712901113740299
28	0x3feaa66a74d6e646	0.8328144342442065
29	0x3feb384bab0aaa0a	0.8506220188767781
30	0x3fee0e6b59f8128c	0.9392601735313106
31	0x3ff530407e954be0	1.324280256715376
32	0x4000216c17bb1172	2.016319451710097
33	0x40051bbf51f8571b	2.6385485080635482
34	0x40073905ecfee3aa	2.9028433337484403
35	0x4008900db3d61000	3.070338635416192
36	0x3feb8c2446d80a07	0.8608571418447476
37	0x3ff02ade1a928ec0	1.010465720938484
38	0x3ff168fcb5b13257	1.0881316277838289
39	0x3ff23f6bd960be42	1.140483712322649
40	0x3ff3304971b60de7	1.1992887918321402
41	0x3ff497e2f4e167a4	1.2870816770214129
42	0x3ff6b98fc19f525e	1.4203031123517103
43	0x3ff9a07ba62fbea4	1.6016804210338842
44	0x3ffd3956b6aa0999	1.8264987120934164
45	0x4000a4838570583a	2.080328981867777
46	0x4002bd65e0dc00b2	2.3424794737948895
47	0x4004b56d78e76645	2.5885877080552597
48	0x40066b85d6e8ca52	2.8025013723175016
49	0x4007ad295eda57e2	2.9595515642531476
50	0x40085b9fc0237401	3.044738293725914
51	0x400883d110150a9b	3.0643635994359335
52	0x400829e3c5419d0e	3.02045396906363
53	0x40074f88cb0c2078	2.913835130984861
54	0x4006244e7c6a4c06	2.7677278251590023
55	0x4004d31ecc3b7cad	2.603086085858726
56	0x40036a1e1df9780c	2.426815256286323
57	0x4001f11740861c27	2.2427201310088267
58	0x40007fbfd3dce41c	2.062377600840149
59	0x3ffdf84332afb604	1.8731109600006457
60	0x3ffaec6c7a290b35	1.6827206394088539
61	0x3ff8343eafd045ce	1.5127550952641857
62	0x3ff64a84b0aaea4e	1.3931929493980024
63	0x3ff50cbfa9422f4e	1.3156124698316094
64	0x3ff5be601a4e0d1f	1.358978369477718
65	0x3ff86a3b951f211c	1.5259357285559139
66	0x3ffbb5d4694c30a4	1.73189202434427
67	0x400117da9d7ee7b6	2.136647444186532
68	0x4003c0065a50f0dc	2.4687621169997396
69	0x40054d2d84b4f614	2.6626844756817807
70	0x4004f1c344258875	2.618048221965234
71	0x4004f551b554dde3	2.619784752514293
72	0x3fec2558c22a1da8	0.8795589248920139
73	0x3ff059e23eb25047	1.0219442795833105
74	0x3ff16cbaa6a7b9d7	1.0890451917617747
75	0x3ff20c7d160ca83d	1.1280489789301236
76	0x3ff2d88516868268	1.177861297597838
77	0x3ff43cf66f61ad22	1.2648834563104363
78	0x3ff678d9c59f131e	1.4045045585236902
79	0x3ff98ea0a0fb9e75	1.5973211563486107
80	0x3ffd5d6a80b01836	1.8353066470022106
81	0x4000cd0ed1f8cb24	2.1001259235430485
82	0x4002f532d74ab6e2	2.369725877730944
83	0x4004eceb74863cf8	2.615683470102905
84	0x4006946e2a6e7901	2.8224757494891723
85	0x4007ced673c0772a	2.9759949725256734
86	0x400894d78108aff4	3.072676666333786
87	0x4008ee4e3255f876	3.1163600857244615
88	0x4008d554f94734a9	3.1041659808020836
89	0x4008459b163f478b	3.033987211042534
90	0x4007528454af97fa	2.9152914634787495
91	0x4005ee4c0050612c	2.7413558983354473
92	0x4004516fe6e5d7f8	2.5397642172711095
93	0x40028bbfc79acb44	2.3182368845095045
94	0x4000bf0114cc24b0	2.093263781051597
95	0x3ffd621fe97a29fc	1.8364562149241683
96	0x3ff926e5c3dfe806	1.5719964648583313
97	0x3ff46d2ed2a9635b	1.2766559819194387
98	0x3feef3c00c74c30c	0.9672546618731714
99	0x3fe5a661797f7cb6	0.6765601513869999
100	0x3fe0d5a321e74bd4	0.5260787641694784
101	0x3fe2f2bc7d980ab3	0.5921308949476355
102	0x3fe5f71d4b3d9fd0	0.6864153356118496
103	0x3ff2ae39e69ba817	1.1675356872679055
104	0x3fff465f8d0375e1	1.954680968126347
105	0x4003193f4760c0de	2.3873277260209838
106	0x4004bc2af0e3b4a5	2.591878778409028
107	0x40058e399e4f55fb	2.694445835872782
108	0x3fec1851a0f3fc28	0.8779686111082627
109	0x3ff063784979fe91	1.0242846365144127
110	0x3ff1819f5728b168	1.0941460995337255
111	0x3ff21e7323f784c3	1.1324340252834169
112	0x3ff2d1a08a2f1882	1.1761784932910193
113	0x3ff40e6f24b78219	1.2535239633799675
114	0x3ff61b2a52f2b2eb	1.3816321602018273
115	0x3ff90b89b858acce	1.565316887000154
116	0x3ffcd3875b4ed5f7	1.8016427580563439
117	0x40008e4224972d8e	2.0694620951305245
118	0x4002c0c4e4fb4d40	2.344125546378251
119	0x4004c73868584190	2.5972755577024103
120	0x400676c1e79bb3e2	2.8079870314017947
121	0x4007b004188c929c	2.9609453122996694
122	0x40086ec69d034a1a	3.0540897623661865
123	0x4008aef0e3bd49ed	3.085420397962699
124	0x4008761bc5ec2ac7	3.0576701605508307
125	0x4007d219004886c0	2.9775867483266154
126	0x4006de74da6e57e3	2.8586213173793893
127	0x4005b34a129b3da6	2.712543626177381
128	0x40047ea034185e17	2.5618290014206297
129	0x40031a2632a14fea	2.3877681689718786
130	0x4001ad61f9d4d38a	2.2096595304560127
131	0x400012a667696b8c	2.009106452850977
132	0x3ffcc05bb0d62563	1.7969624431301205
133	0x3ff87dab3ebae898	1.5306808901209816
134	0x3ff4743131be9292	1.278367227853924
135	0x3fef81f9b96e2d0c	0.9846161481558808
136	0x3fea3cc6187a9054	0.8199186781025767
137	0x3fe8f943da3b886a	0.7804278623919008
138	0x3fead7305957c0b8	0.8387681717849977
139	0x3ff3e15c214ae6cc	1.2425195026866502
140	0x3fffc67ddfa57ed8	1.9859598861875636
141	0x4005720d5bf8386a	2.6806895432592244
142	0x4007e3b8e8d4fc1a	2.9861925306318087
143	0x4009fa566c80462b	3.247235152878394
144	0x3febddbb32843899	0.8708168017053765
145	0x3ff03f7cd62a1d48	1.0154999128152031
146	0x3ff16d38c8b76db3	1.0891654816140146
147	0x3ff22cc2d8b31730	1.1359280075861982
148	0x3ff30d2dac8ba190	1.1907173862510696
149	0x3ff46aa6387f408b	1.2760374266545422
150	0x3ff682a9a2a70f72	1.4069000581375488
151	0x3ff95cd3c40e2cc6	1.585162893143932
152	0x3ffce4399c853004	1.8057190050194558
153	0x400068ee96a53f20	2.0512363213710074
154	0x40026ef36916b1c6	2.304175206189231
155	0x40045029ba19fd20	2.539142087858309
156	0x4005f7812d3dbc20	2.7458518537964807
157	0x400746098ad2f52b	2.9091978879574945
158	0x4008261a2eb6d9e8	3.018604626612831
159	0x4008979d286f3ff2	3.0740302237463704
160	0x40088d761c0ced6e	3.069072932381167
161	0x4008181ee6b9197e	3.0117776894796284
162	0x40074b94ae0afb6c	2.9119046780683018
163	0x40063480eaac8f0c	2.775636514082981
164	0x4004eadcd79d2d42	2.6146790356484937
165	0x40035cbbd5bb659a	2.42028014162197
166	0x4001d1f0d2f8722c	2.22751011677453
167	0x4000064571df3637	2.003062142967589
168	0x3ffc3742d1a999fe	1.7634914579335823
169	0x3ff7d81573104d24	1.4902548308062444
170	0x3ff456d2f96d2ee0	1.271197294542553
171	0x3ff10122b7acffe9	1.0627772497973587
172	0x3fef7b0ec3228412	0.9837716876246552
173	0x3ff1ecc29b767adb	1.1203027794614886
174	0x3ff5337249eb6aee	1.3250601661190404
175	0x3ffc1e5553398978	1.7574055911032627
176	0x4002e427681ed2de	2.3614032873541495
177	0x400711f106c807d4	2.8837605027956474
178	0x4007844db90aa668	2.9396013695120935
179	0x40059600fccbf4fe	2.6982440709822404
180	0x3febb8642d22e641	0.8662587052887788
181	0x3ff00ce17e1ce4a1	1.0031447340282187
182	0x3ff11ae27f69a4f4	1.0690636612947033
183	0x3ff1c7627acbbce9	1.1111779019082013
184	0x3ff2a7ef5759c36c	1.165999737943106
185	0x3ff41e0261cf60a7	1.2573264904695323
186	0x3ff6649d8de4af32	1.3995643179614032
187	0x3ff97d3e8c71a28c	1.5930772291268651
188	0x3ffd40db46a95a55	1.8283341179100223
189	0x4000b59c3a1ed7cc	2.0886768856680415
190	0x4002d35649cf9440	2.3531919256661524
191	0x4004cc008ed45690	2.599610439162298
192	0x400673654fc3a139	2.806345580251357
193	0x4007b13650ab16e1	2.9615293791019757
194	0x400873120507faaa	3.0561867135105176
195	0x4008c3fdcc6c5ba9	3.0956989260261776
196	0x40088d881f42854c	3.069107288568068
197	0x4007e87f6551e024	2.9885242381678996
198	0x4006d5edb79d3d1a	2.8544573159084736
199	0x40056a1f94d6b6fc	2.676818049242568
200	0x4003dad8f2f7a92a	2.48185911005307
201	0x40021a96c3dc4c7f	2.2629828740696776
202	0x400065deb4d94cb6	2.049741185075244
203	0x3ffcf0c8027bb53c	1.8087844941140494
204	0x3ff88f1333860f20	1.5349304211276333
205	0x3ff3af433c312910	1.230288729786995
206	0x3febe2f275064d4e	0.8714535031926205
207	0x3fdde3978be7e77b	0.46701611197169485
208	0x3fb615cc00d1d7c8	0.08627009410869768
209	0xbfc0bf7bc1398db8	-0.13084361014180756
210	0xbfc9cd3ca81bdec4	-0.20157583435478987
211	0x3fbdc083413886d0	0.11621876089386807
212	0x3fea6f19f3c7c9f2	0.8260621796928815
213	0x4000276c36c65735	2.0192493705061687
214	0x400f46fb78635ad6	3.9096593289681136
215	0x40197afec8cc64cd	6.37011255023499
216	0x3fec0557822e3ea8	0.8756520788756079
217	0x3ff04f0aa329768a	1.0192972539438494
218	0x3ff17568107953d2	1.0911636966240974
219	0x3ff22e74a75fc584	1.1363417184878424
220	0x3ff30c66a17aa969	1.190527563836975
221	0x3ff469c7e9a715dc	1.2758254172380168
222	0x3ff680c92cdfe402	1.4064418557084086
223	0x3ff95f5160bfdbca	1.585770967414407
224	0x3ffce95a7170ab9a	1.8069710189108492
225	0x400075798a74ff5e	2.057360727019769
226	0x400283524ef76ea8	2.3141218346844035
227	0x40046dd0ee35e221	2.553621159572018
228	0x400611b63e6f10e5	2.7586483838696148
229	0x400753992301540c	2.9158194288998
230	0x40082799253981fe	3.019335070435999
231	0x4008911eb56a39ac	3.070859353355635
232	0x400888c7941ecf00	3.066786915960506
233	0x4008116774902ad8	3.0084981066223513
234	0x4007434327657c89	2.9078429296346866
235	0x40062985577f6127	2.7702738605259074
236	0x4004cdb9debe3108	2.600452175311265
237	0x400330d3ac136cfb	2.3988412326267485
238	0x400196804da5709f	2.1984869066346415
239	0x3fff7a37499d27d3	1.9673378825705086
240	0x3ffba1744917f3a0	1.7269175391404374
241	0x3ff7692a2cdcaabe	1.4631749870701891
242	0x3ff37291a8976190	1.215470942077534
243	0x3fef87de107660d4	0.9853353807002585
244	0x3feb68608584b6ad	0.8564913375646107
245	0x3fed00b87712f88f	0.9063379598299138
246	0x3ff16bbdece4a1a2	1.0888041738163357
247	0x3ffa0660128e0cc8	1.6265564656066989
248	0x40045283d2b758dc	2.540290495128927
249	0x400a296c6ffc1c9f	3.270226359254209
250	0x4011f2b1cfe4e92e	4.487006424280748
251	0x40166dcf189ef8ab	5.607235321715204
252	0x3fec1a08818af22d	0.8781778841144551
253	0x3ff0514d5893a0e8	1.0198491535211875
254	0x3ff16931d15d4054	1.088182275609161
255	0x3ff21908da96dc8e	1.1311119593281407

slopes f8 [100, 36, 7]
0	0x3f937381455b2fd1	0.01899530397240296
1	0x3fd0773d2a399ffc	0.25727776645226164
2	0x3ff2a5aec0dddb6d	1.1654498609402382
3	0xbf920c68efb3029f	-0.017625465040284834
4	0xbf6278053152edb3	-0.0022544957560890143
5	0xbfaabe649cf54cd8	-0.05223383346551608
6	0xbf817a93fbba3463	-0.008534580344781334
7	0x3f7ceb2d56ffa074	0.007060219868414309
8	0x3fd27caf37c9ef35	0.28886013458371745
9	0x3ff2bfc4e79a5b13	1.1718186423292465
10	0xbf94bd78697b12fc	-0.020254022062334606
11	0xbf610d38a35d570c	-0.002081499692318972
12	0xbfb21e52acc8a30f	-0.07077519148209553
13	0xbf8080ca3c1afcb1	-0.008058147391578481
14	0x3f57aeed037282b9	0.0014455141625050862
15	0x3fd42a4a2228b0a4	0.3150811513503504
16	0x3ff2ba20cf324c1c	1.1704414456951389
17	0xbf95c857d2b33840	-0.021272060618507505
18	0xbf625fe948ec4c40	-0.002242999681934005
19	0xbfb74bdc63ecfbf8	-0.09100129546730773
20	0xbf803f98bd649ed0	-0.007933800964181087
21	0xbf61249848ebab00	-0.0020926451028250304
22	0x3fd57813e412bb5c	0.3354539611126961
23	0x3ff28c884b39fd92	1.1593096674476766
24	0xbf95199de7400550	-0.020605532874474364
25	0xbf65f47820182120	-0.0026800485800359125
26	0xbfbc9181170a63a8	-0.11159521877779233
27	0xbf80b9b854849174	-0.008166732863693162
28	0xbf7b8e44d3d3982b	-0.0067274750301518456
29	0x3fd665ff729e3a74	0.3499754542653257
30	0x3ff233ec26a5b152	1.1376763829858487
31	0xbf92b125389166f0	-0.01825388105166942
32	0xbf6b637609629940	-0.003343325176575679
33	0xbfc0ca9c92b8e520	-0.13118321575328995
34	0xbf8204c271e2d6dc	-0.008798140621688537
35	0xbf8dc09db77e5f08	-0.014527542269021435
36	0x3fd6fc50cfde5aaa	0.3591501264540208
37	0x3ff1b11173eb17c9	1.1057295349178153
38	0xbf8d412f39611680	-0.01428448575837682
39	0xbf70b5d05dd93300	-0.004079641277326074
40	0xbfc3028c8ea38f57	-0.14851529087820367
41	0xbf8445504d97073c	-0.009897830360276687
42	0xbf9b652a791e56ec	-0.02675310482262365
43	0x3fd743d57ab1ed30	0.3635152528947456
44	0x3ff10772133466af	1.0643177747901225
45	0xbf821642624f6d60	-0.00883151876944649
46	0xbf73425664ba0ec0	-0.004701936220616154
47	0xbfc4cc0d78292f8c	-0.16247719161253504
48	0xbf877f739b536e1c	-0.01147356336371446
49	0xbfa63961f9dc7234	-0.043406545401215274
50	0x3fd748de79bd982e	0.3638225735543327
51	0x3ff03d95d29d9b37	1.0150354602025808
52	0xbf607b1082dcef40	-0.0020118067249352
53	0xbf7501e393564260	-0.005128754584248968
54	0xbfc60a61c064cda7	-0.17219182867266378
55	0xbf8bd2e8f429a758	-0.013585872603659219
56	0xbfb05546b5055b42	-0.06380121154266497
57	0x3fd7193dc2413892	0.3609156033534272
58	0x3feeb276b8805baa	0.9592851260703033
59	0x3f78b96837435610	0.006036192982909153
60	0xbf76341411fb3280	-0.0054207595819205645
61	0xbfc6a618f1035fd4	-0.17694389122220733
62	0xbf90ba37f3acd69f	-0.016335367439032408
63	0xbfb61e69fa551b80	-0.08640158044464208
64	0x3fd6c572f3cf6546	0.355801332565154
65	0x3fecc523798eb9ea	0.8990647672815701
66	0x3f8ef830b8d64eb4	0.01512182296827489
67	0xbf77de3fd4f66260	-0.005827187865542344
68	0xbfc692cc3dfd7e80	-0.17635491396776004
69	0xbf9432d6420d194c	-0.01972517755646068
70	0xbfbbfd3bda5858c7	-0.1093327911442855
71	0x3fd65f03fa2cc974	0.34954928809306485
72	0x3feac4f267d22f7a	0.836541369224036
73	0x3f9992ee47eb5890	0.024974558963400784
74	0xbf7af8f7beabe378	-0.006585090401807096
75	0xbfc5cf032ef7abc4	-0.17038001817067372
76	0xbf9882244d54b096	-0.023933951587580347
77	0xbfc0b6175656d5ee	-0.13055698123723353
78	0x3fd5f22f3346a7bc	0.34290676124021124
79	0x3fe8c9052b89e9e2	0.774538598095486
80	0x3fa20cc943b4c090	0.03525380088319807
81	0xbf809afcd351d588	-0.008108115385975237
82	0xbfc46a118ffca7e4	-0.1594869568883147
83	0xbf9df320346813cb	-0.029247763823167888
84	0xbfc30413748ed548	-0.14856188956552274
85	0x3fd58cda62a1380b	0.33672198898136746
86	0x3fe6e3e86c95c7be	0.7153207894136739
87	0x3fa755207f0d4ba8	0.045571342000264636
88	0xbf85b743f395a948	-0.010603457327949997
89	0xbfc27c6c38e10654	-0.14442208077712115
90	0xbfa25848fa2040f4	-0.035829811604459666
91	0xbfc4c092d5402383	-0.16212687885879626
92	0x3fd5351889e31ac7	0.3313657137445429
93	0x3fe52219dad53880	0.6604127191619824
94	0x3fac5ffd7b425bf4	0.05541984681729409
95	0xbf8cc8b90d4a4af0	-0.014054723470768832
96	0xbfc025a940b2e3fc	-0.1261493268882815
97	0xbfa6686db7622a77	-0.043765476833034826
98	0xbfc5db7e8e13d28c	-0.17076093613981802
99	0x3fd4ed5f0de27bf1	0.32698799472740264
100	0x3fe38c9d8902e0b8	0.6109149623871621
101	0x3fb074e92c7ab62a	0.06428391776963652
102	0xbf92c882a6932e1c	-0.018343011300016795
103	0xbfbb1ef83c534ab2	-0.10594130966937135
104	0xbfab23c8924c5f6e	-0.05300738130443859
105	0xbfc65bf551cbf3fb	-0.17468134397486765
106	0x3fd4b7588f4ab0a9	0.32369054787956003
107	0x3fe223be26db720c	0.5668631323747504
108	0x3fb25778c41dd0ce	0.07164721286773387
109	0xbf97dcd089e5ecf0	-0.02330327836669438
110	0xbfb5aac4edd810ea	-0.08463698202837447
111	0xbfb01b5ad5440f47	-0.0629174013775443
112	0xbfc63d5b69369cd0	-0.17374746930474894
113	0x3fd48aae7dad060d	0.3209644534400418
114	0x3fe0dda7641086fa	0.5270573572526864
115	0x3fb3c246d2ce5566	0.07718317648535375
116	0xbf9d7e1e3a161e34	-0.028801414771377945
117	0xbfb02a4e205bb74c	-0.0631455258369133
118	0xbfb2c443a53363e0	-0.07330725463124521
119	0xbfc589b006ac9d22	-0.16826439214603633
120	0x3fd459a4e08801ea	0.3179714386642717
121	0x3fdf669299c5b070	0.4906355382615919
122	0x3fb4a2a9c3eee0d4	0.08060704263232604
123	0xbfa1a1c1f9ebf0be	-0.03443723846246048
124	0xbfa5451dee2e1fc8	-0.04154294521782692
125	0xbfb57037802069a2	-0.08374354246226415
126	0xbfc462dcbca5f796	-0.15926703654616564
127	0x3fd4127796d1163a	0.3136271450824527
128	0x3fdd2f6da4845f49	0.4560197931873416
129	0x3fb501a9d8111b14	0.08205663228100618
130	0xbfa489f02fc04239	-0.04011488516710355
131	0xbf949c2fd1826968	-0.02012705532306694
132	0xbfb80d81b98d5336	-0.09395609645919198
133	0xbfc2d63fee612e64	-0.14716338290814968
134	0x3fd3a2744d52fc6d	0.3067904238814155
135	0x3fdafd4f2decb13b	0.4217107723695965
136	0x3fb4f7e661a06a88	0.0819076526972059
137	0xbfa74a9f8ebb8f1e	-0.045491205380839825
138	0x3f42d982ba4129b0	0.0005752456968449084
139	0xbfba9b8aa7516fe6	-0.10393587670245061
140	0xbfc1168666d0d3a3	-0.13349990864085468
141	0x3fd302635f871a3a	0.2970207627189755
142	0x3fd8dfa8082ca6e1	0.3886509017780622
143	0x3fb49a0c27fe3786	0.08047557808296632
144	0xbfa9cd649866bc04	-0.05039514885299215
145	0x3f93fbb759f09b81	0.019514908661359968
146	0xbfbd1e975ddac0e5	-0.11374803582544109
147	0xbfbe409c22300a98	-0.11817336878452023
148	0x3fd2356485d2f141	0.28450882977246655
149	0x3fd6d41e91a124e8	0.3566967413103854
150	0x3fb3f33d3cdd6468	0.07793028579671246
151	0xbfabf77b73862322	-0.054622514583633
152	0x3fa2fcb35d6288c1	0.03708420290901549
153	0xbfbfbc5717ab226a	-0.12396759345859612
154	0xbfba64715abd8621	-0.10309513535823857
155	0x3fd15589b729c84a	0.2708458222106215
156	0x3fd4f5e08b3d9327	0.3275071487208145
157	0x3fb3200745119cb9	0.07470746456384604
158	0xbfae12f05d55856f	-0.05873824252445103
159	0x3faabcd657dff342	0.05222196409883974
160	0xbfc143e70662c346	-0.13488471805387742
161	0xbfb63b42d31204d4	-0.08684175160489654
162	0x3fd08d2f26160ee2	0.25861719817497264
163	0x3fd3645994c29284	0.3029998734221311
164	0x3fb22c494b56e08c	0.07098825539913117
165	0xbfb0185515742606	-0.0628712823273859
166	0x3fb0fbea06d182ae	0.06634390512909746
167	0xbfc2da0561e1532b	-0.14727847365670618
168	0xbfb1f17fd9f97ff7	-0.07009123870511745
169	0x3fd0207154069b90	0.2519801445545733
170	0x3fd21a5f92d44fb7	0.28285970057299487
171	0x3fb123f3977a6c90	0.06695482681463916
172	0xbfb13e5bc324fba0	-0.06735776438016083
173	0x3fb41607593464f8	0.07846113136146815
174	0xbfc494dfa2436478	-0.16079326079378453
175	0xbfaa66439973ee55	-0.05156146286205102
176	0x3fd030a1522039d9	0.25296814937692386
177	0x3fd0f362ff294124	0.2648551456268413
178	0x3fb03bdc48c60f2c	0.06341339852047828
179	0xbfb283570737aa39	-0.07231658865172443
180	0x3fb708789d4a414d	0.0899730094918187
181	0xbfc65285b2c9d198	-0.17439337949657552
182	0xbfa12e058a92c9ae	-0.03355424229211522
183	0x3fd0bacee1946c07	0.26140186337733023
184	0x3fd0702b53f6b638	0.25684626769620733
185	0x3faee0f70ad7e040	0.06031009681095201
186	0xbfb3a87bf74d5d35	-0.07678961551333859
187	0x3fb98897a48346bb	0.09974048391748173
188	0xbfc8005808901184	-0.1875104944048297
189	0xbf8ceae2ece1ef50	-0.014119885305482832
190	0x3fd2216e6a48b6f5	0.28329048518467853
191	0x3fcfe760c472a681	0.24924859611683206
192	0x3fadbf120a82399c	0.05809837702064444
193	0xbfb4e373e29cb874	-0.08159565241359862
194	0x3fbba64d1671934a	0.10800630376759304
195	0xbfc9a80c49f1bd09	-0.2004409180694682
196	0xbf67a2c2a188644d	-0.002885227335593521
197	0x3fd40ab1480829f2	0.31315261873592626
198	0x3fd063e1199463fa	0.25609614847195383
199	0x3fad2df74f810a9e	0.0569913181830277
200	0xbfb5d8bd9c65fc63	-0.08533845012969858
201	0x3fbd6bdb2492ccea	0.11492700236231071
202	0xbfcaf73a9b6c9ad4	-0.21066982831071945
203	0xbf6818620a0cfa71	-0.002941314204149941
204	0x3fd68caf04b27247	0.3523366495008173
205	0x3fd26926838850ab	0.2876678738114246
206	0x3fad3179d9463b3c	0.057018096707102534
207	0xbfb66f57da31cbbc	-0.08763646199240233
208	0x3fbebcb4ef335d12	0.12006693687304829
209	0xbfcbf0c684d7ced8	-0.21828538404917341
210	0xbf8178cff4b9d668	-0.008531212478582975
211	0x3fd8658c72dd2163	0.3811980363575655
212	0x3fd57ee5b64f209d	0.3358701973306866
213	0x3faf2a9c84dabad4	0.06087197419889426
214	0xbfb63b4ec700b136	-0.08684246405090765
215	0x3fbfb92f39f4d5dd	0.12391944088889013
216	0xbfcca3373f92725b	-0.2237309513483464
217	0xbfa22222107bd7e3	-0.03541666461198625
218	0x3fdac1ade34c906f	0.4180712432591979
219	0x3fdb612764a417af	0.4278048022100575
220	0x3fb10e265b10e29c	0.06662215922632203
221	0xbfb58bec3c3232b4	-0.08416630239134798
222	0x3fbfb02de9643362	0.12378203342468688
223	0xbfcccddc9217c98e	-0.225032397589143
224	0xbfb59976e43afb37	-0.08437293121367594
225	0x3fdcf0ed163c6124	0.4522049634120029
226	0x3fe1f968d16acfe7	0.5616954889469498
227	0x3fb2d160e90e3fec	0.07350736322246093
228	0xbfb44e6f256e6d64	-0.07932181037761193
229	0x3fbde3ebdfb5d09c	0.11675905429530292
230	0xbfcc5a5750d7e59f	-0.22150699088505818
231	0xbfc0617ca3f68777	-0.12797506338125306
232	0x3fdef43de70dda98	0.48365733684424006
233	0x3fe6f1e606d44858	0.7170286305793168
234	0x3fb42d48b63b3d88	0.07881597947129226
235	0xbfb29a5c2c27f9d8	-0.07266784742385057
236	0x3fbc92120b2b878c	0.11160385868745787
237	0xbfcb5f7f6331cffa	-0.21385185569272364
238	0xbfc2b30205c5610d	-0.14608788759029104
239	0x3fdf6beb4311fdf4	0.4909618525489059
240	0x3fecd3c364dfd695	0.9008500070765019
241	0x3fb4eaf61a883550	0.08171022556071716
242	0xbfafc63459b08588	-0.062059055279188036
243	0x3fb8b77398caf3b6	0.09654924850742827
244	0xbfc9c2d2bea25d99	-0.2012580328780416
245	0xbfc41aa5721e6d82	-0.15706317970476041
246	0x3fdf6098c035d652	0.4902707936338163
247	0x3ff3557c911e0506	1.2083707493441707
248	0x3fb6c593bf6040c8	0.08895228788628906
249	0xbfb28eb1be9ac72c	-0.07248984244759232
250	0x3fb750cd5f5242fc	0.09107669427090664
251	0xbfcb82ef6fd2741e	-0.21493332824766836
252	0x3f93ce520cce1432	0.01934173777728549
253	0x3fd05e7d2ca90f7c	0.25576714860311944
254	0x3ff299e14f6560ab	1.1625683881193634
255	0xbf91a546d627bfe4	-0.017232043095589136

scatter f8 [100, 36]
0	0x3fd18fb0310bfa69	0.27439503469205434
1	0x3fd16e38c6246582	0.2723524031622092
2	0x3fd140658c5e0dd0	0.269555461003816
3	0x3fd103a32f1bd31a	0.2658470115705299
4	0x3fd0b92b0a032655	0.2613017652298358
5	0x3fd064d1165a35a2	0.25615336592530913
6	0x3fd00b302d5ecbe4	0.2506828730649302
7	0x3fcf617ae7c96d71	0.24516235654560206
8	0x3fceb237c979a5fa	0.2398137792363711
9	0x3fce0dea8677a6b4	0.23479968610563662
10	0x3fcd788a28c0c8dd	0.23024107923408269
11	0x3fccf2e3bc3c1b28	0.22616240206863236
12	0x3fcc7c17f3698147	0.22253703484876494
13	0x3fcc11f61fcaab15	0.21929813911750587
14	0x3fcbb0e42210bf4d	0.21633578933096445
15	0x3fcb54c3c6bb3a31	0.21352431491546178
16	0x3fcaf9d1599148dd	0.21074883340276687
17	0x3fca9d2e70330f1d	0.20792179563988436
18	0x3fca3b6143bddf15	0.20493713195514177
19	0x3fc9d195b9751914	0.20170852237260617
20	0x3fc95ec1bfc98ad2	0.19820424904454242
21	0x3fc8e55920304bd2	0.19449915000640644
22	0x3fc8670860c5d123	0.1906443092845019
23	0x3fc7e6e12882a471	0.18673338392298747
24	0x3fc7662289791255	0.18280441010041906
25	0x3fc6e0fba9c6bdf2	0.17874093808994435
26	0x3fc6588303a124cc	0.17457616498203377
27	0x3fc5c51d64bb2f20	0.17007796686663657
28	0x3fc51dba7116b097	0.16496973535447942
29	0x3fc4616e56f538f7	0.15922335859290346
30	0x3fc3935d369e00ff	0.15293469588142014
31	0x3fc29e61794ab295	0.1454583971257263
32	0x3fc16d5f006290f6	0.1361502410774233
33	0x3fc0092271722dc9	0.1252787641463853
34	0x3fbcbad977b3831d	0.11222609684365321
35	0x3fb97ad2d4bbbdb5	0.09953038877187377
36	0x3fd18edaf14cbcb3	0.2743441921656526
37	0x3fd16cd0930c7bf4	0.2722665248892888
38	0x3fd13e56c6ac6d1e	0.2694298687144555
39	0x3fd100ecc2c57df9	0.26568144817971945
40	0x3fd0b60684c34ff2	0.2611099525940964
41	0x3fd061574614ed8d	0.25594121784134743
42	0x3fd007c81237c3c9	0.25047494677624776
43	0x3fcf5b3d19d454c1	0.24497188340379775
44	0x3fcead9ea845218b	0.2396734544402189
45	0x3fce0b604b6f0171	0.2347221725776865
46	0x3fcd788cb1f73734	0.2302413815472676
47	0x3fccf480491f73c9	0.22621158190204785
48	0x3fcc7dabfc79312d	0.22258519962122972
49	0x3fcc110d9ebe006a	0.21927042246898348
50	0x3fcbabdb3afc280a	0.2161821401608111
51	0x3fcb4b6dc85d9f77	0.21323940547449258
52	0x3fcae97c2db07be9	0.2102503989308098
53	0x3fca84d4205fd774	0.20717860775738084
54	0x3fca171c592199ab	0.20383028366195552
55	0x3fc99dd6beb7c74c	0.2001293593635246
56	0x3fc91987fc746aaa	0.19609165026561942
57	0x3fc88b4e48d4d198	0.19175127559868765
58	0x3fc7f7ccd77a3d6d	0.1872497608314733
59	0x3fc76260eb8035e5	0.18268977641166298
60	0x3fc6ce6bf6511818	0.17817449118791795
61	0x3fc63800f5d3a937	0.1735840988470245
62	0x3fc5a83e3447881c	0.16919686844545445
63	0x3fc50f1f52a3e616	0.16452399764220677
64	0x3fc4614a7f5fc9c9	0.159219085878773
65	0x3fc3a0d0609f368e	0.1533451530253171
66	0x3fc2bedb147251bf	0.146449456199333
67	0x3fc1a109ffd063d7	0.13772702208441842
68	0x3fc06e2cb9ced997	0.12836226532608627
69	0x3fbdc640f342b639	0.11630636157016107
70	0x3fb9c51e3fe36e09	0.10066403445983253
71	0x3fb69ba55381ead2	0.08831246651417793
72	0x3fd18d3f3d6cc789	0.2742460346081477
73	0x3fd16c1e262f9b2d	0.27222398499582107
74	0x3fd13e9508a3fa9d	0.2694447121029187
75	0x3fd102214662bad5	0.26575500367736754
76	0x3fd0b8095f29326c	0.26123270314273017
77	0x3fd0645e5dea688b	0.25612601443720767
78	0x3fd00bc262502777	0.25071773148430715
79	0x3fcf65673e0f91a1	0.24528208284676814
80	0x3fceb8bce62f385f	0.24001275290942467
81	0x3fce15fffdafc9b2	0.23504638564152242
82	0x3fcd80c0862ff4a8	0.23049170066943714
83	0x3fccfa6f60a62594	0.22639267176809297
84	0x3fcc81ac96f589de	0.22270734187175284
85	0x3fcc160a262144f1	0.21942259656729093
86	0x3fcbb447405b2b30	0.2164391578902154
87	0x3fcb58906e7fb4c4	0.213640264467733
88	0x3fcaffda4198e955	0.21093300059312506
89	0x3fcaa5d1bc2d6a1f	0.20818540275907169
90	0x3fca4a0284262e83	0.2053836007365711
91	0x3fc9e9af6ded8a26	0.2024440085179588
92	0x3fc9845f8acda786	0.19935220983034813
93	0x3fc9196f3c72c4ae	0.19608869983270466
94	0x3fc8a9e60f165182	0.1926848958652379
95	0x3fc833625a314280	0.18906812099386983
96	0x3fc7afe5dd62d554	0.18505547819010337
97	0x3fc7146b47b0be79	0.18031064033992886
98	0x3fc666b94df8e662	0.17500988299598236
99	0x3fc598b676e0f91d	0.16872292332295383
100	0x3fc4a63dc2bbcfb7	0.16132328041532926
101	0x3fc385218846d89c	0.1525003352559836
102	0x3fc2565df76649af	0.14326071338707666
103	0x3fc0f51f09705b81	0.13248050652392965
104	0x3fbe2bce84f4c3d6	0.11785593744276865
105	0x3fba4c5a33f1c462	0.10272754448102853
106	0x3fb5b9b1e89fc308	0.08486473016069962
107	0x3fb13d4ef7244b1e	0.06734174283728264
108	0x3fd18ca80c85cdb4	0.27420998785893436
109	0x3fd16b1ea2028a54	0.27216306515962185
110	0x3fd13d045f11d2ad	0.2693491867460505
111	0x3fd0ff3a4c6794f7	0.2655778642786823
112	0x3fd0b2aa3b8b4065	0.2609048444255733
113	0x3fd05b619ed707f5	0.25557747375216816
114	0x3fcffd01e50a6134	0.2499086731302299
115	0x3fcf42cef321b591	0.24422633048690703
116	0x3fce90c849dd9996	0.23879340750427208
117	0x3fcdecfff2377d15	0.23379515959730016
118	0x3fcd5b547091fedb	0.22934966560932576
119	0x3fccdd4b1af11949	0.2255033380080909
120	0x3fcc6f1372474ba1	0.22213976936344884
121	0x3fcc0f3742e85293	0.21921435133903752
122	0x3fcbb619efeab4c0	0.21649479117096426
123	0x3fcb61376a85d1ab	0.21390431119256212
124	0x3fcb0aed742ab8a4	0.21127098247729237
125	0x3fcab068a6165cc4	0.20850856885656388
126	0x3fca4f1dd320af20	0.2055394440552556
127	0x3fc9e25458f4a6a0	0.2022195276597829
128	0x3fc96ddd8912da65	0.19866532509850568
129	0x3fc8f2591d3579eb	0.19489587713447007
130	0x3fc872aa31998827	0.1909992925821495
131	0x3fc7efb57ecb479a	0.1870028370963695
132	0x3fc768d54ff3403b	0.18288675693338682
133	0x3fc6db2d83989ea7	0.1785637753066471
134	0x3fc6476ec519e9fb	0.17405495285113645
135	0x3fc5a39e1bc06444	0.16905571322493718
136	0x3fc4e9b30208f170	0.1633819351135446
137	0x3fc41fa5bb2c4d88	0.15721580161389803
138	0x3fc33cde5baef099	0.15029506184317112
139	0x3fc24bbe50bbeb45	0.14293650571911534
140	0x3fc118771e9e43fc	0.13355912203817855
141	0x3fbf01c8b421e354	0.12112097165835439
142	0x3fbc04e9ada8b0cb	0.10944996347160722
143	0x3fb8b8490c2f802a	0.09656197116373791
144	0x3fd193f8377fb244	0.2746563474636654
145	0x3fd17222243a562f	0.27259114778402965
146	0x3fd1435fae504051	0.2697371675758449
147	0x3fd1056ea03f3b9e	0.265956551066603
148	0x3fd0b99b95b6c392	0.2613285982179657
149	0x3fd063f2861a8239	0.2561003026585556
150	0x3fd00932088ae448	0.2505612452910708
151	0x3fcf5b572a047544	0.24497499038344916
152	0x3fceaaaec4689e62	0.23958382215754442
153	0x3fce05a8273d082a	0.2345476333230761
154	0x3fcd70ddd233dce0	0.23000691188619893
155	0x3fccedbcf001cd7f	0.22600518912404863
156	0x3fcc7b27003c00f4	0.22250831138081362
157	0x3fcc15b26569f94f	0.2194121356187204
158	0x3fcbba01332ef605	0.2166139125746868
159	0x3fcb64fbaacc4f75	0.2140192588782345
160	0x3fcb1273a92df4b0	0.21150060425489903
161	0x3fcabf8399c78e7b	0.2089695454479744
162	0x3fca687e15a47ae3	0.20631385857355786
163	0x3fca0aea0d19b166	0.20345807685533684
164	0x3fc9a61a4fc1bc9c	0.20038155454992512
165	0x3fc93db44fce2d04	0.1971955671000175
166	0x3fc8d1e0f4261ad3	0.19390499039965067
167	0x3fc8622b9a7dddc1	0.19049592059648826
168	0x3fc7edb53d6605ba	0.18694177148794983
169	0x3fc76a78f05d887c	0.18293678032484084
170	0x3fc6d61371a77d13	0.17840807961963687
171	0x3fc626291606864b	0.17303956580603805
172	0x3fc54e0a305c73c3	0.16644408570655686
173	0x3fc453e0bc7a2d0d	0.1588097496317932
174	0x3fc32fc97d8c590f	0.14989584570202694
175	0x3fc1e1ea662dd59e	0.13970689763270355
176	0x3fc05471e1d7ecba	0.12757705237877365
177	0x3fbd1f4ecb51983b	0.11375896896206054
178	0x3fb9850dddc42ac7	0.09968649543967976
179	0x3fb668130dc601fb	0.08752554975763609
180	0x3fd1922f6dc6034e	0.2745474407202452
181	0x3fd171a58d219283	0.27256144316042014
182	0x3fd14484b05f453b	0.26980702613680635
183	0x3fd1082f0bf849f3	0.2661244980710357
184	0x3fd0be11dd2f1d82	0.26160093879703805
185	0x3fd06a143c79b63b	0.2564745512562216
186	0x3fd01118f0c662dd	0.2510435439412911
187	0x3fcf6efcc5482493	0.2455745662012175
188	0x3fcec159b40b8940	0.24027558604491084
189	0x3fce1df89600d8cf	0.2352896435201672
190	0x3fcd8883cdfc8299	0.23072860296180833
191	0x3fcd01ad3b521b9f	0.22661366840858663
192	0x3fcc88e17759a6da	0.22292726829191772
193	0x3fcc1d010b6f3670	0.21963513429948334
194	0x3fcbbbcdbf11980d	0.216668813987042
195	0x3fcb61eb5b1923ab	0.21392576168207475
196	0x3fcb0a2adf1ce332	0.21124778646642423
197	0x3fcab206950c367c	0.20855791356773412
198	0x3fca51ab6888e84e	0.20561735729444525
199	0x3fc9e2fa3308fd97	0.20223929874371713
200	0x3fc9622912783b7f	0.19830811883772623
201	0x3fc8d1f4661760b9	0.1939073084347507
202	0x3fc83b0dc9ed4e2b	0.18930218085971381
203	0x3fc7a32dea21f582	0.1846673386789171
204	0x3fc71bcd5c74b96e	0.18053595556689167
205	0x3fc69f98f6fb030b	0.17674552974315136
206	0x3fc6335a5e3a3715	0.17344216919848834
207	0x3fc5d5e877e5a2bc	0.17059045652719884
208	0x3fc56e949e0df3a3	0.16743715016846492
209	0x3fc4ff3fbe79423c	0.16403958130332963
210	0x3fc48978869ff180	0.16044527600741887
211	0x3fc3ef29a899c027	0.15573616726351355
212	0x3fc338fd9176af90	0.1501767120620312
213	0x3fc21cc21ddfdd91	0.14150263270105914
214	0x3fc018cc69a050d2	0.1257567897561161
215	0x3fbd0a577d00ad9f	0.11343905259916774
216	0x3fd1941bc5f1581c	0.27466482477518794
217	0x3fd1747fe815b896	0.2727355734304039
218	0x3fd148abe89bae97	0.27006051746023146
219	0x3fd10d5eba574456	0.2664410419211597
220	0x3fd0c3e102881a90	0.2619555020068356
221	0x3fd06f729d7b020c	0.2568022287269123
222	0x3fd015281fe697a0	0.2512913047343037
223	0x3fcf72e1765fd3d6	0.24569338111874
224	0x3fcec17f891c1e4e	0.24028009600464134
225	0x3fce1c8cfeb56ecb	0.2352463000960284
226	0x3fcd87ae6d820512	0.2307031664568418
227	0x3fcd04518816da08	0.22669428963645566
228	0x3fcc90a46d663378	0.22316413251646927
229	0x3fcc2b4e47d75687	0.2200715876376089
230	0x3fcbcf7ac48863c1	0.21726927372290386
231	0x3fcb786e804d1dae	0.21461278214176843
232	0x3fcb1f4b0d6f3856	0.21189249187449616
233	0x3fcac019d91d9c1e	0.2089874563345981
234	0x3fca565e1290b08a	0.2057607260370598
235	0x3fc9df15c8f0ee7b	0.202120516887465
236	0x3fc9598b91ecae16	0.19804520249577767
237	0x3fc8c93e8d8df420	0.19364149009553078
238	0x3fc8371b6d04e4b8	0.1891817362136743
239	0x3fc7a34ab30c3ff3	0.18467077009745445
240	0x3fc716dd0ff4b14a	0.18038523940175316
241	0x3fc68ab1902d7b96	0.17610759296345851
242	0x3fc5fc625b03c8ff	0.17176465457993825
243	0x3fc567eec0c1a451	0.16723427211698774
244	0x3fc4be4354010944	0.16205636598358286
245	0x3fc3f69e7d9ef59f	0.1559637177833055
246	0x3fc32ccbf546af12	0.1498045871388674
247	0x3fc22926ab00ac94	0.1418808302854343
248	0x3fc0cac9a016c564	0.131188586395676
249	0x3fbeddd151c70a14	0.12057216879387794
250	0x3fba6da6244bd469	0.10323561082971512
251	0x3fb710df08936526	0.09010118445748513
252	0x3fd18dac6289ce00	0.2742720567977983
253	0x3fd16cacd21af294	0.27225800054638083
254	0x3fd13fc7b5109637	0.26951782877071956
255	0x3fd103fe82d0cb83	0.26586878561936816

Maxvals f8 [11]
0	0x402d09d0d79442cd	14.519171463821658
1	0x402bd7f4ec2b54ed	13.921790485658187
2	0x402b8ac06866d79d	13.77099920516394
3	0x402b64ab2cb86277	13.696618459232225
4	0x402b3782b3af5799	13.608419051317286
5	0x402b266fe13f8d0c	13.575072325713812
6	0x402afe3726a7978d	13.496514518697746
7	0x402ae36e4fe00b7b	13.444200988864159
8	0x402ab8b8823beff3	13.36078268987328
9	0x402a87584b573fd7	13.264345507050093
10	0x402a3b5ce7724b90	13.115943176939055
