Data/SIMBA/Model_snap6.npz (npz, 196330 bytes, 5 tensors)

x f8 [27]
000000 00 00 00 00 00 00 26 40 33 33 33 33 33 33 26 40
       11.0 11.1
000010 66 66 66 66 66 66 26 40 99 99 99 99 99 99 26 40
       11.2 11.299999999999999
000020 cc cc cc cc cc cc 26 40 ff ff ff ff ff ff 26 40
       11.399999999999999 11.499999999999998
000030 32 33 33 33 33 33 27 40 65 66 66 66 66 66 27 40
       11.599999999999998 11.699999999999998
000040 98 99 99 99 99 99 27 40 cb cc cc cc cc cc 27 40
       11.799999999999997 11.899999999999997
000050 fe ff ff ff ff ff 27 40 31 33 33 33 33 33 28 40
       11.999999999999996 12.099999999999996
000060 64 66 66 66 66 66 28 40 97 99 99 99 99 99 28 40
       12.199999999999996 12.299999999999995
000070 ca cc cc cc cc cc 28 40 fd ff ff ff ff ff 28 40
       12.399999999999995 12.499999999999995
000080 30 33 33 33 33 33 29 40 63 66 66 66 66 66 29 40
       12.599999999999994 12.699999999999994
000090 96 99 99 99 99 99 29 40 c9 cc cc cc cc cc 29 40
       12.799999999999994 12.899999999999993
0000a0 fc ff ff ff ff ff 29 40 2f 33 33 33 33 33 2a 40
       12.999999999999993 13.099999999999993
0000b0 62 66 66 66 66 66 2a 40 95 99 99 99 99 99 2a 40
       13.199999999999992 13.299999999999992
0000c0 c8 cc cc cc cc cc 2a 40 fb ff ff ff ff ff 2a 40
       13.399999999999991 13.499999999999991
0000d0 2e 33 33 33 33 33 2b 40
       13.59999999999999

intercept f8 [100, 27]
000000 26 85 59 3f 2d ff e3 3f 4d 20 eb 47 8f 2a e2 3f
       0.6248995053576081 0.5676952747971967
000010 c5 d9 d6 42 89 39 df 3f b4 87 65 3e ed 51 da 3f
       0.487886729500499 0.411250410970861
000020 40 f8 b2 b8 0e 9e d6 3f b3 71 94 1c e1 cb d4 3f
       0.3533970645620492 0.32494380751611657
000030 73 db cf fc d9 20 d5 3f 95 24 95 72 df cf d7 3f
       0.330130097281134 0.37206255140024186
000040 36 37 26 3d ba df dc 3f f6 6d 01 4e a1 26 e2 3f
       0.45115524264916773 0.5672155879541936
000050 5c 92 f6 93 0a fc e6 3f 35 7f 8f 9a d1 86 ec 3f
       0.7182667627244643 0.8914573687324948
000060 82 f5 13 97 cd 32 f1 3f 5c 2b 13 9b 7a 1d f4 3f
       1.0749030972941402 1.257197004090549
000070 bc df e5 dd e7 a6 f6 3f c8 ad c8 8e fc 7f f8 3f
       1.4157484691513522 1.5312467172142181
000080 1a 5f 2c d6 bd 9f f9 3f ae f6 ea 44 66 ee f9 3f
       1.6014994016786148 1.620703000269184
000090 6a 0c cc d2 4c 5c f9 3f ce ba 5b 27 87 13 f8 3f
       1.585034202028306 1.5047675645288794
0000a0 43 11 46 6e 7e de f5 3f fa eb 90 0f b4 89 f2 3f
       1.3668197925154153 1.158618984990197
0000b0 b2 38 5d ad 0a fd ec 3f 24 ad 6b 9f bf 51 e2 3f
       0.9058888803499683 0.5724790681537439
0000c0 84 45 02 23 ae e0 c1 3f ee 8c 54 d5 3d e4 d8 bf
       0.1396691962186588 -0.38893075783762654
0000d0 75 d7 49 c4 b8 41 f0 bf 85 3d 88 27 d9 bd e3 3f
       -1.0160453479306544 0.6169248363602696
0000e0 c4 e1 e6 70 cf fc e1 3f d4 38 2a 89 38 fd de 3f
       0.5621106343378917 0.4842053737164751
0000f0 92 1c e7 23 8b 32 da 3f ca e8 49 98 8a 89 d6 3f
       0.40933493143206434 0.35214486000007794
000100 e2 cf f4 76 2c 97 d4 3f b1 66 c0 d0 69 bd d4 3f
       0.3217269097979153 0.32406087289710245
000110 86 33 a1 07 bc 20 d7 3f ca 7a 8d 41 2d ef db 3f
       0.3613729547985759 0.43647319223047687
000120 f7 21 2b 77 ff 92 e1 3f a8 28 02 c5 68 57 e6 3f
       0.5491940810689461 0.698170075208755
000130 54 b8 a5 79 74 fa eb 3f 02 b1 b2 91 8d 08 f1 3f
       0.8743231178211865 1.0645881358460092
000140 71 d5 81 e2 7b 24 f4 3f c3 5a 85 93 08 d6 f6 3f
       1.2589072082458552 1.427254272702769
000150 58 77 70 34 5b e1 f8 3f f2 80 e3 3f c2 0b fa 3f
       1.555018620339487 1.627870797696286
000160 47 81 42 2e 7a 38 fa 3f c3 fb df ea 1f 68 f9 3f
       1.6387883955977303 1.5879210638811265
000170 f4 4a 0f 7e 44 9f f7 3f 92 27 b5 12 65 67 f5 3f
       1.4763836788376326 1.3377428751723284
000180 a3 7b ce 13 b8 26 f2 3f 98 31 2c df b1 eb ed 3f
       1.134452893609457 0.9350213393059219
000190 14 04 65 85 99 c3 e5 3f 23 be f5 4b 8c 31 d8 3f
       0.6801269154894976 0.37802417200052413
0001a0 40 97 a5 87 f3 cb 8b bf 22 99 bf f8 b7 41 e6 bf
       -0.013572599961388598 -0.6955222948425084
0001b0 95 63 31 22 63 6e e4 3f 14 ff 15 9f 93 a9 e2 3f
       0.6384750049429494 0.5832002741953795
0001c0 41 39 40 5e 59 17 e0 3f ae 68 5e 96 a4 fd da 3f
       0.5028502312505126 0.42173113522006644
0001d0 b5 0b d9 97 86 d4 d6 3f b1 45 5b 70 9d 8c d4 3f
       0.35672154263391614 0.32108245823209375
0001e0 8d 9d 6a b1 52 82 d4 3f a8 1d 8c b8 6f 22 d7 3f
       0.3204542858679467 0.3614768316478725
0001f0 54 3c 02 e6 ba 63 dc 3f 90 46 87 d0 63 13 e2 3f
       0.4435870405367883 0.5648669312306129
000200 dc 2a 5f 11 68 1e e7 3f 1f 22 a4 11 28 d5 ec 3f
       0.7224617327968548 0.9010200829080225
000210 2d 81 de 6f 70 60 f1 3f c6 1f 2d ff 18 40 f4 3f
       1.0860447282685286 1.2656488387892622
000220 90 d9 c6 17 24 bd f6 3f 4e 25 18 57 33 77 f8 3f
       1.4211769989757137 1.5291016962167592
000230 78 58 af ea 5a 47 f9 3f 41 88 93 c8 9e 0f f9 3f
       1.5799206893330204 1.5663135371219286
000240 30 ec 61 cf cc cf f7 3f d9 52 67 14 2b 7a f5 3f
       1.4882324314956001 1.342326240254968
000250 21 4c 8d d8 a7 f3 f1 3f 74 5d 96 45 93 dd e9 3f
       1.1219862422046918 0.8082977637413209
000260 5d df 33 f7 0e 02 de 3f 08 37 fc fe a1 aa b6 3f
       0.46887563839799445 0.0885411498568055
000270 8a 7b 5b 2e 7b c9 d2 bf a2 09 43 a2 07 5a e3 bf
       -0.2935474350651296 -0.6047399682213845
000280 f6 87 f8 60 6d 51 ed bf 42 3c ac 9c 6f 11 e4 3f
       -0.9161898511849802 0.6271284160628812
000290 aa fc a8 b1 11 56 e2 3f c4 d5 92 22 38 ad df 3f
       0.5730064840244229 0.4949474656708299
0002a0 e2 e7 0c f8 b4 df da 3f 5d ec 1a b6 e9 2a d7 3f
       0.4199039862029378 0.3619941976900856
0002b0 1c f9 fe db 21 6b d5 3f b2 48 52 2d bf 04 d6 3f
       0.33466383441909087 0.3440397207824716
0002c0 c7 08 24 ee 05 15 d9 3f e0 6f 38 84 b2 98 de 3f
       0.39190815216001024 0.4780699053969766
0002d0 49 41 38 e2 8d 36 e3 3f 69 f0 8f b1 35 1e e8 3f
       0.6004094522814195 0.753687712479871
0002e0 fe dd 92 7c 74 b4 ed 3f 64 54 fb fc ee c5 f1 3f
       0.9282782013969493 1.1108236200427877
0002f0 92 ff 68 42 c3 b7 f4 3f cf b5 2b 95 f1 3d f7 3f
       1.2948639482637856 1.4526229693395754
000300 ae 26 76 61 84 fb f8 3f 22 96 0a 4a 56 c3 f9 3f
       1.5614055449572493 1.6101897136917462
000310 89 15 6a dd a2 8c f9 3f 33 e3 41 dc 91 1f f8 3f
       1.596835007572141 1.5077074626735338
000320 03 5a 62 51 13 5c f5 3f a8 f8 e2 7a 81 98 f1 3f
       1.3349793604917302 1.0997328567751001
000330 00 dd 28 5a 9f 8f e9 3f 3e fb 47 2d dd 00 de 3f
       0.7987820397310372 0.46880273267736416
000340 f0 07 27 6e a1 94 bf 3f 14 86 e5 48 cc 04 ce bf
       0.12336167277592813 -0.2345214229526823
000350 3a 3d ff c9 73 10 e5 bf c3 e4 f4 77 d8 e6 f2 bf
       -0.6582583375219777 -1.1813587842755602
000360 0b 49 99 93 76 f0 e3 3f 41 67 81 fa 26 fd e1 3f
       0.6231034167088024 0.5621523754773322
000370 23 c9 b2 5c ad b4 de 3f 0e 8e 5a 75 7a da d9 3f
       0.47977766087128 0.40395986042332843
000380 16 d2 55 03 a3 5c d6 3f 9f 98 d3 d7 66 de d4 3f
       0.349404099709575 0.3260743243867043
000390 7a 1c fe 23 8c 81 d5 3f 45 8a be 79 3e 3a d8 3f
       0.3360319472780656 0.3785549343976167
0003a0 62 26 3a 1a c3 0a dd 3f c4 7c 9c 99 aa e0 e1 3f
       0.45378186761135997 0.5586750984401978
0003b0 6a 33 2a e7 b2 1a e6 3f c3 a7 1f dc b5 b6 ea 3f
       0.6907591357172411 0.8348035144128904
0003c0 98 1d 14 8c 59 5f ef 3f 56 4f e6 ec f7 d3 f1 3f
       0.9803893791112612 1.114250111951113
0003d0 b6 d5 f0 13 22 8b f3 3f ff 29 c0 fe 08 b1 f4 3f
       1.2214680460868812 1.293221469039622
0003e0 0b 3c ce 12 2d 41 f5 3f 7b 00 e4 66 c8 63 f5 3f
       1.3284121260255712 1.3368610400357557
0003f0 d7 92 08 08 88 35 f5 3f 32 30 2c 88 74 be f4 3f
       1.3255691827591158 1.2964978522532076
000400 8e 9b 43 71 f0 63 f4 3f 77 45 75 dd 90 7d f3 3f
       1.2743992256525618 1.2181557322222412
000410 88 9d ca a7 25 0d f2 3f 68 aa 42 e9 35 26 ee 3f
       1.1282097391466284 0.942164378725761
000420 9f 6a 76 20 37 95 e6 3f d4 f9 44 e9 82 04 d8 3f
       0.7057147630724393 0.3752753522893759
000430 80 f4 5e 21 e5 a8 c0 bf d2 e7 77 5c 1e c5 e3 3f
       -0.1301542675918519 0.6178123289130275
000440 a9 cf fe 77 bc ff e1 3f de 41 ce 30 12 00 df 3f
       0.5624677985820102 0.4843793369882671
000450 d4 b4 d4 22 89 fd d9 3f 43 56 0f 07 45 14 d6 3f
       0.4060995903153757 0.34498716058201156
000460 97 dc da 08 1b ff d3 3f 90 cc 13 50 e2 15 d4 3f
       0.3124454103921805 0.3138356954579615
000470 a6 60 51 c0 c3 6b d6 3f c1 d1 32 8f 1d 14 db 3f
       0.35032743245165887 0.42310275062780184
000480 3a 60 a7 4c 80 0f e1 3f 96 f1 ec 14 a1 c7 e5 3f
       0.5331422326226012 0.680618801946866
000490 fc e6 ac 05 c6 77 eb 3f d6 69 fe 9b ec ef f0 3f
       0.8583707915160796 1.0585752576358707
0004a0 10 75 fe 5c 7c 3f f4 3f 4a 61 cb 16 bc 6e f7 3f
       1.2654994614197825 1.46453484443744
0004b0 0c 04 ed f0 b7 0a fa 3f 80 77 5d b2 37 1d fc 3f
       1.627616826168608 1.7571331946741964
0004c0 5a 60 52 29 22 85 fd 3f a1 6d ae fc b6 3b fe 3f
       1.845003281987394 1.889578806912006
0004d0 2d a7 4e d1 b0 32 fe 3f 64 c8 e0 9c 24 fb fc 3f
       1.887375657659912 1.811314213566697
0004e0 10 b6 7d ad 5a 9d f9 3f 8e 65 24 ab 4c f7 f4 3f
       1.6009165551180367 1.3103758511773296
0004f0 64 a7 e1 a1 5c e0 ec 3f 45 42 fe 60 3b 43 d9 3f
       0.9023879205462717 0.3947285124968725
000500 bc 22 b5 e4 1f c7 c3 bf e6 db 05 63 17 61 e7 bf
       -0.15451430003510847 -0.7306019720116381
000510 13 9c 15 e5 12 15 e4 3f 47 df 4c 87 e5 34 e2 3f
       0.6275724863343178 0.5689571039756424
000520 84 4e cd 0a 54 2e df 3f d0 3e 68 0d ac 3d da 3f
       0.4872026544082717 0.41001416501329135
000530 65 93 f6 1b ac 85 d6 3f 7a 70 b2 78 d1 b3 d4 3f
       0.35190870981960237 0.3234752348596498
000540 fe 20 f7 57 90 f5 d4 3f e1 7e fe 51 c9 78 d7 3f
       0.32748802748075423 0.36674721724737763
000550 88 e0 bc ce fb 55 dc 3f 89 42 09 30 8c be e1 3f
       0.44274802388418566 0.5545102060514903
000560 37 50 c7 c6 eb 97 e6 3f b3 b7 62 af 8c 41 ec 3f
       0.7060450441736127 0.8830016541958144
000570 0e 0b 7d e4 26 34 f1 3f fc ac 0d d0 94 3c f4 3f
       1.0752324033098293 1.2647903563582181
000580 b8 b8 60 1d 20 e4 f6 3f 27 e1 d3 ac a2 ab f8 3f
       1.4306946895190276 1.5419031859474417
000590 56 91 22 db 70 a8 f9 3f aa af c4 fa c5 e5 f9 3f
       1.6036232528650394 1.6185970111500674
0005a0 0c 78 b5 89 29 30 f9 3f 8c d8 0e f6 9a 6a f8 3f
       1.574258363652464 1.526026688732176
0005b0 f2 37 72 72 6e fe f6 3f b2 f7 41 e3 5c 04 f5 3f
       1.4371170492699972 1.3135651471379615
0005c0 e5 9f d2 83 49 91 f2 3f 02 83 db bb 42 66 ef 3f
       1.160470499928118 0.9812329930392425
0005d0 2f 60 7c bb 82 08 e6 3f 7e e8 a5 85 74 bc ce 3f
       0.6885389005501618 0.2401261951998243
0005e0 50 4f 3e a4 7e fb cd bf 64 41 5a 96 30 c8 e3 3f
       -0.2342375089616504 0.6181872307370608
0005f0 a9 13 f0 d0 bd f8 e1 3f d2 28 5f d0 37 05 df 3f
       0.56161394889988 0.4846934828643842
000600 1c f0 48 d8 f9 4b da 3f 6a fb 5e 8b 58 ae d6 3f
       0.41088720437596904 0.3543912278218416
000610 3f 95 d3 12 3c d2 d4 3f 93 c0 ce b7 35 1e d5 3f
       0.3253317054607869 0.3299688620563838
000620 c8 d4 c7 0e 7d af d7 3f f8 87 33 ea a4 ac dc 3f
       0.3700859684316353 0.44803736563892427
000630 c0 5f 75 26 73 29 e2 3f bb dd 67 9c 0b 38 e7 3f
       0.5675597907202174 0.7255914740371091
000640 24 88 63 76 a2 0b ed 3f 96 a4 02 7c 33 8d f1 3f
       0.9076702415734457 1.0969729274895932
000650 02 db da 86 e9 78 f4 3f 32 4a 78 b7 19 c3 f6 3f
       1.2795195834893893 1.4226319472114821
000660 9c 90 0a 6a 20 32 f8 3f 4a db 9c 57 9d bb f8 3f
       1.5122379438626359 1.5458043501254957
000670 86 1e 08 54 04 53 f8 3f ac 73 e7 24 6f 45 f7 3f
       1.520267799614801 1.4544516984526394
000680 0a e6 f4 6b 06 cd f5 3f 57 3c 3c 2b ec dd f3 3f
       1.362554952340704 1.2416803063276995
000690 64 98 75 68 71 52 f1 3f 78 39 89 94 14 66 ee 3f
       1.0826276855891814 0.9499609852880857
0006a0 a2 84 36 2c 82 65 e7 3f c5 aa 74 49 32 4c d8 3f
       0.7311411727461243 0.37965066121493535
0006b0 b8 87 03 9c 4d 78 b9 bf e8 bf 49 af 96 4b eb bf
       -0.09949193056993877 -0.8529771255107308
0006c0 0f ab a2 14 ce cf e3 3f 7c 6b 2d 4c db 18 e2 3f
       0.6191168215785597 0.5655342567291508
0006d0 3e 68 0f 27 fc 5d df 3f 64 b2 15 be 8d ea da 3f
       0.49011138739081506 0.42056602061237514
0006e0 d9 4f c5 60 34 b4 d7 3f a9 44 d5 0d 6c 4c d6 3f
       0.370373816015897 0.34841443396460164
0006f0 20 ac 36 4b 81 e9 d6 3f cd 11 b0 53 0c ad d9 3f
       0.3580020174510441 0.40118702099451015
000700 a2 e5 11 d2 7d a0 de 3f 59 4f fc cf ea ef e2 3f
       0.4785456229652373 0.5917867719858619
000710 57 4d 3c 3d f0 a2 e7 3f dd fd 21 e4 86 1e ed 3f
       0.7386399456030784 0.9099764304846151
000720 34 a0 5f d1 68 7a f1 3f d6 0a b8 a0 04 6b f4 3f
       1.092385118356117 1.2761274602968817
000730 d2 0f 5d c8 0c 10 f7 3f 82 55 6e 31 e8 28 f9 3f
       1.441418440504084 1.572487061586202
000740 8c 00 ed b2 1b ae fa 3f 90 2b a9 5e 2b 6e fb 3f
       1.667506884507051 1.7143968293846434
000750 c2 cc 04 0e 9c fc fa 3f 3d 81 81 84 6e 1c f9 3f
       1.6866722629172703 1.5694413352976675
000760 fb 9e 90 06 4e a9 f5 3f 08 fc a4 ce a5 4b f0 3f
       1.3538341766779343 1.018468672947849
000770 9d 3d b3 a2 ca dc e1 3f f0 f3 49 ec fd 5b a9 bf
       0.5582020929086188 -0.049529967397553665
000780 75 3f 10 e9 ea 94 e9 bf b2 cd aa 93 1e a3 fb bf
       -0.7994284202595582 -1.727324082207684
000790 38 13 9b a6 08 92 05 c0 c3 67 10 de 78 3b e4 3f
       -2.6963055625987202 0.6322597825230719
0007a0 8c 2d 82 2b 32 6d e2 3f 3a 88 b9 31 8c a3 df 3f
       0.5758295869613206 0.49435715537959235
0007b0 18 89 8d 21 2b 85 da 3f 85 2d 38 0b 70 7f d6 3f
       0.41437795902869956 0.3515281781735314
0007c0 a4 4d c8 90 66 40 d4 3f d5 d4 a0 ad 46 18 d4 3f
       0.3164307035342182 0.31398169475444365
0007d0 78 b3 45 eb a5 30 d6 3f ff b4 28 70 0d 8e da 3f
       0.34671924567992773 0.41492019608524794
0007e0 08 05 3e e7 e2 90 e0 3f 34 ff 9e 46 1b 0e e5 3f
       0.5176863209200357 0.6579719905202865
0007f0 ae 33 cd 2a 75 90 ea 3f 34 94 a1 5e 0e 7c f0 3f
       0.8301339946716462 1.0302871414690005

slopes f8 [100, 27, 7]
000000 54 f4 34 03 19 d6 89 3f 6c 6c 20 1e e3 84 b8 3f
       0.012615390215268509 0.09577769742502235
000010 2e 97 db 50 94 9f eb 3f ce f4 2f 9c e6 32 a8 bf
       0.8632299021962575 -0.04726334244330986
000020 00 01 e8 8a aa 34 36 3f df 02 5d e3 46 1c 96 bf
       0.00033883250844725377 -0.0215922428390084
000030 28 0a ec 2f 50 de 71 bf 6e 7e 27 87 31 5b 93 3f
       -0.004362405043823382 0.018902562975084462
000040 c0 c3 fb ab bc dd be 3f a6 ce 37 6a 64 97 eb 3f
       0.12057093809904895 0.8622304987497571
000050 e4 93 bc e7 8d e4 a8 bf 80 d4 c7 c9 cd 83 37 3f
       -0.048618731058276216 0.0003588082707033993
000060 c4 9f 36 01 5e 75 a0 bf be 39 c2 fe 7b 46 74 bf
       -0.03214544071971617 -0.004950031620082061
000070 4a 2b 5d c4 57 a9 9b 3f 34 b2 ab 71 ce 1e c2 3f
       0.02701317916880023 0.14156513738943632
000080 f8 5a 70 6a 15 82 eb 3f 80 fa 0b 6f ab e5 a8 bf
       0.8596293524632008 -0.04862724047233247
000090 00 f6 2a 77 79 35 30 3f 30 4d 1c 08 e6 26 a7 bf
       0.00024732795206347524 -0.04521864747052928
0000a0 74 51 d1 f3 62 12 76 bf ce 13 65 01 91 b8 a1 3f
       -0.005388628514158323 0.0346112550928762
0000b0 7c f8 7f b4 e5 68 c4 3f 7e 15 34 7e 3d 59 eb 3f
       0.1594512111041161 0.8546435799513998
0000c0 cc 92 30 01 99 3c a8 bf 00 4c 97 d1 71 03 13 3f
       -0.047337323565704276 7.253057665161655e-05
0000d0 2e b6 52 da c5 ea ae bf fd 3b f4 23 7e 91 77 bf
       -0.06038492479397593 -0.00575398706065666
0000e0 fe 03 d8 58 d8 a3 a4 3f 14 e6 52 39 c5 53 c6 3f
       0.04031253895301033 0.17443146990790181
0000f0 dc 8a 10 90 e5 14 eb 3f b0 7e eb e1 55 fa a6 bf
       0.846300870300492 -0.044878658130753535
000100 00 ec 9a 97 00 ff 23 bf 62 13 7a bb 51 b3 b3 bf
       -0.00015255815724465882 -0.07695494486877189
000110 2a fa 20 e5 f5 98 78 bf 21 e5 3c 26 b3 20 a6 3f
       -0.0060052495264799974 0.04321822969218148
000120 40 83 28 f8 4d ea c7 3f c4 cb 34 78 dc ab ea 3f
       0.18683790795423683 0.8334791515138638
000130 d0 fe 48 47 29 36 a5 bf 80 a0 83 fe f4 33 37 bf
       -0.04142884249858769 -0.0003540490274773836
000140 a6 41 19 4c 24 0f b8 bf dc 37 2f c7 c3 64 79 bf
       -0.09398104532124893 -0.0061996123867639995
000150 93 78 fc d6 ab 04 a6 3f 9c 96 cd f6 97 30 c9 3f
       0.04300438880294268 0.19679545927936182
000160 a4 2c 96 d4 3e 15 ea 3f 5c 4b 6a a6 91 0d a3 bf
       0.8150934364397426 -0.03721289783893297
000170 a0 66 d9 e2 06 ba 42 bf 08 7e aa 1f 22 48 bc bf
       -0.0005714925407105005 -0.11047566674323417
000180 58 50 fd 3e 99 51 7a bf e0 9b 4c 8f 4f 34 a4 3f
       -0.00642547475566254 0.03946159958132234
000190 b8 c8 5e f6 c4 2c ca 3f d5 1f 7d ac a5 4e e9 3f
       0.20449125318333983 0.7908504837914686
0001a0 5c 81 4a 42 cb 77 a0 bf a0 71 a5 63 7f 61 4b bf
       -0.032163955537955785 -0.0008355972307004141
0001b0 24 b1 d1 9e c2 07 c0 bf 7c b8 ac 49 e8 5d 7b bf
       -0.1252368236049587 -0.006681353925882868
0001c0 3c aa 51 27 8d b3 a0 3f c4 4d a8 94 2d e8 ca 3f
       0.0326198683258849 0.21021051176704308
0001d0 12 28 6e bc 99 56 e8 3f 50 fd 5b a8 40 27 9b bf
       0.7605713539389873 -0.026516924167478806
0001e0 80 45 51 22 c3 69 55 bf 85 84 13 c5 f0 96 c1 bf
       -0.0013069539648039308 -0.1374188387190182
0001f0 32 f6 66 30 8b 06 7d bf e4 f8 85 8f 8a 19 97 3f
       -0.00708631869059455 0.022558369646042645
000200 5c 32 71 b9 66 68 cb 3f 92 65 a3 c1 81 2e e7 3f
       0.21412357382577596 0.7244271070477899
000210 24 e9 32 8f 7f bb 94 bf c4 51 a2 b3 43 c0 60 bf
       -0.02024649917141476 -0.002044803838609806
000220 8e 7a 91 f7 54 ba c2 bf ac ca 1c c6 a4 0d 80 bf
       -0.1463113983945345 -0.007838523193276124
000230 6c da 36 bc 95 7f 83 3f ea 4f 51 57 69 ba cb 3f
       0.009520692640632343 0.2166263271670908
000240 d8 d4 36 56 ed e0 e5 3f d8 75 e7 99 4c 7c 8b bf
       0.6837069209929281 -0.013420675703794169
000250 cc c8 88 fd d7 a4 6a bf 2e a4 20 d7 19 61 c3 bf
       -0.003252431732357319 -0.15140078548691477
000260 70 f2 07 d6 0a 30 83 bf e3 83 51 26 96 f1 75 bf
       -0.009368977219304159 -0.005357347986405056
000270 e2 6c dc cc cd e2 cb 3f 91 a4 49 a8 8f 6f e4 3f
       0.21785900595646185 0.6386183058613303
000280 20 e6 4d 13 3e aa 78 bf c4 f9 84 0c e2 24 74 bf
       -0.006021730882701998 -0.0049179868731798505
000290 86 5c c8 43 1e 84 c3 bf 74 7a df 6c a6 94 88 bf
       -0.15246942815494807 -0.012002277562655574
0002a0 5e 02 00 a3 b5 8a 95 bf 64 a8 4a c2 ef e7 cb 3f
       -0.021036947320683168 0.21801564204116908
0002b0 51 e5 77 df 80 e4 e2 3f 80 60 e5 f0 a2 f4 5d 3f
       0.5903934826484748 0.0018283454151824252
0002c0 60 a8 b5 2c c5 fb 7c bf 2b 75 99 d2 ec 33 c3 bf
       -0.007076044286217081 -0.15002212794471723
0002d0 22 78 de 32 fb 65 90 bf cf 13 36 56 83 b7 a2 bf
       -0.016014027576254482 -0.03655634333976076
0002e0 c2 44 d4 67 9f bf cb 3f fe db 87 6c 7a 47 e1 3f
       0.21678536004814047 0.5399753684749837
0002f0 b0 e4 08 cb 08 9e 84 3f f6 4e b8 b5 5b c3 83 bf
       0.010067051597717785 -0.009649960024979514
000300 0b f8 8a 3a 32 59 c2 bf c4 9d f2 6c a9 d9 95 bf
       -0.1433470521787402 -0.021338126444474317
000310 cb 28 e7 53 a4 9c a9 bf ae e8 ec 50 5f 7e cb 3f
       -0.050023207895337395 0.2147940774100951
000320 f2 16 4b 41 5b 45 df 3f a0 b8 91 3f db f5 92 3f
       0.4886081826810901 0.018515992884595378
000330 d7 e1 6e be 15 7b 89 bf 9c ea aa 92 1c 10 c1 bf
       -0.012441797136362105 -0.13330418740755057
000340 80 54 9e ee a1 a4 9c bf f3 e4 09 a4 75 b0 ae bf
       -0.0279717733279381 -0.05994002940583156
000350 a8 6d de 31 1a eb ca 3f a0 ee de a2 23 f8 db 3f
       0.2102997535229012 0.437020215085548
000360 d8 7d 7d fe fb bc 9b 3f f8 35 9d ce d1 c0 8e bf
       0.02708810559067651 -0.015016211622106632
000370 31 c3 3b af 0b be be bf 74 74 14 ef 88 2f a2 bf
       -0.12008736637268382 -0.0355189124913772
000380 4c cc ce 0a a7 f1 b0 bf 34 32 60 f0 3c fc c9 3f
       -0.06618732465612814 0.2030101941785617
000390 32 e7 f0 07 b6 9b d8 3f 70 3e 87 f4 0e 17 a2 3f
       0.3845038487958049 0.03533217177357251
0003a0 84 c7 63 11 ba c5 91 bf 73 df b3 89 fd 8a ba bf
       -0.017355830489527616 -0.10368332492714476
0003b0 2e e7 48 d2 c7 3b a6 bf 82 80 08 06 c2 80 b1 bf
       -0.04342483941986895 -0.0683709397058028
0003c0 84 72 87 3a b1 90 c8 3f 9a 90 7b 4f e6 52 d5 3f
       0.1919156585489824 0.33318479310970306
0003d0 30 ca 00 a4 58 ec a5 3f f8 7a 51 35 90 07 94 bf
       0.042818803806217054 -0.019560101751603803
0003e0 c4 be 94 9a 6a a9 b5 bf a4 a4 8e 7f 79 52 aa bf
       -0.08461633943511077 -0.05141048128218387
0003f0 ac ce 40 89 47 f4 b0 bf 9c 81 e7 92 a7 be c6 3f
       -0.06622740841776914 0.1776933162027604
000400 b0 e9 df 71 b3 01 d2 3f 5e 88 b1 fe 75 08 a9 3f
       0.2813538181359503 0.04889267667819362
000410 f8 cb 54 61 62 4a 96 bf 16 2c c3 73 fb 49 b0 bf
       -0.021768128576876905 -0.06362887932043323
000420 0f 54 c4 e4 9e ab ad bf 62 a6 02 4d 23 04 af bf
       -0.05794998686375418 -0.0605784446245934
000430 71 dd 96 a6 52 b2 c4 3f f8 c0 e7 43 31 86 cd 3f
       0.1616919816421887 0.23065772834480192
000440 26 6f aa 7a 5f 46 ab 3f 78 af d3 ee 3d 03 99 bf
       0.05327127811798808 -0.02442642946418469
000450 ea bf e2 82 30 b7 a5 bf ba 98 c9 21 f1 37 b0 bf
       -0.042413249947799006 -0.06335360598459064
000460 46 4b 83 23 42 bc a9 bf 58 9d df e6 2b 0b c3 3f
       -0.05026442225939447 0.1487784268676744
000470 44 fa de ad c1 dc c7 3f c6 7c 1f 18 a7 a3 ac 3f
       0.1864244555453799 0.05593607110471903
000480 50 29 b1 be 86 be 9d bf 6a cf 28 83 18 1a 95 bf
       -0.029047112835806133 -0.02060735989125765
000490 b4 76 54 22 76 9c b1 bf c5 79 f5 f7 be af a1 bf
       -0.06879366243489465 -0.03454396035043631
0004a0 f0 48 37 ee 27 43 c1 3f 3f 02 cf cc 5e 64 c1 3f
       0.13486193782461653 0.13587555885716715
0004b0 14 f9 77 c1 9c 7e ad 3f 40 cd d7 78 69 68 a2 bf
       0.05760660039594448 -0.035952850343074605
0004c0 a0 df 54 8d 9e 9e 55 3f 8c 2a 19 5e ea 3d b3 bf
       0.0013195560798759734 -0.07516350552865897
0004d0 b2 79 e8 05 c5 4e 8f bf 29 2c 99 cc c9 79 bf 3f
       -0.015286959879685511 0.12295209164692324
0004e0 9c 8c f7 10 b9 4e bb 3f 20 e6 be e7 ae 53 ae 3f
       0.10666996635659348 0.05923220232893933
0004f0 2d 66 80 65 f1 68 a7 bf 0e cd ba cc a6 37 95 3f
       -0.0457225262072821 0.02072010635920401
000500 df 6f 19 d8 f8 be b5 bf f5 3d ec dc ec d2 84 3f
       -0.08494525218833314 0.010167932979611808
000510 cd 7e f9 a1 ab ca bc 3f c4 ff f9 e8 3f ee b5 3f
       0.11246750549752989 0.08566665113357802
000520 e0 49 29 10 b1 7d af 3f 06 e4 0b b6 13 f0 ad bf
       0.06150582620888989 -0.05847226712462121
000530 e0 e6 71 9d f7 9b a2 3f 38 57 42 19 a3 24 ba bf
       0.036346185654975605 -0.102121537844451
000540 a3 31 7f 55 cd f2 a5 3f ec 2d 15 fa 56 d1 b7 3f
       0.04286805790579542 0.09303802114043663
000550 45 7d 81 2e f0 89 b3 3f d6 51 97 df 15 0a b1 3f
       0.07632352004428807 0.06656014164702326
000560 52 b6 47 84 44 20 b3 bf f6 1b 62 73 89 06 aa 3f
       -0.07471111516471154 0.05083112271773153
000570 d9 23 52 07 51 5f c0 bf fb d0 a9 ac b9 44 b5 3f
       -0.12790882928336947 0.08307991471685121
000580 70 f3 b3 84 c4 67 b5 3f 23 4a d1 c4 72 99 b9 3f
       0.08361461868112285 0.09999768548122083
000590 ec 7b 4b a7 0b 05 b2 3f 68 21 47 ec 2e b1 b7 bf
       0.07038948854777488 -0.09254735249044688
0005a0 04 5c 4b 2a 3d 54 b0 3f 18 60 78 82 d7 29 c4 bf
       0.06378538401200734 -0.15752691145530728
0005b0 bd a2 53 e5 f1 b2 c0 3f c4 08 61 e9 81 6c b1 3f
       0.13046096513359898 0.06806194255571812
0005c0 ba 3c b1 8a ba bb c4 3f 2e d7 a7 27 2c 46 b3 3f
       0.1619790246208817 0.0752894970717903
0005d0 96 03 2b f0 11 f4 bc bf 85 7f f2 aa 8b 23 b3 3f
       -0.11309921372868667 0.07476113246457146
0005e0 f9 68 eb 2f 04 86 c9 bf 9b 84 42 1a dd 77 8b 3f
       -0.1994023546201971 0.01341221557987842
0005f0 98 e1 4c 86 0b 70 b8 3f 09 08 1d 1d f0 cd eb 3f
       0.09545967129532185 0.8688889092084092
000600 dc bb ab 0e 30 fd a8 bf 00 30 b2 a2 f4 d1 56 bf
       -0.04880666903579087 -0.0013928307551251962
000610 ca 9f bf 4e d8 39 97 bf ac 1a 43 49 c4 fd 75 bf
       -0.02268159847872634 -0.005368963950053523
000620 90 62 a9 34 64 e7 93 3f 30 14 0d 4b 61 8e be 3f
       0.01943737574979082 0.11936004717161164
000630 e9 f5 01 e4 c3 c0 eb 3f 3f 8e 6c d3 8c cf a9 bf
       0.8672809079432088 -0.05041160660610133
000640 c0 a2 c3 9e 82 65 5b bf 4d 0e 0f 60 d2 0c a1 bf
       -0.0016721511447547605 -0.033300947404793925
000650 ec 47 7e 69 af df 78 bf f1 48 60 6d 29 fc 9b 3f
       -0.006072697833490164 0.027329108525074145
000660 18 02 63 aa 01 d7 c1 3f b3 00 56 34 8b a6 eb 3f
       0.13937397784867822 0.8640800497232902
000670 4c 62 f9 16 70 f6 a9 bf e0 b1 23 fe 74 11 61 bf
       -0.0507082965893387 -0.002083519460134506
000680 23 60 02 7b ad da a7 bf 00 c0 8f 9d 02 7c 7a bf
       -0.046590253129750424 -0.006465921608636904
000690 b8 25 b5 d5 aa c5 a1 3f 64 ac 27 25 12 f5 c3 3f
       0.03471120699630198 0.15591646970947004
0006a0 68 8a dc 73 ae 7a eb 3f 44 37 b5 96 21 6a a9 bf
       0.8587257635993639 -0.04963784184165701
0006b0 e0 5a c0 17 ae 8c 64 bf b8 77 4d 0a 6c b5 af bf
       -0.002508487725218486 -0.06193101526035555
0006c0 0c a2 d6 d9 5b f5 7b bf 3e 7b 42 fe cf a0 a4 3f
       -0.006825789253902769 0.040289401805458244
0006d0 50 6c 2a c5 9f ab c5 3f 4e 16 da 61 ff 34 eb 3f
       0.16930005194885434 0.850219431988714
0006e0 18 99 a6 93 cc 35 a8 bf 00 9e 11 9c 2c e1 67 bf
       -0.04728545477273566 -0.0029149886400323677
0006f0 62 0f 8d 97 cb 27 b4 bf 74 4b f1 e1 81 28 7d bf
       -0.0787322278020475 -0.007118708948001696
000700 78 12 77 e9 6c 2a a6 3f a4 1d 27 fb 31 01 c7 3f
       0.0432924304000481 0.1797239757854473
000710 7e c2 88 11 f2 cc ea 3f 30 91 ac 5a 6f 64 a6 bf
       0.8375177710023107 -0.04373500806676345
000720 c8 94 7d 2b 6e 7f 6a bf b6 db c2 76 a2 8d b8 bf
       -0.0032345916514936214 -0.0959111728615046
000730 90 75 d2 f4 e1 5c 7e bf 54 06 78 8d ac 24 a6 3f
       -0.007412798540057067 0.043248550671716984
000740 b0 af e5 3d 80 fe c7 3f 68 e2 8b 44 a8 3c ea 3f
       0.18745425245594793 0.8199044550702412
000750 18 86 be 4b 4e 19 a4 bf 60 66 76 1b cc 0b 6d bf
       -0.03925556826221682 -0.0035456644506666607
000760 1f 64 25 54 ff b9 bc bf 64 ab a3 e3 08 25 80 bf
       -0.1122130947527613 -0.007883138129235419
000770 54 c6 80 98 24 80 a4 3f 44 9c 01 b4 61 b8 c8 3f
       0.04004015313729484 0.19312688149804746
000780 d6 75 f2 ab 9e 81 e9 3f 22 4f a2 c9 1a 60 a1 bf
       0.7970727308599475 -0.033936345208671406
000790 40 57 9a 7f 1c 08 70 bf 12 ed f3 ae f4 2c c0 bf
       -0.003913985559526101 -0.1263719419729133
0007a0 a6 13 ee 66 76 04 81 bf 55 ae 58 6b 48 26 a1 3f
       -0.008309292808698587 0.03349520025616629
0007b0 bc 77 b1 11 28 3d c9 3f a1 28 ef 8f 26 9b e8 3f
       0.1971788488762608 0.7689392863478767
0007c0 93 f6 d0 fe 47 d5 9c bf 50 4b 63 aa f3 6a 72 bf
       -0.028157353332281487 -0.004496528452551399
0007d0 2c 2e 20 5a 29 99 c1 bf 8a 06 be 1c cc 39 82 bf
       -0.13748661900204817 -0.00889930212702274
0007e0 5e 99 44 a4 38 46 98 3f 68 8b da 89 ba 9e c9 3f
       0.023705372835274623 0.20015651446473304
0007f0 cf 94 a0 69 6c 8b e7 3f 04 22 db 0e 95 90 96 bf
       0.7357694685967092 -0.022035912544000183

scatter f8 [100, 27]
000000 bc 74 4a 77 d1 e8 cd 3f a3 e1 30 f4 c7 a5 cd 3f
       0.23366754841564397 0.23162173674951445
000010 66 7a 13 f5 a4 58 cd 3f a9 64 92 9a ec 01 cd 3f
       0.2292677113209322 0.22662122294858492
000020 07 0f d9 24 de a3 cc 3f c6 49 65 37 1b 42 cc 3f
       0.2237508468552891 0.2207674046026808
000030 58 3f 53 c0 69 e1 cb 3f c4 5f b2 73 00 86 cb 3f
       0.2178165616119212 0.2150269093442586
000040 0e 9c 29 76 e3 33 cb 3f 57 91 b8 bc 7c ee ca 3f
       0.21252101201682233 0.21040305342570306
000050 6a 0e 57 99 8c b7 ca 3f 8b d7 8d 0e d5 8e ca 3f
       0.20872647750194356 0.20748389444969137
000060 f4 4c 4a 67 c2 72 ca 3f 00 e9 db f9 11 62 ca 3f
       0.20662717860668744 0.20611786556384715
000070 28 d8 4a ff 43 5b ca 3f ac 94 f8 47 95 5a ca 3f
       0.20591020551154426 0.20588937772951021
000080 dd a3 1a 24 30 5d ca 3f 69 b8 94 8b 9d 61 ca 3f
       0.20596887362378782 0.20610398593402415
000090 f2 92 2c c6 76 65 ca 3f 6f ae e6 87 8c 69 ca 3f
       0.20622143436880652 0.20634609828754288
0000a0 90 4f 4f 1b c9 6a ca 3f 13 c8 ee 22 81 63 ca 3f
       0.20638383706556995 0.2061616344995519
0000b0 87 33 4c b8 08 57 ca 3f a7 29 44 4d 78 3e ca 3f
       0.2057810687914776 0.20503143093840245
0000c0 e7 8d fb 27 28 0d ca 3f 72 6c f7 5f a4 b6 c9 3f
       0.20352651550557185 0.20088629423011956
0000d0 6c 4d 76 2e d6 49 c9 3f 31 72 aa a7 f9 f4 cd 3f
       0.19756581562669895 0.2340385502510727
0000e0 b2 ec 50 c0 a6 b2 cd 3f b7 84 13 7c e3 65 cd 3f
       0.23201450720248357 0.22967189367685645
0000f0 8f 65 f1 1c 38 0f cd 3f ae 12 da ff 68 b0 cc 3f
       0.22702695286970395 0.22413361065641396
000100 da f3 4d bc bf 4c cc 3f ab 79 bb 9c e4 e8 cb 3f
       0.22109219259792107 0.21804483082719392
000110 7e 54 ad b0 35 89 cb 3f 79 7d 29 cd 75 32 cb 3f
       0.21512480856714328 0.21247742192916144
000120 a8 4a c8 f4 02 e9 ca 3f 37 5f 7c 7a 3c af ca 3f
       0.21023594810738655 0.20847278576615633
000130 0d 41 96 57 82 86 ca 3f 06 8e d7 6c 0f 6d ca 3f
       0.20722989346223422 0.20645325483847915
000140 c6 bb 98 37 22 61 ca 3f 31 b8 ab 2d 0d 62 ca 3f
       0.20608928408316113 0.20611729364412804
000150 86 3c f0 ff 88 67 ca 3f 46 bd f1 1c 86 6c ca 3f
       0.20628464219086967 0.20643688596053716
000160 5d 5a c3 02 5c 6c ca 3f 59 65 82 c1 a9 67 ca 3f
       0.20643186697880625 0.20628854702662627
000170 4f f0 b6 a6 9f 5f ca 3f d7 3b 7b f5 43 51 ca 3f
       0.20604320183145083 0.20560502516170118
000180 32 af b9 9b ac 46 ca 3f da 26 09 51 69 48 ca 3f
       0.20528180698181014 0.20533482033561407
000190 7a f0 50 e5 09 57 ca 3f 0e dd 72 e2 05 6e ca 3f
       0.2057812089641436 0.20648263508858417
0001a0 0d 20 aa 4d 7b 7c ca 3f 14 5f ff 27 bd 95 ca 3f
       0.2069238785954898 0.20769466832165817
0001b0 1e 1c 2b ab fd e4 cd 3f a1 7b dd b2 a9 9e cd 3f
       0.2335507474692528 0.23140450700426832
0001c0 9d 9c 8f c3 6b 4e cd 3f 7f b0 34 6e 12 f4 cc 3f
       0.22895571755291125 0.22619848614829505
0001d0 b5 49 48 91 7e 91 cc 3f a6 58 f3 50 90 2a cc 3f
       0.22319013685098602 0.2200489421144926
0001e0 3c 2a 01 ca 0e c4 cb 3f 31 f6 96 e6 9f 62 cb 3f
       0.21692070830825283 0.21394728430998236
0001f0 ad 95 66 59 8e 0b cb 3f d6 c6 e7 7b bf c2 ca 3f
       0.2112901627089462 0.2090682368284919
000200 bc ab ae 11 da 89 ca 3f 92 23 36 9f 9f 60 ca 3f
       0.20733190406221336 0.20607371591566143
000210 3a 2f aa cc 0b 47 ca 3f dd ea 3b fe bd 3b ca 3f
       0.20529315465352643 0.20494818605205625
000220 60 4e f7 4a f1 3d ca 3f 53 4f 64 ac ae 49 ca 3f
       0.20501533661318927 0.20537360589571083
000230 b5 62 7a 75 d6 5b ca 3f 0f 25 a4 4c ae 6f ca 3f
       0.20592766510232755 0.20653322927709225
000240 3c 76 57 12 01 82 ca 3f 3a 0e b7 6a af 8a ca 3f
       0.2070924129065349 0.207357337099994
000250 5c b3 bd ec fd 87 ca 3f 60 62 37 8a 05 72 ca 3f
       0.20727514323825857 0.20660466431469882
000260 fc c0 ad a4 87 4d ca 3f 92 f4 4d 00 77 10 ca 3f
       0.20549102345422188 0.2036274672972565
000270 cb c4 5f 4e e5 af c9 3f 57 7a 5f ad 4b 2a c9 3f
       0.20068041159496483 0.19660325971104228
000280 7e b9 7f 7f af 81 c8 3f 8a a2 0d 00 1e e2 cd 3f
       0.19145768857510953 0.2334630489597383
000290 07 90 db 2c 6c 9f cd 3f 49 36 10 bb a7 53 cd 3f
       0.23142769041362518 0.22911545404388026
0002a0 ca 9c 30 ae 9b fe cc 3f 7e df c9 48 37 a2 cc 3f
       0.2265200233971199 0.22370043806199286
0002b0 75 69 87 98 27 41 cc 3f 0b 97 09 b8 73 e0 cb 3f
       0.22073836276724604 0.21778723226741933
0002c0 2d 9b f1 ae 26 84 cb 3f 4b 61 17 39 b2 30 cb 3f
       0.21497043173004596 0.21242358958876148
0002d0 a6 a5 80 3b 95 e9 ca 3f 20 6c a8 e2 5c b2 ca 3f
       0.21025338559529166 0.2085682017066981
0002e0 98 5b 64 c5 29 8b ca 3f 72 4f c2 a5 bd 71 ca 3f
       0.20737192285806993 0.20659609407141094
0002f0 d7 93 c4 de 80 63 ca 3f 87 81 63 8a c2 5d ca 3f
       0.20616160275781567 0.2059863258100558
000300 be 0e a0 bc 52 5c ca 3f 38 e4 d4 2a 14 5c ca 3f
       0.20594248018470823 0.20593502131831243
000310 c0 7c a8 ff c6 59 ca 3f 66 bd 86 6b 71 57 ca 3f
       0.20586478694256094 0.20579355001744232
000320 52 5e 6c 77 a1 57 ca 3f b3 d2 d0 be b6 4e ca 3f
       0.2057992776033069 0.20552715603993973
000330 88 f9 04 c2 b2 33 ca 3f 05 97 5c 12 90 08 ca 3f
       0.20470270608525376 0.20338631531301857
000340 2b 37 c5 18 9b c6 c9 3f 33 a4 66 a0 e9 5a c9 3f
       0.20137346944323417 0.19808693248822493
000350 af 49 ff e8 bf cc c8 3f e4 fb 54 90 8b 2b c8 3f
       0.1937484634095887 0.18882889316043283
000360 3c a1 b6 e6 20 ec cd 3f b1 44 40 1c 06 a8 cd 3f
       0.23376857056906342 0.23169018153615675
000370 ba 36 be 68 fe 5a cd 3f cc 61 7c 2b 1e 06 cd 3f
       0.22933940996556662 0.22674920199712145
000380 88 ae d4 7d 0e ac cc 3f 9f f9 07 c9 34 50 cc 3f
       0.2240007509620805 0.22119769874548198
000390 c1 9d da 47 93 f5 cb 3f a1 ef 11 50 2f 9e cb 3f
       0.21843186386580096 0.21576491746588736
0003a0 52 87 f1 9a 60 4c cb 3f b0 18 07 96 fc 01 cb 3f
       0.21326835218047308 0.21099812818119323
0003b0 43 21 81 64 09 c1 ca 3f a4 aa 1f 1d 63 89 ca 3f
       0.20901601226274566 0.207317723484569
0003c0 2b 87 93 fa ad 5a ca 3f 40 4b 43 bd a5 35 ca 3f
       0.20589232192201598 0.20476218930579115
0003d0 6d d5 11 a8 96 19 ca 3f b4 c3 0e f0 a0 02 ca 3f
       0.2039058991100932 0.20320522042814348
0003e0 85 62 93 63 2b f2 c9 3f 01 bd d4 05 c3 e4 c9 3f
       0.2027029262742596 0.20229375633923755
0003f0 09 f2 bb b7 15 db c9 3f 0a 40 a9 c6 6f da c9 3f
       0.20199843856234193 0.20197865677118926
000400 47 b2 cc de 51 da c9 3f 0b e2 64 31 59 d5 c9 3f
       0.20197509173284997 0.20182337676830317
000410 7b e5 17 03 5c c9 c9 3f 3c 12 80 ad ea a1 c9 3f
       0.20145750189821485 0.2002538058442428
000420 8b 8a 46 7e 29 4c c9 3f 24 69 fa fe 7a aa c8 3f
       0.19763678232000745 0.1927026505480366
000430 ad 45 e4 f3 97 d3 c7 3f ef b9 0c 0f 17 e9 cd 3f
       0.18614482315801464 0.233675844524853
000440 5b 1d 3e 02 5d a5 cd 3f f6 cf 0a 48 be 57 cd 3f
       0.23160898789886172 0.22924021260916988
000450 03 db f3 5c 3c 01 cd 3f 90 d2 72 4b de a3 cc 3f
       0.22660021341990708 0.22375086483011275
000460 3f d6 00 2f 1b 43 cc 3f 0a d1 33 2b b9 e2 cb 3f
       0.22079791827279568 0.21785654649250602
000470 90 d1 a8 18 ed 85 cb 3f 3a 06 bd cd bc 30 cb 3f
       0.21502460197519868 0.21242485090083268
000480 c1 d8 bb e0 a1 e5 ca 3f 3f 8d 46 5b d6 a7 ca 3f
       0.21013282273606218 0.20824698883834888
000490 61 b7 99 b6 ff 78 ca 3f 4f b1 d9 4c 02 58 ca 3f
       0.2068175927737981 0.2058108210798175
0004a0 5e 80 a8 87 06 45 ca 3f 7b 7f f4 3d e1 3d ca 3f
       0.20523149131713841 0.20501342320585167
0004b0 89 a9 48 6f 9c 3f ca 3f 3c 99 bd d9 78 45 ca 3f
       0.20506625589161967 0.20524511939874823
0004c0 b3 b0 82 fe e5 4b ca 3f e5 ad 28 26 96 51 ca 3f
       0.20544123580237325 0.2056148229906817
0004d0 fa 8d a7 fa c5 58 ca 3f c7 63 31 06 08 66 ca 3f
       0.20583414782514337 0.20623874952687357
0004e0 ac 17 1d 46 97 74 ca 3f ab 8e 45 c7 19 8d ca 3f
       0.20668307231443117 0.20743105154098393
0004f0 73 69 07 67 14 9b ca 3f 38 93 a9 57 f0 9e ca 3f
       0.2078576567717608 0.20797542839422944
000500 f9 fa 0d 2e e8 76 ca 3f ae ce 5b 5d 79 3f ca 3f
       0.20675375221977513 0.20506207521940695
000510 a2 ab ba cb 27 f0 cd 3f 36 ab f3 0d c0 ad cd 3f
       0.23389146278108536 0.23186493569604644
000520 eb f4 af d7 6b 61 cd 3f 37 c8 6c a6 c6 0b cd 3f
       0.2295355609093471 0.22692187429635322
000530 be 68 4b f1 6c ae cc 3f d7 c8 1c 11 f3 4c cc 3f
       0.22407304555856017 0.22109831176346148
000540 20 d0 1f fd 76 eb cb 3f e5 35 46 da 30 8e cb 3f
       0.21812331542571517 0.21527681978152127
000550 2e f2 49 7f d1 38 cb 3f 2b 7c 4f 89 85 ef ca 3f
       0.21267145839000662 0.21043461994756404
000560 f8 00 c1 90 e9 b4 ca 3f 45 27 23 a9 81 88 ca 3f
       0.20864600723326254 0.20729084738405326
000570 48 62 f2 4b b7 67 ca 3f eb 3e d8 d6 05 51 ca 3f
       0.2062901612123531 0.205597619919437
000580 d5 bd eb 2a f7 40 ca 3f ad d5 fa e4 30 34 ca 3f
       0.20510758968110446 0.20471774273543755
000590 9a 79 b9 f2 b6 24 ca 3f 4c 83 2e 69 2c 10 ca 3f
       0.20424544193060684 0.20361857543778183
0005a0 17 b3 80 85 d4 f8 c9 3f f7 77 9e 53 5a df c9 3f
       0.20290619391143913 0.20212868769607414
0005b0 1d 9b 11 7f 2d cd c9 3f 8d 30 a2 0e 8b be c9 3f
       0.20157402710466324 0.20112741674927684
0005c0 ff 74 ed 7a 56 be c9 3f f7 ee fd aa e9 b6 c9 3f
       0.20112114908526021 0.20089455460753644
0005d0 fd 7c a8 30 e4 9d c9 3f da 23 fd 08 3a 59 c9 3f
       0.20013096214186268 0.1980354827776683
0005e0 de b5 81 0b 1c cc c8 3f aa ce 1d 02 55 ec cd 3f
       0.19372892915582346 0.23377478221265352
0005f0 7e 96 8d 06 cd a7 cd 3f da 28 9b bf 39 59 cd 3f
       0.23168337650274745 0.2292854486061689
000600 4f 46 9f ac 42 01 cd 3f 43 bf 6c 6d 67 a2 cc 3f
       0.22660096577469566 0.2237061771679639
000610 a7 d7 91 e6 de 3f cc 3f 24 ca 04 f0 2c dd cb 3f
       0.22069917925153712 0.21768724174178644
000620 9a c7 31 df 93 7e cb 3f af c9 00 f8 e5 26 cb 3f
       0.21480034254232977 0.21212458238148943
000630 f6 e0 b0 1e ca d9 ca 3f 6d 9d 4d 74 bb 99 ca 3f
       0.20977140902119346 0.20781653574816109
000640 4d f1 78 f5 de 66 ca 3f bb d9 62 2a 31 41 ca 3f
       0.20626437173803894 0.20511450357089508
000650 2f db 07 b3 a5 28 ca 3f 6f c1 b0 bd 3f 1c ca 3f
       0.20436545602543663 0.20398709070424156
000660 a0 b6 b3 69 2f 19 ca 3f d8 17 bb c6 d4 1b ca 3f
       0.20389359151106579 0.2039743395200151
000670 5f 09 73 e5 95 20 ca 3f 20 76 20 8d 06 24 ca 3f
       0.20411943152982823 0.2042244137855258
000680 ca f4 73 fd 52 2f ca 3f 9b 63 5c 12 17 40 ca 3f
       0.20456921935684697 0.2050808753636176
000690 a4 89 5a ef b8 59 ca 3f 76 60 88 55 d9 82 ca 3f
       0.20586311042013705 0.2071181934013599
0006a0 34 1c b1 51 13 b6 ca 3f 4e 2d 0d 11 d2 e0 ca 3f
       0.20868150223597726 0.20998597939101632
0006b0 ce e8 bd 1e e8 fe ca 3f 59 87 72 37 5a 04 cb 3f
       0.21090413571420757 0.21107032496825687
0006c0 ae 86 05 a2 32 ed cd 3f e9 a3 30 e9 05 aa cd 3f
       0.233801201927283 0.23175119291525384
0006d0 6e 52 3a 01 03 5c cd 3f 6a 60 03 c5 08 04 cd 3f
       0.22937047538711702 0.22668561572823204
0006e0 3a 2a 02 1e 94 a4 cc 3f cc fd 29 28 40 42 cc 3f
       0.22377253976113015 0.22077180825361464
0006f0 71 a7 50 a2 46 e3 cb 3f b9 78 dd 22 74 8b cb 3f
       0.217873410468481 0.2151932878723011
000700 1d db 20 91 b5 3e cb 3f 7d ec 83 95 ef ff ca 3f
       0.2128512343058099 0.2109355430655774
000710 5a 4d 74 0d be cf ca 3f 51 24 d6 9d ce ad ca 3f
       0.20946479470203877 0.20842917162761634
000720 54 a8 8d 9e ce 97 ca 3f c6 56 41 ab 5b 8c ca 3f
       0.2077577852426794 0.20740838872978012
000730 67 04 28 a6 ac 8d ca 3f 7e 25 07 4e 32 98 ca 3f
       0.20744855988599228 0.20776966867405727
000740 61 6c e6 ea 71 ad ca 3f 0e d4 75 46 3a cb ca 3f
       0.2084181210492231 0.20932701530878756
000750 c4 dc aa 76 49 ef ca 3f 67 d8 23 d0 b8 13 cb 3f
       0.21042745870884094 0.21153936541640236
000760 90 18 c3 fc e1 2b cb 3f 50 72 00 c8 bb 1e cb 3f
       0.2122766956510458 0.2118754126139657
000770 eb 49 3c 15 39 ea ca 3f 8a c3 be 8a 55 7f ca 3f
       0.210272918099306 0.20701092981974184
000780 05 e8 10 f0 65 ce c9 3f ab 40 2c b8 51 d7 c8 3f
       0.201611273021456 0.1940710210115005
000790 ec 28 00 d3 b5 af c7 3f e9 0b 1d f5 8b ee cd 3f
       0.18504975130810608 0.23384236782484827
0007a0 70 1b a0 a6 dc ae cd 3f 73 77 cc d6 dd 64 cd 3f
       0.23189886222845812 0.22964070308892878
0007b0 63 02 f4 3e 7a 10 cd 3f ef 98 f7 b1 21 b3 cc 3f
       0.22706535409817538 0.22421666326335507
0007c0 89 f4 ac ad 11 50 cc 3f 95 c8 08 71 e5 eb cb 3f
       0.22119351368192877 0.21813648242238473
0007d0 30 9e 76 62 29 8b cb 3f 0a b7 f7 f6 a5 32 cb 3f
       0.21518437679081748 0.2124831634422935
0007e0 f7 cf e6 60 cd e6 ca 3f 44 23 c4 bc e3 a9 ca 3f
       0.21016852599643673 0.20830961911294754
0007f0 2a 13 0d c7 cf 7d ca 3f 69 36 43 d3 9f 60 ca 3f
       0.20696446627894122 0.2060737401538291

Maxvals f8 [11]
000000 df 9d e7 0f 44 64 2b 40 d4 58 d4 06 9c d3 2a 40
       13.695831772826692 13.413299764081252
000010 32 9c 66 d3 b6 80 2a 40 7d ee d1 14 4f 62 2a 40
       13.251394850040104 13.19200959265367
000020 90 4b 72 e7 5c 3b 2a 40 0e b4 5f 69 be 25 2a 40
       13.115943176939055 13.073718350346123
000030 e7 60 10 f2 dc fe 29 40 74 ef 96 64 62 e2 29 40
       12.997779430865604 12.94215692846749
000040 51 53 39 3c 96 bd 29 40 33 7a f4 1a 69 8d 29 40
       12.870286828992592 12.776192514747072
000050 5a 51 0b 4d 6b 45 29 40
       12.63558426631123
