Data/SIMBA/Model_snap18.npz (npz, 261202 bytes, 5 tensors)

x f8 [36]
00000000: 0000 0000 0000 2640 3333 3333 3333 2640
00000010: 6666 6666 6666 2640 9999 9999 9999 2640
00000020: cccc cccc cccc 2640 ffff ffff ffff 2640
00000030: 3233 3333 3333 2740 6566 6666 6666 2740
00000040: 9899 9999 9999 2740 cbcc cccc cccc 2740
00000050: feff ffff ffff 2740 3133 3333 3333 2840
00000060: 6466 6666 6666 2840 9799 9999 9999 2840
00000070: cacc cccc cccc 2840 fdff ffff ffff 2840
00000080: 3033 3333 3333 2940 6366 6666 6666 2940
00000090: 9699 9999 9999 2940 c9cc cccc cccc 2940
000000a0: fcff ffff ffff 2940 2f33 3333 3333 2a40
000000b0: 6266 6666 6666 2a40 9599 9999 9999 2a40
000000c0: c8cc cccc cccc 2a40 fbff ffff ffff 2a40
000000d0: 2e33 3333 3333 2b40 6166 6666 6666 2b40
000000e0: 9499 9999 9999 2b40 c7cc cccc cccc 2b40
000000f0: faff ffff ffff 2b40 2d33 3333 3333 2c40
00000100: 6066 6666 6666 2c40 9399 9999 9999 2c40
00000110: c6cc cccc cccc 2c40 f9ff ffff ffff 2c40
11.0 11.1 11.2 11.299999999999999 11.399999999999999 11.499999999999998 11.599999999999998 11.699999999999998
11.799999999999997 11.899999999999997 11.999999999999996 12.099999999999996 12.199999999999996 12.299999999999995 12.399999999999995 12.499999999999995
12.599999999999994 12.699999999999994 12.799999999999994 12.899999999999993 12.999999999999993 13.099999999999993 13.199999999999992 13.299999999999992
13.399999999999991 13.499999999999991 13.59999999999999 13.69999999999999 13.79999999999999 13.89999999999999 13.99999999999999 14.099999999999989
14.199999999999989 14.299999999999988 14.399999999999988 14.499999999999988

intercept f8 [100, 36]
00000000: 5f63 5e6f 04e3 eb3f 534f 46fd 4c98 f13f
00000010: b832 f3e2 d9e2 f33f 780a a84c ce9f f53f
00000020: 61c4 db29 1f68 f73f ffe6 a2db 1395 f93f
00000030: c66f 326b f856 fc3f d499 1185 b1bb ff3f
00000040: c804 2ad7 fccf 0140 0188 6664 cee8 0340
00000050: 8141 fba2 22ff 0540 436d b70e 7be5 0740
00000060: f93d 7f16 fa69 0940 42bd faad b97a 0a40
00000070: 7e88 c3fa 300f 0b40 5699 4299 cf28 0b40
00000080: f530 79ff b8d5 0a40 97f7 5c73 f333 0a40
00000090: d648 ce28 2a52 0940 7557 8c1b 4d30 0840
000000a0: 5d2f fba7 9df0 0640 6ae6 3610 2983 0540
000000b0: 891c 9d4c 2815 0440 c6ac 09ca 3da0 0240
000000c0: 9a45 25f6 4b37 0140 c5a5 ed0f 9471 ff3f
000000d0: a568 ffb4 ca64 fc3f 7fc6 cbd4 2f3a f93f
000000e0: ce14 53fa b5be f53f 25a4 2e6d a219 f23f
000000f0: fef7 76cd 3f50 ec3f b548 0ff7 6824 e53f
00000100: 3c2b db19 e047 e13f 404d 8f41 29aa e43f
00000110: 7db5 f543 f561 ee3f 121f e6c4 6f9f f03f
00000120: baec c83d e3fc eb3f f9c6 6708 79a6 f13f
00000130: 4656 fa60 35ed f33f 4478 5b1d 94a0 f53f
00000140: da6c 51b2 3755 f73f e1e6 19ca 9b60 f93f
00000150: 41cb ffbf f0fb fb3f d6b5 eecc 3340 ff3f
00000160: 0b2f 6427 0f89 0140 93bd dc91 11a6 0340
00000170: 8c42 ac5c e3cf 0540 3407 90e3 13d7 0740
00000180: 81a2 78eb 487d 0940 01b1 826a 44a8 0a40
00000190: ba4c 3d3a b646 0b40 227d 2a60 8f56 0b40
000001a0: 0454 c44f 43e0 0a40 6d84 a99f e708 0a40
000001b0: 0ecc 06ed dce1 0840 a696 962e 8762 0740
000001c0: 31cb 032c bfd2 0540 68d7 030c c034 0440
000001d0: c2f2 f63d 55af 0240 b41b fc2e 9f67 0140
000001e0: 0278 c6ce 186e 0040 2c96 99e3 55f0 fe3f
000001f0: 5cfb 970d 7196 fd3f e49a 1ffe 56ae fb3f
00000200: 8f1f 13b0 3a8e f93f 99c1 82bf 2823 f63f
00000210: 3bf2 54ac 48f4 f13f 68b6 8398 6830 e73f
00000220: 1431 185a 495e da3f b7e0 c062 7107 d03f
00000230: 70fa e818 9dae a0bf 1145 0044 6b69 e1bf
00000240: 8608 d600 9d21 ec3f d136 7b8e bdae f13f
00000250: 0cbd b68c 19e9 f33f 1c2d 18c9 4590 f53f
00000260: f49c 9417 6d44 f73f aab5 8cac 2764 f93f
00000270: 22de 1d47 dd26 fc3f ac9e b20b a5a1 ff3f
00000280: 0646 9640 97cf 0140 c66a 76c5 2ff2 0340
00000290: 24c2 29b7 200e 0640 4578 f12d afea 0740
000002a0: fc1b 77de 2365 0940 0a38 7471 856a 0a40
000002b0: acd9 0e1a 6dfc 0a40 6c32 9869 3514 0b40
000002c0: ca5b b0de 7fc6 0a40 e9cf ed83 872d 0a40
000002d0: 7fee c4e8 175c 0940 5cc5 bd20 3b5a 0840
000002e0: 8e23 1e89 d22f 0740 3600 eba9 04c5 0540
000002f0: 102f adec 3736 0440 8a80 2e7a f56c 0240
00000300: 3342 4fae b98f 0040 a759 2a90 5ff6 fc3f
00000310: 7774 0a40 692f f93f e5be 59d0 22f2 f53f
00000320: eaa4 520c b96b f23f 371c bae6 8a7b ef3f
00000330: bffc 9140 10d5 e83f 7bf9 b53f 4808 e53f
00000340: 9ed3 e7b3 80ed e33f a112 fea2 7f68 e03f
00000350: 43b4 8399 a792 e63f edf4 7d73 63b4 e13f
00000360: 1d3b e6b4 cfbf eb3f d775 64ce f38c f13f
00000370: a266 bc46 aadc f33f 15fb 9a56 fa9d f53f
00000380: 0adf 81ec 4f67 f73f 6a02 a04e 7792 f93f
00000390: dcf2 46fc 3059 fc3f f514 3694 49ce ff3f
000003a0: 9443 4f84 73e8 0140 27d0 1754 5f1b 0440
000003b0: 62b1 19cf 884b 0640 ada8 e51f 4e4e 0840
000003c0: 6fa8 aa20 6add 0940 bcc1 6c50 e2ea 0a40
000003d0: 7e11 c7a2 bc61 0b40 9c2e ddde ca52 0b40
000003e0: 4683 5e60 37bb 0a40 dc13 d024 97cf 0940
000003f0: 4e8e 67a8 9da7 0840 26cc dfbf f659 0740
00000400: 1d02 8e42 9114 0640 2aa2 7a10 5ccb 0440
00000410: 8b43 0f71 d7ab 0340 8cdd 68bb 41a1 0240
00000420: f8eb 9c8b c6c5 0140 f224 c616 e0c5 0040
00000430: 7216 fa70 607f ff3f 9e29 80ed f719 fd3f
00000440: c0e2 6a02 95ff f93f c32a 54c4 273b f63f
00000450: ae74 1857 20b2 f23f fd31 68b3 1820 ef3f
00000460: 26b5 6e4f 9e3d ed3f de26 0535 8257 f03f
00000470: 6867 e1bc 52c6 f53f 4cd1 7fcf a263 f43f
00000480: 6c09 49d2 bc1e ec3f 28cf ec09 e2b2 f13f
00000490: e41a b1d0 1cf4 f33f 5945 8ca5 f29e f53f
000004a0: a4ec 897e cd57 f73f 96f1 da56 6673 f93f
000004b0: 188a fc9c eb28 fc3f 5ab7 0cbd a290 ff3f
000004c0: 78f1 43af 20c8 0140 3931 3a9c dff6 0340
000004d0: 50b4 b5db 0c2c 0640 1c10 c333 f12e 0840
000004e0: c561 b1a5 42c1 0940 587c 6379 49d3 0a40
000004f0: dac1 f04f 0f46 0b40 4b5f bf8e 2b32 0b40
00000500: 62d4 b212 45b2 0a40 e0a8 4bc2 b5ec 0940
00000510: 4dfa 259d bcf9 0840 a132 abfc aed7 0740
00000520: 249f 8490 a596 0640 d4e1 d5c3 6d16 0540
00000530: ec97 a976 3a7d 0340 84ca 9b82 e4c3 0140
00000540: 6166 8474 7121 0040 75db 2c0a ec90 fd3f
00000550: 6ca5 f450 34f8 fb3f 82b2 b12e 9792 fb3f
00000560: fc70 478c bb73 fc3f a980 64e8 8747 fe3f
00000570: df6d af48 8424 0040 f350 6abf 72e6 0040
00000580: 6fbf 04a2 bc80 0040 3ad4 fe6f 08cb fe3f
00000590: 889a cf08 f276 0040 0c37 d6f4 c3aa f13f
000005a0: d07c 0367 5c35 eb3f 6856 1c77 6b4e f13f
000005b0: 55c2 221d 39b4 f33f c6e7 b9b4 4691 f53f
000005c0: f6a4 7bd4 2877 f73f 6e1e 5ca2 31b7 f93f
000005d0: 0db4 341e 737d fc3f cec3 206e a1db ff3f
000005e0: b539 0179 13db 0140 e0e7 77c9 9ce7 0340
000005f0: 7cde f90b b2f2 0540 fae4 7e33 3dc4 0740
00000600: 616f 3d9f 4c35 0940 b391 6eed f534 0a40
00000610: f879 854d 4ebc 0a40 d1bb 791f 15d7 0a40
00000620: 62b4 059c 1c92 0a40 4a1c cacc 1d0b 0a40
00000630: ccae ed7c 1b43 0940 b242 67a4 fb2d 0840
00000640: 365a 34df 44e9 0640 54d7 3dcb 4050 0540
00000650: 9d65 64eb 9f95 0340 9846 1324 ffc3 0140
00000660: 00a9 b0a3 aa06 0040 c0e9 8df4 4ea6 fc3f
00000670: e0f6 e7bf e18a f93f 2209 61ce 15d0 f63f
00000680: 58d7 84d7 cafe f33f 1f9f df0a fa8e f03f
00000690: fb78 f636 0e5d e93f 3662 168a 96f7 e03f
000006a0: 1826 b65a b346 d63f 2bc4 4dae 3d00 e73f
000006b0: 97a1 222d d8f6 f03f 08dd 6c58 fb86 f83f
000006c0: b169 cbc5 77e9 eb3f 4c49 ee06 f896 f13f
000006d0: 9f3b d5b9 f1de f33f 604f b0f4 ce9a f53f
000006e0: afc0 e517 9c67 f73f 0e85 a910 1f99 f93f
000006f0: d040 2d27 ba67 fc3f 6a40 d480 a3d7 ff3f
00000700: b3dd 6524 66e4 0140 9a27 f8e1 7001 0440
00000710: 3095 883d 8e0f 0640 e072 a8c6 8deb 0740
00000720: dae6 db0b 8b5b 0940 1c3f 97d8 9953 0a40
00000730: d285 a9dd 1ece 0a40 eb87 89ff d6da 0a40
00000740: d7b8 b112 0c8a 0a40 9b28 8267 df02 0a40
00000750: 7e53 7106 424e 0940 99f0 0e35 e563 0840
00000760: 3076 6f47 3b58 0740 7240 7ae6 6c0d 0640
00000770: 2c93 95d6 54a2 0440 bce2 b680 f40d 0340
00000780: 0a96 0643 2255 0140 1a20 4848 b452 ff3f
00000790: 7e2c ad6d 9021 fc3f ce06 84b4 3b67 f93f
000007a0: a21d f366 be75 f63f d080 d939 80f8 f33f
000007b0: 3595 e88f 9eae f03f 8fb5 3b78 f2aa eb3f
000007c0: 93c7 f6c8 f37b e63f 2390 dea9 3f37 e53f
000007d0: 7c13 c5fd 86a2 ea3f b4fb f056 93f8 e43f
000007e0: 9c2a dfda 93ac eb3f 798f 0631 3971 f13f
000007f0: da1b 275d d4ba f33f 8e0b 83a4 4d7e f53f
0.8714620757265087 1.0996827977696355 1.242883574031266 1.3515151018515592 1.4629203448387431 1.598895891146128 1.77123300432048 1.9833235929487403
2.2265564737032015 2.4886749118604716 2.7495777829100807 2.987051119778387 3.176746536024208 3.3099244682449873 3.3824176398202885 3.3949272130441086
3.354356761823619 3.275366688990242 3.1651194751694716 3.0235845710948817 2.8674882052927573 2.6890431658510368 2.5103307710119833 2.3282428535654587
2.1520003538250423 1.9652290937614094 1.7746073789808545 1.5767057716697364 1.3590602663328357 1.131258417599619 0.8847960484488337 0.6606945824990108
0.5400238518717297 0.6457716255630785 0.9494577720012526 1.0389249507297262 0.8746200758681859 1.103142769654765 1.245412234134521 1.3517037531633074
1.458305069498968 1.586086072404605 1.7490088939636765 1.9531744008230496 2.1919234349678667 2.456088199185339 2.7265078773564877 2.9800184038475894
3.186174239748937 3.3321617432721955 3.409527258868903 3.4172656548468163 3.359503386668168 3.254348037110097 3.1102846639346415 2.9231094016748385
2.727903694024825 2.5257569254562675 2.335611805056346 2.1755965872466394 2.053758254462992 1.9336756601927716 1.8492289095881551 1.7300634314248606
1.5972239377897244 1.383583782280857 1.1221396190368427 0.7246592501448506 0.41200479315081506 0.2504542793644861 -0.032582196512966344 -0.5441185310502609
0.8791031853036351 1.1051612439800247 1.2444091316827466 1.3477228026629922 1.4542056008447704 1.5869518985958657 1.7594883707041693 1.9769640404646607
2.226362709604248 2.4932551790965105 2.7568983373278275 2.9895919408145653 3.1743848209475782 3.3020123351661868 3.373254970148272 3.3848675012180163
3.346923579937969 3.2722311312627324 3.169967478284718 3.044058090010976 2.8983507835695894 2.7212003016320763 2.5264738550521386 2.3032025857392613
2.0701783769548228 1.8101497298681382 1.5740749837489412 1.3716152323431114 1.15129952252965 0.9838308817278464 0.7760087262285181 0.657261013446074
0.6227420343189924 0.5127561744162287 0.7054021833734015 0.5532700782493102 0.8671644719305253 1.0969121992305781 1.241373325645704 1.3510688193343345
1.462722705704382 1.5982583113947393 1.7717752317977817 1.9878631391050565 2.2385015808762976 2.5133654184119396 2.786882036182008 3.0382349483453113
3.233112578590457 3.364689472502702 3.4227230755806763 3.415426007389966 3.341414215931226 3.2263625026703107 3.0818436771967646 2.918927668587929
2.7600426864230614 2.5992966926026115 2.4589070160658983 2.3287386552216898 2.221570101477024 2.0966188220232818 1.968597832981143 1.818839957939964
1.6248979658541174 1.38944222155503 1.1684878732842594 0.9726680282633989 0.9137717772879668 1.0213644095514876 1.3609187486785803 1.27432519010934
0.8787521464476362 1.106172598619148 1.247097792818459 1.3513056246486796 1.4589362090035047 1.5906737702162892 1.7599903232845744 1.9728114495041695
2.222718590985263 2.4955436902293084 2.771508900149037 3.0229209941771966 3.219365400768057 3.353167484615863 3.409208893332317 3.399497142043321
3.3370458088707418 3.240581052717161 3.12194178363942 2.9803142299409306 2.823557976767818 2.6359515475889825 2.4361466665750324 2.220650692347876
2.016329679766202 1.8478813550443338 1.7480967676477475 1.723288710020967 1.7782550315524182 1.892463596137569 2.0178304365669955 2.1125235513992435
2.0628597886752043 1.9245685934850045 2.0580788315158465 1.104190784829771 0.8502637874588803 1.0816454556237662 1.2314997804752654 1.3479678210846813
1.466591672908462 1.6072250692540382 1.78062736319703 1.9911207486986657 2.23197073492994 2.4880920161931357 2.7435036597851745 2.9708198569393263
3.1510250511764046 3.275859694420626 3.341946225772741 3.3550207575822033 3.321343630718318 3.255427932660983 3.15776727295256 3.0224526256573307
2.8639008939601593 2.664186084580175 2.4480589284909926 2.220701486433267 2.0032551563537027 1.7906026413826197 1.596406697877164 1.425802045982501
1.249705163832422 1.0349064278361266 0.792609317158877 0.5302231499691235 0.3480652223448444 0.7187794117327305 1.0602647555443576 1.5329545454131352
0.8722494948554439 1.0993576307997328 1.2419297465419061 1.3502950246956615 1.4627953465933776 1.5998831416002903 1.7753240137426936 1.9901461632144
2.2365229457461395 2.5007035878997614 2.7575955207163574 2.990016510024688 3.169698803566331 3.2908207818180824 3.3506448094710573 3.356855389008151
3.3174058399664363 3.251402672443033 3.163211870511474 3.048777021902492 2.91808181580452 2.756555367093875 2.5792633785626062 2.3818140083133965
2.166569255484096 1.9576914618974173 1.7581943783032155 1.5877034236331613 1.4037460347625275 1.2481691608191348 1.0426316853930306 0.8646175716691448
0.702630894191531 0.6629942243348562 0.8323397594873394 0.6553436945031224 0.864816596492648 1.0901424326957267 1.2331126822261838 1.34333576452693

slopes f8 [100, 36, 7]
00000000: 5e67 7be8 d1d9 9a3f bde8 9df5 7f9f d33f
00000010: c7ed f845 a12c f43f d86b 34d1 0a12 87bf
00000020: 40cf 3586 4cc9 64bf 5e2c 9691 75e0 acbf
00000030: 33b4 141d fd01 7dbf 71d9 52d5 5a00 7c3f
00000040: c300 84a3 0bc6 d53f 10df 9725 1d4c f43f
00000050: 762a 60df 601b 8cbf cddb 03eb 646b 61bf
00000060: c80f 1b16 6069 b3bf 1f2a 23e2 354c 7cbf
00000070: d48b 37b5 c56e 74bf 0880 88a7 308a d73f
00000080: 6277 b03b 7648 f43f ac47 93fc 80af 8dbf
00000090: 7037 e899 1135 62bf 92e4 a3e8 0ec1 b8bf
000000a0: a225 ee8e f237 7dbf 9d9b 0223 d5a0 8cbf
000000b0: 6015 9193 d5e3 d83f b64b 45ad 5018 f43f
000000c0: 604a a7a9 2c67 8bbf a0e1 bb38 2176 67bf
000000d0: 9855 95b5 e522 bebf fc70 e428 9f2b 7fbf
000000e0: 9126 17d5 cf15 98bf fe95 a64d 5ed6 d93f
000000f0: 1f97 1a82 b4b5 f33f e087 6564 e351 85bf
00000100: 20dc dcf4 a387 70bf 1e14 ded4 bd9d c1bf
00000110: 7ebd 005f 0f18 81bf 02ae 9cea 552e a2bf
00000120: cca5 7b16 856a da3f 7067 1ab4 3a1f f33f
00000130: c0df 2147 f09b 77bf e037 1739 86a2 76bf
00000140: 125a ae42 33db c3bf 1c30 9f9f 7712 83bf
00000150: 7e66 9f44 020f aabf 98f6 ea63 20ae da3f
00000160: d2a6 f2d1 7955 f23f 0098 575b 94c7 333f
00000170: 4030 781c 4a39 7dbf 2e25 6493 fb9f c5bf
00000180: 2eeb 6bfa d2c7 85bf b26c ad32 5ee2 b1bf
00000190: 7a6b f6b2 79ae da3f 01e9 86ff 5660 f13f
000001a0: c0db 923c 4d01 7f3f b0a0 4d53 2498 81bf
000001b0: f50e a70d ccc9 c6bf 13ff 824e 03d8 89bf
000001c0: a0ad e024 6470 b7bf 9eff f581 a175 da3f
000001d0: ef25 78b1 4f48 f03f d04e 6884 f339 903f
000001e0: a0fe 95e7 0108 84bf 4405 085c be3e c7bf
000001f0: bedd 6226 9a6a 8fbf d8fd 6026 7466 bdbf
00000200: f42f 3e3d f70d da3f abe1 56e0 b035 ee3f
00000210: 3057 3a41 6b84 993f c098 c8ca 271f 86bf
00000220: 7496 099a 01f2 c6bf 0544 4082 3873 93bf
00000230: 344a fefb c9a7 c1bf 17d7 b0e8 9981 d93f
00000240: 7f53 d59b 7fce eb3f 2881 25ba 04b3 a13f
00000250: 9027 42dc 7136 88bf 8fc8 c569 91df c5bf
00000260: b1ac 6f50 8a10 98bf 94a7 1c85 c056 c4bf
00000270: 75b9 c7c9 41dd d83f 8058 55ef 0979 e93f
00000280: 1c82 12ae 62c7 a63f afbd 1d26 ea17 8bbf
00000290: 4ffc 03b3 9f20 c4bf 0ee3 2104 248f 9dbf
000002a0: 0860 474a e37c c6bf cb04 58d2 942e d83f
000002b0: 799e cc36 5a4c e73f 8401 4cfc acc1 ab3f
000002c0: 2c3a 23ff 3158 8fbf c52b 211b 7fcf c1bf
000002d0: 4345 cb76 3df7 a1bf 0ec8 068e 2403 c8bf
000002e0: f9e2 bc47 0483 d73f b656 2f9e ff52 e53f
000002f0: 91f2 ad06 932e b03f d4fb e0b6 9eb1 92bf
00000300: 0adf 7cc3 9431 bebf efc4 6936 8371 a5bf
00000310: 03da fa8b fdde c8bf 8751 516c 5bef d63f
00000320: da72 2514 8094 e33f 2ab6 18a5 9f23 b23f
00000330: f4ec 289e 9190 96bf 3a16 5403 0e4c b8bf
00000340: ca9a 9a0b d032 a9bf 642a 9282 8014 c9bf
00000350: 0de0 44e7 8d81 d63f f9bf 956d e501 e23f
00000360: d50d cc24 6ea8 b33f ec66 bfb1 1936 9bbf
00000370: f898 e512 8a4c b2bf f275 1381 ee3a adbf
00000380: f788 1f94 23b8 c8bf 62ae 7c1e fc44 d63f
00000390: a08d bd7a 2c92 e03f 331c 3dfe 99a6 b43f
000003a0: 96ae ae9e 3c2f a0bf 88aa 2a01 2403 a9bf
000003b0: 6cb2 f192 2e9b b0bf f24d d1cc 8af2 c7bf
000003c0: 4a4a 0d3e 7844 d63f 5039 a217 795f de3f
000003d0: d8ce e9f1 f120 b53f cc6b a548 74e4 a2bf
000003e0: fc19 70f6 445b 9cbf 042f 481e 777a b2bf
000003f0: 1df6 a1ae 0fd9 c6bf c629 417a 1171 d63f
00000400: be8e 746f 5ab7 db3f cc39 f8b7 5f24 b53f
00000410: 99ce 936c 0d8d a5bf d007 a22a 4245 81bf
00000420: 09d8 050b b655 b4bf d6d2 6d5f 646e c5bf
00000430: 1e6a afa6 21b6 d63f 9b6f ca87 572d d93f
00000440: b010 4d28 3fd6 b43f 27aa b4a4 00dc a7bf
00000450: 860c 22ad 4432 813f 5c12 d8ac 8d22 b6bf
00000460: c914 2082 f0df c3bf 6295 d143 b5f7 d63f
00000470: 939c 435f a1e7 d63f 9641 05f6 5457 b43f
00000480: ba0b 4c9a 27c3 a9bf fae0 8c0d db1e 973f
00000490: 429b efe0 8ced b7bf ff33 3854 441d c2bf
000004a0: 69e2 04fc 0106 d73f 7dfd d2ff 250c d53f
000004b0: 1044 c363 08b6 b33f a0d8 5c0c 12fc aabf
000004c0: f6c4 99f6 ef66 a13f 8316 c871 9ed7 b9bf
000004d0: 7281 2818 2c60 c0bf 1222 b823 72c0 d63f
000004e0: 6cde 707f eae7 d33f 0963 d7d3 6a28 b33f
000004f0: e006 6419 ca8e abbf 76ff 3b59 af81 a53f
00000500: d95b 65d4 1b0a bcbf 4bad 456f af40 bdbf
00000510: 20f5 04a3 2d2e d63f 9020 a8dc 9483 d33f
00000520: 5a1b 6958 6eb9 b23f 9cee 7ee2 0d4e abbf
00000530: f082 94fd 4cbf a73f 78c9 c56c 485b bebf
00000540: 3660 121f 30e9 b9bf c374 6751 e452 d53f
00000550: 6033 a022 70dc d33f 1c2f 214b 3e5b b23f
00000560: b685 64a9 ae6d aabf 447a bf76 c6e7 a83f
00000570: d71a 55e0 e74c c0bf a5e0 1664 9666 b6bf
00000580: 0196 fbcf b63c d43f 8a8c a90a 4df0 d43f
00000590: 427a f5db 973f b23f 502d 5cc1 bb07 a9bf
000005a0: 7837 3c7f b32f a93f 8e50 cb46 2045 c1bf
000005b0: 6d24 d0ee 6fd5 b2bf 18d7 2cdf 821a d33f
000005c0: 802f a556 9b80 d63f 442c 14c2 6f7a b23f
000005d0: 7cdc c125 a2a4 a7bf c32e ad53 1f76 aa3f
000005e0: 0850 4340 810d c2bf f5f8 ef2e cb2f aebf
000005f0: 63ac e09d 2d4e d23f e274 2aa3 45b8 d83f
00000600: b8b6 6def 2703 b33f 3863 e559 e42d a6bf
00000610: 6eea 8452 3201 ad3f 88d0 2b93 0778 c2bf
00000620: 66a3 d691 cde5 a5bf 8c58 cac0 28f1 d13f
00000630: c406 9ef0 dad4 da3f f68e 2194 30dd b33f
00000640: c8e1 7d6c 5bac a5bf fa77 e5bf ed46 b13f
00000650: 44ac 9f62 41b4 c2bf 4acb 8ff8 6e51 9abf
00000660: 4744 9cff 2716 d23f 2ceb a623 43ca dc3f
00000670: 0c3f 9a87 cddf b43f 5884 75db 7006 a6bf
00000680: 9d1a 8f57 6949 b53f ffd8 d995 3ffb c2bf
00000690: 21d8 d8a4 e8d8 7dbf 3a06 f69f bfb9 d23f
000006a0: fa15 13ee 8a7f dc3f 146e 981f 7482 b53f
000006b0: ac4c c76a 77ec a6bf 0cc4 fe30 51c5 b93f
000006c0: 0872 5214 6b28 c3bf 556a e032 17a2 833f
000006d0: 279d 3e2c d805 d43f e3fc 2287 4c31 db3f
000006e0: a01e f135 ae9a b53f 5c56 1fa3 fd9d a9bf
000006f0: 07ed 4bac 6e70 be3f 7417 fc9f f75c c4bf
00000700: f473 adf2 8f77 933f 49ec 0759 42f1 d53f
00000710: 143a 93f0 5465 d83f a0da 71fe 5f7f b53f
00000720: fcc3 b082 ec33 aebf 7865 f74e 8e63 c13f
00000730: b172 b415 2b36 c5bf a6ea 97c7 4f59 893f
00000740: bccd 201e d92c d93f d280 dd65 24bf d23f
00000750: 00cc a622 89a1 b43f 8c5f d6dc faa3 b1bf
00000760: 0088 172d 33f4 c23f b1b8 690a 879c c7bf
00000770: 764d 3ceb cf68 83bf c95e 73e7 a1a3 da3f
00000780: ee9a 62e0 d8bd b93f 54b1 5933 02a5 b43f
00000790: d819 ec27 1bb5 b3bf e659 ee55 c836 c53f
000007a0: 9a08 54b5 ff11 cabf 8d17 662f 70da 90bf
000007b0: 617d a15a dec4 db3f 30ab ea94 041f cdbf
000007c0: 2832 cb35 1757 b43f 6ca4 e7e5 028d b5bf
000007d0: 8d8e e5ee 7155 c73f 4e93 7f23 a12a cdbf
000007e0: 1727 9513 1189 9a3f 5c20 f1b3 97a0 d33f
000007f0: c06b 3ae4 c62a f43f dc9d cf70 2de4 88bf
0.02622154218156624 0.30661009775179676 1.260895989732363 -0.011264881619856768 -0.00253739305633785 -0.05639998819523194 -0.007081974720944339 0.006836275880394247
0.3402127358276738 1.2685824841009357 -0.013724095169910227 -0.0021264048629023647 -0.07582665004434752 -0.0069086174791644075 -0.004988453194047577 0.3678094516817514
1.2676908809293868 -0.014494903285967663 -0.002222570779173809 -0.09669583491985836 -0.007133433812563624 -0.01397863877384769 0.3889059010583278 1.25593631442892
-0.01338038342229203 -0.002863945852251429 -0.11771999056994387 -0.00760996028682492 -0.023520705586440874 0.4037090071018098 1.231861599176632 -0.010410095692979071
-0.0040356068182552385 -0.1376263894455016 -0.008346672140844499 -0.03550976265827545 0.41275145717244466 1.1951243434218348 -0.005763948998826096 -0.00552608900893678
-0.1551269603339312 -0.009312567290088274 -0.0508957585113423 0.4168778396377575 1.1458681298340037 0.0003018128585082769 -0.007134713646802793 -0.1689447850879246
-0.010635040538081588 -0.06986035096399482 0.4168991325074597 1.0860204679034384 0.007569600778132235 -0.008590968887532163 -0.1780333582556676 -0.012619043191420631
-0.09155870342572436 0.4134296197080348 1.017654126395765 0.015846066433438832 -0.009780897979680347 -0.1816022824641924 -0.015340046211675392 -0.11484456955894673
0.4071024034572013 0.9440540677670034 0.024919200760073312 -0.010801611782039422 -0.17926044484481773 -0.018994219732181978 -0.13793301395760837 0.39853522990903073
0.868957332956242 0.03456892750068824 -0.011822595152142928 -0.170885254523061 -0.023500596198499483 -0.15889746188741738 0.3885044546613224 0.7960252451400862
0.044489940403995315 -0.01322920731374108 -0.15724560013765873 -0.028866350891322994 -0.17568627478499388 0.37784309903515795 0.7280703611658758 0.054212003515206525
-0.015304937933618389 -0.13914479088484036 -0.03508941722032912 -0.18759591040503704 0.3673716259541347 0.6663816537427099 0.0632106677348452 -0.01825569144443391
-0.11794404766703451 -0.04188165702078971 -0.1943051274772217 0.35835919931312116 0.6118774789316277 0.07085607319523804 -0.022035861280738936 -0.0949105032087453
-0.04921579496049373 -0.1959381711534035 0.35165736756198457 0.5627314701396237 0.07678879164091452 -0.026573564027649363 -0.07148039780949833 -0.057090237861967
-0.19311947567536666 0.34796050050019833 0.5178434750818504 0.08066713768958848 -0.031610388155369026 -0.04885208620301734 -0.06486788833144325 -0.18708930016383324
0.34792905864484125 0.47457721050240753 0.08253395229422311 -0.03689921747964994 -0.027691915074706572 -0.07218117226892323 -0.1784991839121383 0.3506511396305111
0.43306599506670895 0.08258627168127147 -0.0420917696991669 -0.008432881284765076 -0.07943284768211369 -0.1674313989602953 0.35486642148831204 0.39339245091263714
0.08139414533531197 -0.046600360971144554 0.008396660359954799 -0.08646474332642512 -0.15527159074568989 0.3588689005176403 0.3578875952065996 0.07945757871971745
-0.05031703718670806 0.02257864256100193 -0.09346848003006605 -0.14151815521509545 0.3597416840671373 0.3288664816172611 0.0769963496743602 -0.0527043953028834
0.033988474705333546 -0.10094633367415366 -0.12793494395829047 0.35549596298417996 0.3110300297298412 0.0748354689780052 -0.05382377204842981 0.04200504268919662
-0.10952924666831566 -0.11426826922040793 0.3465684978471746 0.3049060969210666 0.07314195307217855 -0.053329881571213295 0.04638138385258184 -0.11858036666470706
-0.10121441610897439 0.3331843180620348 0.3103294695036336 0.07170476278514254 -0.05161805932790335 0.04864330482063342 -0.1273469777463194 -0.08750286048496266
0.3162056952554338 0.32716680566063217 0.0712828552254701 -0.04888712630607961 0.04919205597080539 -0.13492206055400796 -0.07356929378888007 0.2984931163258451
0.3515995355744437 0.0721807335686871 -0.04617792807487661 0.05168245216790759 -0.14103713643874038 -0.05895838687864511 0.2860216180585608 0.3862470715919938
0.07426690669464164 -0.04331887814868768 0.056649754117150106 -0.14428801237193434 -0.04276888280157358 0.28034418894947843 0.41924165246755885 0.0775938378952182
-0.042330605500811525 0.06748853621454023 -0.1461259585915703 -0.025701269074441847 0.28260230981783646 0.4498451088108364 0.08153996048553952 -0.04301788977569093
0.0831514204756822 -0.14829249207441106 -0.007286938443533259 0.29258719083017903 0.4452845883318727 0.08402181407330317 -0.04477284601639417 0.10066707082911835
-0.14967096798217505 0.00958650707257395 0.3128567154003172 0.4248839683240943 0.08439148728313706 -0.05003349891891837 0.1189030810018502 -0.1590871363807157
0.01901078146635267 0.3428502911990035 0.38118480199492066 0.08397483789472426 -0.058989897683552756 0.13585070472508298 -0.16571558532532074 0.012377379683120648
0.39336231176568126 0.29291639278200166 0.08058983894333949 -0.06890838519609427 0.1480773897338281 -0.18446434029050843 -0.00947725712425183 0.41623733141521463
0.10055308797982906 0.0806428313605399 -0.0769822094408491 0.16573433109142782 -0.20367428163450968 -0.016458275692933056 0.4338909039560886 -0.2275090911037636
0.07945389808009706 -0.08418291199599687 0.18229507603529208 -0.22786344750707105 0.025913492984989874 0.30667679378939794 1.2604435839809724 -0.012153964047640402

scatter f8 [100, 36]
00000000: f3b2 dc76 2169 d23f d6c7 8e2e db42 d23f
00000010: fcff c19a 1410 d23f 1990 6f58 91cd d13f
00000020: cc8b 7419 247c d13f d2d1 012b 6f1f d13f
00000030: 45f3 d84c fabb d03f c808 1d56 7b56 d03f
00000040: 7bff 8724 d0e6 cf3f 0429 438b 2b2c cf3f
00000050: 1b7e 9d01 5f81 ce3f 354b 7290 b6e7 cd3f
00000060: 7c43 b544 2a5f cd3f 5592 4708 1ce4 cc3f
00000070: bf73 2626 8971 cc3f 96f2 c1ed 6a03 cc3f
00000080: b6af a5df 5597 cb3f 90ee aac3 7527 cb3f
00000090: eee8 3f54 66b3 ca3f ed35 1aab 163c ca3f
000000a0: 2bee 7b4c e1c0 c93f 42ec da21 f147 c93f
000000b0: e901 368c 87d3 c83f 6809 789f 6568 c83f
000000c0: c028 e9c6 040a c83f 5c35 2995 b9b4 c73f
000000d0: 558c e765 9868 c73f aade 646a 221a c73f
000000e0: 0de5 fd2f fdce c63f 995f 9de1 ee67 c63f
000000f0: 8590 5802 75f7 c53f aa1d 2870 2766 c53f
00000100: a1b9 503f 3abd c43f ac17 16da 9fd2 c33f
00000110: f1fc e8d0 25aa c23f a7c2 e764 c758 c13f
00000120: c548 3d20 ea6a d23f 3020 a39b 8743 d23f
00000130: 45f0 adec 7f0f d23f 4a4d 3815 bdcb d13f
00000140: 41b7 ba3d 4c79 d13f 90f6 c635 3b1c d13f
00000150: ed36 33e9 e6b8 d03f 18f6 47f5 db53 d03f
00000160: d6b1 c42c fce3 cf3f f8ef 6926 472c cf3f
00000170: fa66 37c8 d384 ce3f 9071 fb6e d2ed cd3f
00000180: fc4b f4ab de66 cd3f 0546 58be 6eec cc3f
00000190: 3080 9a9b be79 cc3f 97c1 3033 f708 cc3f
000001a0: 153a 5d4c 2599 cb3f 6be1 abf1 fe22 cb3f
000001b0: 4375 38f2 70a7 ca3f e6e5 1cfb 0529 ca3f
000001c0: faf0 8277 49a8 c93f e838 dd64 702a c93f
000001d0: 8f37 7535 4ab6 c83f 3578 6ed0 e950 c83f
000001e0: 8216 26c2 9cfe c73f e12b fa34 7cc0 c73f
000001f0: d8da 2fa5 7791 c73f 26e2 93a5 0c65 c73f
00000200: 48ae 1d20 613d c73f 3001 392e f3f8 c63f
00000210: eb58 e5e5 c68e c63f a95f b5be 94ec c53f
00000220: 6a28 bb88 0311 c53f a553 5161 f4b7 c33f
00000230: 1ea2 0cc4 382e c23f 2680 6846 aa90 c03f
00000240: b923 2e94 666c d23f b6d8 803c 4c47 d23f
00000250: 09bf b59b 9915 d23f 46f4 b8a1 01d4 d13f
00000260: 509d dbb5 5f83 d13f 60eb 5f46 2a27 d13f
00000270: d91a e599 aac3 d03f 021d 0a87 e65d d03f
00000280: 4083 495d e2f3 cf3f 1308 454b 7037 cf3f
00000290: 578f d199 398a ce3f cf9a 929c a9ee cd3f
000002a0: dfcd 556c b464 cd3f 1bbb 67a4 2ce8 cc3f
000002b0: 231a 6e92 4174 cc3f 6119 8b50 5e05 cc3f
000002c0: 09bd 514f 0f99 cb3f 2489 8107 d629 cb3f
000002d0: ae24 5866 7ab9 ca3f 362d 9966 cd48 ca3f
000002e0: 4d3b 6682 60d9 c93f 4f9c e18c fc6d c93f
000002f0: 0ec4 fd0c 0b02 c93f 12ae e9f1 dc98 c83f
00000300: ae39 6894 a82c c83f 6bde 6668 42ba c73f
00000310: fcfe 3db5 5747 c73f d007 e830 79ce c63f
00000320: 3464 1982 c859 c63f 2e8e 6f66 3ccf c53f
00000330: c50b 3707 073e c53f abb9 7fc0 7a89 c43f
00000340: 2c82 993d a7c7 c33f 547c 64bd a7ba c23f
00000350: a033 d091 3199 c13f b2b0 e179 be48 c03f
00000360: a017 9666 716c d23f 11a7 5aae a347 d23f
00000370: b5c9 e1d7 1816 d23f 1035 b457 53d4 d13f
00000380: 430c 5bac 3283 d13f da42 bb2a c126 d13f
00000390: 7607 ea12 bcc3 d03f 49fe 3131 265f d03f
000003a0: 64e5 eb40 8afb cf3f 5fdc 2ceb 6145 cf3f
000003b0: 6b7a 236c bc9f ce3f a42a 47b0 910a ce3f
000003c0: d022 2f7f 7c86 cd3f 3e48 b28e 210f cd3f
000003d0: eac9 f169 7e9f cc3f 0f78 2725 9431 cc3f
000003e0: e2a6 b056 21c3 cb3f 0168 49a9 c14b cb3f
000003f0: cfd5 e1c2 46c8 ca3f 91cf 9c05 d63c ca3f
00000400: bc2d ed93 e7a9 c93f 23c2 35ce 161c c93f
00000410: 81c1 06e5 a796 c83f aa8e 90d2 cd24 c83f
00000420: 0083 f0e8 79c8 c73f 99e3 a39e d278 c73f
00000430: 8f1c 4209 f135 c73f 8943 3e72 15ed c63f
00000440: 31c4 fe9d a7a4 c63f d41e 24ad 2d3b c63f
00000450: b391 c769 c8d1 c53f 69c4 97aa 9f38 c53f
00000460: 08a9 e7ad b582 c43f 9a04 0b86 598b c33f
00000470: ee97 96c8 ea0a c23f d702 95dc f93e c03f
00000480: 75a2 fa4b e968 d23f f569 4ac7 4342 d23f
00000490: ef56 dc5d 150f d23f 8d27 a455 2bcc d13f
000004a0: 437e 07c7 9d7a d13f 0830 dd0d f21d d13f
000004b0: f38e a040 6bba d03f c657 10ca c054 d03f
000004c0: bb0e f464 b4e1 cf3f e4d2 86ee 0525 cf3f
000004d0: 8c36 650a d877 ce3f f4f5 58e9 47dd cd3f
000004e0: 9f3b fb27 cc55 cd3f a863 a646 cbde cc3f
000004f0: 7fcb 427b 6173 cc3f c060 517e e80c cc3f
00000500: d262 0592 c4a8 cb3f a45b b41b a540 cb3f
00000510: c79b 913e f4d3 ca3f ae94 e9d3 c962 ca3f
00000520: 9d38 5b12 f4e9 c93f 96bb 716a 9771 c93f
00000530: 0e17 319d eff8 c83f 1958 4820 2f8a c83f
00000540: 2ce8 80b9 0029 c83f 6d25 89ed f6da c73f
00000550: e9f5 8406 68a0 c73f efce b493 0d77 c73f
00000560: 7145 8993 1758 c73f cb7b 9920 412a c73f
00000570: ae5d 6adb 64fc c63f 3d31 f73d bca9 c63f
00000580: b72d a404 a73a c63f 6f34 f12a 1594 c53f
00000590: c96b cde8 9885 c43f 09dc 8839 889a c33f
000005a0: a01a e0dc 3768 d23f d5c4 dc4a 1d40 d23f
000005b0: ab33 6bc6 3b0b d23f 1eec 5bde f0c6 d13f
000005c0: a4d4 8138 fe73 d13f 068d 5a6b fb15 d13f
000005d0: 1992 774b 95b1 d03f 5ed9 d683 b24b d03f
000005e0: 9310 d845 84d1 cf3f b7ca bacb 1219 cf3f
000005f0: dd21 0e92 9571 ce3f 1179 f06d 84db cd3f
00000600: 8554 01d5 8e55 cd3f c2f4 b4d5 9ddb cc3f
00000610: a50f 0562 6568 cc3f fffe 3ff4 1af7 cb3f
00000620: 5d12 4a68 5a87 cb3f a711 5262 1a13 cb3f
00000630: 4d7e d605 889b ca3f fee3 cb13 c322 ca3f
00000640: fdbf ea1d 93a7 c93f 8c7d 6cc2 2030 c93f
00000650: 00ce 7211 20bb c83f 9518 8ea5 414b c83f
00000660: a7e4 f43b a1e1 c73f 7136 ac45 4779 c73f
00000670: 23de d0a2 2410 c73f 96d8 7587 82a1 c63f
00000680: 5fef 8ce1 0f2f c63f 9ddf f39c e999 c53f
00000690: 6138 6f55 abfc c43f f3c3 1692 953f c43f
000006a0: 80fb a911 115f c33f cc38 246a 5a2c c23f
000006b0: 0066 6663 58f0 c03f e263 505a cb91 be3f
000006c0: 281f 46af ae64 d23f c0fa b42a 863f d23f
000006d0: f580 cf0a 370e d23f 6032 9ca9 fdcc d13f
000006e0: f509 3954 437c d13f be08 2cb2 621f d13f
000006f0: 7e02 ba47 d0ba d03f 113a fc52 4a53 d03f
00000700: 8571 6dc7 08dc cf3f ec9d 71a4 0a1d cf3f
00000710: 9466 d5d7 416f ce3f 3872 ccca d8d3 cd3f
00000720: 5af7 83ce 2c4c cd3f 60d2 cfd6 48d4 cc3f
00000730: 3a31 1a7b 2068 cc3f c003 6a46 4f02 cc3f
00000740: fa5f b3a3 2c9f cb3f 9b11 0eda aa36 cb3f
00000750: 7e8b 8383 54c8 ca3f 28c6 c302 3051 ca3f
00000760: 7fd9 30a7 23d1 c93f 54d4 6dda 504f c93f
00000770: 7d56 d854 48ca c83f f587 da04 6d4d c83f
00000780: c303 ebc3 2ade c73f 4e31 8cf5 3e79 c73f
00000790: 62b8 af7a 4d22 c73f 9a00 d5e8 9fd2 c63f
000007a0: 2f3b f2f9 0692 c63f cf70 f215 e443 c63f
000007b0: f9c1 3ddb f5f6 c53f 9b2e e33f 1993 c53f
000007c0: b2fe 0298 0a0e c53f bac7 c80c e623 c43f
000007d0: d63c 0c27 a8f2 c23f 550c 4793 2d5a c13f
000007e0: 7a06 6fd6 b263 d23f ca92 c372 8e3c d23f
000007f0: fa2b 1ae5 3409 d23f aa56 d3c7 c2c6 d13f
0.2876666699183225 0.2853305773415945 0.2822314750010262 0.2781718600874697 0.2732019661509042 0.2675435943595207 0.26147325043330155 0.2552784291220971
0.24923135551216177 0.24353546428603334 0.23832309321277098 0.23363382390069778 0.22946670870672026 0.22571134952808572 0.2222148357658664 0.2188542996335811
0.21555589123033564 0.21214172414862675 0.2085998450637087 0.20495875696762714 0.20119873270583474 0.19750799325069762 0.19395536752928358 0.19068594252173487
0.18780574524345717 0.1852027872395564 0.1828794953899854 0.18048505969067224 0.17819180339191867 0.17504678741783833 0.17161429037617296 0.167179994358077
0.16202476588791817 0.15486524723763517 0.14581749630631394 0.13552181651131898 0.287775546535283 0.28537168692537573 0.2821960269282083 0.2780602175927994
0.273028431208207 0.2673481011550871 0.2612855222076707 0.2551183600733977 0.24914505182222396 0.243538755184886 0.23842856670562879 0.23382025164654552
0.22970183750348372 0.22596535009556376 0.22246534917667438 0.21902360915693173 0.21561113575667493 0.21200548935281502 0.20823489978003282 0.2043769336831211
0.20044821105501126 0.19660763669020942 0.1930630455994415 0.18996927907295605 0.18745765190049118 0.18556168162135037 0.18412681165474143 0.18277128300521034
0.18156065052186166 0.1794723487564709 0.17623220658669622 0.1712823802179149 0.1645817201263669 0.15405134918060273 0.14203557560655694 0.1294148296155992
0.2878662535736641 0.28560167225385713 0.28256836134004054 0.27856484215937305 0.27364342460210356 0.26801545021560536 0.26194252995302986 0.25573123156978295
0.249630256224032 0.24387935328746888 0.23859329233811863 0.23384590287351734 0.22963576593211507 0.22583539989087673 0.2222978558531433 0.2189138310697656
0.21560851452839128 0.21221423498634195 0.2087853431442332 0.20534675130543584 0.2019463192668475 0.19866902235955528 0.19537485250796788 0.1921650105681328
0.1888628697055998 0.18537168596025153 0.18186470365252905 0.1781760681915885 0.17461496689318923 0.17038683892961742 0.1659554276685339 0.16044554137574826
0.1545304346827988 0.14632126567537063 0.13748759860791626 0.12721997214555852 0.28786883371537364 0.2856225207020638 0.28259869653916364 0.27858432354771967
0.27363268691641823 0.2679903905200668 0.2619466957768205 0.2558074455664366 0.24986389322274782 0.2443048857037153 0.23924975662426404 0.23469754321407266
0.23066669664537764 0.2270242640266264 0.2236173646266047 0.2202630216042398 0.2168924020091288 0.21324940458254107 0.2092369510243501 0.2049815680890075
0.20049757693264592 0.19616971081588117 0.19209765131882864 0.1886231687686764 0.18580554841994257 0.1833747171984015 0.18133366539061455 0.17911022260934953
0.17689986433609442 0.17368098215251015 0.17046456494348447 0.1657905180905204 0.160238943018449 0.1526901154047991 0.14095816416119028 0.12692187567338095
0.2876532785399271 0.2852944799612083 0.2821706215485013 0.2780865036335108 0.27310890613987143 0.26745272973926193 0.2613781100392167 0.25517291767880257
0.24907545976031095 0.24331735750970218 0.23803234584413635 0.23331545728608172 0.22918083145347354 0.22554913472847926 0.222271142183299 0.21914392631402357
0.216087886142097 0.21291030743369987 0.20959332518688553 0.2061397824028623 0.20245219131760886 0.1987790364978223 0.19509692359331904 0.1917170436506133
0.18875130708494348 0.18636976812767206 0.1845827133019349 0.18332071029873684 0.18237585739056386 0.18097700206541698 0.1795774527897555 0.17705491090453931
0.17366492964388922 0.16858162495410364 0.16032706610971406 0.15315344628626829 0.2876109749781026 0.28516323385981696 0.28193563820678474 0.27776738848450744
0.27270465391422705 0.26696668132554213 0.2608388173087249 0.2546201980107038 0.248581441977994 0.24295268008935064 0.23784131652452248 0.2332616364300937
0.22917352104801494 0.22545216498284587 0.2219359139072569 0.2184785549761656 0.21506815044644415 0.21152047920999204 0.2078714397912215 0.2041858526861517
0.20042647324362398 0.19678124898289828 0.19321060993171102 0.18979664405577937 0.18657317569321671 0.18338862325656494 0.18018014860148054 0.17680389036440108
0.17331121934136726 0.16875953830435445 0.16396085425953102 0.15819043763397608 0.15133870470523547 0.1419785516995432 0.13233475545420958 0.11941214518482426
0.2873951636943155 0.2851272027072973 0.28211761527747053 0.27813664973726837 0.27320941185840236 0.26754062080011554 0.2614021969275554 0.25508363822965047
0.24890241372748903 0.24307377843363953 0.23777030028104618 0.23302755262638342 0.22888717731251057 0.22522840966088875 0.22192770014624746 0.21882048547925415
0.21579511635968612 0.2126058163377252 0.20923859044622967 0.20560264716145693 0.20169492400755115 0.19773302712897822 0.19367317335916204 0.1898628495883369
0.1864675003653514 0.1833876322711014 0.18073433390185573 0.17830275410415625 0.1763313980522638 0.1739468676722766 0.17159913258684847 0.16855159396651662
0.16449100897260888 0.15734553932412415 0.14803029924994487 0.1355645150307249 0.28733511868276873 0.2849460716954978 0.28181192754044526 0.27775640024388315

Maxvals f8 [11]
00000000: 1a72 64ef 9204 2d40 a56b 1bed e9f9 2b40
00000010: cdc6 7fbd ccaa 2b40 0168 245f 4d8e 2b40
00000020: 8bc7 ce23 4e68 2b40 c17c f0b7 bd4e 2b40
00000030: c02c 8760 3428 2b40 9f44 b4f0 f912 2b40
00000040: 87f7 ac78 7de8 2a40 ccf7 9b0c a2b1 2a40
00000050: d490 9c39 e161 2a40
14.508933526050033 13.988112840268352 13.833593293998456 13.77793404883778 13.703721159927019 13.653791187387812 13.578524605274993 13.537063142781617
13.45408227073109 13.346939462698991 13.191171455728558
