Data/SIMBA/Model_snap22.npz (npz, 261202 bytes, 5 tensors)

x f8 [36]
0	0x4026000000000000	11.0
1	0x4026333333333333	11.1
2	0x4026666666666666	11.2
3	0x4026999999999999	11.299999999999999
4	0x4026cccccccccccc	11.399999999999999
5	0x4026ffffffffffff	11.499999999999998
6	0x4027333333333332	11.599999999999998
7	0x4027666666666665	11.699999999999998
8	0x4027999999999998	11.799999999999997
9	0x4027cccccccccccb	11.899999999999997
10	0x4027fffffffffffe	11.999999999999996
11	0x4028333333333331	12.099999999999996
12	0x4028666666666664	12.199999999999996
13	0x4028999999999997	12.299999999999995
14	0x4028ccccccccccca	12.399999999999995
15	0x4028fffffffffffd	12.499999999999995
16	0x4029333333333330	12.599999999999994
17	0x4029666666666663	12.699999999999994
18	0x4029999999999996	12.799999999999994
19	0x4029ccccccccccc9	12.899999999999993
20	0x4029fffffffffffc	12.999999999999993
21	0x402a33333333332f	13.099999999999993
22	0x402a666666666662	13.199999999999992
23	0x402a999999999995	13.299999999999992
24	0x402accccccccccc8	13.399999999999991
25	0x402afffffffffffb	13.499999999999991
26	0x402b33333333332e	13.59999999999999
27	0x402b666666666661	13.69999999999999
28	0x402b999999999994	13.79999999999999
29	0x402bccccccccccc7	13.89999999999999
30	0x402bfffffffffffa	13.99999999999999
31	0x402c33333333332d	14.099999999999989
32	0x402c666666666660	14.199999999999989
33	0x402c999999999993	14.299999999999988
34	0x402cccccccccccc6	14.399999999999988
35	0x402cfffffffffff9	14.499999999999988

intercept f8 [100, 36]
0	0x3fec80739da48df3	0.8906801299057733
1	0x3ff512c0ef612754	1.3170785284769027
2	0x3ff9e0177ef09d3a	1.617209907397252
3	0x3ffda54046317dab	1.8528444997717581
4	0x40008a64a2241e64	2.067574755408531
5	0x40024b16a11022bc	2.286664255433008
6	0x4004325e1e9d39ec	2.5245935813647886
7	0x4006458312ac9117	2.783941408053703
8	0x4008726c83aa97a1	3.0558710371432913
9	0x400aa07ddab1e9c4	3.3283650479836258
10	0x400ca75dbb28c17a	3.581721746617572
11	0x400e5e251a17e772	3.79596920381021
12	0x400fa3285dbe7413	3.954666836142232
13	0x40103079fe3e9b88	4.0473403669083226
14	0x4010471080009591	4.06939888003889
15	0x40101cbaee89aa4a	4.028056838180939
16	0x400f78718c227ebc	3.9338103244807296
17	0x400e68f97bafe856	3.8012571013505676
18	0x400d1678d3d0ae28	3.6359726474818395
19	0x400b94f7126c606f	3.4477368773769324
20	0x4009e48f623a3131	3.2366016077050053
21	0x400817348e68c36a	3.0113307119103654
22	0x40065559e3e12a06	2.791675358113255
23	0x4004a493dafd00eb	2.580360136838967
24	0x40031a196a6d42b9	2.3877437891572666
25	0x4001b50c0101a6b6	2.213401801932231
26	0x40002f637290f88c	2.0231388998500446
27	0x3ffd75713dbd68ca	1.8411724483217307
28	0x3ff9e19def993667	1.6175822600665926
29	0x3ff630b6c4343b46	1.3868930496425533
30	0x3ff242f6da86894c	1.141348699202882
31	0x3ff000f7c49b8cb8	1.0002362899765966
32	0x3fecab370e584ba9	0.8959002762006679
33	0x3fedf1615d0388fa	0.9357153717685656
34	0x3ff05f49878ab698	1.0232634825328315
35	0x3ff152a71ad03e00	1.0826788947487103
36	0x3feca9674e7fb9c6	0.8956791432554432
37	0x3ff536fc01b77373	1.3259239260725877
38	0x3ffa0f5b1f6652e8	1.6287490107108002
39	0x3ffddaea137efc5b	1.8659458886684408
40	0x4000a5a2e17a3846	2.080877076666215
41	0x400262502764481a	2.2980044438818483
42	0x40043f509fd7f78c	2.5309154975684063
43	0x40063fb3fa5ab6e9	2.781104999440562
44	0x40084ae10eac3fc8	3.036562075263621
45	0x400a54ac55726931	3.29134432559399
46	0x400c3884f8096aca	3.5275973680375943
47	0x400de3220886ff16	3.7359047571370736
48	0x400f3fe656fd8cfc	3.9062010570647754
49	0x40101bb027b8542f	4.027039166093387
50	0x4010591c7819ed60	4.087022663671945
51	0x40105481c60ae990	4.082526297012365
52	0x401007c5399fb0c6	4.007588291522728
53	0x400efc46cd72758f	3.873181920104521
54	0x400d772b681242cb	3.6831882601330554
55	0x400ba6cfb879cf79	3.4564508831189724
56	0x4009ab723d9e64b5	3.2087139905894113
57	0x40079dbc24134a36	2.95201900657528
58	0x4005cd50cdfdf64c	2.725251778900917
59	0x4004300db9ab1100	2.5234636788683247
60	0x4002944bf244623a	2.322410481178193
61	0x400110b37d45bbb6	2.1331548487573526
62	0x3ffe392d058a1197	1.888958951604854
63	0x3ffa5d0ade795651	1.6477154436482986
64	0x3ff57305c9676770	1.340581690534659
65	0x3ff16a4c9872b79c	1.0884519534115276
66	0x3fec742f3c080a8e	0.8891826794136521
67	0x3fec94f5de7f4463	0.8931836457869732
68	0x3ff1590460db6e57	1.0842326911432758
69	0x3ffa9ea163922000	1.6637281312450796
70	0x40046be41c508ac3	2.55268118019862
71	0x400db36fde2d79d0	3.7126157148006556
72	0x3fecbe8e58f7e27a	0.8982612359678364
73	0x3ff5278eaf5bccac	1.3221575593895905
74	0x3ff9dbadcbbc2a3c	1.6161325415038297
75	0x3ffd79d39a3162f6	1.8422428153191368
76	0x400063a42edafb32	2.0486529980256813
77	0x40021bfdac5dcd4a	2.263667437183959
78	0x40040781125f3459	2.5036641536048987
79	0x4006276b44ede0f6	2.7692475686163744
80	0x400868d600a891d9	3.0511894275134464
81	0x400aaf04de3ffcc6	3.335458504035702
82	0x400ccb8ee3e8bd89	3.599393635311291
83	0x400e9317c392df81	3.82182266990634
84	0x400fe594483177f7	3.9870992317291853
85	0x4010518609450807	4.079612870062198
86	0x4010633229be1922	4.09687104437606
87	0x40103374f88c537a	4.0502508960388415
88	0x400f9083c56013fa	3.945563833231515
89	0x400e67bd8c7b9398	3.8006545043194357
90	0x400d01ff844d461a	3.6259756408769706
91	0x400b7783d36065f8	3.4333569062989646
92	0x4009cf3987295b2c	3.226183944654073
93	0x4008033789d6f267	3.001570774910124
94	0x4006487141d8c7f6	2.785372270992407
95	0x400485da698a669b	2.5653579945909093
96	0x4002c21876d3979e	2.344773224193843
97	0x40010c839f1bce00	2.1311104231224363
98	0x3ffe66516bc881d8	1.8999799928934547
99	0x3ffadcdd7f7833a3	1.6789221743849587
100	0x3ff6e9a353243548	1.4320405242645666
101	0x3ff28e1752814f3a	1.1596902106147824
102	0x3fea74e23f3bad7b	0.8267680392286104
103	0x3fde0c1e933911fa	0.46948971154441177
104	0x3fb08b42108b0998	0.06462490943798682
105	0xbfceeadd5b0b9658	-0.241542500930495
106	0xbfe95f137dd8a9a0	-0.7928559740005774
107	0xbff0aa44b9af6ee5	-1.0415694478351096
108	0x3fec776388ee21da	0.8895738291185424
109	0x3ff50ffb3df62048	1.3164017124527323
110	0x3ff9dfc76abaad5a	1.6171335381612466
111	0x3ffda31c876a132a	1.852322129213642
112	0x4000876bc74c2710	2.0661235399355817
113	0x4002487411b7efd0	2.285377634454541
114	0x400431b3ff3cd62a	2.524269098323903
115	0x40064944ddfd5496	2.7857758849082286
116	0x400878c6bf7c1312	3.058972831701234
117	0x400aa8516e3d5226	3.3321865665877963
118	0x400cb3a7d29f85ea	3.5877224402363384
119	0x400e6f62f49fe828	3.8043879615115834
120	0x400fb4906e0f9e3a	3.9631661032215364
121	0x40103ca47c8d46bc	4.059221216318914
122	0x401052ee830dab0d	4.080987975796927
123	0x40102da1b6964624	4.0445621995182
124	0x400fad04e36e0b19	3.9594819801290098
125	0x400ec3541ec25c36	3.8453752902092004
126	0x400d9ff53ea18985	3.703104485802387
127	0x400c4e367fe44968	3.5381898871939264
128	0x400ac94302cab0bb	3.3482723444086253
129	0x4008ef52b54ae5bb	3.1168569720727795
130	0x4006f7557b500eb2	2.8707685121351796
131	0x4004d2d399cd1796	2.6029426589693214
132	0x4002a3169872e67e	2.329632941252213
133	0x40008b344212432c	2.067970768148731
134	0x3ffd0058837a31cd	1.8125844131310374
135	0x3ff9f1d8dabdb197	1.6215446991510356
136	0x3ff7b37b4df2753d	1.4813187641914987
137	0x3ff6f35adfd1ce9b	1.4344128363563076
138	0x3ff73860cd93c27b	1.4512641935690727
139	0x3ffb5158c46121ec	1.7073600455352063
140	0x3fffe1a2b1fff288	1.9925867989651653
141	0x4004361b4f3519f3	2.526419276054406
142	0x40094a62bc88ac09	3.161321137352847
143	0x40102e3f6d3d09c8	4.045163828707196
144	0x3fed0f674709f68e	0.9081303012350916
145	0x3ff5777960d8d609	1.341668489750534
146	0x3ffa53aa6ac7a9cb	1.6454261942950434
147	0x3ffe121b94eae313	1.879420835217563
148	0x4000b3795a36b348	2.087633805078813
149	0x40025f4978403cbe	2.2965268511394177
150	0x40042e6bb14a3d2c	2.5226663447171145
151	0x400626843ab0d3b7	2.7688068947995492
152	0x40083c53a62078b0	3.0294564226779457
153	0x400a59d868375300	3.2938697950252163
154	0x400c5eca5e5a7896	3.546284424911458
155	0x400e20b2967d1b85	3.7659656292848376
156	0x400f752a04edb233	3.9322090516127672
157	0x4010225340c84d09	4.033520710206411
158	0x4010459c881f0e97	4.067979933639115
159	0x401022da37ad795d	4.034035558665292
160	0x400f85fa50695bc5	3.940418842520986
161	0x400e6c4e8d6de610	3.802884201923696
162	0x400cf01d36038713	3.6172432155443714
163	0x400b3a6c97cc4cef	3.4035274371359416
164	0x400958ff3ed4f45f	3.168455592035158
165	0x40078b5e502b7f1f	2.943050981833849
166	0x4005ef0461f8a97c	2.7417075780878672
167	0x400499637ab2d0c0	2.574896772939695
168	0x40038f61f5053e1a	2.4450110571122083
169	0x4002a1822c97d3a2	2.32886156881655
170	0x400173a96db96302	2.181475503177695
171	0x400000240cb9cc2b	2.0000687593651683
172	0x3ffc61847189f383	1.7738079486000238
173	0x3ff86a9db2b80db8	1.5260292988976811
174	0x3ff49b894bc9f8d6	1.2879727325921997
175	0x3ff2387eb2057830	1.1387927011451318
176	0x3ff1aa592f358226	1.1040889591314538
177	0x3ff42f011fe87586	1.2614756819160404
178	0x3ff8228457c0b236	1.5084269931641194
179	0x4001799db92d8829	2.184382864667914
180	0x3fecf22a98ed996a	0.9045613276364695
181	0x3ff538c20a88a8e2	1.3263569270589461
182	0x3ff9e8f721d1e25c	1.6193763085449495
183	0x3ffd8cec491b255f	1.8469050269798897
184	0x400073e461f5b283	2.056587949095332
185	0x4002365487d1d33e	2.276528416720253
186	0x40042eb703f5a24d	2.5228100118004364
187	0x4006580a3345adc7	2.792988205493859
188	0x400891db2b868de3	3.0712188148915955
189	0x400ac1bc7c116ec6	3.3445977871723214
190	0x400cb5950fabc5cb	3.5886632179542395
191	0x400e4bb0fce0770e	3.7869586711884784
192	0x400f75a61ab18df1	3.9324457250056573
193	0x40101455a2f22621	4.019857927350615
194	0x40103161b95801a6	4.0482243499722355
195	0x401019e186bd4328	4.025274377156883
196	0x400fa1a1669aa730	3.9539211288401006
197	0x400ec1a917b09bb2	3.8445607996722737
198	0x400d99a8cb920240	3.7000289825375887
199	0x400c38b1fca1960c	3.5276832329570933
200	0x400aa3dfefb1a74f	3.3300169683542786
201	0x4008f761905adc56	3.120791557095383
202	0x400734a456491f26	2.9007040730538334
203	0x4005761f8c7a1c2e	2.6826773619427717
204	0x4003ac0d3c0e8f70	2.459009617990823
205	0x4001bc962649c908	2.217083262564419
206	0x3ffecb506fee337f	1.9246372577938187
207	0x3ffa2ff51231a9da	1.6367083273604437
208	0x3ff578ac9dee4c6a	1.3419614953206982
209	0x3ff190ec5c8135f8	1.0978816617456442
210	0x3fee6a1c088882e0	0.9504528204598408
211	0x3ff057bcfb730e38	1.0214204618686278
212	0x3ff312a3c98f0a5e	1.1920507310284374
213	0x3ff9db676ec9ea56	1.616065438049778
214	0x40008ee1c7e4d107	2.0697665802673586
215	0x40062a07f5909a5a	2.7705229935411753
216	0x3fec4a57e74be00b	0.8840751187808576
217	0x3ff506657c772dc9	1.3140616285262345
218	0x3ff9e584cb360a8e	1.6185348451550996
219	0x3ffdbb05d33aab2b	1.8581598521365759
220	0x40009a1285911d5f	2.0752306399260045
221	0x40025f7dabd13736	2.296626417467361
222	0x40044a36e44eee6e	2.536237510355753
223	0x4006600bc1e78928	2.796897425535594
224	0x40088dfa8f14be7b	3.06932555944496
225	0x400ab6d410309c1e	3.339271666034178
226	0x400cb89bf722f824	3.590141230349234
227	0x400e684783e1d63b	3.800917654351705
228	0x400fa9a6a1f22f86	3.9578373577150527
229	0x4010342a5feb6eab	4.050942896599433
230	0x40104a5179b97de1	4.072576429316059
231	0x4010176ec973ed77	4.022883556080493
232	0x400f55f2a686a838	3.9169667253345573
233	0x400e2b502831e09e	3.7711489811154726
234	0x400ccf3bf213bc72	3.601188555934237
235	0x400b54b58b53b5cc	3.416361893169528
236	0x4009cbc45d9179de	3.224495631219937
237	0x40083528a199ca2b	3.0259564042146585
238	0x4006aa0728d8c268	2.8330214682721824
239	0x40051c0f9f51b902	2.6387016722502503
240	0x400396fca9e5e05c	2.4487241051938735
241	0x40022bc3b2e21a33	2.271369359517189
242	0x4000af8ab3aeff4a	2.0857137716083445
243	0x3ffec694220d74aa	1.9234811144045048
244	0x3ffbc6ddab200350	1.7360512432644164
245	0x3ff8aa28cc67cf4e	1.5415428146925083
246	0x3ff6312fdc3d5167	1.3870085337740308
247	0x3ff4b301641c4cc2	1.293702498490163
248	0x3ff1fe11299cfa90	1.1245280862346227
249	0x3feedf96965377ee	0.9647934852653159
250	0x3fe3eaf2d5fcaa3e	0.6224302462990818
251	0x3fb81aea8ba12578	0.09416070851252367
252	0x3fecde8d7a60582b	0.9021670713580127
253	0x3ff538f7aa3d45fa	1.3264080667471476
254	0x3ff9f70c4f1d0222	1.6228144731868572
255	0x3ffd9b67db2cb4be	1.8504408418187235

slopes f8 [100, 36, 7]
0	0x3fa53fc4a2cb9702	0.04150213706252083
1	0x3fdb2994c367817b	0.4244129093404109
2	0x3ff702f5aaecac6a	1.4382225682009229
3	0x3f5695826c39c28d	0.0013784192714433624
4	0xbf70c0084aff2db4	-0.0040893863624193345
5	0xbfb005d7a1719ed8	-0.06258914653301006
6	0xbf884e611e6ae6b0	-0.011868246784945441
7	0x3f70aaf5309cd441	0.00406928803731882
8	0x3fdda462e00f04fa	0.46315833931664907
9	0x3ff6f01f8c243b45	1.4336238359716884
10	0xbf33e09e08fab400	-0.00030330522802551885
11	0xbf6feddf6dc424bc	-0.0038976062625165325
12	0xbfb57c28e1dc2776	-0.08392577661666487
13	0xbf8970424b7b6e00	-0.012421148232014012
14	0xbf9683a1975f6b78	-0.021986508239801833
15	0x3fdf9daa42bf0662	0.49399811285193185
16	0x3ff6b4ca3d6bb950	1.419138183522211
17	0x3f05b0fc4081a000	4.137296497291887e-05
18	0xbf71d610592a8346	-0.00435453783089274
19	0xbfbb29366b9070bc	-0.10609760404662699
20	0xbf8b152e17096c84	-0.013223991468455994
21	0xbfa5bf4d510117ec	-0.04247514356443091
22	0x3fe085ffaed485f6	0.5163572706844082
23	0x3ff64b087e59538c	1.3933186469559784
24	0x3f65b2aa002953f8	0.002648670227510138
25	0xbf765ffab10bdaf6	-0.005462626708996101
26	0xbfc056e8c5a91132	-0.12765226031673077
27	0xbf8cab6cd7f772f0	-0.013998842564370645
28	0xbfaf6d918c5000d1	-0.06138281667517876
29	0x3fe0f81600ad74fc	0.530283929179546
30	0x3ff5b35ad47b6e62	1.35628779412118
31	0x3f7e9482cb0fc200	0.007465849791501444
32	0xbf7cfdbc43cd728c	-0.007077918443283548
33	0xbfc2ca83cad4f4e8	-0.1468052616491271
34	0xbf8d6c7bdbce564e	-0.014367072720953857
35	0xbfb4b81fc70ee99d	-0.08093451127834901
36	0x3fe12a2fdbac88d3	0.5363997736460767
37	0x3ff4f2379f160d46	1.3091350759794564
38	0x3f8cd65ad41d6640	0.014080724333029981
39	0xbf8249f782d98208	-0.008930143051828501
40	0xbfc4b8c799f420ca	-0.16188902871386396
41	0xbf8d762ffd1a4260	-0.01438558093221437
42	0xbfba328361a16b48	-0.1023332703929728
43	0x3fe123db2ad2c973	0.5356269680399194
44	0x3ff40ce9bd1ced14	1.253152598116519
45	0x3f965c396f3b1130	0.021836182989106223
46	0xbf85af96066150b0	-0.010588810033518165
47	0xbfc5f5c90911f370	-0.17156327193142884
48	0xbf8d32c668e05f3e	-0.014257001948905331
49	0xbfc0170b342e8404	-0.12570323989805854
50	0x3fe0ef7944855f02	0.5292326296139154
51	0x3ff309443f2f4506	1.189762350859668
52	0x3f9ee4f6c500342c	0.030170303129171724
53	0xbf88192d3fb0f020	-0.011766770845604013
54	0xbfc668e87e1c9aca	-0.17507654340552953
55	0xbf8d920dc3d4fedf	-0.01443873170740012
56	0xbfc3395e78ae240c	-0.15018826382245754
57	0x3fe0968b712997af	0.5183770380215175
58	0x3ff1edc375f89d3a	1.1205477340934764
59	0x3fa3b22fb2b0c640	0.0384688287380297
60	0xbf8948f3017324f0	-0.012346170884841773
61	0xbfc611ab7bbfbb35	-0.17241424124173368
62	0xbf8f31c03d3661c4	-0.015231611125998586
63	0xbfc65bd8a0a6b955	-0.17467792362499304
64	0x3fe022a30876a71d	0.504228130846261
65	0x3ff0c29256e0e051	1.047502841347541
66	0x3fa7b2d6e282fc80	0.046286311292981885
67	0xbf89ab504a7734d0	-0.012533786079894332
68	0xbfc503244cec512d	-0.16415838008891495
69	0xbf914fa298a839ef	-0.01690534645791247
70	0xbfc9454965335cb6	-0.19742696229397944
71	0x3fdf3d49e012de48	0.48811575777242355
72	0x3fef259c3fa811d5	0.9733411067286918
73	0x3fab5486b503dcc4	0.0533792587247546
74	0xbf8a02fda0821900	-0.012701016865559911
75	0xbfc359d90a69fbeb	-0.15117943771835426
76	0xbf93f72bef5351a5	-0.0194975724051162
77	0xbfcbbcf148b0f63b	-0.21670356797578613
78	0x3fde2c8be4eb3b62	0.47146890025481103
79	0x3fecd4036c4a8b2f	0.9008805384695274
80	0x3fae760c50ba25e0	0.059494385580432185
81	0xbf8b47fb9dca7a10	-0.013320890190979845
82	0xbfc13eec313b206d	-0.13473274616103784
83	0xbf97b58691b9c100	-0.02315340294302448
84	0xbfcd9516f5b00f57	-0.23111235615226164
85	0x3fdd27d1750203c2	0.4555553095488528
86	0x3feaab37bceab16e	0.8334006013661062
87	0x3fb07dcc5f058bc7	0.06441953010430189
88	0xbf8e2c73175730c0	-0.014733218335912901
89	0xbfbdb1fed17688b6	-0.11599724401324604
90	0xbf9c4e5e8260e1a0	-0.02764270468489516
91	0xbfceb1eace13e036	-0.23980460226425898
92	0x3fdc3f4932b2f028	0.4413626666171262
93	0x3fe8bef2eb79d9a7	0.7733091925754721
94	0x3fb16a2b0eb5f17d	0.06802624806545583
95	0xbf918ed1f02383ff	-0.017146377832322198
96	0xbfb8878147c2a712	-0.09581764223062475
97	0xbfa10eb522074f54	-0.03331533470523476
98	0xbfcf08c5eb528482	-0.24245523443554268
99	0x3fdb811f8b6659c8	0.4297560559583897
100	0x3fe716a1d069a7c1	0.7215127058564051
101	0x3fb200555affe61a	0.07031758758230247
102	0xbf94f35149ea4164	-0.020459432732026342
103	0xbfb337f15bb73192	-0.07507236947203058
104	0xbfa45954b3f6f86b	-0.03974404045901355
105	0xbfceaeedd867cdc1	-0.23971341196702947
106	0x3fdafa7db9abfc5c	0.4215387643052446
107	0x3fe5ba1315c42b06	0.6789641785738645
108	0x3fb2428228904252	0.0713273381263744
109	0xbf9923290987a348	-0.02454818840661524
110	0xbfabd747d8c2fd8c	-0.05437683602348917
111	0xbfa7e520df85a8f4	-0.04666998604337094
112	0xbfcdc3da24c2a641	-0.23253943247736866
113	0x3fdaa4ac5ea9c030	0.41630086178247705
114	0x3fe4a185cd54fa57	0.6447171221150921
115	0x3fb2340ffedb30ac	0.07110691043925738
116	0xbf9dd85f20aa29e8	-0.02914570462102431
117	0xbfa1d6febff87f5c	-0.03484340756790402
118	0xbfab9f22fd458a60	-0.053948491494129724
119	0xbfcc71519a3c493e	-0.22220821410207664
120	0x3fda741193f3df38	0.4133342690324642
121	0x3fe3c541287e52a9	0.6178289214027092
122	0x3fb1dfbb72bb3b14	0.06982013274248927
123	0xbfa1664d3b588fe0	-0.03398362492978868
124	0xbf91547e3951ef88	-0.01692387795308961
125	0xbfaf4002efb486a7	-0.061035243760000406
126	0xbfcac957f5e9d491	-0.20926951892366621
127	0x3fda5475b0e0be18	0.41140501282913666
128	0x3fe31ad0d50484ef	0.5970234070302051
129	0x3fb14614cd755fc7	0.0674756051643036
130	0xbfa3d62bb557e8a4	-0.038743368040699694
131	0xbf5746e0d05d1f40	-0.0014207072685667593
132	0xbfb172255079a21a	-0.06814797606205794
133	0xbfc8e791d533264f	-0.19456694517275472
134	0x3fda3b504a67fb84	0.4098702170012347
135	0x3fe295252eb5e8de	0.5807062065425972
136	0x3fb07802c070d13e	0.06433121870287992
137	0xbfa61050bc6d68a8	-0.04309322643412489
138	0x3f86a532c3c70ca0	0.011057278251320135
139	0xbfb33aae328c152c	-0.07511414274275258
140	0xbfc6d02e0afb2065	-0.17822814499072873
141	0x3fda01ea3f206d3c	0.4063668838950496
142	0x3fe2233b9e48e9d0	0.5668008891582819
143	0x3faf273772f9358c	0.06084607389912397
144	0xbfa7e183f069217a	-0.046642420861249215
145	0x3f94a47050d3ad0c	0.020158533986358626
146	0xbfb507716a8ee33d	-0.0821448216583009
147	0xbfc49b8021b90de6	-0.16099549910187178
148	0x3fd9a4016b3c5278	0.40063510391454527
149	0x3fe1a389c3a7d3b0	0.5512131520650794
150	0x3fad3d15463192bd	0.0571066520867922
151	0xbfa92c0b8876399e	-0.04916416207116757
152	0x3f9a882eef3055b3	0.025910123204160928
153	0xbfb6df52bf83230b	-0.08934514213173032
154	0xbfc27bd5494888c4	-0.1444040878132623
155	0x3fd920e342655362	0.3926323078533668
156	0x3fe114e356539f07	0.5337998090808193
157	0x3fab6f0af2286b02	0.05358156400708049
158	0xbfa9a870068af7c3	-0.0501132019030446
159	0x3f9ddbb00799d5e4	0.029158354247973764
160	0xbfb8c55fbaf44e4e	-0.09676168741526078
161	0xbfc078e88b5d6596	-0.12868983082698254
162	0x3fd8701fba0026f6	0.3818435017025047
163	0x3fe0623e16787bb2	0.5119924963836324
164	0x3fa9a2b3ae73eff2	0.05006944183875807
165	0xbfa967a5cb34503e	-0.04961889367601245
166	0x3f9f576461f5fa4c	0.030606811980300727
167	0xbfbaad0f8234f43e	-0.10420319489362925
168	0xbfbd5560801074a2	-0.1145839989334996
169	0x3fd7ab00bc47e824	0.36981218706898944
170	0x3fdefdb4bf820068	0.48423498823104305
171	0x3fa7f02e99feb758	0.046754318521705585
172	0xbfa869edc33d6cea	-0.04768317230510795
173	0x3fa0100812c705f9	0.03137231091706023
174	0xbfbc3bbe9e0ee1d4	-0.11028663023797175
175	0xbfba1d59ce90e3b7	-0.10201035779108635
176	0x3fd6d01efd9ec4b8	0.3564527012595806
177	0x3fdcfccfc869e6e1	0.4529303986706577
178	0x3fa5da4fa67fd1dc	0.04268120677435025
179	0xbfa6f5ef022f8e0f	-0.044845074669663025
180	0x3fa04965587876d9	0.031809966134671526
181	0xbfbd894ad62c2e78	-0.11537616471121648
182	0xbfb69b5d3c3cef24	-0.08830816956190951
183	0x3fd60557c3b5f83b	0.3440761004675356
184	0x3fdac47fc731b415	0.41824335529855833
185	0x3fa3a38b8f24f5e8	0.03835712549560438
186	0xbfa4fe4b8b5fa1b0	-0.041002617610334524
187	0x3fa12b5a8f347df7	0.033533887845120285
188	0xbfbe47d0084948bd	-0.11828327371884746
189	0xbfb33fe82921380f	-0.07519389156479427
190	0x3fd55df949352824	0.33386070393737755
191	0x3fd8d4425de053a8	0.3879552761803162
192	0x3fa0ede754bc33a8	0.0330650607048491
193	0xbfa2c839b91f1170	-0.03668384918958878
194	0x3fa2c9b134b646d2	0.03669503944833043
195	0xbfbe4b0162bfe676	-0.1183319917762676
196	0xbfae345c5b802862	-0.05899323098135835
197	0x3fd4e05954e40f79	0.32619317331431535
198	0x3fd6bb0018d662d1	0.3551635973504235
199	0x3f9cd92ad8b87790	0.028172177770208473
200	0xbfa0762dffeffc78	-0.032151639454235104
201	0x3fa57075c429ad95	0.04187362689557542
202	0xbfbdbfbcc9ae0cd5	-0.11620693134141231
203	0xbfa59ed85256437c	-0.04222751622285778
204	0x3fd4928529804b6f	0.32144288113447933
205	0x3fd501fdf1a05ebc	0.32824658008892604
206	0x3f97a2645eb14cd0	0.023080414084984124
207	0xbf9c2e72a8ad94b0	-0.02752093462494959
208	0x3fa9966bd693f842	0.04997574800835071
209	0xbfbcc4e7d589dadf	-0.11237954104749857
210	0xbf98e8136e62e906	-0.02432279931301997
211	0x3fd4975e60735a2a	0.3217388097668016
212	0x3fd34ecc82d97164	0.3016845014406242
213	0x3f93b4054564e7de	0.01924141155289038
214	0xbf96e92c53389330	-0.022373859958082665
215	0x3faf174f9a98caaa	0.06072472345512854
216	0xbfbb702ca70dbf72	-0.10718039587459119
217	0xbf8c96957ac2de5c	-0.013959091004252126
218	0x3fd4e9dbf51ede77	0.3267736333614048
219	0x3fd2054961c0da04	0.28157267137740427
220	0x3f8fd7edd62a2354	0.015548570726666412
221	0xbf92565ecd9e2910	-0.01790760164252797
222	0x3fb32b4df0407ce2	0.07487952342534102
223	0xbfba454b0974723a	-0.10261982899505365
224	0xbf7b14e12afbcf14	-0.006611709177139397
225	0x3fd4d67cf86646f2	0.32559131868138913
226	0x3fcf2275913b09eb	0.24323911277140495
227	0x3f86e2c7f49534d8	0.01117473807485185
228	0xbf8f69d7c1a02c70	-0.015338597866522558
229	0x3fb6f07e07e757b4	0.08960712140046106
230	0xbfb96093fe70a71d	-0.09912991487422258
231	0xbf83f63d24dd9b53	-0.009747007072019953
232	0x3fd4c04c25db75f3	0.3242369050693405
233	0x3fc86a4d70e84733	0.19074409497312103
234	0x3f7c3831d96c0d10	0.006889528964850969
235	0xbf90bf5ac1a97e58	-0.016354959554858745
236	0x3fbc206fd471335a	0.10986994682862186
237	0xbfb9035c05c1be26	-0.09770751133486807
238	0xbf90757a89504507	-0.016073145514444522
239	0x3fd5375c0bbbd3c3	0.331503879030887
240	0x3fbf5c21ecf69e8f	0.1224995807193585
241	0xbf487cabb18b1af0	-0.000747283777933953
242	0xbf9652e3f5a7d258	-0.021800577038407404
243	0x3fc153ca13e1099d	0.13536954851776964
244	0xbfb84418a87f55b6	-0.09478906739908308
245	0xbf946bb0ed2beba1	-0.019942059016993977
246	0x3fd68a0b312d1d81	0.3521755199658046
247	0x3fac0056daca2a42	0.05469008847019953
248	0xbf8288c1da140f20	-0.0090499062230332
249	0xbfa27cbd569a7950	-0.03610793764277054
250	0x3fc5f7db68709b04	0.17162649726488877
251	0xbfb64f97364d9b94	-0.08715195728073716
252	0x3fa507129f79a0a9	0.04106958576886772
253	0x3fdb47343a6d4829	0.42622094827413776
254	0x3ff6ea62fc4b5c4b	1.432223306202803
255	0x3f56a195060d64f0	0.0013812976178171864

scatter f8 [100, 36]
0	0x3fd45903d3b7339a	0.317933041337534
1	0x3fd41d1470d02847	0.31427489296823236
2	0x3fd3d2f38f754046	0.30975045213290675
3	0x3fd37762a3455180	0.30416170067226034
4	0x3fd30bc46608576d	0.29759321178550274
5	0x3fd294c8aa0fa466	0.2903310452225639
6	0x3fd217a01bfcba38	0.28269198163153275
7	0x3fd198dcd234a8e0	0.27495499160671777
8	0x3fd11b8c59a599ac	0.26730641130998367
9	0x3fd0a209b0794a06	0.2598900054337324
10	0x3fd02e65992fbc4f	0.2528318401300042
11	0x3fcf845857711731	0.24622635144822305
12	0x3fcebe7a920cb5af	0.24018795138674195
13	0x3fce0bece807c8c3	0.23473893479928706
14	0x3fcd6aced1bfbf0d	0.22982201806689098
15	0x3fccd7a33e4fb49f	0.22533073942705514
16	0x3fcc4f3cdfbba667	0.2211681454130485
17	0x3fcbcc8433ea5187	0.21717884573866916
18	0x3fcb4ef2d70d0c74	0.2133468198827334
19	0x3fcad3b3ebb72cc5	0.20958565721080027
20	0x3fca5b32d438e730	0.20590815889755154
21	0x3fc9e23683c8876b	0.20221597132427446
22	0x3fc96d661771f192	0.19865108628063105
23	0x3fc8f9c6c6f7881e	0.1951225730436485
24	0x3fc88d61f54fbec4	0.19181465604878245
25	0x3fc824be6804d886	0.18862133101510298
26	0x3fc7c524e5bbf95c	0.18570386140340644
27	0x3fc767dea5ea08d6	0.18285735226897398
28	0x3fc70d9ef90b7495	0.1801031795538718
29	0x3fc6b3da44413601	0.17736366589308264
30	0x3fc6690f3aaeb2c1	0.1750811611685972
31	0x3fc626592393a75a	0.17304529416224562
32	0x3fc6063a2225b25b	0.1720650355085976
33	0x3fc6003964d3ea2b	0.17188184188110375
34	0x3fc618422e487cb3	0.17261531124038285
35	0x3fc66f37571ea23d	0.17526904825105474
36	0x3fd4594be332e8ff	0.31795022189511707
37	0x3fd41d6415a1eef0	0.3142938815360443
38	0x3fd3d3bb5d80aa27	0.30979808932412073
39	0x3fd379046332704c	0.30426129996499607
40	0x3fd30eb05dbf44b6	0.2977715411662517
41	0x3fd2998c9106b9af	0.29062189257356413
42	0x3fd21e64e6f96680	0.28310511165691565
43	0x3fd1a1d08ac0a7f1	0.27550138044409694
44	0x3fd126b51ef6cb60	0.26798751853782754
45	0x3fd0aeef86419a2c	0.2606772242637898
46	0x3fd03c48ead496ce	0.25367949421557234
47	0x3fcf9f967ad3bf6c	0.24705773351115157
48	0x3fced6c016dfb4e1	0.24092866055381193
49	0x3fce1f48b655b2fc	0.2353297128969628
50	0x3fcd7862c35a9068	0.23023638285406212
51	0x3fcce0ad572f2f4e	0.2256066013054529
52	0x3fcc56450be77630	0.2213827427030295
53	0x3fcbd3a91ea2745d	0.2173968696196508
54	0x3fcb58c2f219c926	0.21364628621410836
55	0x3fcae2b3f9707ed8	0.21004342727336822
56	0x3fca7240c3145f28	0.2066117241417882
57	0x3fca0444a57d9bb8	0.20325525360678198
58	0x3fc9a0e202d8a90a	0.20022225512486386
59	0x3fc94129e19aff2e	0.19730113521472376
60	0x3fc8e9b5404ecdf8	0.19463220253020075
61	0x3fc8903a036e46f2	0.19190144698637074
62	0x3fc838637f3698d6	0.1892208453329604
63	0x3fc7cbadd3123c9e	0.18590328985417143
64	0x3fc74de29a7bee3c	0.18206436675233018
65	0x3fc6b64e3f0ca4b6	0.17743852690299428
66	0x3fc61a6aa95dfa09	0.17268117208364256
67	0x3fc57ec6b4e52056	0.1679314025188911
68	0x3fc4fb42e90d3733	0.16391788844560437
69	0x3fc482d71f4a9075	0.16024292972463497
70	0x3fc405440e7dee1b	0.156410700870638
71	0x3fc37bd327d4c903	0.15221633381731445
72	0x3fd45d84070c9657	0.31820774734874163
73	0x3fd42085536c0881	0.31448491236381676
74	0x3fd3d5706d5c590b	0.30990229301222944
75	0x3fd3795c3111ac1a	0.30428223411462485
76	0x3fd30d8a805ffb95	0.29770147835363875
77	0x3fd29678f43bad37	0.2904341111268027
78	0x3fd218cb77a17707	0.28276335413635006
79	0x3fd198afff751869	0.2749443049145897
80	0x3fd1196614af24b4	0.2671752168649377
81	0x3fd09d16686967f1	0.25958786198100287
82	0x3fd026b5f066daea	0.2523627135919201
83	0x3fcf70ca66a50877	0.24562959682413396
84	0x3fcea7da24089f93	0.23949743995148917
85	0x3fcdf2a12fd91346	0.23396696888280583
86	0x3fcd4f3d4fad312f	0.22898069754081393
87	0x3fccb8818d9984bf	0.22438067831084216
88	0x3fcc2c4891b6f7d4	0.2201014243600513
89	0x3fcba6da1325feb5	0.21602941451054894
90	0x3fcb27393b53b185	0.21213450810263282
91	0x3fcaac335c1b837b	0.20838014600215246
92	0x3fca358ead61aa90	0.2047594400967978
93	0x3fc9c0af68909f05	0.20119278531750964
94	0x3fc94fdbe804d76a	0.19774960354851184
95	0x3fc8dfc248f94959	0.19432858050511007
96	0x3fc8728a75116154	0.190995509302193
97	0x3fc8048073fcbe0a	0.18763738311234618
98	0x3fc79847e480e8d0	0.1843347421398165
99	0x3fc729331eb24881	0.180944814671026
100	0x3fc6b7be736c5b76	0.1774824203100384
101	0x3fc6451e842809b4	0.17398435070942997
102	0x3fc5de0f888f919f	0.17083925407417852
103	0x3fc5854176f87a70	0.16812914189445705
104	0x3fc5482f1a523d70	0.16626538071839603
105	0x3fc5278bd5f5316c	0.16526935526998032
106	0x3fc501280f6a6285	0.16409779312813924
107	0x3fc4eae2e821511d	0.16341816267471013
108	0x3fd4626e7bccd97c	0.31850778665411617
109	0x3fd42706c5301b6d	0.31488198525078454
110	0x3fd3dcea9e981c3a	0.31035867202485046
111	0x3fd380b3fd23772a	0.30473041267929324
112	0x3fd313fb5f066710	0.29809459953104156
113	0x3fd29bdc9f247940	0.290763049519132
114	0x3fd21de386931c57	0.28307426588111667
115	0x3fd19f048a0b7839	0.27533067208230794
116	0x3fd121c4cd8065b5	0.26768608158598833
117	0x3fd0a80463e880fa	0.26025495297109524
118	0x3fd0336e12179be3	0.2531390358621463
119	0x3fcf8aaf0c13cd1d	0.24641979303087505
120	0x3fcebfd65ed818d2	0.24022941237507794
121	0x3fce06681bb2b995	0.2345705161328168
122	0x3fcd5d0d6aa032e9	0.22940223413788566
123	0x3fccbf74bedabdca	0.2245927745729957
124	0x3fcc2d00caf430e2	0.22012338552338578
125	0x3fcb9e80f2f15e13	0.2157746492618889
126	0x3fcb19c5baeaeca2	0.21172401072349084
127	0x3fca9dc2760d94e0	0.20793944134053444
128	0x3fca2a6b8febc36d	0.2044195606936471
129	0x3fc9c003baccaea6	0.20117231961318288
130	0x3fc95fcf48864ceb	0.1982363800167158
131	0x3fc90388204825ac	0.19542028023015
132	0x3fc8a81a71557f94	0.19263010534177438
133	0x3fc8468e907d0ee8	0.18965322547057117
134	0x3fc7e3edfe0bb9d5	0.1866433611352948
135	0x3fc7784403ceabb1	0.18335771737960507
136	0x3fc70a2a3bee7615	0.17999771047918559
137	0x3fc6908fc7b6081e	0.17628667117611568
138	0x3fc62c5bec35827e	0.17322873147624657
139	0x3fc5c6c770b1ba81	0.1701287555947211
140	0x3fc58baf83c5a98d	0.16832536634622067
141	0x3fc53303addf4b2d	0.16561933507781515
142	0x3fc4d3cb0999e936	0.16271341294106784
143	0x3fc45065b90a872c	0.15870353255473313
144	0x3fd45d9561d628ed	0.3182118850169349
145	0x3fd4214ed365376b	0.31453295368270656
146	0x3fd3d6bbccf40fa8	0.30998129858948653
147	0x3fd37a97e2ce43aa	0.3043575014972314
148	0x3fd30e4b0a9c53ab	0.29774738346287205
149	0x3fd2964f6bacbb5c	0.2904242087851594
150	0x3fd217996beed372	0.2826903871567118
151	0x3fd196c79f32d41a	0.27482786699994366
152	0x3fd1171548cd5bba	0.2670338831862257
153	0x3fd09b306a88b144	0.259471992528024
154	0x3fd0251c932cea4b	0.2522651135692839
155	0x3fcf6dbb2df352a8	0.24553622955013066
156	0x3fcea54791a5a6c6	0.239418932072388
157	0x3fcdf121dfe2ce86	0.2339212744897063
158	0x3fcd4e4510d35172	0.22895110436969507
159	0x3fccb84a94574fae	0.22437412493911552
160	0x3fcc2c7f352c39c9	0.2201079377777673
161	0x3fcba712cbbf6caa	0.21603617619152732
162	0x3fcb27638d23def2	0.2121395529900308
163	0x3fcaaa2eff279286	0.2083185907241793
164	0x3fca31765a814bb3	0.20463447016899536
165	0x3fc9b83dadc68615	0.20093508706217791
166	0x3fc9466f9dfcae7d	0.1974620362683374
167	0x3fc8d937ab35036d	0.1941289506885612
168	0x3fc8794a3141846e	0.19120147137713012
169	0x3fc8275201ede5c0	0.1886999616070124
170	0x3fc7e6234a0ad7ec	0.18671074977254365
171	0x3fc7b3519e145d48	0.1851598760483546
172	0x3fc79397bcd83964	0.18419167252472868
173	0x3fc7832312509a45	0.18368948358802775
174	0x3fc786d416669132	0.18380213826925168
175	0x3fc783d05fa44113	0.1837101428032005
176	0x3fc7991612eb3377	0.18435932086722648
177	0x3fc7873ec8b0e538	0.18381485747685544
178	0x3fc75b3f88169f6b	0.18247217316570227
179	0x3fc6ede8350c26b0	0.17913534727295177
180	0x3fd45a1d6b8f21e3	0.31800017837352196
181	0x3fd41d1d2cbe3ca4	0.31427697534031496
182	0x3fd3d33c7ec5d604	0.30976784114986367
183	0x3fd379bc46efae95	0.3043051426636592
184	0x3fd3117057e076a2	0.2979393823787665
185	0x3fd29e4d8443f096	0.2909120360998342
186	0x3fd223e8e5dea9d1	0.2834417576620157
187	0x3fd1a5cfeba472ba	0.27574537288618794
188	0x3fd126ebdfb31b86	0.26800057264011234
189	0x3fd0a91e01d0de38	0.26032209565480313
190	0x3fd02fa760ed1383	0.2529085585159054
191	0x3fcf7a87257ec33b	0.24592675524538685
192	0x3fcea94c1c3be340	0.239541543756582
193	0x3fcded36a8f805fd	0.23380168199950893
194	0x3fcd4412057cac64	0.22863984363479795
195	0x3fccaabc436ed30e	0.22396043102858026
196	0x3fcc1d30cfc1c2e8	0.21964082855585976
197	0x3fcb959d2a042124	0.21550335456436998
198	0x3fcb13469f3170bb	0.21152575276471972
199	0x3fca92f24506488c	0.20760944719637953
200	0x3fca172f8f47698d	0.2038325738529462
201	0x3fc99eeda2b6079e	0.20016260571361227
202	0x3fc92f052b057f40	0.19674744225175722
203	0x3fc8c2d024acfa78	0.19344522276692877
204	0x3fc85fab97d5f58f	0.1904196254144321
205	0x3fc7fbeb710db6c8	0.1873754789370905
206	0x3fc7990b23dba49b	0.18435801745298339
207	0x3fc72bca448e281e	0.18102386805941334
208	0x3fc6b01e01eb2b01	0.17724967092211588
209	0x3fc6212fcdac2caa	0.17288777868848132
210	0x3fc59d6e09c4e706	0.16886687733659062
211	0x3fc520098524c656	0.16504019738345005
212	0x3fc4cb27092548a2	0.16244972178043776
213	0x3fc4959b710a31dc	0.160815649218775
214	0x3fc476866025add7	0.1598670930355712
215	0x3fc47449e9496589	0.15979884997322483
216	0x3fd45838f76e0252	0.31788467562731626
217	0x3fd41bd127f782c7	0.31419781592380186
218	0x3fd3d13dabe72fa0	0.30964605128678535
219	0x3fd37562a2fd7245	0.30403963009829155
220	0x3fd309e8e26578d2	0.29747984036465625
221	0x3fd29398357bf5e6	0.2902584574038357
222	0x3fd217854254f330	0.28268558004110655
223	0x3fd19a384337eec0	0.27503782810502386
224	0x3fd11e2cc30c5703	0.2674667267577748
225	0x3fd0a58e3c1f7f73	0.2601047122134254
226	0x3fd031f85cbe7235	0.253049936838383
227	0x3fcf8a0a5e326708	0.24640016173798807
228	0x3fcec210c74b9854	0.24029741030898555
229	0x3fce0d0e27546db7	0.2347734157600436
230	0x3fcd69e2cc11c73b	0.22979388202980452
231	0x3fccd4f0079dd774	0.22524834033873342
232	0x3fcc4c4a40bb6bbb	0.22107818756816563
233	0x3fcbca239d8afdfc	0.2171062964680316
234	0x3fcb4daa01145bb3	0.21330761959754127
235	0x3fcad5630c0bb5c3	0.20963705146952635
236	0x3fca62039d67ddc7	0.2061161535818725
237	0x3fc9ee408604033a	0.20258337539419263
238	0x3fc97f287fa1b007	0.19919306022654856
239	0x3fc90fa2b7d38ded	0.195789661177613
240	0x3fc8a2ff3e1f566e	0.19247427495308805
241	0x3fc83475d82d8f4a	0.18910096221508815
242	0x3fc7cccc41e7c9da	0.18593743532217283
243	0x3fc7626578a46827	0.18269031897290341
244	0x3fc6f769cdcb9ab4	0.1794254546031958
245	0x3fc6860b0e9fb01e	0.17596567358066378
246	0x3fc60e157a2557a7	0.17230480636743303
247	0x3fc5828fb1348952	0.16804691460226678
248	0x3fc50057637b509a	0.16407291753296677
249	0x3fc496f71810fec1	0.1608570926200539
250	0x3fc432457e4b8433	0.15778416315791474
251	0x3fc419faa34e987c	0.15704281782126717
252	0x3fd45877ff86d8e2	0.31789970353874086
253	0x3fd41c30f8f90617	0.31422066034073864
254	0x3fd3d1b993dda913	0.30967559280419826
255	0x3fd376291c94b4b8	0.3040869502172643

Maxvals f8 [11]
0	0x402d25d83e9e8f5c	14.573915440421551
1	0x402c622a7c72490e	14.191730393362857
2	0x402c0cbf29cceda8	14.024895960107486
3	0x402be0512b39dfbd	13.938119269194312
4	0x402bba5b2a3ebec5	13.863976783904386
5	0x402ba9c94a8ee7f7	13.831613855309099
6	0x402b80d0030ddaae	13.75158700508231
7	0x402b608fe33824dc	13.68859777508117
8	0x402b3a5752dc7776	13.61394747678035
9	0x402b03d0a01dc9f7	13.50745106090197
10	0x402aae68ad7e8284	13.340642377560705
