Data/SIMBA/Model_snap17.npz (npz, 261202 bytes, 5 tensors)

x f8 [36]
11.0 11.1 11.2 11.299999999999999 11.399999999999999 11.499999999999998 11.599999999999998 11.699999999999998
11.799999999999997 11.899999999999997 11.999999999999996 12.099999999999996 12.199999999999996 12.299999999999995 12.399999999999995 12.499999999999995
12.599999999999994 12.699999999999994 12.799999999999994 12.899999999999993 12.999999999999993 13.099999999999993 13.199999999999992 13.299999999999992
13.399999999999991 13.499999999999991 13.59999999999999 13.69999999999999 13.79999999999999 13.89999999999999 13.99999999999999 14.099999999999989
14.199999999999989 14.299999999999988 14.399999999999988 14.499999999999988
00000000: 0000 0000 0000 2640 3333 3333 3333 2640
00000010: 6666 6666 6666 2640 9999 9999 9999 2640
00000020: cccc cccc cccc 2640 ffff ffff ffff 2640
00000030: 3233 3333 3333 2740 6566 6666 6666 2740
00000040: 9899 9999 9999 2740 cbcc cccc cccc 2740
00000050: feff ffff ffff 2740 3133 3333 3333 2840
00000060: 6466 6666 6666 2840 9799 9999 9999 2840
00000070: cacc cccc cccc 2840 fdff ffff ffff 2840
00000080: 3033 3333 3333 2940 6366 6666 6666 2940
00000090: 9699 9999 9999 2940 c9cc cccc cccc 2940
000000a0: fcff ffff ffff 2940 2f33 3333 3333 2a40
000000b0: 6266 6666 6666 2a40 9599 9999 9999 2a40
000000c0: c8cc cccc cccc 2a40 fbff ffff ffff 2a40
000000d0: 2e33 3333 3333 2b40 6166 6666 6666 2b40
000000e0: 9499 9999 9999 2b40 c7cc cccc cccc 2b40
000000f0: faff ffff ffff 2b40 2d33 3333 3333 2c40
00000100: 6066 6666 6666 2c40 9399 9999 9999 2c40
00000110: c6cc cccc cccc 2c40 f9ff ffff ffff 2c40

intercept f8 [100, 36]
0.8766421407438759 1.060822846530765 1.1688894844787345 1.2494429739915591 1.337258404088656 1.4545456307313287 1.6101176053159127 1.8044944198420505
2.0323008284091535 2.278871322948618 2.5300411200075494 2.762804545328039 2.9596055470520497 3.110402574020566 3.2041377525824246 3.2386791079125006
3.2188382492705627 3.1440642565985604 3.0197758142527737 2.8589791625044487 2.6810170717067727 2.4894186916145817 2.2948015484139765 2.1049831294860017
1.9180966886253308 1.725595681045914 1.535252817785993 1.3035813831171987 1.0528019404185305 0.7799136177852273 0.4818952891036759 0.26822638044244684
0.08529446030917376 0.19355936782141497 0.3060556934117059 0.2629218099597058 0.8824928276366527 1.0699146308060399 1.1792674191001349 1.2584388412875356
1.3432893838779483 1.456980710207299 1.607810332092009 1.7952634495580666 2.0148603367669526 2.2527926292749787 2.495543950933938 2.7266291428928184
2.927201965227237 3.0844067536434867 3.1835712662649085 3.2228758210787487 3.203797129904091 3.1259891556289716 3.0027271436434337 2.853864787170481
2.6962444835373947 2.532232589177052 2.37211922667235 2.184115103450199 1.976790320505304 1.7440076444512989 1.5072993562917558 1.244741436559807
1.0073774402738536 0.8296377453712404 0.7127866498375309 0.6279034896951262 0.6341364379935837 0.5910101811377171 0.5023601774197037 0.11445460073411651
0.8828376759597976 1.0716662619599406 1.1829375162075204 1.2650767493820285 1.351019161108539 1.4637870526034473 1.6136542571564925 1.8019798181113604
2.026182975947931 2.271062700117047 2.5249539446593765 2.762019102148926 2.9641803044806503 3.1122791069423923 3.1976480620427976 3.2140075036724527
3.1664545265381645 3.065624334655192 2.932185539850426 2.778767573143896 2.6254045440150904 2.5013870933556794 2.386291540392835 2.2860698110802375
2.176508661226489 2.043262305251512 1.8697753309826821 1.5421517587329894 1.123125899432083 0.5673722165827194 -0.0859783327652971 -0.7271428837417652
-1.441550489240368 -2.028543146324872 -2.5529918098815845 -3.044055740522268 0.8879316450305131 1.0717892903388129 1.176026296513106 1.2504241029764047
1.3318827821525745 1.4453644337156326 1.6019889007595283 1.7993957850980213 2.034240663846774 2.2877087180279796 2.5470958067982212 2.78510286347108
2.9862971001761696 3.139920885432144 3.238562798571139 3.276414033431604 3.2541592272430044 3.1704467133723426 3.036455078169706 2.8573278579923707
2.6654116198932156 2.4618216882598665 2.2592225072057834 2.0450821672583874 1.8332397580096047 1.6143480399195203 1.3718692076570023 1.0948731601830872
0.8127510171199335 0.5177802762239584 0.2460365081480655 0.11175945660646436 0.09809282320777091 0.4236491735575262 1.236426620167306 2.1194671093964326
0.8648620061910357 1.0491026806640367 1.1586103772649223 1.2430089900768664 1.3375075974199349 1.462258670549827 1.6258130319985318 1.8297975885020046
2.065345808218004 2.3180349023253113 2.5726559633684154 2.799009746197013 2.9841989689865995 3.1159838823878947 3.1875648241023455 3.1988110385710984
3.1656573838799655 3.0873531925843194 2.977104451950132 2.837905026854315 2.685902523322419 2.5174677678105075 2.3250648252862045 2.1089243591859264
1.8591602191551222 1.5733687271887666 1.2977477738095817 1.0223153878092324 0.8181745092943442 0.683191557010299 0.6724910397081314 0.8689060661858383
1.183765989650711 1.598735566992999 2.0519670169414796 2.227446612906645 0.8722953011895824 1.0578855710531831 1.1663937987938005 1.2460026299997855
1.3311518240594364 1.4439251450334192 1.5943445249545634 1.7863129318165647 2.016562582475835 2.2711811557650994 2.5348882590101294 2.7833411771354735
2.9963580839849047 3.1657625932718916 3.2783961455574833 3.3277784324090045 3.311977857971973 3.229506086482361 3.077984464805739 2.8839824585150833
2.6625656694538957 2.4401752941052828 2.2439524013740626 2.081804528385647 1.9397693814440597 1.808249881712344 1.687001042753523 1.5113189790352552
1.310400233766409 1.0724176808321255 0.7718648472325014 0.4687022711200591 0.12409060716649001 0.20566269516344216 -0.16987884451615654 -0.05012181571144847
0.8691910539025329 1.0557863654624702 1.1656574184016906 1.24790277883084 1.335419014603932 1.4524496538505711 1.60902181035054 1.8063129736348789
2.0392098543748736 2.2888453722462323 2.5400256563018777 2.768806097435087 2.957442315202303 3.0989379107873893 3.1891253611960093 3.2282603493461797
3.2199553873255353 3.1688687032970653 3.067642931415323 2.9299876106670406 2.771261808211155 2.5934727338977166 2.4103568313323516 2.2195916530383757
2.031957781595308 1.8481717472456083 1.6802776106698918 1.4559668446238974 1.222653363817325 0.9849542922567895 0.7452582735903911 0.6038837444271647
0.5452608734384349 0.7223745679389865 0.9018597809476979 1.4415012282511324 0.8831057351083703 1.0665964946022892 1.1717277003725983 1.2477306380834854
00000000: c34a 99d1 730d ec3f 2e30 8b60 21f9 f03f
00000010: 6897 c775 c5b3 f23f ee2b 78ea b7fd f33f
00000020: 77ca 7d11 6965 f53f f37d a8a3 d145 f73f
00000030: 1cbb 98ad 0ac3 f93f de93 708a 35df fc3f
00000040: 4b35 cdef 2642 0040 41da 5ee3 203b 0240
00000050: b8bd df32 863d 0440 8364 fb44 391a 0640
00000060: a030 4dac 45ad 0740 1a80 a6be 1ae2 0840
00000070: 7dc3 59f9 12a2 0940 fac7 9597 d0e8 0940
00000080: 03d9 9d44 2ec0 0940 2ee8 3429 0b27 0940
00000090: 4ebd db38 8028 0840 7437 9777 30df 0640
000000a0: 78fc 1714 b972 0540 3149 d458 54ea 0340
000000b0: 4bfc 09ea c05b 0240 6131 1e65 01d7 0040
000000c0: 1663 4327 86b0 fe3f 7460 8337 0a9c fb3f
000000d0: 16b9 3742 6590 f83f e49a 0227 78db f43f
000000e0: f534 f4d8 46d8 f03f 8af6 4267 0df5 e83f
000000f0: 01fe b256 5fd7 de3f 522f fbfa 9e2a d13f
00000100: a8d0 8e95 dbd5 b53f 0a4f 50a9 8dc6 c83f
00000110: e64d 7d9e 6a96 d33f eea6 cbff b5d3 d03f
00000120: 79ed 3499 613d ec3f 832e cdcd 5e1e f13f
00000130: de5f 6483 47de f23f a089 35c4 9022 f43f
00000140: cf1d 4d02 1d7e f53f 28e4 5301 cb4f f73f
00000150: e518 a853 97b9 f93f 8ce5 b82a 66b9 fc3f
00000160: 745f a318 6f1e 0040 413f 5b24 b805 0240
00000170: 65ef 37bf dff6 0340 805c a8f0 22d0 0540
00000180: d880 2bdd e86a 0740 b4ae b372 ddac 0840
00000190: a6be 4836 f477 0940 a9d1 541e 73c8 0940
000001a0: 64a7 bf63 60a1 0940 e09d 389a 0602 0940
000001b0: 9114 06cf 9505 0840 63d3 c00f b7d4 0640
000001c0: 1782 b6a0 e891 0540 f70b e328 0342 0440
000001d0: 182a 26a5 19fa 0240 6625 e056 1179 0140
000001e0: 0aea 19e3 eea0 ff3f f646 4e8f 74e7 fb3f
000001f0: 0ce1 08ee e51d f83f c301 20ff 75ea f33f
00000200: 3345 8bce 371e f03f 61b1 fc74 648c ea3f
00000210: b17b c2f2 25cf e63f 691d 290f c917 e43f
00000220: ca4c cc7f d84a e43f 70dd f22e 8ee9 e23f
00000230: 8492 9aa6 5513 e03f e09e 078f e54c bd3f
00000240: 3691 3dcc 3440 ec3f 2183 b585 8b25 f13f
00000250: 112a 95e3 4fed f23f ae69 181e c13d f43f
00000260: 40b0 9344 c69d f53f 32d7 f3f8 ab6b f73f
00000270: ea9c 5820 87d1 f93f f571 2dca e8d4 fc3f
00000280: 3c44 8b6b 9f35 0040 6b58 c1eb 222b 0240
00000290: e8be c10d 1b33 0440 6041 9578 9d18 0640
000002a0: a288 d929 a4b6 0740 b9bb a296 f2e5 0840
000002b0: 96bb d481 c894 0940 6af9 ea90 49b6 0940
000002c0: 4905 5e1c e654 0940 9453 190d 6686 0840
000002d0: 88b1 3bb1 1d75 0740 e2b4 4e7e ea3a 0640
000002e0: 5084 fa18 d400 0540 0bcb 843c d702 0440
000002f0: 65ab e504 2017 0340 3db3 17f8 de49 0240
00000300: 986d 7b5f 7d69 0140 75a3 51e8 9958 0040
00000310: d902 9789 99ea fd3f 16a2 9352 a7ac f83f
00000320: 429f f5dc 52f8 f13f c737 5cc7 e927 e23f
00000330: 083d 640f ad02 b6bf 9314 2627 c144 e7bf
00000340: 761f ed3e 9710 f7bf 12ec 3fd4 743a 00c0
00000350: 942d 53f8 866c 04c0 21f4 65e5 395a 08c0
00000360: 45aa 0fa0 ef69 ec3f fe54 e386 0c26 f13f
00000370: 1928 2cf3 00d1 f23f e79e 46b4 bc01 f43f
00000380: 7a36 f751 644f f53f 63c3 d974 3620 f73f
00000390: 1a13 151d bfa1 f93f 62e6 183c 53ca fc3f
000003a0: 6152 1bf8 1f46 0040 52a2 753a 3a4d 0240
000003b0: 17d1 2fc4 7360 0440 7dd5 9402 e447 0640
000003c0: 972b ebbb efe3 0740 d9aa 57d7 8e1e 0940
000003d0: 023e cf9c 93e8 0940 1af4 8d8f 1836 0a40
000003e0: f8e1 07a2 8408 0a40 c028 9d2a 135d 0940
000003f0: 9918 c4f5 a84a 0840 3937 40b5 cedb 0640
00000400: d68e ce53 c352 0540 ee46 bd91 cfb1 0340
00000410: 0eb0 f63f e312 0240 840f 100a 545c 0040
00000420: 220d 6636 f354 fd3f 820e 3d9c 5ed4 f93f
00000430: 8d6b 5420 2df3 f53f 8d12 04b8 9984 f13f
00000440: 6844 ca6b 0e02 ea3f f7a9 1cf1 a791 e03f
00000450: ee19 0fd2 1f7e cf3f 20bc 248b 449c bc3f
00000460: d051 a67b 9c1c b93f 560c 5a6c 111d db3f
00000470: b95b 9847 67c8 f33f 5271 fe2b abf4 0040
00000480: 2097 0416 f3ac eb3f 4891 79e4 1fc9 f03f
00000490: 868b f208 ab89 f23f e039 1065 5de3 f33f
000004a0: 5a1f d15d 6e66 f53f f6dc 0459 6965 f73f
000004b0: 3c82 9d86 5403 fa3f 04a7 0ed6 d946 fd3f
000004c0: edd0 e905 d485 0040 46ca 03e2 558b 0240
000004d0: b836 54a6 cc94 0440 bbcf c838 5f64 0640
000004e0: 566f 84b5 a3df 0740 c1c0 2df5 88ed 0840
000004f0: 5032 8bfc 2180 0940 2af9 e53d 2a97 0940
00000500: ccd7 b02d 4453 0940 86ce 0a3b e6b2 0840
00000510: ee36 8f23 1cd1 0740 3ff2 fb8c 07b4 0640
00000520: 314f 4f76 ba7c 0540 8ed7 1b24 c623 0440
00000530: 3f79 4d96 bb99 0240 ce87 03bc 13df 0040
00000540: 22ba 34c9 1ebf fd3f c932 bdaf 842c f93f
00000550: db80 6f2b 93c3 f43f 4f69 4d61 675b f03f
00000560: bee1 fa4e 7c2e ea3f d766 488a b4dc e53f
00000570: 64c8 cced 0b85 e53f d20d 3218 14ce eb3f
00000580: 88ab 3a9b b4f0 f23f bdfd f2be 6b94 f93f
00000590: eadf f1ae 6d6a 0040 fc28 a087 cfd1 0140
000005a0: 0c0a e2d5 d7e9 eb3f dc56 a96b 19ed f03f
000005b0: a939 418b 8ca9 f23f dc43 2974 a0ef f33f
000005c0: 5289 e5da 654c f53f 44a6 bc40 511a f73f
000005d0: bac8 9367 6f82 f93f 332f 69de bc94 fc3f
000005e0: 7091 3090 eb21 0040 b16b 9a06 612b 0240
000005f0: fcb3 db7e 7347 0440 8a41 0b61 4844 0640
00000600: 2790 4e96 8af8 0740 fd05 a856 7b53 0940
00000610: c803 24c2 273a 0a40 1f3f 7c4c 4a9f 0a40
00000620: ac86 483f ee7e 0a40 c365 7d49 07d6 0940
00000630: 637e af51 b69f 0840 cc7a 2c65 6512 0740
00000640: fc0d ce3a ef4c 0540 d583 e59f 7a85 0340
00000650: 4775 0d51 9df3 0140 01a6 f021 89a7 0040
00000660: a559 719e 4b09 ff3f c834 8f6d 97ee fc3f
00000670: c41b 2fce f4fd fa3f 0e7d 4ccf 5c2e f83f
00000680: e228 4b3c 66f7 f43f e437 2d71 9f28 f13f
00000690: cc75 79e8 1db3 e83f 8d61 81cf 37ff dd3f
000006a0: f056 85eb 66c4 bf3f 50fa ddba 2753 ca3f
000006b0: 2855 bd08 97be c5bf 80f7 970e 91a9 a9bf
000006c0: c096 cfc1 69d0 eb3f 8f95 733e 80e4 f03f
000006d0: 3400 a664 88a6 f23f daa7 7ae7 68f7 f33f
000006e0: 0fe3 2254 e05d f53f defe 25d9 3b3d f73f
000006f0: bd19 60a7 8dbe f93f 15a3 c16e a8e6 fc3f
00000700: 9ec4 9141 4d50 0040 2830 9b29 8e4f 0240
00000710: 3e8a a6f8 f851 0440 bc97 abcf 8326 0640
00000720: a6cd 3c84 d7a8 0740 cb54 99f5 9fca 0840
00000730: c972 4928 5483 0940 b152 7b29 7ad3 0940
00000740: 3323 59f8 77c2 0940 a1d4 afd5 d759 0940
00000750: 04e0 9160 888a 0840 3f00 2c58 9d70 0740
00000760: aa5d 974f 8b2b 0640 6944 f9a1 6ebf 0440
00000770: e219 9229 6948 0340 fa31 c244 b9c1 0140
00000780: bc6f d614 7341 0040 20fa bc89 1c92 fd3f
00000790: 8873 a0c6 6ae2 fa3f ed84 dbe3 a34b f73f
000007a0: 6c09 3ff9 fc8f f33f 1087 29dd be84 ef3f
000007b0: e19c 04e1 27d9 e73f 7ed2 9c00 0453 e33f
000007c0: 6d9b 66ee c672 e13f 8d52 1845 b11d e73f
000007d0: 53f0 170b 09dc ec3f 18b8 8797 6310 f73f
000007e0: 696a 66f5 6642 ec3f 6b85 657c c710 f13f
000007f0: 7aae 8e8b 65bf f23f 9092 cc66 b4f6 f33f

slopes f8 [100, 36, 7]
0.021825051038142144 0.28197037751529175 1.2194223277973715 -0.01443362913443548 -0.00262702045710376 -0.054342444272144325 -0.005435605741745091 0.006415028920839649
0.31415673862104837 1.2271949221614071 -0.016975614214108523 -0.0026781503461908696 -0.07318950394315527 -0.005104838981782304 -0.002258972364981607 0.3407627480479931
1.2266454897998436 -0.01789848306791987 -0.0031770187131232065 -0.09358610335368 -0.005291619295547238 -0.00874678535369102 0.3611346933361854 1.2156302770741911
-0.017053814632151665 -0.004064279693711259 -0.11429380625675778 -0.005897882786618852 -0.016196502994918566 0.3753827997132245 1.192938483442019 -0.0144809813012437
-0.005154091373462649 -0.13399776897159926 -0.006841851241458596 -0.02654091274929435 0.38382317434981883 1.1581196311438056 -0.010308351909525781 -0.006245989392117374
-0.1513924890303865 -0.008131661627513925 -0.0404583473591959 0.38731615932543373 1.1115356989920901 -0.004694530260523966 -0.007069638726983185 -0.1650672364615703
-0.009791305319799482 -0.05789017922895813 0.3865070867422197 1.0546687054257906 0.0021873975065087037 -0.007572227717615954 -0.17410236282893168 -0.01204685299579891
-0.0782591815903525 0.38219742082996633 0.9899025360847327 0.01020905489347685 -0.007869933306328347 -0.17764326165511457 -0.014999477413396163 -0.10021622210233815
0.37511266618212413 0.9195922104488992 0.019162318943979132 -0.008202470657055358 -0.17540997475709713 -0.01900496612337461 -0.12246554818360975 0.36618279031996426
0.8475274589607255 0.028867133605692083 -0.008992057153461158 -0.16766371123565 -0.024233582450962302 -0.1430098780909737 0.3563323351310035 0.776511152597159
0.03893831049496117 -0.01060228677886708 -0.15494452124086935 -0.03087218169502109 -0.16034683627562762 0.34655007887058203 0.7096996530327524 0.04889583779687323
-0.013274672398845458 -0.1381938407268776 -0.03885865098267786 -0.1736276970689787 0.33815144159319493 0.6490339812098209 0.05820118394328641 -0.016919810285803957
-0.11845661540546212 -0.047979439145870564 -0.18195871404249064 0.33221369897624975 0.5958299021481956 0.06617354154454635 -0.021264930525964232 -0.09703653491056274
-0.05771714575713219 -0.18522153904236704 0.3295128751830257 0.5495405628851364 0.07244700916481592 -0.026000689912795846 -0.07499039717856384 -0.06734000043920711
-0.18387311327504732 0.33054783372262186 0.5090658655557742 0.07666807319566113 -0.030839034531264187 -0.052873816863477 -0.07615529189421433 -0.17799213114632634
0.33433518349051305 0.47231702161790945 0.07867781487114055 -0.03553006461271505 -0.031488619509934576 -0.08339008292288459 -0.1681397668550998 0.3398554312773362
0.43608893902510437 0.07879389260463857 -0.03996683977446147 -0.011319744899145778 -0.08934419391289174 -0.15550950889480272 0.3445618530008948 0.3978387503329952
0.07741362793465448 -0.044090654770730986 0.0075348140742435045 -0.09428184149189656 -0.1417608662770587 0.34522742495343933 0.3580634203923555 0.07491367463352772
-0.04815225465378483 0.023956070538331067 -0.09878443876181187 -0.12728312956055948 0.33937176665028423 0.3144607835390608 0.0714129056868898 -0.05188297925921313
0.03754961134456168 -0.10338857842293753 -0.11292433377966063 0.32559171658474595 0.271277621013694 0.06704845759915148 -0.05516937816723445 0.04794319373274585
-0.10877418223066676 -0.09926343075082802 0.3038588178644953 0.23077957826211723 0.06203395248516515 -0.058009276851040154 0.05492191322526957 -0.11438598995405663
-0.0860591010768565 0.2759870637791672 0.1973406891757881 0.05625250875477933 -0.05980692004644934 0.05852865731925307 -0.11994341141992929 -0.0725451365108652
0.24583275396900733 0.16831022025762027 0.04983739742583625 -0.06030926171060112 0.05916380803158107 -0.12430273606357094 -0.0592063754247962 0.21545537688500793
0.15009156102605226 0.04350485597530205 -0.05962565400551892 0.057498444867785645 -0.12873176877454673 -0.04252128737740591 0.1935252413942746 0.1442399494015733
0.03651605034597298 -0.05741650356456035 0.05410166011729743 -0.1310153001518474 -0.02414964560019034 0.1810864371137174 0.15183569383917284 0.030228890318275175
-0.05395717586686427 0.053993822490437354 -0.13184805978751457 -0.0037742627293623566 0.18219010073508657 0.17491963416142314 0.02524687242374049 -0.04897805711985467
0.05606764868682716 -0.13163992381942224 0.0185660875882708 0.19234069935285744 0.19491122412343492 0.023243221342568267 -0.042425833011194986 0.06131088842264297
-0.13247832987342453 0.0349520761428877 0.21359325242459626 0.2247181232919791 0.024649442417073356 -0.03493645725711281 0.06964288811852222 -0.13509450438804327
0.04904230341311143 0.23570915794833666 0.269010551081044 0.031796868309224485 -0.027019164245221494 0.08650422101739096 -0.13307965365527896 0.04280409992386655
0.28912337841127 0.31221259469035567 0.038577645589936344 -0.016551735562844866 0.09717276099248265 -0.14344216321006795 0.035860329630488845 0.33254391798645605
0.30892542301391984 0.050126082387692616 -0.00477156036943327 0.1113871102232144 -0.15064811305397122 0.03892571124708687 0.336836822989632 0.23276616417769555
0.06513313565798878 0.005344519027791678 0.12905636629615252 -0.14502717004379875 0.02124560138847119 0.28146533121304396 1.2203394883677865 -0.015162570169401646
00000000: c1f7 c461 4e59 963f e89c 777b cd0b d23f
00000010: 316e 9efc c082 f33f c88b c2e8 608f 8dbf
00000020: 54b6 5fde 4285 65bf e4fb ddd9 c5d2 abbf
00000030: 1fe0 504e a543 76bf 66b8 af36 a546 7a3f
00000040: cf81 8cdd 241b d43f 1602 8824 97a2 f33f
00000050: 1c35 842f 0e62 91bf bb36 d204 7df0 65bf
00000060: 18a8 d81d 8cbc b2bf 2b4d a6c7 cfe8 74bf
00000070: d4e6 c38d 6881 62bf 00eb a38e 0ecf d53f
00000080: a39e 6705 57a0 f33f 44eb b2dd fa53 92bf
00000090: 88b5 17ef b006 6abf 209e 4345 42f5 b7bf
000000a0: 117d 133d aaac 75bf 4b5a 50a8 d5e9 81bf
000000b0: 2c1d 55b0 d41c d73f 24fa c0bb 3873 f33f
000000c0: f0f2 7720 8e76 91bf 804f dcc5 b4a5 70bf
000000d0: 2015 02e0 5b42 bdbf 865b f2da 6028 78bf
000000e0: 18e3 b0ea d095 90bf 2ef3 0f94 4506 d83f
000000f0: 795f c8a9 4616 f33f 2098 d268 34a8 8dbf
00000100: e0df 3bde 741c 75bf 6228 bcc1 d626 c1bf
00000110: 4cf5 3775 3306 7cbf b88c 0e81 8a2d 9bbf
00000120: 54e1 5113 8f90 d83f 43e4 4973 a887 f23f
00000130: 20d8 9d92 8b1c 85bf e093 b902 6595 79bf
00000140: 246e 9f3e d460 c3bf 56bb 0426 55a7 80bf
00000150: 9812 84dd f4b6 a4bf ccf6 60b7 c9c9 d83f
00000160: d51e 38a8 d9c8 f13f 4047 065f 923a 73bf
00000170: 80e5 07b2 0df5 7cbf 6c2c 1f57 ec20 c5bf
00000180: dacb 11c1 760d 84bf 628d 1815 c8a3 adbf
00000190: 72b9 4e38 88bc d83f e2b1 de4a ecdf f03f
000001a0: 802f 1f18 4eeb 613f c0fb 7a66 0e04 7fbf
000001b0: ddd7 4079 fc48 c6bf 8fe9 173d 05ac 88bf
000001c0: 78d3 8a31 cb08 b4bf e422 c52b ec75 d83f
000001d0: aec3 5615 48ad ef3f a4d9 1f27 7ce8 843f
000001e0: 8009 6191 1c1e 80bf 2ced 94af 03bd c6bf
000001f0: 91bd 94c7 0bb8 8ebf 8f4d 7534 c5a7 b9bf
00000200: 5e53 648e d801 d83f 9219 b1a4 4c6d ed3f
00000210: c13a b874 499f 933f f863 bff9 74cc 80bf
00000220: 56a9 7c84 d573 c6bf b38e d8af 0976 93bf
00000230: 46d7 55f4 e659 bfbf be10 32f1 896f d73f
00000240: 7558 d6e7 f11e eb3f 4c16 108b 588f 9d3f
00000250: f0da 2e7b 6d6a 82bf 5ed6 3d26 0176 c5bf
00000260: 8101 5e30 b0d0 98bf 4aed b3ce 254e c2bf
00000270: 3847 7923 26ce d63f 3f4a acea 2dd9 e83f
00000280: fa52 46e4 b8ef a33f 750a d3d7 a6b6 85bf
00000290: b942 b6d9 38d5 c3bf cff4 f10a f59c 9fbf
000002a0: d412 e9c0 3e86 c4bf 4539 cb61 e02d d63f
000002b0: 5443 f80b dcb5 e63f d005 7f10 e008 a93f
000002c0: e894 8b5e c02f 8bbf fd1c 37f5 55b0 c1bf
000002d0: 8549 46f6 47e5 a3bf cfa7 4bb0 6e39 c6bf
000002e0: d33b aff1 45a4 d53f 563e 69e9 e2c4 e43f
000002f0: 4cf2 3fab 8bcc ad3f 8c05 543f 6d53 91bf
00000300: 964b 2939 2c53 bebf 821c 06d4 c290 a8bf
00000310: 7c71 0453 6c4a c7bf 32b7 183f fd42 d53f
00000320: 7a92 f6de 0911 e33f d058 cbcc bff0 b03f
00000330: 0096 a454 79c6 95bf 6841 f5e7 62d7 b8bf
00000340: a404 e40a 1a8d adbf 10d3 59e2 56b5 c7bf
00000350: dd68 a12b bd16 d53f d258 2d17 d695 e13f
00000360: 3e4f 0e1f e38b b23f cc44 65c3 ec9f 9abf
00000370: 1a5f 6517 9232 b3bf 6359 99bb 313d b1bf
00000380: e1a4 1078 2789 c7bf 328c e619 b227 d53f
00000390: af4d 827f 444a e03f 96cf 05d3 84a0 b33f
000003a0: d00a 0293 4494 9fbf 5c95 7ce4 4612 abbf
000003b0: 305d 1ac8 e97e b3bf 1e02 1c37 72c8 c6bf
000003c0: 449c bf65 bf65 d53f de5a 4c2c 713a de3f
000003d0: 97d3 cab1 3a24 b43f 25a0 1223 ff30 a2bf
000003e0: 1693 fbbd 461f a0bf 9dea f66e 0d59 b5bf
000003f0: 2c5d e697 9a85 c5bf 8a10 adfe 30c0 d53f
00000400: 7ca6 d094 e1e8 db3f 9288 dc27 d62b b43f
00000410: 20f6 829b 8876 a4bf 008d 2071 ce2e 87bf
00000420: 897f f1d6 42df b6bf 13c9 754f bce7 c3bf
00000430: d6a1 8528 4d0d d63f 14c0 70a9 3076 d93f
00000440: 427a 3e28 61d1 b33f 285a 99e0 0c93 a6bf
00000450: 042d 7c40 d3dc 7e3f 5879 d0d1 da22 b8bf
00000460: c29c 4156 3825 c2bf 45de f6c4 3418 d63f
00000470: 06a9 1ed6 82ea d63f e0fd 92e6 8a2d b33f
00000480: 53ef ee8d 69a7 a8bf 47de 02ae f087 983f
00000490: 38f0 d5dd ef49 b9bf f2c6 6547 d04a c0bf
000004a0: bcb7 bc5b 44b8 d53f f22f 4b1f 2020 d43f
000004b0: 9401 70be 1d48 b23f ee54 46e6 6790 aabf
000004c0: 5ea1 67e1 b339 a33f 2c40 1b83 ac77 babf
000004d0: 5298 81f0 9be8 bcbf 781e a5a3 7ed6 d43f
000004e0: ecfd 98cf 9c5c d13f 92b6 a274 162a b13f
000004f0: 6117 f025 293f acbf 37be 4ba2 028c a83f
00000500: 9471 54f3 9fd8 bbbf 2279 c304 5469 b9bf
00000510: 1212 5541 6c72 d33f 3b38 9c6a 2f8a cd3f
00000520: 9aaf 540a eac2 af3f 0c31 e155 64b3 adbf
00000530: d8c6 459a b91e ac3f 6c27 f975 6648 bdbf
00000540: 2df4 a520 f807 b6bf db3c 43a5 c5a9 d13f
00000550: e10d 17af 7542 c93f f8e6 d6fa 20cd ac3f
00000560: c914 593b 039f aebf 7345 21da 77f7 ad3f
00000570: 3a55 6b85 9cb4 bebf 244b cc6c 5192 b2bf
00000580: 628f 4a9b 7277 cf3f 8665 cb75 308b c53f
00000590: ee99 1f90 4984 a93f 9ec8 6205 dbe0 aebf
000005a0: 0276 34f9 b74a ae3f 7344 32da 4dd2 bfbf
000005b0: bb11 544c 4c50 aebf 9cf6 bbb2 0a94 cb3f
000005c0: 0899 0145 3336 c33f 2d21 43bb 4446 a63f
000005d0: 24a2 e9f3 4087 aebf ce55 8ea8 6f70 ad3f
000005e0: 8ce4 6b58 487a c0bf e1ec 56a5 59c5 a5bf
000005f0: c394 5e63 6fc5 c83f 066d ba64 7476 c23f
00000600: c6b3 0754 3bb2 a23f d8f3 1e2a b265 adbf
00000610: 3ee8 b979 36b3 ab3f 6dc2 b6fe 1bc5 c0bf
00000620: b050 4048 afba 98bf a487 9322 d72d c73f
00000630: bccd b31d 5a6f c33f ebd5 3e7d 52f4 9e3f
00000640: c824 7763 46a0 abbf 4c9e 900b 14a5 ab3f
00000650: ec09 6ab0 65e0 c0bf 52e5 a6df 33eb 6ebf
00000660: 48f4 2756 0152 c73f 8667 133e c463 c63f
00000670: 0885 8bed 50da 993f 8c50 1ae3 a613 a9bf
00000680: d673 f21a e6b4 ac3f 3480 d3b7 93d9 c0bf
00000690: 1772 060c fd02 933f 6b84 b4ba 9e9e c83f
000006a0: a6e2 9dda d9f2 c83f 1a80 142e 12cd 973f
000006b0: 94c8 93ba d6b8 a5bf 1ef2 5309 2464 af3f
000006c0: 6316 1ec7 0cf5 c0bf c808 ec0f 3de5 a13f
000006d0: 40ab e710 0657 cb3f 12c4 2d3f 90c3 cc3f
000006e0: 8411 2f14 b43d 993f 50fd b6fa 30e3 a1bf
000006f0: dd37 dec6 1dd4 b13f 0ca5 1bd7 c64a c1bf
00000700: ee44 8fa2 121c a93f 33be 60ba b72b ce3f
00000710: 6602 cb07 7837 d13f 84b5 01db ad47 a03f
00000720: 70a4 316b e9aa 9bbf 8f53 3c00 2425 b63f
00000730: e830 1b0c c108 c1bf dc8d 9d42 6bea a53f
00000740: 9a44 b257 ff80 d23f 560a e688 4afb d33f
00000750: 8cb6 54fc 72c0 a33f c8e2 bc2b f0f2 90bf
00000760: 3255 8666 50e0 b83f ff67 ed13 505c c2bf
00000770: 9734 f9fd 485c a23f 0113 0f49 6648 d53f
00000780: 29db 2f23 6fc5 d33f 6840 1039 20aa a93f
00000790: 803b cdfb 578b 73bf 8cca 9a9b dd83 bc3f
000007a0: 69ad 62f7 6f48 c3bf fe3e 8f21 12ee a33f
000007b0: 820e b508 bc8e d53f cb18 611b 48cb cd3f
000007c0: 6478 89af 90ac b03f 20d5 fe66 22e4 753f
000007d0: b691 4a44 eb84 c03f 4d4d 2f14 4090 c2bf
000007e0: 3cdf 962c 68c1 953f 2824 212a 8703 d23f
000007f0: 89e9 08b3 8286 f33f 20d0 01b8 8d0d 8fbf

scatter f8 [100, 36]
0.2808153675731105 0.27861734477184213 0.2756689290434064 0.27179090339991113 0.2670623088612961 0.26172764600615445 0.25605608855182865 0.2503333799896288
0.24477164667616846 0.23951639001378014 0.2346560529149884 0.23020908717935107 0.22618552780812134 0.22247067926463435 0.21900559308566717 0.21575910261306455
0.21259828215090074 0.20949605714402417 0.2062821082100469 0.20289845422138628 0.1993034347842611 0.19564255736917463 0.1920231716557063 0.18856519135312935
0.18570389219556394 0.18332969391278162 0.18142451623087433 0.17996780172168703 0.17847308279217633 0.1766623061509884 0.17422527526792186 0.17082803597136254
0.16570275724582217 0.1582712457696197 0.14781580683067086 0.13631177493419036 0.28086655653366677 0.2786358392933581 0.2756505637534091 0.27174646989322554
0.2669921451807208 0.26163066096638016 0.2558968407751446 0.250067060974675 0.24434631974987323 0.23886659537798235 0.23372555362542258 0.22897455669653258
0.22465551650084556 0.22072859079630183 0.21714886514680612 0.21385473765308385 0.21071516266492568 0.20764512821152337 0.20440452497265907 0.20088633484760285
0.19698160406254372 0.1928580330469078 0.18859604319626255 0.1843152217281573 0.1802862197601017 0.1763958702506624 0.17263204470069926 0.16892395653989684
0.16450123943696832 0.15955813118006265 0.15425446804013546 0.1486033391883828 0.14154307696744833 0.13395392461444236 0.12073813874281542 0.10568140672267515
0.2807444179284308 0.2785653431535954 0.27563870279687136 0.271792868195583 0.267083869858392 0.2617372657322096 0.2560245571620628 0.2502153524655452
0.24451359976788914 0.23907565530820815 0.23399878011057637 0.22932799181599542 0.22510346542997134 0.22127476422216383 0.21776621004910574 0.21459467797110618
0.21154881676745452 0.20860100739807466 0.2055615866239541 0.20242594321189708 0.1990981984380007 0.19577060515842337 0.1925434067456023 0.18952661632966203
0.18690926274244268 0.1845157933733342 0.18251580841428602 0.1812487393772686 0.17975503700469317 0.1780399210602262 0.1750827026786681 0.1702161528872436
0.1628864348156264 0.15424909695378763 0.14290857988139838 0.13262190395119372 0.28099426853477705 0.2788052531339348 0.2758476584365801 0.2719559675440483
0.2672212653164374 0.2618742303186751 0.25617406499489404 0.2503932337772327 0.2447388597999848 0.23936337855100784 0.2343599552529945 0.22978484862686893
0.22568981499461935 0.2219679152384185 0.2185609005228236 0.21541074131589696 0.2123446647303621 0.20933541636445457 0.20614384908014535 0.20268782986739078
0.19891762467526292 0.19515548642416128 0.1915392393120367 0.1882385436675462 0.18582951814466311 0.18396777173378268 0.18264991351551102 0.18168075056267324
0.18047166843117432 0.17861934847380476 0.17573588103238555 0.172172434391743 0.16684515242093523 0.1596263975830778 0.152397748293804 0.14450641960306307
0.28038510787702436 0.27817727216802324 0.2752642057660558 0.2714745478001169 0.2668790600645277 0.2616973051996507 0.25615804735982123 0.25051633327204237
0.24498760961416877 0.23969951266518993 0.2347679576902419 0.2302536550592679 0.22617116788213823 0.22241335114734806 0.21890859643256214 0.2156241999262685
0.21240615454578124 0.2092335217662735 0.2060594087209836 0.2027959986155482 0.19949048210848924 0.19625337990620084 0.19316378187135505 0.19037251569659067
0.18827279977913586 0.1866660614227129 0.18560346640248693 0.18499928286157502 0.18442750755147708 0.18345144485279638 0.18205240234347805 0.17883495793818122
0.17301910000199 0.16474501947765938 0.15257248502510704 0.13807131474214687 0.2811976204638558 0.27893980184119704 0.2759123512117516 0.2719360568160062
0.2670990313974469 0.26165980029324115 0.25590285177105493 0.2501304424797016 0.24457978034778932 0.239371516115063 0.23463714422337198 0.23034214806274522
0.22649114369287 0.22292552935726803 0.21960631240102269 0.21646121633930127 0.21332839366228964 0.21015018543936473 0.20673458278954168 0.2028958043474648
0.19864615574193942 0.19417102544803275 0.18960655494511855 0.18519190488126933 0.1813990596722344 0.17808218711945548 0.17527365940940465 0.17306077534718836
0.17032507693288884 0.16740756949837016 0.16378963011337153 0.15948272530335936 0.15329709504346764 0.14544314113098078 0.13690593844433985 0.12629103148604154
0.28036848985581553 0.27824139248949603 0.27539280500226304 0.2716240038300327 0.2670210554276096 0.26181406684889125 0.2562503477691363 0.25061517839034475
0.24511086012706898 0.2398755362402787 0.23498958351835597 0.2304523731970821 0.2262623001425159 0.22233240341798566 0.21862609134000896 0.21509143336229403
0.21173508179883996 0.2085526324126158 0.20549515642848962 0.2024123703609247 0.19915065313503597 0.19581273027090232 0.19226869973785363 0.18849794196856842
0.1851050926405622 0.18198113762808935 0.179594681411175 0.17830688383028878 0.17768521916428212 0.17745761376581448 0.1764921191727616 0.17483111254456232
0.17077597820576917 0.16266077879374943 0.15107330136454367 0.13463118168049193 0.28062755330946904 0.2783547447411607 0.27531732236612166 0.27133285309271554
00000000: e534 fc04 e1f8 d13f c52d f9d7 ddd4 d13f
00000010: 13f2 b04a 8fa4 d13f 89fc 5cac 0565 d13f
00000020: d66c a382 8c17 d13f 498d 0350 25c0 d03f
00000030: e964 9113 3963 d03f 24c4 094c 7605 d03f
00000040: b829 bb64 ad54 cf3f 958a fb1a 79a8 ce3f
00000050: 6906 8aa4 3509 ce3f 9cb2 56ca 7d77 cd3f
00000060: 32d7 61ba a5f3 cc3f 6358 e151 eb79 cc3f
00000070: c9d5 f811 6008 cc3f 31ca c488 fe9d cb3f
00000080: 210f 83a6 6b36 cb3f 3b8a 094d c4d0 ca3f
00000090: fc8b 41be 7367 ca3f 6718 a598 93f8 c93f
000000a0: d27e 3063 c682 c93f ce9e cdb8 d00a c93f
000000b0: 1df0 2a1d 3794 c83f 3d49 0379 e722 c83f
000000c0: 4424 dc27 25c5 c73f f3db deef 5877 c73f
000000d0: b1bd f325 eb38 c73f e823 5d57 2f09 c73f
000000e0: 6883 e7ba 34d8 c63f 1f5e add5 de9c c63f
000000f0: f8c6 b489 034d c63f 3053 de6d b1dd c53f
00000100: a429 9d79 bf35 c53f 1c25 3d70 3b42 c43f
00000110: f4b4 15dc a0eb c23f b576 b30b aa72 c13f
00000120: 008b b6b8 b7f9 d13f 048b 506a 2bd5 d13f
00000130: 8178 1c43 42a4 d13f a9ab 3f4e 4b64 d13f
00000140: dec3 f538 6616 d13f 59d0 1e87 8ebe d03f
00000150: 91da 9124 9d60 d03f 365b 2c46 1901 d03f
00000160: 09a1 1c7e bd46 cf3f a3ad a03b 2e93 ce3f
00000170: 80c4 870c b8ea cd3f a558 50cc 094f cd3f
00000180: f359 1e10 83c1 cc3f 7d92 619f d540 cc3f
00000190: 51a3 15b5 88cb cb3f 9d46 2890 975f cb3f
000001a0: 0666 35e6 b6f8 ca3f dccd 6b95 1d94 ca3f
000001b0: f5bb f46e ed29 ca3f 071f 31b7 a4b6 c93f
000001c0: 145e ae75 b136 c93f a68a 5a70 92af c83f
000001d0: f06a d746 ea23 c83f 3d1c bd24 a497 c73f
000001e0: 6b01 e56c 9e13 c73f 8c22 f0ce 2394 c63f
000001f0: 2095 1d8d ce18 c63f aac5 6cda 4c9f c53f
00000200: 5a41 c469 600e c53f f757 9d9d 666c c43f
00000210: e143 bf43 9cbe c33f e2fb f128 6f05 c33f
00000220: 8e73 4663 151e c23f 91e7 b1f6 6625 c13f
00000230: ecc1 47d5 b1e8 be3f 5a4e abc9 ef0d bb3f
00000240: ef60 626f b7f7 d13f 8a32 a9bb 03d4 d13f
00000250: 3390 8183 10a4 d13f 88e8 0bea 0d65 d13f
00000260: b12d 95f1 e617 d13f 1fb7 1da9 4dc0 d03f
00000270: e9f8 fed2 b462 d03f fbfb f240 8703 d03f
00000280: a114 37bd 384c cf3f 5bc5 68f4 079a ce3f
00000290: 337d f009 acf3 cd3f 691a 74a0 9e5a cd3f
000002a0: 9276 1ebb 30d0 cc3f bbd4 e141 bb52 cc3f
000002b0: eed9 2a5f c3df cb3f eb09 e4a1 d677 cb3f
000002c0: 0c09 c318 0814 cb3f 39fc 5714 70b3 ca3f
000002d0: 7d8f ee91 d74f ca3f a780 fae2 17e9 c93f
000002e0: e8ea 7dbd 0c7c c93f 2037 56dd 020f c93f
000002f0: 6332 8429 43a5 c83f 87c0 6d7d 6842 c83f
00000300: 782d 6689 a4ec c73f bb25 11a9 369e c73f
00000310: db38 1292 ad5c c73f 3886 08a0 2833 c73f
00000320: 8ffb 9c8a 3602 c73f 1a05 2b1b 03ca c63f
00000330: 68d2 0c29 1c69 c63f 2d69 f394 a4c9 c53f
00000340: 1d61 3f73 76d9 c43f 8c51 6d35 6fbe c33f
00000350: c446 740e d44a c23f 8e10 1a2a c1f9 c03f
00000360: 8c19 6e62 cffb d13f b672 0afd f1d7 d13f
00000370: 5873 eaef 7ca7 d13f 3b70 a300 ba67 d13f
00000380: 101c d538 271a d13f 8391 b821 8cc2 d03f
00000390: f821 cfe7 2765 d03f 1ba0 8d57 7106 d03f
000003a0: 9d5c 735b 9a53 cf3f 6f4a 5e8d 75a3 ce3f
000003b0: 81dd a6cb 81ff cd3f c6fe fb04 9769 cd3f
000003c0: 5f99 3863 67e3 cc3f 5beb 5ad4 7169 cc3f
000003d0: e304 f7b7 cdf9 cb3f 9f56 9444 9492 cb3f
000003e0: 5d9d 3f27 1c2e cb3f 2a06 97bf 80cb ca3f
000003f0: 730f 09f1 eb62 ca3f 9df0 49c0 acf1 c93f
00000400: 5204 4afa 2176 c93f c5d2 e9df dafa c83f
00000410: 267a 5f98 5b84 c83f 2f0b 735a 3318 c83f
00000420: bd08 88fb 42c9 c73f e1aa 8e85 418c c73f
00000430: e64a 9586 1261 c73f 7a5d fd98 5041 c73f
00000440: 031b e214 b219 c73f 5f5c 10b2 ffdc c63f
00000450: ab48 e26a 837e c63f 681c 7e0f bf09 c63f
00000460: 4c70 9294 2e5b c53f 5f4b 9946 a36e c43f
00000470: 73f5 73f8 c481 c33f 3bec 20b5 2f7f c23f
00000480: 0d81 2761 d4f1 d13f 0af0 9c0b a8cd d13f
00000490: 7293 61c2 ed9d d13f 72dd 1fc8 d65f d13f
000004a0: 2db8 bde8 8b14 d13f 472a d20d a6bf d03f
000004b0: 3321 01b9 e464 d03f c41a a1a8 7508 d03f
000004c0: b8e9 9b05 c15b cf3f f7ce e13f 79ae ce3f
000004d0: 8ed2 365e e00c ce3f 6dcb 21a7 f378 cd3f
000004e0: 5d0b ad44 2df3 cc3f 6091 af6a 0a78 cc3f
000004f0: e9dc 3e67 3205 cc3f 216a 74e3 9299 cb3f
00000500: e322 9ff7 1f30 cb3f 2f45 9bfe 29c8 ca3f
00000510: 34af be9a 2760 ca3f d41e e822 38f5 c93f
00000520: 4676 4274 e788 c93f b49a 36ac d41e c93f
00000530: f35e f43e 97b9 c83f 6daf 7c68 205e c83f
00000540: 228d e3b6 5219 c83f ffb5 8a6a ace4 c73f
00000550: 8488 1cb9 dac1 c73f f242 d676 0eae c73f
00000560: 2c4c b510 529b c73f 87fa 0542 567b c73f
00000570: bb9a 1c3d 7e4d c73f 5aee dc5b 10e4 c63f
00000580: 66c3 0b68 7d25 c63f 5fef 6a63 5d16 c53f
00000590: 75e4 b9c4 7e87 c33f b9a7 aa22 52ac c13f
000005a0: edbc e64d 24ff d13f 7c7b 9d53 26da d13f
000005b0: 8815 4147 8ca8 d13f 3e30 a87d 6667 d13f
000005c0: c94c 2989 2618 d13f bdfd 3bbf 08bf d03f
000005d0: 09d4 d35a b660 d03f 06cc 8b1d 2302 d03f
000005e0: aea5 ede6 634e cf3f e370 a7d0 b9a3 ce3f
000005f0: 3be0 6e06 9708 ce3f d8f1 68fc d97b cd3f
00000600: 364c 7f6b a9fd cc3f d737 04e1 d288 cc3f
00000610: 74f7 e044 0f1c cc3f 8ccc 834a 00b5 cb3f
00000620: 513b 0b45 584e cb3f 9dee da86 33e6 ca3f
00000630: b742 0460 4776 ca3f 3c80 155e 7df8 c93f
00000640: dfa1 31bb 3c6d c93f 9ba6 109e 98da c83f
00000650: 7b5a 4c10 0745 c83f a778 794b 5eb4 c73f
00000660: 8aa0 689a 1538 c73f b5cf d6a8 65cb c63f
00000670: d0be 8105 5e6f c63f f514 2b01 db26 c63f
00000680: cac6 8e4d 36cd c53f a296 0c7a 9c6d c53f
00000690: 1b64 6100 0ff7 c43f 8339 ba10 ee69 c43f
000006a0: a349 e43c 3d9f c33f bce3 4a7f e19d c23f
000006b0: 8891 1f40 2286 c13f 225d 01f5 4d2a c03f
000006c0: de9d b0ad 8ef1 d13f 59b2 48fc b4ce d13f
000006d0: 8e75 c224 09a0 d13f 668c 50a5 4962 d13f
000006e0: 4deb 197b df16 d13f 73eb afc9 8fc1 d03f
000006f0: c973 d0db 6766 d03f cc55 c43e 140a d03f
00000700: cdf1 11ec ca5f cf3f 4898 a1d7 3db4 ce3f
00000710: 0056 0e80 2314 ce3f 0b62 159f 767f cd3f
00000720: 0f05 b7bd 29f6 cc3f d8ba c260 6375 cc3f
00000730: 63c7 2d94 f0fb cb3f aa6c f8b7 1d88 cb3f
00000740: a9f6 de99 221a cb3f 847b da47 dab1 ca3f
00000750: dd62 2c50 aa4d ca3f fac4 8007 a6e8 c93f
00000760: 1794 18c3 c47d c93f 19b6 533c 6410 c93f
00000770: 3b92 b5c0 429c c83f b124 0f58 b320 c83f
00000780: 096d 9b0f 86b1 c73f 91fe 4c6d 284b c73f
00000790: 1528 9961 f5fc c63f 17f4 598d c2d2 c63f
000007a0: 0f87 a5a6 63be c63f 9c72 c65b eeb6 c63f
000007b0: b3a3 ec33 4b97 c63f 61e1 59ab dd60 c63f
000007c0: 3008 abbc fcdb c53f e569 a182 11d2 c43f
000007d0: 6c69 54b4 5e56 c33f 4876 2b35 983b c13f
000007e0: cb85 f444 cdf5 d13f b361 566b 90d0 d13f
000007f0: 116d e58b cc9e d13f fd44 9778 845d d13f

Maxvals f8 [11]
14.516931808868012 13.95861165776488 13.79140991566716 13.725012725341157 13.65417654187796 13.620031895126298 13.537819095073274 13.487138375477187
13.409087369447835 13.307282047033347 13.150449409460881
00000000: 52b3 3a49 ab08 2d40 3a54 af25 cfea 2b40
00000010: 880a 33ae 3395 2b40 570c 31de 3473 2b40
00000020: 395a 4a3a f04e 2b40 b516 10d2 743d 2b40
00000030: 1002 4106 5d13 2b40 289a 7e33 6af9 2a40
00000040: 62f8 51e6 73d1 2a40 f44f 8d12 549d 2a40
00000050: 8bac 7ab4 074d 2a40
