Data/DMO/Model_snap0.npz (npz, 69850 bytes, 5 tensors)

x f8 [17]
00000000: 0000 0000 0000 2640 3333 3333 3333 2640
00000010: 6666 6666 6666 2640 9999 9999 9999 2640
00000020: cccc cccc cccc 2640 ffff ffff ffff 2640
00000030: 3233 3333 3333 2740 6566 6666 6666 2740
00000040: 9899 9999 9999 2740 cbcc cccc cccc 2740
00000050: feff ffff ffff 2740 3133 3333 3333 2840
00000060: 6466 6666 6666 2840 9799 9999 9999 2840
00000070: cacc cccc cccc 2840 fdff ffff ffff 2840
00000080: 3033 3333 3333 2940
11.0 11.1 11.2 11.299999999999999 11.399999999999999 11.499999999999998 11.599999999999998 11.699999999999998
11.799999999999997 11.899999999999997 11.999999999999996 12.099999999999996 12.199999999999996 12.299999999999995 12.399999999999995 12.499999999999995
12.599999999999994

intercept f8 [100, 17]
00000000: d833 a26a 4ec8 dc3f 3b6e 8e6c 6bba dc3f
00000010: d659 64c6 70b8 da3f 52ab 11c4 c0ae d73f
00000020: 1465 a09d 73fa d43f 4aba f5b6 6f13 d33f
00000030: 3030 85c3 7d50 d23f 583f da1e 94a4 d23f
00000040: 60f8 c91b 94e0 d33f 221d 890a a96c d43f
00000050: 35b6 f6c9 5d15 d43f 0168 1bf4 b44c d03f
00000060: 3e90 94b4 994c c13f f02e 7941 410a abbf
00000070: 5464 7b46 f5b5 d4bf e7c9 7d2b 8d20 e4bf
00000080: 7a7c 3554 a9f8 efbf 2c2f aa8a d249 dc3f
00000090: 84ef 3385 2844 dc3f 1cf0 a25d b15c da3f
000000a0: 7cb6 9e2a 0b6a d73f 72be e189 159d d43f
000000b0: c4fc 502a a353 d23f e21c 3972 d2c6 d03f
000000c0: 67c6 80a3 1820 d03f 2e7b 035e e584 d03f
000000d0: 8232 5f01 b645 d03f 6ea9 e1e6 b9f0 ce3f
000000e0: b8f8 4662 903a c63f f8f6 c97a ca88 b03f
000000f0: 90d7 435f 5f7d c1bf 5a93 a79e ca25 ddbf
00000100: 29b9 268c ea08 ebbf b4fe df8b 50a2 f4bf
00000110: b361 ca2e 13d1 dc3f 3e20 8601 d409 dd3f
00000120: 68c7 f09f db51 db3f 2a67 8efa 7683 d83f
00000130: a892 e8f3 6fca d53f 2fe3 a4dd 88f3 d33f
00000140: ff03 cf6c 1430 d33f 68b4 7b2d 60ab d43f
00000150: f492 7325 12fd d63f 02db 569c b9e5 d83f
00000160: 14a9 1237 59cf d93f 97f6 4919 de00 d73f
00000170: ec4e 8664 eec7 cc3f 306b dc2a 6781 a23f
00000180: 90ae f3d6 d837 d2bf 2413 3ffa d145 e3bf
00000190: 12c3 844d f5c1 edbf 3ef0 edcc 777e dd3f
000001a0: 5a43 cef9 e4ba dd3f eff0 a08c caf6 db3f
000001b0: 3c88 7885 5eec d83f f0b7 bed6 b0ba d53f
000001c0: 0984 b6dc 910c d33f 5110 c222 8a0e d13f
000001d0: 04cc ce88 f501 d03f 2810 c2cf bd59 d03f
000001e0: dec3 6c29 fa94 d03f 08d9 b65c e606 d23f
000001f0: 46ad a96c a602 d23f 7088 fae5 d62a cf3f
00000200: 22e6 53cd 7933 c53f 8082 d152 c824 8dbf
00000210: 1ec8 ad2e 2e06 d2bf e4d3 758a 4e18 e3bf
00000220: 038a b2ab a108 dc3f 3d76 683e 9f31 dc3f
00000230: 0865 5215 68c4 da3f 5219 33df 21c9 d83f
00000240: 4d2c d3e4 0517 d73f 7f53 8bdb fd2b d63f
00000250: e057 5a35 b21e d63f e03c 26e5 cdc2 d63f
00000260: c850 c5da 9439 d83f 0014 c81e b998 d83f
00000270: cf42 416f d5fe d83f 5303 a5a5 6c11 d73f
00000280: 64d0 6d25 24e7 d23f 40e1 9bc7 cee3 c23f
00000290: 18c7 8307 2ba9 b8bf c860 66ce ac47 dcbf
000002a0: dec9 6cf7 7235 ecbf 9844 53b1 01c5 da3f
000002b0: bb6e 6ad2 7cff d93f 23e4 2c24 357c d73f
000002c0: b65c 134c 9a31 d43f 5ecb 65a5 4d37 d13f
000002d0: fc08 0594 17dd cd3f d4fb 64d1 2a12 cb3f
000002e0: 1656 996e 8a4e ca3f 42f0 3c72 7004 cb3f
000002f0: 6608 f290 17ec ca3f de37 f5fa 403d cd3f
00000300: c66f 487a 0085 cb3f ea18 987d 3205 c63f
00000310: 1c59 59b5 b475 b33f d08f a78a 2ed5 b6bf
00000320: eefd 51eb fe0e d2bf 7316 e3ba 54d2 e1bf
00000330: 48fd b16c 1c88 dc3f ea1e 8ad4 ee16 dc3f
00000340: 7699 6fc9 1a5a d93f 4e44 352a 72cb d53f
00000350: 49d1 ec41 7ac3 d23f a0a2 5239 0b01 d13f
00000360: 2612 37b4 4141 d13f c611 aea5 c548 d33f
00000370: 5fca bfaa 529c d63f 9f27 d7f3 fb9d d83f
00000380: c802 d0ad ba05 d93f 0e53 a913 60b7 d33f
00000390: 40fb 30ef 9136 b93f c8c2 2ba2 6715 cebf
000003a0: 530f 29cc 5f77 e7bf 9801 1b96 f8fc f4bf
000003b0: 033f 80bc 6d65 01c0 b6df 8ad1 ae21 de3f
000003c0: 0a80 56c9 faa3 de3f 962e f446 57b8 dc3f
000003d0: 9e29 a080 9788 d93f 2ac7 add9 272a d63f
000003e0: d1c1 dfad 98fd d23f 2d43 3788 d194 d03f
000003f0: 2e6d 4c78 b6f1 cd3f 581b c43a ab17 cd3f
00000400: f8f2 37fe cde5 cb3f ae61 bdf3 9fc3 c93f
00000410: 8a77 82b3 d6f5 c23f 80fc d174 2bdf a13f
00000420: 10f3 ac03 0b7a bcbf 7271 d84f 343a d5bf
00000430: 334f 00da 6530 e3bf a6b5 0e03 9c27 f1bf
00000440: 9024 ee9e 945e dc3f b91e 13f3 4e09 dc3f
00000450: 6e72 c06d ee89 d93f 0591 c782 4a1d d63f
00000460: ea96 388a 7e0d d33f 66a4 7e20 902a d13f
00000470: b71c 2760 f7ec d03f e0a2 8b35 f967 d23f
00000480: 52a4 e8c9 baf1 d43f 345f e5b7 a8ae d63f
00000490: 5383 9d9e b6df d63f 5112 c6f2 9f12 d43f
000004a0: c000 5392 3abb cb3f 48de 261e b807 b73f
000004b0: d84b a09c b324 b9bf 58fe 1d4c 0b08 d3bf
000004c0: b080 955e 0611 e1bf f4c0 471d af27 dc3f
000004d0: f66a abc3 2fe0 db3f 7478 d82b 8bb6 d93f
000004e0: e293 ac48 42d8 d63f 0efa f7d8 0aca d43f
000004f0: 0ea0 4d92 d6be d33f e2fc 98d0 df56 d43f
00000500: 6d34 9b4c 57db d53f 7cb3 9c37 f973 d83f
00000510: cd21 a623 9730 da3f 161b dde1 9413 db3f
00000520: d24c 5062 9cf7 d63f 3ebe ac7c 9f69 cb3f
00000530: 00c3 6084 ba4d 7f3f 4ecc 8040 3507 d2bf
00000540: 3c52 dc0d 41ae e4bf e0c0 cdca 26d4 f0bf
00000550: 26ea 840a 6ffc dc3f 5638 26b0 99dd dc3f
00000560: 1ed0 5913 b994 da3f d751 b983 2a41 d73f
00000570: 48b9 f74a a227 d43f fd1c 23b2 5f2a d23f
00000580: 3002 aa99 f5f2 d03f d021 1380 9e16 d13f
00000590: e4b7 2a35 71d8 d13f 99b0 264e 3b36 d23f
000005a0: a825 6ec6 c2f9 d23f 68c4 40ca e9b2 d13f
000005b0: 9637 2115 9b14 cd3f a4dd 30d1 b50b c63f
000005c0: e023 ccbc ef71 a83f 9801 9d31 2bc8 b6bf
000005d0: 4caa 9d00 fe54 d1bf 3fa4 31d8 e873 dd3f
000005e0: 8d4d 8129 8f67 dd3f f002 7ddd 255f db3f
000005f0: ecac e731 3c63 d83f 8a01 5c78 4024 d63f
00000600: 12f3 30aa 8ecb d43f c653 d1cd b6b2 d43f
00000610: 0e44 2b9e 6998 d53f fec2 575c 3c13 d73f
00000620: 7e21 13be 0755 d73f ea99 4256 6e5c d63f
00000630: b957 82f6 ce70 d33f 6cda 0afc a7aa c73f
00000640: 0071 27ad e555 62bf bce3 b3fd 1644 d1bf
00000650: 76a4 5632 7c1e e1bf dab0 c9fa 7d74 efbf
00000660: dbb6 9da2 7042 dc3f f8af bb9c 8af3 db3f
00000670: 400c 30ad 81d1 d93f 6418 32f6 5ce4 d63f
00000680: 4c2c 9420 2c54 d43f 94bf 9293 4c66 d23f
00000690: 8d0a a221 72bc d13f e868 270c 4aaf d13f
000006a0: c10f 697d 5eb7 d23f 7b46 8d94 5aea d23f
000006b0: 22e6 0827 447a d13f dccd 5dac a013 c73f
000006c0: 0078 39ef 2303 683f ea58 1b20 ae8d d1bf
000006d0: b19a af16 c523 e5bf 25e6 dfef df1a f2bf
000006e0: 0cc4 9a90 6625 fcbf 58ac ab57 06b7 db3f
000006f0: 9d41 bb21 66c6 db3f f10d 1a9f 4107 da3f
00000700: 2243 3001 5e79 d73f ba88 1312 bc48 d53f
00000710: 7abc 32a8 2f19 d43f 0cd0 1b83 6d03 d43f
00000720: e0c2 5f08 ffcf d43f f58e bf1f 78a2 d63f
00000730: 045f 8b2e 1951 d73f 6e04 c2f9 4fc0 d73f
00000740: d487 3357 98e9 d33f 844a deb4 a326 cc3f
00000750: 50e1 bca4 4cc6 af3f 9c7b d8ba fbc2 c3bf
00000760: 94eb 76bb 720b d9bf f539 d5f2 2ee8 e3bf
00000770: 86b8 90d7 291f de3f 01f1 0be9 b5b7 de3f
00000780: 4793 f506 e651 dd3f 5a95 4fa5 34d7 da3f
00000790: 9faf b010 81f4 d83f 3c4e 750f ab05 d83f
000007a0: fcd2 315c 1254 d83f 6ad6 939f 373c da3f
000007b0: 2979 eef6 f244 dd3f 2b19 0869 4cf1 de3f
000007c0: e5fe 87f6 a563 df3f 86a1 b784 5aad db3f
000007d0: 0ad9 c022 d4bb d33f 6447 f6f4 07c4 b73f
000007e0: 105e 5119 617b cdbf c07f bea2 8c64 e3bf
000007f0: 7e8d e91c d507 f1bf ef56 8cb8 3a4f dc3f
0.44972572720945214 0.4488781509514614 0.4175073563978037 0.3700410761581924 0.3277863540002539 0.298061302825691 0.2861627969148257 0.2912950803083638
0.3105821868301799 0.319132099426911 0.31380409930247605 0.2546818145616499 0.13515015904806832 -0.052812613718371426 -0.32360584147460725 -0.6289735650482812
-0.9991041798310925 0.4420057634495034 0.4416600514230071 0.41190752166926514 0.36584738885981216 0.3220876547338555 0.286354819607322 0.2621351352176601
0.25195899931995885 0.2581113260366007 0.2542548192402948 0.24172137998113946 0.17366223143284798 0.064587264039769 -0.13663856650935857 -0.45543160909283176
-0.8448384034470894 -1.2896275962702193 0.45026092118635147 0.45372486256428946 0.42687121028131125 0.3830239722097867 0.3404807931822611 0.3117391743176538
0.2998095572075385 0.32295994226189473 0.359196220945065 0.3890213038206839 0.403280547887918 0.3594279524767016 0.22485141666822217 0.03614351652341552
-0.28465863219637644 -0.6022729766487811 -0.9299265398059069 0.46084399235383333 0.464532131148237 0.43693793996113944 0.38942683252583143 0.3395197007292827
0.2976421981239246 0.2665124263223833 0.2501195751203229 0.2554773835074706 0.2590928463496861 0.28167113355756657 0.2814117489967497 0.24349485616136546
0.16563341642158586 -0.014230313327233235 -0.2816272216651913 -0.5967171387006798 0.4380268265469171 0.44052868933235684 0.41823770601475063 0.38727614209019123
0.3607802137964356 0.34643503608577214 0.3456235428833434 0.3556399095331937 0.3785144936021081 0.384321479854691 0.39055381645907244 0.3604385011313315
0.295357739021034 0.1475771402981625 -0.09633130010095348 -0.441874696314255 -0.8815245468634278 0.4182743293468518 0.4062187247124986 0.36695602925061815
0.3155275099683864 0.2690004458628915 0.23330969550631397 0.21149192070330847 0.20552187347736667 0.21107297494916294 0.21032995774664015 0.22843181852152744
0.2149963948330635 0.17203360683942687 0.07601479937998018 -0.08919039616699753 -0.2821652696656817 -0.5569251680505672 0.4458075582005745 0.4388997150021924
0.3961245505473906 0.34054235574609926 0.29318100393290486 0.2656887111466322 0.26960795020230177 0.3013166540115687 0.35329119372105383 0.3846425896887186
0.3909746835125074 0.30806734008847136 0.09848892297393963 -0.23502822321417782 -0.7333220469958895 -1.3117605079170058 -2.1745257116925827 0.47080584014065197
0.4787585226240486 0.4487512772472909 0.3989619022474019 0.3463229776162843 0.2967282960881024 0.25908315946894583 0.23393898843719668 0.22728481645045906
0.2179505816747207 0.20128249551158944 0.1481274010192773 0.03490577507999948 -0.11123722877250608 -0.33167751119051225 -0.599657941611872 -1.0721702689582826
0.44327273865253236 0.43806813943636375 0.3990436622423549 0.34553778430405685 0.2976986265006035 0.2682228391009346 0.2644632758132945 0.2875960371880364
0.3272540065541466 0.3544103427752703 0.3574043797471422 0.3136367674672203 0.21665126938569834 0.08996153579834598 -0.09821627210503381 -0.2973659747440016
-0.5333282325118684 0.43992212161448596 0.4355582629047342 0.401766579454381 0.35694939705927997 0.3248316878161014 0.3085228375189225 0.31780238505230163
0.34151251298027924 0.3820784609877632 0.40921572190611927 0.42307016427041455 0.35886296845383214 0.21416085803638113 0.007642487127711872 -0.2816899423516518
-0.6462712546077181 -1.05179480762677 0.45290733363404667 0.45102541162566945 0.41532732858400034 0.36335242141401863 0.31491906472264874 0.28383629223067414
0.2648290634752213 0.2670055628518897 0.2788355845649433 0.2845600379175806 0.2964941919131783 0.2765449977042125 0.22719133884168902 0.17223236765287908
0.0477442663159946 -0.08899183236372321 -0.27081251201767453 0.4601995574253727 0.4594457536051884 0.42768236760825484 0.3810568320611327 0.3459626365074874
0.3249241506598973 0.32340784167655234 0.33742752500717266 0.3605490590844481 0.36456483423219044 0.34939154075473644 0.30376028130683214 0.18489551359899126
-0.002238224589048099 -0.2697808721127861 -0.5349713309452813 -0.9829702280235566 0.44155517464137767 0.43673959070179036 0.4034122649465566 0.35768817942187625
0.3176374738838532 0.2874938431877976 0.27712682041616504 0.2763238066378464 0.292441961737719 0.2955538225843168 0.27308753787983353 0.18028648773507328
0.0029311849446420624 -0.27427247176582503 -0.6606164401135485 -1.1315612192250992 -1.7591310165992153 0.43304594575483213 0.4339843110474478 0.40669289147646653
0.3667826663595851 0.33256437077774204 0.31403724122623766 0.3127092151983113 0.3251950818803788 0.3536663351098775 0.3643248514685953 0.37111281767290094
0.3111325122428046 0.2199291833063236 0.06205977927169448 -0.1543879186947067 -0.3913237410267183 -0.6220926993208297 0.4706520657663379 0.4799628043981699
0.45812369041077655 0.41938511031761083 0.3899233496656453 0.3753459597548703 0.3801313305223599 0.40992537101496984 0.4573333178940567 0.48347769028659354
0.4904570491344045 0.4324556633059945 0.3083391513240633 0.0928349469234298 -0.2303277372000001 -0.6060240915867254 -1.064412224711162 0.44233577749524405

slopes f8 [100, 17, 3]
00000000: f4bd 7215 eed9 843f 92d5 4942 dc86 a13f
00000010: 9dc6 6395 5245 c0bf 909f 0c8b ee84 843f
00000020: 9a3d 187a 76fc 9d3f 8449 4fc3 17e0 c1bf
00000030: c08e 9125 34b6 893f e8d8 7474 d0e5 953f
00000040: a6c7 a63f d66d c3bf d720 a47e e9dc 903f
00000050: 28e2 e6b4 a017 883f 8097 d05e c3fe c4bf
00000060: f348 90ba b955 943f 8092 f793 1eb8 5a3f
00000070: 7ee6 fd99 9396 c6bf 8661 6c96 209b 963f
00000080: 50ed 98fd c9e1 81bf 9d7e ed3f 9c92 c8bf
00000090: f467 c344 8e41 973f 8819 eb88 3799 92bf
000000a0: 359e 20bd 41fa cabf 2f6b 9e18 eb66 963f
000000b0: a8fd 02ff 55bc 9abf e872 d94f a0ee cdbf
000000c0: cf9e 3890 ba54 943f 6c3b 12a2 9ab7 a0bf
000000d0: 3d8b bb59 83b7 d0bf 622d 9b17 d343 933f
000000e0: 34fc cec4 ea84 a3bf 83ad e474 9ca7 d2bf
000000f0: f502 a50e 9e81 933f 6819 ae22 9b68 a5bf
00000100: f729 a851 0eb2 d4bf c2b3 62bb 815f 983f
00000110: e0dd 76f6 a07f a8bf f23e 040c 240e d7bf
00000120: 30a0 6e76 dd3f a13f a00f 5ffc 7b6d abbf
00000130: 20c1 4ad1 091a d9bf a859 b2f9 e738 a93f
00000140: 00d6 02c9 551b afbf 12ff af83 75ce dabf
00000150: dd4f c867 d15e b23f 84cb b03b 84d6 b0bf
00000160: 784a 221e b0f9 dbbf 830f ea9b 24cb b83f
00000170: b069 5526 262c b3bf 0555 8568 70ae ddbf
00000180: 8761 625b c359 c03f bc24 0425 9c23 b1bf
00000190: 3ecb 737c 6c89 ddbf 4da3 9989 969b 863f
000001a0: e6ef ab62 ca4f a23f cc8f 1772 22cb bebf
000001b0: 95f8 0088 d222 863f 3a3d aa92 886b 9e3f
000001c0: cf82 221a 887e c0bf a7d8 51e7 e3f6 8a3f
000001d0: 8a4b 00fb f8cd 943f 1b9c ab0e 715e c1bf
000001e0: 46de 5ad9 d350 913f e8e6 be1a 5fee 813f
000001f0: bac9 55e5 f227 c2bf 8c11 93a2 d4dd 943f
00000200: 00ad 7a6a 2e00 6fbf 5e63 2e54 8efc c2bf
00000210: ecbe 1ebf b99d 973f b493 7efd b551 91bf
00000220: 0b6e 0311 0832 c4bf c0e3 34f4 2654 993f
00000230: 205d 7824 3e25 9dbf 5a94 3e41 0618 c6bf
00000240: 06e5 2308 27d7 993f 5400 c131 20e1 a2bf
00000250: 8b11 bc71 0112 c9bf f352 e517 430a 993f
00000260: 4ce6 4ee8 27c1 a4bf bce9 28f3 43da ccbf
00000270: 80da 44b8 0236 993f 380b 273e 7019 a5bf
00000280: 9df3 79b2 efe9 d0bf 516d 9ae6 4d5d 9a3f
00000290: d00d 947a 930d a2bf d218 653d 64e0 d3bf
000002a0: c576 7adb 0132 a03f 0047 edc6 b582 9cbf
000002b0: 9661 d3fc 6ba0 d7bf 3f39 17c8 b207 a53f
000002c0: e079 23f0 c912 92bf 52b4 7f87 c27c dbbf
000002d0: acaf 33d6 cdd4 ad3f c049 a5a3 179e 78bf
000002e0: 56ef b058 c6d5 dfbf 9627 8533 56b1 b53f
000002f0: a082 1fc9 9fbe 83bf bf7a 30ca 82ac e1bf
00000300: 4240 e997 95d3 bd3f 301c c4be e713 9bbf
00000310: 778d 06c2 7767 e3bf af46 8cd6 528a c33f
00000320: 7893 61ee 056c a7bf 39f2 affe ac38 e4bf
00000330: ee68 b5b3 6dc8 843f 3844 a664 2b21 a23f
00000340: 8604 b146 309e c1bf 86c4 9fa2 078e 833f
00000350: 02d9 1988 c97b 9e3f bef9 8829 0080 c3bf
00000360: 262a 8f14 94d5 873f b80f 4e25 0fad 953f
00000370: 1b05 a728 ab2e c5bf 41e1 9258 b120 8f3f
00000380: 70e0 fe08 c308 863f b335 3293 509d c6bf
00000390: bc67 19b3 f407 933f 003e ef39 4ce5 43bf
000003a0: 6658 5c9f 0cd7 c7bf 8285 ba8b 2734 953f
000003b0: b0f6 b659 4f88 88bf 3396 6801 9f12 c9bf
000003c0: 2cf4 8f38 01e3 953f 106b 2aca 4b71 96bf
000003d0: 381f 133c 1202 cabf ac5e 8fd0 3d85 933f
000003e0: 78f3 c4a2 6fd6 9dbf cfd9 03ad d263 cabf
000003f0: 889f 6460 5e28 903f 5895 e539 587f a0bf
00000400: 2c4d c93b 077d cabf ef2f 7108 4e53 8b3f
00000410: 18bb 3b7e 2535 9dbf f629 f245 fc60 c9bf
00000420: 4fa7 0302 9bc3 893f 48f4 0b4b cb2b 91bf
00000430: 2ed1 0a4a 3e35 c7bf b7e0 3ca3 686f 913f
00000440: 0046 df04 6b26 533f 5c79 8af2 f6a1 c4bf
00000450: 187b 06b4 8060 9e3f a4f2 4d1b 1df7 a03f
00000460: d7e0 eb2b 30c1 bfbf 23c4 aaa8 0c20 a83f
00000470: 6218 3488 dac3 b23f 0c2d 4fc8 c6b7 b0bf
00000480: 1cc7 da70 af5d b33f cea4 dcd5 0a34 be3f
00000490: e878 6960 7594 833f 9a9e c0a7 a17f ba3f
000004a0: d711 6b11 2e52 c43f 3c3c e026 1cdf ad3f
000004b0: 9ac9 888c 88f4 c03f ce2a 5984 9f09 cb3f
000004c0: 8537 bf8d dbd7 c33f 8ccc 8390 4495 823f
000004d0: f43c 5a6e 1aad a03f 24a2 f888 1253 bfbf
000004e0: 3a6f a467 fc4d 813f 0e80 a00b a4e2 9a3f
000004f0: 0191 efd7 8106 c1bf af56 1cbe d0b3 853f
00000500: 4442 8036 2776 913f 40f8 fdaf 6d67 c2bf
00000510: a647 7a37 b99b 8d3f 20d9 aaa2 7321 783f
00000520: 59e6 2d1d 1d02 c4bf 27a7 ff04 c2ee 923f
00000530: 8022 c398 6853 76bf 949d 10ce 72c8 c5bf
00000540: 5efd 91ef 9847 963f 58d7 d604 effc 90bf
00000550: 6a7e 4fa3 e327 c8bf 6603 0a35 7ca9 983f
00000560: d88a 14d5 d1e5 9abf 8471 eb3e d6ee cabf
00000570: e18c 5607 0bc9 993f 748b edaf bb00 a1bf
00000580: 1716 bcf8 d302 cebf c5f4 6552 0a14 993f
00000590: dce1 6b64 ebb1 a2bf 9397 4342 91ba d0bf
000005a0: 512e 593e 8ba0 983f 08b8 7336 6428 a3bf
000005b0: 0391 fd42 8839 d2bf fe5d dcd7 e7b2 963f
000005c0: d86c 0aa8 4b1f a1bf 7600 a057 a18c d3bf
000005d0: 04c4 bbf3 3be8 963f 1889 f348 341c 9bbf
000005e0: 9c8b 3022 5c93 d4bf 6486 1eb5 edb1 9a3f
000005f0: e0a4 0c8b 1f3f 86bf d658 55a5 7653 d5bf
00000600: ba0b a8cc 89ff a03f 40cf b8b8 2731 7c3f
00000610: 6f34 5193 eb0d d6bf ab4b beb2 ce19 a93f
00000620: e897 017b 1b67 9f3f 544f 6abd ff68 d6bf
00000630: 956f 193a 2f62 b23f e41b 4371 2776 a83f
00000640: f4cf b510 71e9 d6bf cffb 3278 4c5c b93f
00000650: 5cc3 6d38 1d65 b53f 9e61 a240 427f d5bf
00000660: 1e5b ad9c a0af 863f 240b ccd0 d46b a03f
00000670: ad95 e366 513c c2bf 5538 23d3 91ac 853f
00000680: 9c4e 4bc6 7c7e 9b3f 9a2f bf9f 180e c4bf
00000690: c3a4 996f dc22 893f b82b ead8 1582 933f
000006a0: bf65 00c8 afe3 c5bf 1742 1517 5c20 8e3f
000006b0: f8b9 0ceb 4e5f 853f a69a d546 a9ad c7bf
000006c0: 4875 d67c a923 913f 4091 8b82 46e3 623f
000006d0: da68 23ca e48d c9bf 4051 5634 881c 923f
000006e0: e020 579c 9802 74bf 1413 5d45 cead cbbf
000006f0: 17a8 571c 22eb 913f b0c7 1d52 9117 84bf
00000700: a99d c643 f41b cebf 329a 3abc 54d1 903f
00000710: a01a 437e f404 8abf e609 7c76 ed64 d0bf
00000720: 2eee 9d70 e463 8d3f 201d cfab 0cbf 88bf
00000730: 4cc0 0cf8 aff2 d1bf f19a 5dc3 4d4c 8c3f
00000740: 90e8 2967 194d 84bf f200 b97a 11a7 d3bf
00000750: ea8c b285 735f 8b3f 607b 354a d91c 72bf
00000760: 2770 ced5 1d8c d5bf 1160 3586 a464 903f
00000770: 00bc fca5 d207 583f 61d4 e76b 5029 d8bf
00000780: c41d df41 6c05 963f e05d b52e 2fc4 743f
00000790: 2619 9658 e3a2 dbbf 42c2 4298 a651 a13f
000007a0: a0d9 a91d 6e73 793f 10f3 1532 f002 e0bf
000007b0: 595e f7fe d28e ab3f 00a7 4636 4bed 50bf
000007c0: 9758 8459 22b7 e2bf 1b32 5f06 79d6 b43f
000007d0: 307e 5095 83b1 9dbf c0ec 7ee0 3d40 e7bf
000007e0: 76f6 2f84 9bd9 bd3f 2803 e14c f647 adbf
000007f0: bc19 1138 6323 ecbf d4f8 65da 55e6 8a3f
0.010181293515727476 0.03423202809509997 -0.12711555761739116 0.010019172304580853 0.029283381654804687 -0.13965127026183322 0.012554557224752627 0.02138448439401311
-0.1517894564436208 0.016467712740479392 0.011763816376388084 -0.16402475480679968 0.019858266841830518 0.001630811559033024 -0.176470232192333 0.02207613866912219
-0.008731439639737687 -0.19197419282408115 0.02271101278970629 -0.01816260121520366 -0.2107622312043859 0.021876977326978405 -0.02610906952827255 -0.23384479426285698
0.019854464581071703 -0.0326507876244396 -0.2612007499976022 0.018813417735868206 -0.038123451733092756 -0.2914801732574334 0.01904913868316079 -0.041813705428512205
-0.32336767172151276 0.02380182939730325 -0.04784873016927427 -0.360238086447665 0.033690376956031165 -0.05356967406944979 -0.3922142547480849 0.04926228449874098
-0.060755425250516026 -0.4188512598047832 0.07175930770637202 -0.06577326257028743 -0.43711474364059866 0.09684971624852605 -0.07489241062049845 -0.4637719174109665
0.12773935281871848 -0.06694961456027476 -0.46151268151804803 0.011038948129866855 0.035765003723980546 -0.12028708730173249 0.010808605933672314 0.029707082702370637
-0.12886143947709747 0.013166218277757059 0.02031697303761918 -0.13569462982488364 0.01690989507798537 0.008755438808168717 -0.14184414098742854 0.020377466604956804
-0.003784266143915027 -0.1483323966065439 0.023062612810178004 -0.016913264844010192 -0.15777684050304716 0.024735077529132843 -0.02846238229366549 -0.17260816751255242
0.025234804031218715 -0.03687382323596525 -0.19586198857735967 0.024453209241374684 -0.04053616247933842 -0.22541093228376308 0.024620096680531223 -0.0412097049588937
-0.26427833966573094 0.0257465526579897 -0.03525982734029365 -0.3105707740363758 0.03163152507953052 -0.02784236933377482 -0.369166371250253 0.041074358868729004
-0.017649798662086158 -0.4294897387724791 0.05826419105309752 -0.006010143605026774 -0.4974227777599841 0.08473719365897944 -0.009640930486001509 -0.5523084591876212
0.11650977095382678 -0.026443120020328503 -0.6063803472101615 0.1526588008496694 -0.04574602637220598 -0.6319184278832558 0.010147912070057132 0.035409313236535345
-0.13764003230793181 0.009548244142907569 0.029769085819190806 -0.15234376934126986 0.011637837293069952 0.021167980815803594 -0.16548671231252218 0.015199075236851047
0.01075889941408567 -0.17667586505232932 0.018585036689138454 -0.0006071684073222783 -0.18625028401646943 0.02070676603637401 -0.011978740620971123 -0.195880771339192
0.021373766972818384 -0.021916565145697453 -0.20318820889792177 0.01906296334695294 -0.02913832121815882 -0.20617135475158796 0.01577899421059173 -0.03222156244991464
-0.20694055957083302 0.01334248507750854 -0.028523050145788792 -0.1982722608120892 0.012580119132013982 -0.01676862378643687 -0.18131235709518861 0.01702655311893927
0.0011688275439961648 -0.16119276850526887 0.029665003764985348 0.033135327895228245 -0.12404156753825944 0.04711951788829818 0.07330098939209642 -0.06530420675624188
0.0756482744716575 0.11798160287129919 0.009560505871544625 0.10351000161665028 0.15875793314456985 0.05834281897124824 0.13246256696727415 0.2112311741096477
0.1550249521373496 0.009073768291705052 0.03257067296100927 -0.12236133426689172 0.00844952765742556 0.026255191049244835 -0.1330110840200476 0.010596876908987111
0.017052281095006686 -0.14378138631212956 0.014457175260108656 0.005891277027947589 -0.15631450581331555 0.01848891406544975 -0.005450638371436001 -0.17017970144045746
0.021757497427186016 -0.016589865370142703 -0.18871732210299125 0.024084034669161446 -0.026267317419420205 -0.21041372368098277 0.025180980990296645 -0.03320871851499066
-0.23446130414247143 0.024490510253134774 -0.036513668068383714 -0.26138717146965823 0.024049926453058316 -0.037417537352539 -0.2847614912227671 0.022166845846269816
-0.03344189096716271 -0.3054583888733825 0.022370278121290013 -0.026474778130144733 -0.32149413431960183 0.026069368533745765 -0.010862585478735587 -0.33321920533979943
0.0331996023487799 0.006882815515883156 -0.34459962259717875 0.04902501995015681 0.030666760809616195 -0.3501586293943906 0.07181067627374056 0.0477764440307096
-0.357998148268279 0.09906461653279951 0.08357412936835601 -0.33589226066535527 0.011077170163543534 0.03207268761436513 -0.14246575855137902 0.010583056693942586
0.026849698641696493 -0.1566801815046091 0.012273523479239384 0.019050923695015348 -0.1710109449930268 0.014710158781469791 0.010435692356250734 -0.18498722037039278
0.016737602467050722 0.002305638994913789 -0.19964275236163226 0.01768696612778453 -0.0048852883678096315 -0.21624163042920286 0.017498524646647775 -0.009810576742640936
-0.23522809323661178 0.016423534382420786 -0.012704763510908379 -0.2561601311755609 0.014350685774608154 -0.012083147996135468 -0.2804374620782297 0.013817412876688336
-0.009912680111700461 -0.30707203850398834 0.01336565257799412 -0.004422043598735964 -0.33667703513651975 0.016008921328960982 0.0014667088616524548 -0.3775216153874848
0.021505061645965787 0.0050699084343572565 -0.4318168988323968 0.03382607086803492 0.006213598384979951 -0.5003586748349296 0.05382403719312085 -0.0010331377498950522
-0.5848552463892415 0.08139759450495669 -0.028997474659375466 -0.7265920052226633 0.1166016767237695 -0.05718965233291434 -0.8793197722487132 0.013134642341125526

scatter f8 [100, 17]
00000000: 7873 a65a 31a6 c93f 45fe 342b 78dc c83f
00000010: 99e5 322f 682a c83f 8b1a d99e 1093 c73f
00000020: e465 c018 6416 c73f b404 4316 d6b1 c63f
00000030: 5146 af70 ba60 c63f 89ea 515c 081c c63f
00000040: d613 4101 38e1 c53f 979c 87b9 08ac c53f
00000050: 0125 53c4 447b c53f 3f1d 5600 4850 c53f
00000060: bf99 049d ff28 c53f 5ff1 2f94 6504 c53f
00000070: 112e 1f01 a0df c43f baaf 6f6e 58a5 c43f
00000080: 81e6 f36d d46c c43f 0308 1b66 fd96 c93f
00000090: 6998 a475 01cc c83f de91 aeb6 5e19 c83f
000000a0: 98ca 14db 7e82 c73f 5570 a171 9906 c73f
000000b0: 3a29 e986 40a2 c63f 6fb1 966a 0b50 c63f
000000c0: ffcb ccfc 0c08 c63f 639b c39b 40c2 c53f
000000d0: e56f 3802 627c c53f 49f6 0d26 0c34 c53f
000000e0: 7ff1 fd56 bee2 c43f 4d26 ab09 7782 c43f
000000f0: 7f4a af76 5518 c43f da74 180d b4a7 c33f
00000100: 6ea5 f994 3306 c33f 51ee adaa fa54 c23f
00000110: e62f c92b 7c9f c93f 8cd0 e42b aad7 c83f
00000120: 958c 6448 bb28 c83f e76c 3840 9896 c73f
00000130: d001 4c14 cd20 c73f 4ce5 8998 24c4 c63f
00000140: a55e 3a23 997a c63f cddf 5b25 563d c63f
00000150: 2cd1 0361 fe0a c63f cd84 ae99 85df c53f
00000160: 6958 222d 02b4 c53f 9460 5b0a 4992 c53f
00000170: 6cb8 b9cd af6c c53f 30be 84a8 cb3d c53f
00000180: ed27 ca91 d706 c53f 3bed 8043 05bc c43f
00000190: ed76 03d0 7f58 c43f 84bc 23e0 8ba2 c93f
000001a0: d733 fcef b5d5 c83f 620c 460d 2d1f c83f
000001b0: d4e1 0418 c182 c73f ace4 041c 6800 c73f
000001c0: 6e32 67b5 4b95 c63f 5f2a 30af 0b3f c63f
000001d0: 2713 0f81 38f4 c53f cf45 813e 21b6 c53f
000001e0: 42ab f61e 497e c53f 2f47 a5fb b24c c53f
000001f0: 0874 6a4b a81f c53f 2287 5140 35f1 c43f
00000200: 5b27 15de 4cbe c43f 12de 6320 3c8a c43f
00000210: f3ed d8df 1438 c43f 5173 cd00 0ad8 c33f
00000220: e362 f0f1 22b2 c93f 3522 2dbc b5eb c83f
00000230: 6c19 16a5 c23b c83f fb8a 1971 49a5 c73f
00000240: c582 c4e7 e928 c73f 0f26 9a1d d7c4 c63f
00000250: 2d8a 4133 ad75 c63f 110b bfa6 7b35 c63f
00000260: e544 0b4d 4f01 c63f 3234 03f4 c7d5 c53f
00000270: 65a6 b649 e6ae c53f 91fb b54d a385 c53f
00000280: 45f8 4d01 7259 c53f 8e4a 6ea5 fb1f c53f
00000290: 478f d4b4 e9e2 c43f 43fc db25 e673 c43f
000002a0: 1335 52e7 1afa c33f 3284 ac08 94a1 c93f
000002b0: ab6f d10e 34d8 c83f 1127 0a5d 3026 c83f
000002c0: 6fc9 4925 3f8d c73f bbeb feaf 110e c73f
000002d0: 09e5 0b19 d5a2 c63f c66c 85e5 9f46 c63f
000002e0: 1d8d 2183 3ef2 c53f 0b6e 661b c4a3 c53f
000002f0: 66f0 f3aa 495c c53f db25 2195 6b1e c53f
00000300: 2a4b 4b03 44ef c43f 3c51 3251 8dd2 c43f
00000310: b262 1440 b4c1 c43f 7d34 14b0 8cb6 c43f
00000320: 47d0 4306 fca0 c43f 4c0b 12aa 668f c43f
00000330: fb0c df50 c5b0 c93f 1271 2dc8 83e7 c83f
00000340: 3939 f309 0034 c83f 24c1 4b1f 439a c73f
00000350: 51e7 f089 3719 c73f 60df ab19 05af c63f
00000360: cad0 5bd7 0b56 c63f 2b4b c216 a509 c63f
00000370: 1f9d 5a35 0ec8 c53f 3333 3e51 958d c53f
00000380: 5ea9 de84 a45e c53f b6a5 b268 5340 c53f
00000390: 5aeb 3921 c82f c53f 32cc 2636 e635 c53f
000003a0: 7e32 8c22 0d41 c53f 676f 07fa cb3c c53f
000003b0: 686c e279 b735 c53f f195 55e9 afac c93f
000003c0: 3c20 d166 2ee2 c83f 7a6d 17be 352f c83f
000003d0: 92b4 bbea 0a97 c73f 4e02 9283 731a c73f
000003e0: 9cf6 6fdf 52b8 c63f 5f26 7258 9e6c c63f
000003f0: 4560 0b44 e730 c63f 9279 0b3a 2504 c63f
00000400: 17a7 3b18 e6dc c53f f8b8 ef53 6bb7 c53f
00000410: 8cbf 7fb9 eb96 c53f 5b16 aad0 7b75 c53f
00000420: c2af 83d4 324a c53f 45da 1421 d81a c53f
00000430: 3ea0 5dff 0bc8 c43f f329 302d 937f c43f
00000440: bac7 7931 a8a1 c93f 5e57 8a9e d5d6 c83f
00000450: f8e5 6446 4423 c83f a945 753b 5789 c73f
00000460: e8c0 b04c e109 c73f 30ca f736 f3a1 c63f
00000470: 82c3 fc05 ca4b c63f b6ce e3d7 1600 c63f
00000480: 716a 2304 45b9 c53f 0ac2 bf1e 1d74 c53f
00000490: e1d3 20e9 0b2c c53f 4ab9 4aaf e1e0 c43f
000004a0: a6f3 bdd3 998e c43f aef5 7d70 e33b c43f
000004b0: 58b3 2ab5 10e3 c33f 51ad a309 8878 c33f
000004c0: dbb2 91e0 fb13 c33f 629b ddf1 58b2 c93f
000004d0: 2150 22b7 e6e8 c83f f15c 7a6d 4e36 c83f
000004e0: 28a4 c209 e19f c73f b364 47d9 a525 c73f
000004f0: f733 c93c 31c5 c63f 7613 9033 1e7a c63f
00000500: eca3 5652 313c c63f c2b7 8f9d 6107 c63f
00000510: 6051 1a48 f2d5 c53f 1f5f c936 0fa0 c53f
00000520: cd86 9e5a 9f65 c53f 9a62 02e0 be24 c53f
00000530: ec4b f206 11dd c43f e382 07e5 e58c c43f
00000540: 8765 228b f422 c43f e049 e04a 5fce c33f
00000550: 5e2b 9c59 0ba5 c93f 1697 42a9 53dc c83f
00000560: 3ff0 04cd 852b c83f dbb2 b94a 6495 c73f
00000570: a88d b752 de18 c73f 2783 473b 10b4 c63f
00000580: ab6c 51c7 3461 c63f 91ff c9f6 b418 c63f
00000590: 270c 7080 16d9 c53f 9545 4c00 b79e c53f
000005a0: 5deb 97df fc6b c53f 91d8 d565 4049 c53f
000005b0: 46c7 e4d5 7731 c53f e471 f8fc 0a27 c53f
000005c0: adfc 5209 bc3b c53f 764b 623b 0048 c53f
000005d0: b798 46be 3247 c53f a9fd 9ff2 68a5 c93f
000005e0: 4e2d 3387 b7db c83f 0070 169c 112a c83f
000005f0: 4f41 f56f 7394 c73f 3dec 222e 8a1a c73f
00000600: fb7a 532d d6b8 c63f 2009 b34b cb69 c63f
00000610: 352e aec3 ad26 c63f 81e8 3ddf b1eb c53f
00000620: a092 2a34 76b4 c53f d2e9 c6b1 5e84 c53f
00000630: 355b 87e0 8557 c53f b0d2 58a3 9536 c53f
00000640: b857 4392 ac24 c53f aeb0 ad94 5517 c53f
00000650: 6739 dd35 a5f9 c43f 9d1a 3620 b6dd c43f
00000660: 6159 7baf d4b3 c93f a885 6556 9fe5 c83f
00000670: b5a3 4b43 d32c c83f 01ed d742 7a8c c73f
00000680: 5110 40fc 4204 c73f 30ab f671 8e94 c63f
00000690: 6651 6d1d fb34 c63f ebae ca97 34de c53f
000006a0: 862d f7fd 008c c53f 793c 41d5 753e c53f
000006b0: 0471 a529 77f5 c43f a509 891a d5b6 c43f
000006c0: 0705 7681 ab82 c43f e956 c8fe 2553 c43f
000006d0: b348 33ef f12b c43f 5e3e 5939 d7fa c33f
000006e0: 6c91 d0c5 feb9 c33f ea70 bb36 5dab c93f
000006f0: 9019 c37c f7e4 c83f 67d1 35f5 7c36 c83f
00000700: 9ef1 d683 f1a2 c73f f3a0 d55b 2f29 c73f
00000710: c743 fc2f 0fc8 c63f 9cf2 9366 0a7c c63f
00000720: ed4e a12f 8d3d c63f 535d 68bd b40b c63f
00000730: 386e 4633 f0e1 c53f 3b57 130f f1ba c53f
00000740: dc7c 2dfa b097 c53f 816e 2f22 236f c53f
00000750: cb0a 183c 7b4a c53f c397 9309 ad10 c53f
00000760: 1f0c cf3c f1bc c43f 0630 315e a469 c43f
00000770: 48f7 6166 9aae c93f 1b8a 0c75 93e6 c83f
00000780: e317 c446 7f36 c83f 1ffb c7b9 57a0 c73f
00000790: 4c82 b8be 9a24 c73f f7d0 44c6 bcc1 c63f
000007a0: c416 5f8a e673 c63f 1ba1 932d cc35 c63f
000007b0: 5276 532b 9704 c63f 0a82 fdbf c3dd c53f
000007c0: 013a aa29 e2ba c53f e95b 187c a99d c53f
000007d0: 7818 8bbf f67e c53f b030 d188 d15b c53f
000007e0: 8bea e114 e021 c53f 51f8 896a a5d2 c43f
000007f0: 72f5 4d9d 9b67 c43f 941a c778 f49c c93f
0.20038430143622654 0.1942281924220756 0.18879415802602464 0.1841755653024005 0.18037081917354592 0.1773021324825429 0.1748269129007434 0.17273048885165945
0.17093563138237639 0.16931256350583077 0.16782435976191581 0.16651248947548855 0.16531367461102595 0.1641966794558227 0.1630744939305804 0.1612959422340035
0.15957122200761734 0.1999203442156273 0.19372575992855737 0.18827423019423767 0.18366990754437462 0.1798888974034322 0.1768265398735112 0.17431776718639067
0.17212068885564233 0.1699906120840878 0.16785836323185702 0.16565086229450035 0.1631696629300556 0.16023147556397746 0.1569926099314962 0.1535553993170769
0.14862675451449142 0.14321835836368504 0.20017959726317186 0.19408156531574539 0.18874302897265652 0.1842832864357213 0.18068850985583973 0.1778608078782703
0.1756163999568702 0.17374684166111223 0.172210500116884 0.17088384632100997 0.16955592349831086 0.16852677350721434 0.16737935586155872 0.16594835022395804
0.16427130335460963 0.16198793216777027 0.1589507833186227 0.20027302212063003 0.19402193277383503 0.18845141552091876 0.18367780373388476 0.1796999108135301
0.17643114430974854 0.1737990003023979 0.17151552488044183 0.16962066223145064 0.16791643154041408 0.1664031723726622 0.1650286072007534 0.1636110843710919
0.16205750316504006 0.1604685934214421 0.15796147279785053 0.1550304893416077 0.20074879468372506 0.19469329536720328 0.18932374058585866 0.18473165533494992
0.1809360868146738 0.17788208909432554 0.17546620371565905 0.17350717203051905 0.17191497098841704 0.17058658041642755 0.16940001105585903 0.16814080519176547
0.16679215491962132 0.16503854348828323 0.16317483262639085 0.15978695725059042 0.15607010169006993 0.2002434770920743 0.1940980026582769 0.18866543333961563
0.18399800606455183 0.18011685460609592 0.17684425089809278 0.17403029162492184 0.1714552059448601 0.16906024301430053 0.1668788990717786 0.16499085218155937
0.1635518089375066 0.1626755377261676 0.1621613800896476 0.16182097051242642 0.1611628561582867 0.1606262522146501 0.20070711563867136 0.19456527017872155
0.1890869186958726 0.18439520862694636 0.1804570601978477 0.1772161841724893 0.1745009233051234 0.17216933833386724 0.1701677093999274 0.16838327853147347
0.16695076453954533 0.16602556812476416 0.1655206835019623 0.1657073749935037 0.1660477083863902 0.16591787060212512 0.16570180369749044 0.20058249371793083
0.19440250416141847 0.18894073278248041 0.18429695569594579 0.1804947273667658 0.17750011358287032 0.17518977469107974 0.1733674127815467 0.17200150808544074
0.1708037966084752 0.16966001127679653 0.16866823728150526 0.16764781655017455 0.1663268602054569 0.16488172164254614 0.16235494584111793 0.16014327722980645
0.20024588027768947 0.19405622712354903 0.18857625424588753 0.1838788070986486 0.17998901600504458 0.17681732353192237 0.1741879014239452 0.17187772313592625
0.1697164793211701 0.1676060104505413 0.16540669329847815 0.16311284121679598 0.16060183371510312 0.15807765000128654 0.15536698194537268 0.15211582632705725
0.1490473600892049 0.20075523195120143 0.19460758154002725 0.18915729852299237 0.18456662155702586 0.18083642110176398 0.17789283245147633 0.17560174482073493
0.17371193428451137 0.1721002597182047 0.1705916263641809 0.16894712615134552 0.16716377186553757 0.1651838868899816 0.16299641455824998 0.16054986651490485
0.15731674951238636 0.15473548084317112 0.20034925342073512 0.1942238403764171 0.18882820616443216 0.18424657486629922 0.18044642485538742 0.1773700990152289
0.1748414967758881 0.1726289944672286 0.17068749686595305 0.1689060927824754 0.16735802571914862 0.1662979600184298 0.16557214683558125 0.16525399543833352
0.16588545279771463 0.1662597932778131 0.1662352971154115 0.2003604111377915 0.19420522786672695 0.18878383752314676 0.18421786276531768 0.18049742939715144
0.17751576626957175 0.1751035804391643 0.1730553822966258 0.17125533485870295 0.16956975505049332 0.16810210876958692 0.16673348868672525 0.165728287467251
0.16518170491934625 0.1647746063202979 0.16386857156835363 0.16301609585589896 0.20080050056885582 0.1945075198992019 0.18886795793448888 0.1839745355972369
0.179817555588786 0.17640858235002943 0.1734918492972028 0.17084367191033975 0.16833507919941954 0.16596863663514563 0.1637410119391306 0.16182960315388786
0.16023773022974572 0.15878748837047077 0.15759109668448942 0.15609255123353 0.15411362322732758 0.20054211780996606 0.19448751060390324 0.18916284535556402
0.1846601384876409 0.1809443663034994 0.17798032610929068 0.1756604195469621 0.17375340295495026 0.17223223923131545 0.17095758918445525 0.16976750599013166
0.16869175162989947 0.16745413941577073 0.16633549150727442 0.16457140891651365 0.1620160624425759 0.15947393988824404 0.20064096449999114 0.19453662123949375
0.1891631217515047 0.18458077021929228 0.18080457985435527 0.1777873962506715 0.17541200405519508 0.17351677155898745 0.17201509109047436 0.17083021997952158
0.1697657302324416 0.16887396392186751 0.16793712952329876 0.16686457806134092 0.16509629268314926 0.16267841055008828 0.15941186123738366 0.2001023854956726

Maxvals f8 [11]
00000000: 9e10 0f58 7939 2940 67f5 a143 2ab7 2840
00000010: 2c5b 9a50 3681 2840 8ff7 6da8 6a5e 2840
00000020: 6d3a 9e0c 123e 2840 69e9 a7bd e730 2840
00000030: 4948 4b3c 8611 2840 d239 2680 8dfa 2740
00000040: 3060 7032 01d6 2740 37eb d9d7 17ab 2740
00000050: 36a0 4b68 1d72 2740
12.612253906096438 12.357744325180375 12.252367514459898 12.18440748541232 12.121231455149621 12.095518042323151 12.034227260770551 11.989360813776248
11.917977882592908 11.83416628394262 11.72288061068694
