Data/DMO/Model_snap5.npz (npz, 113938 bytes, 5 tensors)

x f8 [28]
00000000: 0000 0000 0000 2640 3333 3333 3333 2640
00000010: 6666 6666 6666 2640 9999 9999 9999 2640
00000020: cccc cccc cccc 2640 ffff ffff ffff 2640
00000030: 3233 3333 3333 2740 6566 6666 6666 2740
00000040: 9899 9999 9999 2740 cbcc cccc cccc 2740
00000050: feff ffff ffff 2740 3133 3333 3333 2840
00000060: 6466 6666 6666 2840 9799 9999 9999 2840
00000070: cacc cccc cccc 2840 fdff ffff ffff 2840
00000080: 3033 3333 3333 2940 6366 6666 6666 2940
00000090: 9699 9999 9999 2940 c9cc cccc cccc 2940
000000a0: fcff ffff ffff 2940 2f33 3333 3333 2a40
000000b0: 6266 6666 6666 2a40 9599 9999 9999 2a40
000000c0: c8cc cccc cccc 2a40 fbff ffff ffff 2a40
000000d0: 2e33 3333 3333 2b40 6166 6666 6666 2b40
11.0 11.1 11.2 11.299999999999999 11.399999999999999 11.499999999999998 11.599999999999998 11.699999999999998
11.799999999999997 11.899999999999997 11.999999999999996 12.099999999999996 12.199999999999996 12.299999999999995 12.399999999999995 12.499999999999995
12.599999999999994 12.699999999999994 12.799999999999994 12.899999999999993 12.999999999999993 13.099999999999993 13.199999999999992 13.299999999999992
13.399999999999991 13.499999999999991 13.59999999999999 13.69999999999999

intercept f8 [100, 28]
00000000: 827e b0fb f856 f83f 1265 2fc9 f77f f83f
00000010: cf28 4c50 ef5b f83f ecfd 5920 e510 f83f
00000020: 24d6 fece 78b7 f73f 7aa8 1593 244e f73f
00000030: cdf7 0c51 f1dc f63f 4c75 e24d 0651 f63f
00000040: 389b 827d 31ae f53f e200 47f8 7ef1 f43f
00000050: 045d bcd6 eb20 f43f b258 0cf7 9a4c f33f
00000060: 51b9 4ff9 4074 f23f 621d 21e5 f19c f13f
00000070: 90e7 b852 1ed2 f03f 0a95 6b6e d100 f03f
00000080: a7c8 0a45 d0e7 ed3f 5287 6ad0 a12c eb3f
00000090: f88e 42bd d478 e73f fd23 e35c 8b58 e23f
000000a0: f122 1191 eab7 d73f a055 b32a be92 c03f
000000b0: 6017 71a7 822c bdbf de43 101f 871c d7bf
000000c0: 1d99 7896 cf75 e0bf cee7 c4aa 6a05 e2bf
000000d0: aead a8d6 718e dabf 08a8 0a10 4fa9 c1bf
000000e0: 3137 9a07 ae72 f83f feba 5907 6695 f83f
000000f0: 95df e87f d06a f83f 581f a44a d116 f83f
00000100: 3740 d519 51b3 f73f ca94 0316 483c f73f
00000110: 5eb8 711b 8dbd f63f aa4d 2244 a329 f63f
00000120: 47db 3163 d67f f53f 58f5 ab14 8aca f43f
00000130: 840e 898f 87fe f33f 5eef 829e 9033 f33f
00000140: 42c7 ac91 6f4f f23f c654 5252 495b f13f
00000150: c5a6 51f2 ee6a f03f b62e ab1b 2de6 ee3f
00000160: 2ae6 43d7 0461 ec3f f48c 37d4 7d19 e93f
00000170: 0b81 9ea9 bb38 e53f 1d0e 5abf 256f de3f
00000180: b929 3f85 d747 d03f 40d4 c04e aa0e 85bf
00000190: 7295 bff3 f4bd d1bf ca86 e0d3 77e4 debf
000001a0: beef 259e 85ed dfbf 0cc1 f977 fb54 d3bf
000001b0: 0288 d9c0 4ea4 cb3f f1d6 fa10 4863 f03f
000001c0: c1be a748 ce61 f83f 5a20 8620 ae7e f83f
000001d0: 5aa0 2779 7b48 f83f a416 76c1 9ae6 f73f
000001e0: f51c 5af3 b37c f73f 630f 96ec 1113 f73f
000001f0: ff2f f0dd e0b5 f63f 0ecb b0f1 a54d f63f
00000200: d570 ba72 4be1 f53f de7b dbac 5753 f53f
00000210: 3456 7928 9ea9 f43f c06a f72d 2be7 f33f
00000220: 472d 72c9 280e f33f 4969 a6e4 5520 f23f
00000230: 1024 f210 dd27 f13f 31fa 6baa 9840 f03f
00000240: 7857 93bf 3a67 ee3f df8e 179f b1ce eb3f
00000250: e94a 3ade 8171 e83f 1961 ad4b 55a6 e33f
00000260: 34b1 1e1f 1098 da3f d0d7 c535 f951 c43f
00000270: 0091 c454 5c12 b6bf 20d0 1e79 3087 d8bf
00000280: 2784 145f 2939 e2bf a2c3 fc69 45ef e1bf
00000290: bcf0 ec9a 261e d4bf f492 7a3f a5d2 c33f
000002a0: 341a d163 6c4c f83f d8fc deed 1781 f83f
000002b0: f767 e563 856e f83f ed79 4aab cc39 f83f
000002c0: 55e4 5195 d1f1 f73f ae80 d81f 2195 f73f
000002d0: 56bd ae78 3425 f73f 4bb8 195c d691 f63f
000002e0: de06 1785 1ddc f53f 63f0 0a00 f20a f53f
000002f0: 6f45 a289 f025 f43f 5062 f9e2 cf43 f33f
00000300: 2274 cca1 d868 f23f 4459 0c52 6a96 f13f
00000310: 04d0 c692 36d6 f03f f065 4fd8 31f5 ef3f
00000320: ca77 a472 809c ed3f 9e2c b4a5 2252 ea3f
00000330: 6b41 c182 571b e63f ce33 9999 08b3 e03f
00000340: 0201 7a48 0a9b d43f c488 b842 ef15 bd3f
00000350: b0e8 e9b0 d986 b0bf 8465 fef5 4896 d0bf
00000360: c095 bee3 93fc d4bf 5e8d 6922 d185 ddbf
00000370: a434 1a44 4200 e3bf 3fb1 e183 875c eabf
00000380: 5661 4eae 801e f83f a080 427a 8b3e f83f
00000390: ab97 34a8 c31c f83f dc18 8920 cfda f73f
000003a0: bc1a 8c17 7393 f73f a45c ca94 d341 f73f
000003b0: 109c 4890 84e3 f63f f2d0 626c 655d f63f
000003c0: 9e1b 3f38 65b3 f53f ee1b 8b0b dcef f43f
000003d0: 707c e85a a51a f43f 62af 0d29 6a56 f33f
000003e0: aaf2 aae3 e6aa f23f 89f1 ff65 0028 f23f
000003f0: 965b 59bf 20b9 f13f a801 0f8c fa3a f13f
00000400: 2c98 31da c265 f03f 5c94 d966 b250 ee3f
00000410: fa6d f66f 8892 ea3f 0143 75d6 079f e53f
00000420: 7d0c a5b7 93ef de3f 4ebe 7f56 c5de ce3f
00000430: c002 3af6 3f35 873f 7838 d105 5b9e c8bf
00000440: a8d2 d998 6773 d1bf f8cc 08f0 d16b d1bf
00000450: a027 3983 1bb2 a9bf aaa7 be49 fe9f db3f
00000460: 828d 9774 a76e f83f 821d 4c97 af90 f83f
00000470: f7a2 0d12 cb69 f83f 0440 3f52 2a1c f83f
00000480: 402d d546 bdc8 f73f 328d 3db7 fb67 f73f
00000490: 6ef2 831f 5103 f73f 1a52 25f9 ef83 f63f
000004a0: 72e7 d359 1eea f53f 5cc5 4751 8a3c f53f
000004b0: 7c48 5083 c679 f43f d4a3 c7d3 08ad f33f
000004c0: 5c3d 3903 f4d9 f23f 34be 13c2 b7e8 f13f
000004d0: 95d4 3f48 2ee2 f03f e4db c664 444c ef3f
000004e0: 94f3 3338 a42f ec3f 324c 9d7c 9294 e83f
000004f0: e412 c6b5 3b37 e43f d857 c11c 4ee3 de3f
00000500: 8353 ed01 3642 d43f 20db 2064 9072 bc3f
00000510: 682d 1a80 d5a6 bdbf 8261 4b50 7cab dabf
00000520: eaf8 5662 9293 e8bf 95e2 bafc 47db f2bf
00000530: 98d4 93ef 3f55 f8bf 63b0 74a1 468a fdbf
00000540: 5679 7e6f f275 f83f 78e6 3f44 d0a5 f83f
00000550: 9abb 9144 3386 f83f e61c c474 7536 f83f
00000560: 843f 17be 87cf f73f 1c86 0080 2854 f73f
00000570: 9c53 6af5 93ca f63f 2ee4 2468 fc22 f63f
00000580: dfb8 08e3 565f f53f 8cbb c18b 0389 f43f
00000590: 1ba6 d99a 739c f33f 9079 09ea d7ad f23f
000005a0: ae33 a9d7 6fb5 f13f 02a4 110e bed7 f03f
000005b0: 8bc5 ded4 633b f03f ce78 d075 6aed ef3f
000005c0: 8982 0840 30be ef3f 56c7 7397 42db ef3f
000005d0: bbb3 a6d9 9f07 f03f 3ced 5eaa 34d1 ef3f
000005e0: 26b2 694d 9a2f ee3f 3844 8cc1 6d26 eb3f
000005f0: 3271 1e74 a5b0 e63f fbdd 4408 1fda e03f
00000600: 063e d3c4 f0f3 d43f 1473 9156 1a48 c23f
00000610: 30e2 16f6 904f a93f 50ac 7d6e 2972 acbf
00000620: d83a a449 6763 f83f 590b ed5e 1b8c f83f
00000630: ceb4 f349 be69 f83f 7c4d f692 b422 f83f
00000640: 3ad1 cb5a 8ed3 f73f 5672 d171 4b73 f73f
00000650: 3e2c 7e97 5f0c f73f 5647 3345 308b f63f
00000660: 27b4 4ff4 72f7 f53f 4c86 7a52 da42 f53f
00000670: 270f 518e 6d79 f43f 00fa e73d 07a8 f33f
00000680: 946c 72df 20d5 f23f ccee 4283 fe00 f23f
00000690: 4af6 4af4 8731 f13f 5988 d8e7 fa51 f03f
000006a0: fe74 3306 8e6c ee3f 21b7 f043 7f8c eb3f
000006b0: 09ee db44 0194 e73f 424f d3cd 6abd e13f
000006c0: b501 ae18 01a4 d43f c02c 29ca 8e3d 833f
000006d0: 4494 f96b 289e d3bf 5089 2b66 a8f8 e4bf
000006e0: 30a4 ebec 1153 efbf 3cd5 85d7 0d7b f4bf
000006f0: 3854 59dd 6faf f7bf 2452 14b8 79ef fbbf
00000700: 6e1a 89e3 6a67 f83f f075 e6f2 6692 f83f
00000710: 63c7 128a a96f f83f a336 d9e9 ba21 f83f
00000720: 4015 8034 5bc7 f73f b428 aa48 7e5b f73f
00000730: 214e e00e b7e3 f63f 0bf9 47a2 0052 f63f
00000740: 94d4 3de0 a5ab f53f 60b2 9a97 d1e5 f43f
00000750: 364a 0a9f 2b04 f43f 882c 34a3 4f27 f33f
00000760: 1cda a8a1 4345 f23f 557a b321 df6a f13f
00000770: 106e 16f2 a1a8 f03f 4692 fb52 7db4 ef3f
00000780: 1ecb 2af5 1162 ed3f f0f2 93d0 f62e ea3f
00000790: 531a 3d51 3d85 e53f eb6a 5798 946e de3f
000007a0: 5c15 1959 2e6c cd3f 000b 2425 f8a5 a6bf
000007b0: e8b4 e05f c831 d0bf 00be 3866 309c ddbf
000007c0: 1405 0586 652a dfbf b40d 5c78 0d16 debf
000007d0: d155 be9a 849e e0bf 22b4 452b ea6c e3bf
000007e0: 60aa bba2 bc59 f83f 5c7b c334 f589 f83f
000007f0: 023a 835c d864 f83f 8e8c c8be a612 f83f
1.5212335425966619 1.5312421664041875 1.5224450241681102 1.5041247619373008 1.4822929464111292 1.4565778489582315 1.428941074947477 1.3947814028136518
1.3550276663533634 1.3089589784940974 1.2580374134175267 1.206202473671095 1.1533822764136696 1.1008166265836157 1.0512984496440119 1.0001997292795886
0.934547552917384 0.8491982527377593 0.7334998795017489 0.5733086408810092 0.37060035864537527 0.12947823605524622 -0.11396042430814424 -0.36111619981335064
-0.5143812121284871 -0.5631612143836209 -0.414944133403618 -0.13797939570696394 1.527997998902219 1.5364742552880553 1.526077747008434 1.5055706897419068
1.4812785157300945 1.4522171840592812 1.4212771484412978 1.3851654683574943 1.3437103152079588 1.2994480903137937 1.249640999493665 1.200089091477785
1.1443935099054703 1.084786721771978 1.0261067834457418 0.9655976810840545 0.8868431286238707 0.7843617577422308 0.6631754219888831 0.47553390204140716
0.25438488018394484 -0.010281878021581758 -0.2772190456729141 -0.48269458476179905 -0.49887218898924945 -0.30206190792434096 0.21595177093973922 1.0242386496806228
1.5238783681960941 1.5309277792421399 1.5176958782776837 1.4937999302941671 1.4679450517594976 1.4421557656905513 1.4194039029562189 1.3939570847548484
1.3675035935948945 1.3328472854843691 1.291410596944286 1.24393766360906 1.1909568661674983 1.1328944141046853 1.072232309527184 1.0157705933667212
0.9501012555799511 0.8689811808839883 0.763855871237266 0.6140543439933338 0.415531187429923 0.15875163198114572 -0.08621766156699451 -0.3832513029876754
-0.5694777352365507 -0.5604579038682582 -0.3143402588791664 0.15486589049864785 1.5186580561727512 1.5315169612729758 1.5269826795761199 1.5141112032939603
1.4965377648170677 1.473908543011969 1.4465832437670847 1.4106048200296921 1.3662390898538699 1.3151721955937539 1.2592625976870655 1.2040556780031189
1.150597221399274 1.0992224888810407 1.052298138948573 0.9986809944923021 0.9253542174444587 0.822526286735769 0.6908376268202522 0.5218546867341674
0.3219629009036141 0.11361594561506921 -0.06455765313322348 -0.25917266867471533 -0.3279161190096964 -0.4612925373132465 -0.5937815981029826 -0.8237950874150001
1.5074469384035942 1.5152697349331348 1.5070225306057903 1.4909201880378111 1.4734984321418514 1.4535709201934788 1.4305463443831776 1.3978018030002741
1.3562977025155543 1.3085594607271065 1.2565053511714517 1.2085973361635856 1.1667240994712906 1.1347660049787882 1.1076972460338985 1.0768990965881162
1.0248440287773617 0.9473506935870648 0.8303873240251385 0.6756629170068608 0.48337262090735306 0.24117342685302606 0.011332034780254019 -0.19233262809797558
-0.2726687424358638 -0.27220581475121675 -0.050186977165665114 0.43164021684298837 1.5270151666998975 1.535323706631829 1.5258284287648942 1.506876298215503
1.4865086333182518 1.4628865392522354 1.4383097868987096 1.4072112781769932 1.369657851113939 1.3272803473485828 1.279730332320951 1.229744746460928
1.178211224167021 1.1193158703935184 1.0552199194183107 0.978059956388162 0.8808156106675704 0.7681362565875871 0.6317423391597825 0.48262360389833026
0.3165411967104818 0.11112310833491934 -0.11582693459984272 -0.41671665040259864 -0.7680141373346292 -1.178535449244156 -1.520812927102531 -1.846258764921935
1.528795657657232 1.540481821632424 1.5327637365805686 1.5132956086325122 1.488166563551176 1.4580464363174377 1.4244575106178905 1.3835414951447649
1.3357762211340327 1.2834506472824811 1.2256961869083003 1.1674422399588344 1.1067961143737466 1.0526714849058867 1.0144995036356217 0.9977314282475847
0.991966366829801 0.9955151517917595 1.0018614294051378 0.9942878081850846 0.9433108818025786 0.8484410076363309 0.7090632694194368 0.5266261254791397
0.32738894673545393 0.14282540537797017 0.04943516735096798 -0.055558485734615304 1.5242684246656406 1.53420579033328 1.525816239237702 1.5084729901035123
1.4891494318699885 1.4656481214543837 1.4405208509149499 1.4089815810334207 1.372912363377745 1.3288214895077486 1.279645496296277 1.2285225313386263
1.1770333031079518 1.1252427222633967 1.0745925467193893 1.0200146728971247 0.9507513161767347 0.8609005286177515 0.7368170113472284 0.5543722171810048
0.32251002702835346 0.009394755882701111 -0.30652819199014325 -0.6553537364491522 -0.9788903834679612 -1.2800424975260531 -1.4803312918131848 -1.7459656897164075
1.5252484214885516 1.5357427109041701 1.5272612946978021 1.5082348952013624 1.4861709643167416 1.459837230535908 1.4305944996930366 1.3950201357943708
1.3544062385019844 1.3061080858270984 1.2510181629665005 1.1970974326275456 1.1419102015330571 1.088591701168885 1.041170068411592 0.9907824154621003
0.9182214535161142 0.8182329248225795 0.6725145899479891 0.4754992950162619 0.2298639235543004 -0.04423499539736575 -0.253038495665193 -0.46265802366812636
-0.4869626816544763 -0.47009598497262606 -0.5193503401121068 -0.6070452542459217 1.5219084126244056 1.5336811123922507 1.5246204007886495 1.5045535519100528

slopes f8 [100, 28, 3]
00000000: d26c 2f0b 01b2 afbf c6ac 2b5d 1691 d43f
00000010: 854e 2b90 a8d6 e73f 7948 7d43 9131 b0bf
00000020: 9e2b 5674 0f25 d43f bc58 43ef 7835 e73f
00000030: 5b8d bd35 071f b0bf 38da 0272 1d9e d33f
00000040: 0029 cf22 467a e63f 1f38 e6e8 0aaf afbf
00000050: e0a2 942a c90a d33f 6a91 81c8 5fa9 e53f
00000060: 31bf 5d6e 36fb aebf 2807 0c3d 3d73 d23f
00000070: b61f 1dcb e6c5 e43f f396 d5a7 b21d aebf
00000080: f4fe 2001 05da d13f 604e 0268 2dd2 e33f
00000090: 4823 8439 152d adbf 2a58 c76d 553f d13f
000000a0: 6d61 0c2b 45d0 e23f 6c80 b646 3df6 abbf
000000b0: c600 68c3 579f d03f 1c91 a24a 29c0 e13f
000000c0: b279 7957 5d84 aabf c03b 5720 96f1 cf3f
000000d0: 19e0 dc22 b6a7 e03f 6434 eab9 58d1 a8bf
000000e0: 709b 6a55 ed90 ce3f 252e ae3d 150c df3f
000000f0: 9991 507f b6ee a6bf dcee 65aa 6c18 cd3f
00000100: 0446 c653 d7bf dc3f ad41 742c 3c08 a5bf
00000110: 362b d342 1b89 cb3f 3e74 bded c06f da3f
00000120: bf39 9104 2f1f a3bf 446b e7b6 2cd3 c93f
00000130: 72dd 271b cb23 d83f b3ba f671 5d41 a1bf
00000140: 4af0 fcf2 a5f3 c73f 7e6b 8439 e4de d53f
00000150: bf03 6d30 0119 9fbf 8c82 b459 5fe2 c53f
00000160: 86b5 17d4 b1b9 d33f 110d a318 7491 9bbf
00000170: 5c10 a037 71c1 c33f 7832 ff3c 2bc1 d13f
00000180: ed91 5e4a 60d9 96bf 4886 350e f387 c13f
00000190: d6dc 16fa 0c01 d03f 8d25 411f fc77 90bf
000001a0: bebb bf64 3ce0 be3f f8ff c98b 5de3 cc3f
000001b0: 6fdc 654c d16f 7ebf 186d 2fb5 9091 ba3f
000001c0: ca1d b20b 638a ca3f 9203 31c4 a386 733f
000001d0: ccdf b6b4 5079 b63f 1204 30e8 74b4 c83f
000001e0: 306c a579 dab9 943f dceb 20cb 3633 b23f
000001f0: 6221 ff74 1dee c63f 2702 77d1 b9c8 a33f
00000200: 7495 061e 8c21 ac3f 33e5 b173 b5b5 c43f
00000210: 5102 89f4 b231 ad3f 60ac 8861 bcf5 a23f
00000220: 3659 e54b a768 c13f f7a0 8b0e a94b b33f
00000230: 48dc 8210 dc60 903f 283b 4f7f 9b8d b63f
00000240: dc2c d7c8 0cfd b53f 08a8 9c9a b800 8fbf
00000250: 009f 3bc7 ed80 77bf af66 e80e 9b70 b63f
00000260: 45db 095a 8f7c b0bf 7e75 630b 8728 c1bf
00000270: 500a 6eb2 2fe0 b23f 269a 8669 ddab c0bf
00000280: c466 08f4 8c39 d5bf 1fb1 a1b3 dd1d a93f
00000290: 92b0 24b0 af86 ccbf ca74 55ec 7c5f e5bf
000002a0: 65f5 7cd8 8a06 b0bf 6aac e67c d87f d43f
000002b0: cd74 1603 8fd8 e73f c4c2 6f73 f656 b0bf
000002c0: dc39 1d0e 620e d43f 6fcf ef90 7d34 e73f
000002d0: 0646 386f 4a3b b0bf 06ec 3d8e 1285 d33f
000002e0: 9125 270e 3678 e63f 90cd 45f7 b1cc afbf
000002f0: be4f 4842 b0f3 d23f f90f 4d39 48a9 e53f
00000300: 6402 f004 8df9 aebf d6c1 413e 9361 d23f
00000310: 1f7e 13ae 60ca e43f 7bc5 838d 44f1 adbf
00000320: 3acd 4b81 3ed2 d13f d6ac 4802 c8db e33f
00000330: 0e4b b61d 70d6 acbf cab1 829a 5b43 d13f
00000340: 61d9 e880 c1dc e23f e98c 6011 8d85 abbf
00000350: 6e39 7a06 4caf d03f ae5a addd aecb e13f
00000360: f336 b560 bcfe a9bf 66cb cd27 2012 d03f
00000370: e547 2ac6 daa7 e03f 2018 2bc0 ed60 a8bf
00000380: 10e5 fb4b a4ca ce3f 46ba 991d 27e6 de3f
00000390: 16bd a473 cd8d a6bf ba2b 735b 754e cd3f
000003a0: ae14 c485 896a dc3f 0426 9794 b7c5 a4bf
000003b0: dafa 1eaf 6cad cb3f abf2 0e8a 03e7 d93f
000003c0: a0f2 590f 79c5 a2bf 62cf ae02 d1cc c93f
000003d0: 89f1 1077 6f6c d73f ae32 4bcc e8a5 a0bf
000003e0: aa00 da70 35a5 c73f 4e12 c93f c614 d53f
000003f0: aade 1935 893a 9dbf f2b2 919d 091c c53f
00000400: f064 366a a10a d33f a7eb bf23 d313 99bf
00000410: 3458 5d14 7050 c23f 4ed9 a70e ba3b d13f
00000420: 1c93 8023 e37c 93bf 1c1d c79d cf63 be3f
00000430: 0286 d517 a18e cf3f 633b f7e4 f6df 87bf
00000440: 4ca6 a167 4b3a b83f 6c45 c820 2714 cd3f
00000450: 09f4 d87d 6f1f 67bf c89c 884b 33b1 b13f
00000460: cced fc51 5899 cb3f 6f9e ec9e c643 873f
00000470: 64c4 bdda 6aa4 a73f 0e81 7697 238b ca3f
00000480: bbfc 1f1f 3bca 9c3f f8e5 e16d 09de 963f
00000490: 364c e32a cb2b ca3f dbba 3a12 2dbd a83f
000004a0: 40be a820 b307 6b3f 1f70 1e27 640f c93f
000004b0: 0be5 f46c 5594 b13f 40ee b992 c306 88bf
000004c0: 70c9 2ae8 40aa c73f 5e3a cc11 0a7e b53f
000004d0: bab5 2ddc 97c0 9dbf ee63 80ba ad48 c43f
000004e0: 4c69 07f5 3991 b53f 762d e38e 7950 a9bf
000004f0: f691 337c 81d4 b33f c5ac 9c2b bb5f b13f
00000500: 901c 1b85 4ec7 b3bf 8738 4401 612d a1bf
00000510: 1b3a c516 8e65 9b3f 1c6b 32c4 e2e1 bcbf
00000520: 3b47 6db1 13fd cabf a90e 8944 14ac a2bf
00000530: 8013 b3b1 f686 c4bf be6d 3d5e 7968 ddbf
00000540: 5fc3 a86e 21c9 afbf c4b0 b51b 97b6 d43f
00000550: 5683 415e f0d2 e73f 3273 54ed cf2a b0bf
00000560: 08c2 e174 d74c d43f 4a61 ba54 bc32 e73f
00000570: fe98 a0c4 ebfa afbf 6809 eb2b d1c5 d33f
00000580: fe6a 10a1 3a7b e63f 94b6 ea64 8229 afbf
00000590: 9067 8afa 8a30 d33f 86cb 0a88 f5b0 e53f
000005a0: ff8b ce00 cd46 aebf b63f 5135 8293 d23f
000005b0: 2431 6dde 76d8 e43f 2c6e 3f6c fa68 adbf
000005c0: e4a3 37ec a4f2 d13f e818 3f98 21f5 e33f
000005d0: 9273 3d65 b1b2 acbf 02d8 e176 2c4b d13f
000005e0: 1620 9fed 1307 e33f 0c92 f471 14e3 abbf
000005f0: 7826 9ba1 e199 d03f 6427 4463 c70b e23f
00000600: db94 142e c40d abbf a422 57a9 d6b7 cf3f
00000610: c27b 1b6e f704 e13f 16b1 469c 1be5 a9bf
00000620: 64d1 817e 1a12 ce3f 902f e9ee 79d8 df3f
00000630: 0f0b 850c 3279 a8bf 76fb 14d3 aa45 cc3f
00000640: 5223 f533 658a dd3f 522e 209a bfd4 a6bf
00000650: 52e4 653f 7248 ca3f 47c8 9fa0 dd1c db3f
00000660: b063 648f 09fe a4bf d8da 2067 0d1a c83f
00000670: cf84 9dd5 3597 d83f 45c9 4040 f8fa a2bf
00000680: 5c0d e9ca d8b5 c53f 4623 0d1d 81fe d53f
00000690: 564c fc28 49e7 a0bf 4647 b12b c109 c33f
000006a0: 94d7 18ef 2684 d33f eb02 8307 810a 9ebf
000006b0: 3eb6 2f6f cc36 c03f 6698 fd71 2c52 d13f
000006c0: f697 0670 e985 99bf a877 c118 008d ba3f
000006d0: aed8 6fb4 2b08 cf3f ee86 6f4a f3ab 93bf
000006e0: c216 7a69 d1f6 b43f 7714 8b9c d849 cc3f
000006f0: 2fc8 54da 90a3 87bf e06e a153 e5d3 ae3f
00000700: a223 b6ce 4bc8 ca3f 2773 2cbe ffbc 34bf
00000710: 7c77 1aaa 59c4 a33f bd00 f529 9e2b ca3f
00000720: 2cfd e5a3 8a28 8e3f 30b7 8cb7 f2f4 913f
00000730: 62a9 f872 ed91 c93f 2c4c 0f71 309a a13f
00000740: 0027 b0c0 aca2 463f cc7d 13b5 3486 c83f
00000750: 3c82 a069 141f ab3f 649d 0274 522b 90bf
00000760: 63fb 7b46 7dca c53f 5e76 7107 4c55 b33f
00000770: 3afb 1ead 2caf 9cbf 222a 1670 3e76 c03f
00000780: d6ba d319 e7c7 b63f 8c28 5025 9f76 a8bf
00000790: 2139 ac31 4756 a73f 0fc0 e1df 6849 b63f
000007a0: 2527 4e7a 88f2 b2bf 2374 cf05 d9f0 b2bf
000007b0: 42a5 f7a4 0c0e b13f 8e27 71f5 879c bbbf
000007c0: dade f805 7e92 d2bf 97c7 6b9a 199e 9d3f
000007d0: 18c4 3f55 e952 c4bf 82b1 a17d 6122 e2bf
000007e0: dcde 4e5e 1786 afbf 2aac fa31 3da0 d43f
000007f0: e630 da90 6405 e83f 20a4 d766 b22b b0bf
-0.06190493833101986 0.321355429636878 0.7449534240535775 -0.06325633905115237 0.3147619854068412 0.7252773926836862 -0.06297345220587174 0.3065255750074445
0.7024260215632978 -0.06188234417923887 0.297533313353183 0.6769255558142906 -0.060510350201069214 0.2882836433565097 0.6491579024377561 -0.05882032679327933
0.2789318572067565 0.6194064170289941 -0.05698458029843906 0.26949058266234494 0.5879236069477379 -0.05461303222841782 0.2597255142463947 0.5547071893420568
-0.05179111187748066 0.24956013278139544 0.520472591487308 -0.04847218770473985 0.23879782362675028 0.48511248610950225 -0.044789984742496354 0.22730787582610545
0.4492090528593453 -0.04107845347073478 0.21512165797170163 0.4130709001236176 -0.0373472874713232 0.20175703936441824 0.37718465473104523 -0.033701820527644165
0.1871230541672751 0.34172921769066267 -0.0303688226515566 0.17097083931095758 0.3082089015213899 -0.026922048572271488 0.15434088913036959 0.27741509396290764
-0.022313599146984876 0.13696134752085443 0.2500641290930167 -0.016082705886480354 0.12060906848613137 0.2256886417926578 -0.007430856296529161 0.10378364966839049
0.20734823294718147 0.004767074310678592 0.08778862392398351 0.19300710046084696 0.0202402245280206 0.0710939641875678 0.1791416951439358 0.038640791720812744
0.05494344584011915 0.16179531239667141 0.05701979861305929 0.03703106585120319 0.13600627141813398 0.07537323575127518 0.015994490154039448 0.08809825761930468
0.08589248565037927 -0.015138094156629492 -0.005738190480520933 0.08765572656593677 -0.06440063427167526 -0.1340493016822783 0.07373331171224007 -0.13024490025164076
-0.33163760978059664 0.04905598466652549 -0.22286029911754618 -0.6679062477011481 -0.06259982858042219 0.32030307958002047 0.7451853809649492 -0.06382694547915962
0.3133778703530916 0.7251575308605264 -0.0634047051937828 0.3049970997887502 0.7021742130684051 -0.06210857528176483 0.2961235663690295 0.6769143218193668
-0.06049767194054281 0.28720551566860075 0.6497043037342712 -0.05848135211443669 0.2784572851807813 0.6205787701232122 -0.0563235317487366 0.2697361954585885
0.5894477384343128 -0.05375328862307944 0.2606992781883467 0.5561136560089233 -0.05077160530582416 0.2511062992772878 0.5204900617993614 -0.047614507396744665
0.2405591364875268 0.4827974118296975 -0.04405061756767219 0.22895686116529906 0.44400251448707706 -0.04057096184585521 0.21622999716597385 0.4047249649263828
-0.03666284859079849 0.2015630019283164 0.36599337222630673 -0.032515788019371925 0.18472927103357978 0.3293929694084782 -0.028543609491377943 0.164918138444953
0.2975238358718135 -0.024489687973964582 0.14307976717344817 0.2692704337236095 -0.019031094591031125 0.11871049501415992 0.2465401998879742 -0.011657647001724397
0.0946395042425589 0.22717751599024483 -0.002822606808676746 0.0691101130874926 0.21561721804924472 0.011359740948662293 0.04617628021413436 0.2073711862149214
0.02811519982787723 0.022331378299417864 0.20446147531637998 0.04831829879309676 0.003299569948715747 0.19578220281698663 0.06866964254449585 -0.011731651225310391
0.18488322578702876 0.08395445761218798 -0.029054997266418893 0.1584679756786324 0.08424722892906295 -0.049442099277793014 0.07746133119832863 0.06786699118372315
-0.07725992917686342 -0.03354933872661641 0.026754589214130414 -0.11282174386944316 -0.2108482948629503 -0.03646910988439107 -0.160368763701765 -0.45950159266586954
-0.06208137965985005 0.32364442544964 0.7444993821082828 -0.06315326255976286 0.3171900407242281 0.724943318829028 -0.06246125006900803 0.3089487961662116
0.702542604998001 -0.06086356622595904 0.29983782259807246 0.6778514535020441 -0.059133917187203615 0.29025321203971133 0.6514238685863671 -0.05744154521354647
0.2804348284540181 0.6236732457698766 -0.05605081902351751 0.27021323785390916 0.5946139946981954 -0.054466856871190655 0.25939217359391575 0.5639378489297369
-0.05283940374855841 0.24779780644009464 0.5318562651190109 -0.050576079203297805 0.23492747475723796 0.497587664901169 -0.04779964831188554 0.22087607676254678
0.4615719802282473 -0.04459189182679481 0.20533588500601013 0.4236368244738781 -0.041000651124881826 0.1882950547748894 0.3842291437232008 -0.0370709970888066
0.16961202533466746 0.34365871274035376 -0.03301457047759786 0.1487351859419112 0.30494092320747623 -0.029336944659692426 0.12667231968900866 0.27064047939200575
-0.024924895727643524 0.10371399502170553 0.24243685064692982 -0.019210626047317207 0.08189114403838985 0.22100360530581373 -0.011542445815028028 0.06021038671380352
0.20923755257925075 -0.00031644099924381597 0.038607408537457893 0.20445611046489445 0.014725764395505957 0.017535965397818376 0.1997658549674482 0.034379495431174995
0.0006907790678962467 0.19159563867195428 0.052971494573516215 -0.015790260630322975 0.17024198476425587 0.07552027875632336 -0.028011987749546587 0.12860851738908347
0.08898777370971386 -0.047780011467765865 0.04558012467724582 0.08705764261117131 -0.07401326166123263 -0.07398754493574748 0.06662062671207017 -0.1078572248672158
-0.2901911791154653 0.02892341618548463 -0.15878025686791442 -0.5666968778364636 -0.06156991029950884 0.32228021508007265 0.7506583050867703 -0.06316676150130762

scatter f8 [100, 28]
00000000: 4ef9 dfab 2163 c83f c020 83f6 c9d5 c73f
00000010: 80ac 6109 ec58 c73f e993 5e85 daec c63f
00000020: af23 7878 1f90 c63f 5102 2f44 2041 c63f
00000030: 408d 24bd 7cfc c53f 399e 2bbf 0bc0 c53f
00000040: 3560 a9b9 a98a c53f faed daac 9d5a c53f
00000050: d13c 3f01 8230 c53f 37d8 b85a 670c c53f
00000060: 779c 9c5b 02ee c43f b0e4 3158 b7d5 c43f
00000070: 886a 7e4a d9c0 c43f 0007 92c2 dbad c43f
00000080: f4e8 8d59 069b c43f 161e 5677 2d84 c43f
00000090: 9c8b f3e9 4f64 c43f 36d5 cf94 7239 c43f
000000a0: 22e9 f906 af02 c43f 257c 1ae2 86c1 c33f
000000b0: e74b 624f ec74 c33f 5783 5afd 5a28 c33f
000000c0: 9afd be58 11c6 c23f 1012 e29e d36c c23f
000000d0: 2317 98d8 9e00 c23f 16ed ffcb 4b75 c13f
000000e0: a46a b7d7 9e69 c83f 6ab0 6f23 9cdc c73f
000000f0: b6fd 5348 3060 c73f c846 3bdf 28f5 c63f
00000100: a146 6483 f599 c63f 85d8 ea66 f44c c63f
00000110: 65e1 934f bc0a c63f 17fd 53c7 a8d0 c53f
00000120: d5d8 fbec c69d c53f 4970 93bb 9070 c53f
00000130: ab39 d106 024a c53f 34bf 6003 bf29 c53f
00000140: 27b7 f844 7d10 c53f 02f8 2ae8 e5fc c43f
00000150: 23af 7620 6aec c43f ed68 e8c5 e1da c43f
00000160: 6585 2e23 d9c6 c43f 9ccc 2175 6fab c43f
00000170: 92b4 90e3 7a7c c43f f2e2 99b5 5340 c43f
00000180: 56c9 8fda c1ed c33f 297a d87c fe8e c33f
00000190: 25c9 d12b 3220 c33f 384b 2d90 5fb9 c23f
000001a0: abfc ce77 7e45 c23f ed61 ff6b 25f0 c13f
000001b0: 7533 6d13 7a7e c13f 1ae4 be5c 11f6 c03f
000001c0: e25b 282f 3e68 c83f 6ebb 462e 6fda c73f
000001d0: eb1f a37e 015c c73f fcda 3799 47ed c63f
000001e0: bbbc 12b3 cb8c c63f c871 dc9c 1e3a c63f
000001f0: e467 e148 7df2 c53f f2a6 5b9a 4bb5 c53f
00000200: bba0 63ea 8381 c53f 8599 765b a055 c53f
00000210: 11f5 f63b bd31 c53f 8723 f965 7a13 c53f
00000220: 7a22 dd49 46f9 c43f 6b94 cc78 5ae1 c43f
00000230: b4a7 be11 78c7 c43f e75b f013 95a8 c43f
00000240: ddff 3da7 4d85 c43f 505b dfea f25d c43f
00000250: e0b8 b69f 7a31 c43f 67a3 e25e 8a03 c43f
00000260: 24be 5559 7ed8 c33f aa7e e14e 56b1 c33f
00000270: 5788 a633 e98e c33f 3698 58f7 1b79 c33f
00000280: e05b db18 ab5a c33f b26a 6367 c538 c33f
00000290: ffbc d3eb 80f4 c23f 85a2 be5e 44ae c23f
000002a0: 1124 f12c c56a c83f d1ce 13b7 1ede c73f
000002b0: 9019 d777 0961 c73f 27a0 3cfb 18f4 c63f
000002c0: 2340 eaa1 f895 c63f 361f 872e dc44 c63f
000002d0: 1059 fe6a b7fd c53f 2403 e3e7 48bf c53f
000002e0: fe19 8c1b 1f88 c53f 87a4 ed0e 3c57 c53f
000002f0: e1de c4de 2c2e c53f b98a c43a 990c c53f
00000300: fc4c dda9 4bf2 c43f 9230 8b8e 86df c43f
00000310: 3522 b862 cfcf c43f 0f6c 34c5 64c0 c43f
00000320: 282b aefb 89ae c43f e83e 2917 3396 c43f
00000330: b581 cf8c 3570 c43f cefc 13be c23d c43f
00000340: 13dc f17a 92ff c33f bc16 48dc 9ab7 c33f
00000350: 53b6 b63b c159 c33f 5722 05b0 32f9 c23f
00000360: 42f1 4a6f 5486 c23f ada4 a261 6a14 c23f
00000370: e3e8 f356 507f c13f 0fd0 aad0 45a4 c03f
00000380: 9890 51d8 345e c83f 251b 3973 21d1 c73f
00000390: d303 3fcf a554 c73f 31e4 d783 b5e9 c63f
000003a0: 8dc0 2a07 bd8e c63f faca 6fa3 e541 c63f
000003b0: 2442 8999 6aff c53f 0a7d 6a34 4ec4 c53f
000003c0: 6149 7b96 998f c53f 05e1 7570 2e5f c53f
000003d0: 2e36 05c7 5234 c53f 9aa0 1871 fd0f c53f
000003e0: 5c76 734a 2df3 c43f 66af 0034 fdde c43f
000003f0: a499 108b aed1 c43f 2286 75dd 7ac8 c43f
00000400: ac30 7fd8 febe c43f c6dd 914b b3ae c43f
00000410: d9d2 4d45 c491 c43f 66a2 b556 ff62 c43f
00000420: d44d 4575 971f c43f dbad f2b5 0ec9 c33f
00000430: 1016 c5fc 1760 c33f cbdc f553 c7f3 c23f
00000440: 55b8 b40d 4a79 c23f 845f ee5a c906 c23f
00000450: 4145 6ad1 6970 c13f 351b 70fa dfb5 c03f
00000460: 1f62 8227 0866 c83f ddcd 535c 8ad6 c73f
00000470: 757e 2be3 d456 c73f c116 9c21 aee7 c63f
00000480: b9ae 36ec a787 c63f e111 7976 ea35 c63f
00000490: 9033 72d0 b1ef c53f 0dc4 6bd3 a5b3 c53f
000004a0: 9e1b cdaa 0a81 c53f b873 00e3 7456 c53f
000004b0: 7041 8f39 f134 c53f 71f5 0819 a81b c53f
000004c0: de69 aaab 0b0a c53f b35e 9e6d 93ff c43f
000004d0: ab81 f20a 52f8 c43f 9d58 31ba 5af2 c43f
000004e0: 771f 58e6 3dea c43f 861b 4438 fbdb c43f
000004f0: 9a2c aa55 27c2 c43f ff4a c1d1 cd99 c43f
00000500: 8f82 5fdd 4a67 c43f fca7 5337 0124 c43f
00000510: ed39 8df6 b3dc c33f 3b98 e386 0294 c33f
00000520: 34b7 bf76 6944 c33f b46b 945c 0df4 c23f
00000530: 1722 65bc 0477 c23f 06aa 0be0 adcd c13f
00000540: da47 a5ff ea62 c83f 508e ac66 f8d6 c73f
00000550: 3366 2fe2 5b5c c73f d2ff c3dc 28f3 c63f
00000560: 453b e0da e799 c63f 5830 ccd0 7e4e c63f
00000570: 8c41 4bed 800d c63f fead 1e51 4ad4 c53f
00000580: 5059 c3b2 54a1 c53f 6c8c d45a fd72 c53f
00000590: 68ef 9aef c249 c53f 98ea 7414 d225 c53f
000005a0: 9776 21f6 6a06 c53f bcc3 326c cfeb c43f
000005b0: 13b1 d731 1dd3 c43f 6541 986b dcba c43f
000005c0: 8311 5c98 07a4 c43f 7185 e158 2f8b c43f
000005d0: 42c4 faca 0670 c43f 35e2 134c 9953 c43f
000005e0: fa95 98af 9e37 c43f 5db3 327c 041c c43f
000005f0: 59ab 0ca7 2dfe c33f d4b0 2525 88e2 c33f
00000600: 3c8e e14a d59c c33f 66e9 0966 e050 c33f
00000610: 7777 79fe 4ade c23f 1bf2 05fa 6730 c23f
00000620: a1df 4dbc 0869 c83f f896 522b efdb c73f
00000630: 4c45 6c62 d15e c73f d01e 5ea2 b5f1 c63f
00000640: 4c75 8535 eb93 c63f d07d 0af1 d743 c63f
00000650: 6bb9 0dee 26fe c53f 4073 6799 e1c1 c53f
00000660: 1cfc a8d5 ac8d c53f 9c5a 2f70 7060 c53f
00000670: f8e6 8593 ce3a c53f 38b6 cbe1 cc1b c53f
00000680: d304 76e0 b902 c53f 0ad9 897f edee c43f
00000690: d4e8 4e08 31de c43f a059 fef6 0ecf c43f
000006a0: b412 c876 70c1 c43f 2429 58cf a6b3 c43f
000006b0: 204f 99b4 e3a0 c43f 97a5 8bd6 828b c43f
000006c0: 1589 28e2 6971 c43f c4a9 591c 764f c43f
000006d0: 3c54 db1f 4327 c43f e3db bde5 2ef8 c33f
000006e0: 450e c2eb 059c c33f a502 892c df2a c33f
000006f0: 1e3f aa44 8876 c23f 0438 e581 b56c c13f
00000700: ef65 760d 1166 c83f 6b57 e80b 23d8 c73f
00000710: 71a8 2508 cc5a c73f a522 5592 45ee c63f
00000720: 6f50 8789 3791 c63f c1ce 278b 2442 c63f
00000730: d27f 91ef 33fe c53f a233 6299 ecc2 c53f
00000740: 1a26 c01a d38e c53f a0a1 9337 4560 c53f
00000750: d922 7def f037 c53f 13e9 2016 db14 c53f
00000760: 2326 a4cb dbf7 c43f 0cee 26aa d8e0 c43f
00000770: 8d4a b5bf 91cd c43f c801 da8e cbbb c43f
00000780: cf70 214c d8aa c43f d86f 34d9 7796 c43f
00000790: 8462 a454 fc76 c43f 8641 68a3 e348 c43f
000007a0: 4f17 ab58 8a0b c43f ab8a 1883 13bc c33f
000007b0: 774a 1c9f af50 c33f df8e 2b05 73e7 c23f
000007c0: 1e33 cb8b 945d c23f 4c3a 4ace e6cd c13f
000007d0: 4dfd c00b bd3b c13f 46c8 febd 433b c03f
000007e0: c9a4 9cb8 c863 c83f 0d9e d559 46d7 c73f
000007f0: b1f1 9abd c85b c73f c176 716d 0ef1 c63f
0.19052525417641636 0.1862118199990217 0.18240118463595323 0.17910319816760925 0.17627328283586283 0.17386248902586712 0.17176779971587486 0.16992327532283172
0.16829415860661504 0.1668278783816815 0.16554284153833135 0.16444103174006994 0.16351346467238034 0.16277210050956148 0.1621352781047174 0.16155573845394855
0.1609809815670996 0.16028374030086984 0.15931128428846086 0.15800316110805007 0.15633190003047398 0.15434347191055156 0.15200570942087596 0.14966904993800753
0.14666954835227558 0.14394612558329856 0.14064393592723787 0.13639209233210953 0.19072328122168358 0.1864199803379763 0.18262294322628997 0.1793566789624974
0.17657345691309437 0.17422347092878368 0.1722026241839202 0.17043027623001514 0.16887747355912688 0.16749772223454532 0.16632104237437537 0.16533649125039462
0.16456571452857213 0.16396783672638554 0.16346479973923875 0.1629297462794236 0.1623183652673489 0.16148179263436624 0.16004882918915492 0.15821310393564364
0.155693275184215 0.15280133338906524 0.1494200433695109 0.14628214397324668 0.14274578905130872 0.14014117978400922 0.13667226742327512 0.13250939396473954
0.1906812410604451 0.18635358581147038 0.18249529536683382 0.17911620122296046 0.17617174381073206 0.17364866885408348 0.17146268900506734 0.1695951942158938
0.1680149931410194 0.16667561021786184 0.16558041980707874 0.164656925002671 0.16385725599890916 0.16312724016566746 0.16233731142466257 0.161394724593918
0.16031809488413176 0.15911709278472097 0.15775997923396456 0.15635804780074666 0.1550443588453031 0.1538494000587794 0.15279879590986198 0.15213346078343343
0.15120447839464557 0.15017001674899216 0.14808665766711468 0.14594320894436322 0.19075836843902086 0.18646606387448242 0.1826488337666885 0.17932426707670965
0.1764517584420001 0.17397644302240572 0.17180531238836538 0.16990004847141293 0.16821659894067403 0.1667246888057756 0.1654716575374016 0.16444697732466354
0.16364427370226753 0.16307146034376224 0.16259186096455527 0.16212138775958393 0.16157650746421237 0.16083372717775224 0.15967435241237884 0.15813478737979952
0.15623694422876663 0.1540406776040778 0.15117659965237581 0.14822991938332805 0.1447244208737946 0.14124803321218363 0.13669780965557896 0.1300132054217333
0.19037495195801024 0.18606966138960349 0.18227074260178586 0.17900723397886645 0.17623102998686982 0.17388601761157202 0.17185719010241585 0.17005326804517323
0.16844482276662645 0.16696720591767913 0.16565928190031926 0.1645504762866537 0.16367117057136482 0.16305508650963957 0.16264898100162128 0.16236816228324452
0.16207871981749145 0.1615814322465054 0.16069844612106612 0.15927116140234715 0.15721410013303105 0.15457328685930247 0.15137004701880175 0.14806453323010368
0.14432645482287634 0.14083210887906372 0.13624308324191683 0.13055038193143678 0.19061376504102243 0.1862347555939853 0.18233738987236206 0.17894531861400334
0.1760148909937607 0.17352038178263654 0.17137739828140441 0.1695449144677074 0.1680005392065284 0.16670094570227234 0.16567817030455556 0.1649065134278476
0.16436906702149562 0.16404955723259249 0.16382813963447282 0.16364606944506913 0.16339849231030332 0.16296329734197118 0.162175099209297 0.1609437250322898
0.15940223511917792 0.15734877778533007 0.15517282045989536 0.15295440279368386 0.15052526758466345 0.1480728818940783 0.14425715636231537 0.13908933105206261
0.19051873667427693 0.18624787343388727 0.18250607055851872 0.17929564265796089 0.17657182872104663 0.1742704886931985 0.17228709780330254 0.170541085824297
0.16898592690149394 0.16757170615264572 0.16631352138017097 0.16521669386732607 0.16425835626698834 0.1634463575660713 0.16269268926351596 0.16195254567765996
0.16125578822551398 0.16049758758439794 0.1596687785254592 0.1588012334321022 0.15794738363290134 0.15710502685888175 0.15619440705026014 0.15535070241765558
0.15322366863539283 0.15090565664633998 0.1474088423300903 0.14210223873296077 0.19070538706341458 0.18639936080324282 0.1825811129170155 0.17925138881786618
0.1763891230902267 0.1739454199750825 0.17181860564910365 0.1699792861026257 0.1683860820066635 0.1670055911806302 0.16585714534067342 0.1649108984487826
0.16414569339762028 0.16354149558510073 0.1630307474677638 0.16256892261726552 0.16215329933051736 0.1617325317786903 0.16115995710662734 0.1605075404725482
0.15971110861671237 0.15867496856965435 0.157448187403732 0.15601144998410552 0.1531989480173356 0.1497458426911368 0.14424231865677312 0.13613003580616134
0.19061482579563413 0.18628347474503512 0.18245840452010811 0.17914647717613721 0.17630666938078174 0.17389351649000243 0.17182015607522644 0.17001111497338878
0.16842116171055538 0.16700043882088966 0.16576968854703614 0.1646989687013237 0.16381404345911318 0.16311176593977483 0.16252347813368254 0.16198105311560895
0.161463772938879 0.16084192376808804 0.1598811543742792 0.15847440222615833 0.1566021855307391 0.15417713071027114 0.15089984196727688 0.14768827202271148
0.1434808428370155 0.1390961177134663 0.13463557313842003 0.12680861260520454 0.19054516805889524 0.1862571657795659 0.18248852975911015 0.17923145622164863

Maxvals f8 [11]
00000000: af1e 524f 7c8f 2b40 cb65 7097 7bc2 2a40
00000010: 5124 eddf 0b5b 2a40 9c03 1aaa 053b 2a40
00000020: a5f5 d12f e810 2a40 5bc3 53be 6e02 2a40
00000030: b812 5975 14e4 2940 c03c 602c 36cd 2940
00000040: cb34 6d51 40a5 2940 eb33 b5eb a776 2940
00000050: 378b 0302 fa33 2940
13.780245283865353 13.37984917876283 13.177824971864682 13.115277591395902 13.03302144468291 13.004751155591 12.94546858513182 12.90080393481037
12.822756332951391 12.731749883527263 12.60151678365001
